data_storage/models/lstm_v1.0.0_20251231_145824/assists_model.pt (torch, 217509 bytes, 9 tensors)

lstm.weight_ih_l0 f4 [256, 12]
000000 75 4a e2 3d d2 94 18 3c 81 12 77 3d 67 2e 89 3d
       0.11049358 0.009312825 0.06032038 0.06698304
000010 3f c3 98 bd 87 6c bf bc 98 5c 1d 3e d9 17 48 3c
       -0.07459115 -0.02336718 0.15367353 0.012212717
000020 c3 9d b0 bd 0b e5 12 bd 8c 25 63 bd e6 1e 5a bd
       -0.08623841 -0.035862964 -0.05545573 -0.053252123
000030 8d 9a 2c be c5 e8 7e bc 71 6c 69 bd 77 78 f7 3c
       -0.16855831 -0.015558426 -0.056988183 0.03020881
000040 11 21 22 bd d9 fb f4 3d bf ce 80 bd 0c 5a 8b 3c
       -0.039582316 0.11962099 -0.06289434 0.017010711
000050 21 5f 9c bd 0f a4 60 3c 4f 41 99 3d c1 1f 14 3e
       -0.07635332 0.01371099 0.0748316 0.14465238
000060 16 e2 60 3d 1e f5 be bd 6e ec d4 bd 8c 17 ce 3d
       0.054903112 -0.09324096 -0.10396658 0.10063085
000070 30 11 07 bd ff e1 a7 3d e5 2b df 3d 8e 42 96 bd
       -0.032975376 0.08197402 0.10897044 -0.07336913
000080 e5 d0 b0 bd 96 5e 8b 3a 14 08 96 3d 00 4b 95 3c
       -0.086335935 0.0010633047 0.073257595 0.01822424
000090 0e 7f 58 bd 4d 82 fb bd ac 31 08 3e 33 02 57 3d
       -0.052855544 -0.12280712 0.13300198 0.05249233
0000a0 9b 90 67 bd 5c 63 da bd 48 af bf bd 29 1a 1b 3d
       -0.05653439 -0.106634825 -0.09359604 0.037866745
0000b0 3a b0 d9 bb 76 db 4f 3d 77 07 61 bd d8 57 31 3e
       -0.0066433223 0.050746404 -0.05493876 0.17318666
0000c0 a3 ba 2c 3c 75 17 7e bd 36 95 6b bc f6 cb ae 3c
       0.010542545 -0.06203409 -0.014378836 0.02133749
0000d0 97 74 3a 3d f0 50 18 bd a1 f3 9d 3d 63 7a fb bc
       0.045521345 -0.037186563 0.07712484 -0.030698007
0000e0 2f 03 94 3b 87 22 21 3d e3 f1 18 3d ac b5 d9 bd
       0.004516981 0.03933957 0.037340056 -0.10630354
0000f0 48 9a 3a 3d 3e 06 91 bc 08 1c 43 bd 76 de f8 3d
       0.04555729 -0.017703172 -0.047634155 0.12151806
000100 1f 41 09 bd ff a5 aa 3d d2 ce ab bd 9f 67 30 bc
       -0.03350937 0.083324425 -0.08389057 -0.010766893
000110 f7 d1 11 3d 89 69 64 3d 91 c1 0f 3c f7 8e 5a 3d
       0.03560063 0.05576471 0.008774177 0.053359
000120 58 b2 87 3d ee b3 07 be 84 e7 8c 3c 54 49 10 bd
       0.06625813 -0.13252231 0.017200239 -0.03522618
000130 49 71 f5 3c a9 db 63 bd eb 2d 13 bb 93 e3 9c bd
       0.029961245 -0.055629406 -0.002245779 -0.07660594
000140 4e c5 8f bd 9b da 8c 3d 0f fa 9f 3d 22 12 01 3c
       -0.07020055 0.06877633 0.07811367 0.007877858
000150 96 09 f0 bd 7b 8a c5 bd 2c 2a 8c bd 92 83 bf bd
       -0.11720578 -0.09645554 -0.06843981 -0.09351267
000160 ab f5 3b 3c 95 97 36 bd e4 28 e9 39 3c ce cd bd
       0.011472146 -0.044578154 0.0004447169 -0.10049102
000170 c7 4b a6 bd 05 0f ea bd cf 74 ea 3c 6b 9a e1 3d
       -0.08119922 -0.11428646 0.028620152 0.11015781
000180 76 8e d7 bd e6 20 cd 3d 5c 0a 86 bd 4b c8 95 3c
       -0.10525219 0.100160405 -0.06544945 0.018283984
000190 db 31 ab bd 30 63 9c bb 42 3a f6 bc 23 00 e0 bd
       -0.083591186 -0.0047725663 -0.030057076 -0.10937526
0001a0 cf 6c 12 3d da 3f 4b bd 14 48 1c bd 43 cf b9 bc
       0.0357483 -0.04962144 -0.038154677 -0.022681838
0001b0 5c 7c d1 3b f1 5b 2f bd 44 57 dd bd c6 2f 0c 3e
       0.0063929986 -0.04281229 -0.1080766 0.13690099
0001c0 15 4d ad bc 59 4f c0 3c c0 70 9d 3d 82 04 5f 3d
       -0.02115492 0.023475336 0.07687521 0.05444766
0001d0 cd 59 a5 bd a1 5d c3 bd 8a ab e9 3c 90 5a 0b bd
       -0.08073769 -0.09539343 0.028524179 -0.034021914
0001e0 6b 08 66 3d f4 bf 0d be 0a 33 d4 bc ad 07 00 be
       0.05616037 -0.13842756 -0.025903244 -0.12502928
0001f0 e5 c5 b5 bd aa f8 87 3d 15 29 a2 3c f5 ed b1 bb
       -0.08875636 0.06639226 0.01979498 -0.005429978
000200 35 f3 fd 3d 90 72 84 bd d9 7b e0 3d 61 e5 ec 3d
       0.12399904 -0.064671636 0.10961122 0.11567188
000210 9a 6c b9 ba cc 68 92 3d 76 10 ac bd ba 83 f5 3a
       -0.0014146746 0.07148895 -0.08401577 0.0018731274
000220 eb ca 50 3c f6 0c 41 bc fa b6 d5 3d 16 61 a6 bd
       0.012743692 -0.011782875 0.10435291 -0.081239864
000230 6d 06 ac bd d0 d4 36 3d 9b d4 e8 bc 14 70 53 3c
       -0.08399663 0.044636548 -0.02842169 0.0129051395
000240 b1 fb eb bb a1 09 d6 bc 3e b6 3e 3c 40 80 65 3e
       -0.007201635 -0.026127638 0.01164013 0.22412205
000250 95 65 a2 3d 5a e9 f0 bd f9 4c ad bc 80 9a 18 3d
       0.079295315 -0.11763258 -0.021154867 0.037256718
000260 83 f7 bb 3d 69 ac 07 3e 24 1a b7 bd 78 a0 e6 3d
       0.091780685 0.13249363 -0.08940533 0.11261076
000270 7c 47 d8 3d e7 67 20 bd 69 81 e9 bd 84 ec d7 3d
       0.105605096 -0.03916159 -0.11401636 0.10543159
000280 51 76 65 bc 5f cf e7 bb b4 6d 83 3d d5 49 c8 bd
       -0.01400526 -0.007074281 0.064174086 -0.09779707
000290 4f be ad bd 18 e0 b9 bd 3e da 9f 3d 6c e6 4d bd
       -0.08483564 -0.090759456 0.07805298 -0.050268576
0002a0 72 8c 3d bc 7d 59 27 3d 5b 86 8e ba 68 2c 29 3e
       -0.011569129 0.040856827 -0.0010873781 0.16520846
0002b0 46 60 b4 bd 43 b0 eb 3c 3d 91 f1 3d bf 14 fa 3d
       -0.08807425 0.028770572 0.1179528 0.12210988
0002c0 ee 93 6f bc 4e 81 ee 3d 5d 11 0a bc 0b 60 1a 3c
       -0.0146226715 0.11645757 -0.008426991 0.0094223125
0002d0 24 1e f6 bd 7e 2f 78 bd ca 25 dc bd 46 1e 26 3e
       -0.120174676 -0.060592167 -0.10749395 0.16222486
0002e0 39 27 df bc 3c 3c ad bd 56 19 fb 3d 70 c5 f5 bd
       -0.027240383 -0.084587544 0.12260692 -0.12000549
0002f0 85 0e 08 bd 10 ba 4d 3d 48 8a 93 bc 4a 60 ce 3c
       -0.033216972 0.05022627 -0.018010274 0.025192399
000300 9f fe 20 3c 80 40 86 bd 12 cd d8 bd b9 4f eb 3b
       0.009826331 -0.06555271 -0.10585989 0.0071811345
000310 86 e2 c8 bc 2d 58 84 bd 39 46 eb 3d 2b b0 02 be
       -0.024522077 -0.06462131 0.11488003 -0.12762515
000320 0f 2e cf 3d 3f f8 c3 3d af 4f e6 bd 9c 35 22 3a
       0.10116207 0.095688336 -0.11245667 0.0006187798
000330 c7 15 19 3e 48 29 e1 bd c5 2b 55 3c 02 73 48 3e
       0.14949714 -0.10994202 0.013010924 0.19575122
000340 6b 24 87 bc 48 e4 fd 3d d1 fe 03 3d 50 8a 6d bd
       -0.016496858 0.12397057 0.032225434 -0.057993233
000350 02 78 9a 3c 2c 20 a5 ba 90 fb 31 3d 4d 35 9d 3d
       0.018856052 -0.0012598089 0.0434528 0.07676182
000360 bf c6 a2 3d 10 94 be bd ae 15 ab bd a2 35 96 bd
       0.07948064 -0.093055844 -0.083537444 -0.073344484
000370 7f ca c0 3d e5 d4 ee bd a8 22 61 3d 15 23 f4 3d
       0.09413623 -0.116617 0.05496469 0.11920754
000380 17 bc 69 3d d2 27 a1 3c 58 5e b1 3d 5d d5 ea bd
       0.057064142 0.019672308 0.08660573 -0.11466477
000390 6f 20 1d be 49 df e1 3d 5a e8 08 bd ef 69 9f bc
       -0.15344404 0.110289164 -0.033424713 -0.019459693
0003a0 a0 19 2c 3d 28 86 a8 bd a7 47 b8 3d 85 ae c4 3d
       0.042016625 -0.08228713 0.089980416 0.096035995
0003b0 0c 73 a8 bd 74 ba 80 bd b8 6d 14 bd d9 71 8b 3d
       -0.082250684 -0.06285563 -0.03623745 0.06808824
0003c0 fa f1 07 be 67 12 fe 3b ae fd 06 be fc 86 89 bd
       -0.132759 0.0077536586 -0.13182709 -0.06715199
0003d0 58 a5 9e bc 0c 46 e6 bd 95 0d a8 3d e2 46 aa 3b
       -0.019365951 -0.11243829 0.082057156 0.005196438
0003e0 2d 84 ca bd 9f 66 52 bd f5 2d 0d 3e 92 64 24 3d
       -0.09888492 -0.0513674 0.13787062 0.040134974
0003f0 16 8c e9 3d e7 c0 9c bd 52 0f 9a 3b 51 17 82 3d
       0.114036724 -0.07653981 0.0047015334 0.063521035

lstm.weight_hh_l0 f4 [256, 64]
000000 a0 19 8a bc 7b 01 0e be ac 47 a0 bc 8a 18 b7 3c
       -0.016857922 -0.13867752 -0.019565426 0.022350568
000010 37 19 1f bc f5 b1 19 3d a1 df 18 bd 07 72 ec bb
       -0.0097106015 0.03752323 -0.037322644 -0.0072157416
000020 cc 93 8b 3c e0 69 a9 bd 3b 9c ec bd e9 6f b8 3d
       0.017038248 -0.08272147 -0.11553236 0.0900572
000030 a1 02 99 bd a8 50 5e 3c e7 a5 0e bc 87 e8 2a 3b
       -0.074712045 0.013569035 -0.008706546 0.0026078539
000040 a3 79 21 3c aa a5 9f bc b9 4f cb bd 42 2f 1b be
       0.009855661 -0.019488174 -0.09927315 -0.15154746
000050 70 3a d2 3d 8d cd 16 be 78 2a 70 bd 7f 0a 3d 3d
       0.10265052 -0.14726849 -0.05863425 0.046152588
000060 c1 ed ac bd 2b b4 03 be 5c 61 cb bd 46 3e 9e bd
       -0.084437855 -0.12861697 -0.09930679 -0.077267215
000070 89 aa 9a bd b4 61 a9 bd 0d ee 8b bd e6 74 b7 3d
       -0.07552058 -0.082705885 -0.06832514 0.089578435
000080 70 0e ca 3d 9d 47 ae 3c 80 d9 0e be 5f 47 92 3c
       0.09866035 0.021274382 -0.13950157 0.017856298
000090 b7 f7 f4 bd e2 29 de 3c 75 d9 0e 3e d3 88 d2 bd
       -0.1196131 0.02711958 0.13950141 -0.102800034
0000a0 18 dd 42 bd 31 04 ab bd 2a bc 6e bd d5 50 99 3c
       -0.047574133 -0.08350409 -0.058284916 0.018715302
0000b0 06 b1 d0 bc 21 22 18 bd e5 33 8c 3d bb 01 1a bd
       -0.025475036 -0.037141923 0.068458356 -0.037599307
0000c0 2f f0 dc bc 10 71 69 3d 88 61 e4 bd fc 7f 52 3d
       -0.026969997 0.05699259 -0.11151415 0.051391587
0000d0 cf 56 53 3c 49 54 bd 3d 65 c4 cc bd 04 26 ba bc
       0.012899115 0.09244592 -0.09998397 -0.022723205
0000e0 8c df 7c b9 51 86 0d bd 67 95 c4 3d 2d 79 23 bd
       -0.0002411587 -0.034551922 0.09598809 -0.039910484
0000f0 b8 28 89 3c a8 62 a8 3d 6c 7a 6d 3d 3e 9b 58 3d
       0.016743049 0.08221942 0.05797808 0.052882425
000100 36 3f 36 be 76 7b 0a be 56 b8 e9 3d fd 04 4a 3d
       -0.1779755 -0.13523659 0.114121124 0.049321163
000110 4b 4c a6 3d 55 ed db bd 70 f6 6f 3b 50 d4 77 bd
       0.081200205 -0.10738627 0.0036615394 -0.06050521
000120 8d b2 8b bd fe db 2e be 89 58 f8 3c 64 d4 8b bd
       -0.06821165 -0.17076108 0.030315654 -0.0682762
000130 6c 43 ea bd ec 7e e4 3c 1a db 64 3d e9 b8 b3 bd
       -0.11438641 0.027892552 0.055873014 -0.08775503
000140 ca ab 15 3b 22 5e e2 bd d5 06 97 3d eb 81 00 be
       0.002283799 -0.11053111 0.0737435 -0.1254956
000150 60 de ad bb 79 08 e5 bc 51 78 ab 3a 80 2b f1 3c
       -0.00530605 -0.027958142 0.0013082122 0.029439688
000160 e5 3a be bd 95 2a 03 3c 28 a8 b1 bc 59 98 93 3d
       -0.09288577 0.008005758 -0.021686628 0.072067924
000170 b5 ab 0d 3e 85 93 c5 3d d4 76 2e 3e 07 a1 ec bd
       0.13835032 0.09647278 0.17037517 -0.11554151
000180 52 84 cc bd 56 7f cf bd 94 b0 a3 3d 6f 9f e5 bd
       -0.099861756 -0.10131709 0.07992664 -0.1121205
000190 54 83 a6 bd 44 cc 75 bd c9 78 10 3e a1 1e 73 3c
       -0.081305176 -0.060009256 0.14108576 0.0148388455
0001a0 aa 87 fa bd 6d 14 df bd 8e e1 8b bd d4 01 5f bc
       -0.12232907 -0.10892568 -0.068301305 -0.013611276
0001b0 00 14 29 3e 7d ec 11 3d 05 51 68 3d 20 be fb 3c
       0.16511536 0.035625923 0.05671789 0.030730307
0001c0 9d f3 95 3d 05 86 b7 bc f0 ce 8b bd b5 98 a9 bd
       0.07321856 -0.022402773 -0.068265796 -0.0828108
0001d0 0c c5 65 bc c0 09 e6 bd 53 c5 b7 bd 81 a4 8e bd
       -0.01402403 -0.112323284 -0.089731835 -0.069649704
0001e0 54 a8 eb 3d 20 48 89 bd fc 96 2e bd 16 52 b8 bd
       0.115067154 -0.0670321 -0.04262446 -0.09000032
0001f0 65 fe 59 3d fd 5b 86 bd 12 be a2 bd f8 03 8d 3d
       0.053221125 -0.06560514 -0.07946409 0.068855226
000200 1d 60 a1 3b fe ec 8b 3d 12 cb de bc 6a 3c 95 3b
       0.0049247877 0.06832312 -0.02719644 0.004554321
000210 e2 52 2c 3c 94 eb 39 3d 99 cf b1 bd 8c 19 38 bd
       0.010517808 0.04539068 -0.08682174 -0.04494624
000220 c8 83 f4 bc 08 eb 43 bc ac d3 78 3d da 80 5e 3d
       -0.029847994 -0.011957891 0.06074874 0.0543221
000230 c0 63 56 bd e8 64 e1 bc bd c5 bb bd 60 15 9a bd
       -0.052341223 -0.027513936 -0.09168575 -0.07523608
000240 ec 04 a7 bc d0 95 d0 bd 68 bf c5 bd ac 10 5a bd
       -0.02038809 -0.101848245 -0.096556485 -0.053238556
000250 29 cd ef 3d c3 62 aa 3d 5c 01 ee 3d 28 9f cb 3d
       0.11709053 0.083196186 0.11621353 0.09942466
000260 4b fa 04 3d b0 8c c7 bd 51 2f b0 bc fb c5 83 3c
       0.03246526 -0.09743631 -0.021506937 0.016085615
000270 4e 24 59 bd 58 35 97 3d ad 41 f6 bd 33 0f d9 3d
       -0.05301314 0.073832214 -0.120242454 0.10598602
000280 1a 1e a0 bc 52 a5 0a bd 83 81 b1 3c 27 6c 5f bb
       -0.019545604 -0.033849068 0.021668201 -0.0034091563
000290 f7 81 e8 3d 60 24 6b bc c3 bd 29 3e ad 1d 16 3d
       0.11352914 -0.014351934 0.16576295 0.036649395
0002a0 35 82 02 3e df bb 01 3d fe e3 e3 3d 7e 5d 21 3e
       0.12744983 0.03167331 0.111274704 0.1575832
0002b0 d6 98 07 bd c2 c3 07 be fd dc 04 be 23 b5 dd bd
       -0.03310474 -0.1325827 -0.12974925 -0.10825565
0002c0 6e 71 be 3b 54 f2 ad 3c 29 ba 7a bd f1 d3 d6 bd
       0.0058118617 0.021233715 -0.061212692 -0.10489643
0002d0 b5 17 90 3d ce ce 23 3a 47 8e 7f bb c5 84 6b bc
       0.07035772 0.0006248773 -0.0038994716 -0.014374916
0002e0 ba e9 da bc c3 d8 9f 3c 0a 02 88 bc 5e 2c 80 3d
       -0.026722778 0.01951254 -0.016602535 0.06258462
0002f0 96 bf 4d 3d 67 2e 9f bd 52 b2 64 bd 77 b8 b2 3d
       0.05023154 -0.077725224 -0.055834122 0.0872659
000300 db f6 99 bd a1 d4 fb bc 7c 11 db bd 4b 59 5d bd
       -0.07517787 -0.030741038 -0.10696694 -0.054040235
000310 27 27 9a bc 45 1a 9f bd ce 8a 90 bd 3a 8a c1 3d
       -0.018817497 -0.077686824 -0.07057725 0.09450193
000320 f1 45 5c 3d 55 3b 04 be b1 52 fd bd d6 b9 65 bd
       0.05377764 -0.12913258 -0.12369288 -0.05608543
000330 71 a5 84 3d c7 76 ad 3c 4a 02 61 3d 1e 11 09 3e
       0.06476868 0.021174802 0.054933824 0.13385436
000340 76 e3 de bd 5e 9f 67 bd af f8 27 3d 9a e5 41 bc
       -0.108832285 -0.05654847 0.041008648 -0.011834526
000350 8b 44 e2 3c d5 9f e7 bc a0 bb b9 3d 66 80 4c bd
       0.027620574 -0.028274456 0.0906899 -0.049927138
000360 ee df dd 3d 2d 38 7d bd 19 a7 89 bd 40 1d 8a 3d
       0.10833727 -0.06182115 -0.067213245 0.0674386
000370 89 7a a8 bd da 9b cc bc ff b1 bb 3c d0 cd 02 be
       -0.08226497 -0.02497666 0.022912024 -0.12773824
000380 c4 25 fc bb 51 90 c6 3d 0b 66 82 3d ac e4 43 3d
       -0.0076949317 0.09695495 0.063671194 0.0478255
000390 c3 c2 c5 bd bd 3b 14 be 25 04 0f 3e 98 af 9e bd
       -0.096562885 -0.14475913 0.13966425 -0.077483356
0003a0 30 9a e2 bd ba 08 90 3d 98 d8 27 bc 4e 5a d3 3d
       -0.11064565 0.070329145 -0.010244511 0.103199586
0003b0 b0 e5 ac 3d 33 50 93 bd 5b 8e e4 bc a9 76 07 bd
       0.08442247 -0.07193031 -0.027899912 -0.033072148
0003c0 d7 34 7c bd df 86 72 3d 7c b9 f5 bd 39 9a 1a 3d
       -0.06157383 0.059210654 -0.11998269 0.037744734
0003d0 54 12 a8 bc 2d ff 50 3d 58 c1 cd ba 7e c6 0f 3a
       -0.020516552 0.051024605 -0.001569788 0.0005484595
0003e0 93 15 b7 bd 0e 50 c6 bd c1 21 a5 3c 64 7c 91 3d
       -0.08939662 -0.09683238 0.020157697 0.07103804
0003f0 68 17 dc 3d 97 79 81 bd fc 2b 84 3c 78 ff 4b 3d
       0.10746652 -0.063220195 0.016134255 0.04980418

lstm.bias_ih_l0 f4 [256]
000000 04 07 da bd 70 02 d4 bd 67 f4 d2 bd aa 95 9c bd
       -0.106458694 -0.103520274 -0.10300522 -0.07645734
000010 6a 13 f4 bd d4 be e7 3c 5b 07 42 bc f4 de b2 bc
       -0.119177654 0.028289236 -0.011842574 -0.021834828
000020 b5 04 28 bd 0b 17 a4 bc 62 e6 ce 3d f1 75 2a bd
       -0.041020114 -0.020030519 0.10102536 -0.041616384
000030 33 94 4b 3d a6 d9 55 3d 18 df cc 3d 12 b2 7e 3d
       0.04970188 0.05220952 0.10003489 0.06218154
000040 c2 ba 85 bd cf b0 dd 3c 4c bb a5 bd 83 0d a3 bd
       -0.06529762 0.027061848 -0.08092365 -0.079615615
000050 99 bc d0 3d a2 c8 7c bd b3 94 80 3d ad 77 1b 3c
       0.10192222 -0.061714776 0.06278362 0.009488982
000060 be 7b 81 bd 8d 7e 5c 3c 44 95 5d 3d 5c 45 e2 3b
       -0.0632243 0.013457906 0.05409743 0.006905241
000070 44 13 bb bd 3a 32 09 be 1a 9c b2 bd c8 db 9e 3c
       -0.09134534 -0.13398066 -0.0872118 0.01939191
000080 5c 6e f6 bd f0 39 b3 bb 3d 11 88 3c 73 00 82 3d
       -0.12032768 -0.005469553 0.016609782 0.06347742
000090 4b 5a 12 be 8b 7a 8f bd 7b 90 23 bd 2b 15 bc bd
       -0.14292257 -0.07005795 -0.03993271 -0.09183725
0000a0 a9 30 01 3e 00 58 50 3a a5 f9 d6 bd 7a 10 a3 3d
       0.12616219 0.00079476833 -0.10496835 0.07962127
0000b0 c2 52 fb 3c ed 25 f5 bd 10 e3 ce 3d 2c cb 9f 3d
       0.03067911 -0.119701244 0.101019025 0.07802424
0000c0 17 0a 36 3d 6f 95 27 3d ed e6 73 3c b4 e0 0a be
       0.044443216 0.040913995 0.0148866 -0.1356228
0000d0 29 02 cd 3d 5e c0 c5 bd 3e 37 91 3c eb c2 f9 3d
       0.10010178 -0.09655832 0.017726537 0.12195381
0000e0 37 39 50 bd 6c 5c cd 3d 50 4e 5c bc 55 6e 9d bc
       -0.050835814 0.10027394 -0.0134464055 -0.01921765
0000f0 df aa 50 3b d1 41 6f 3d 30 2f d1 3d 53 a1 0d 3c
       0.0031840128 0.058412377 0.102140784 0.00864442
000100 3b b7 f3 3c 26 e0 be bc 58 37 8f bd f0 aa 66 bd
       0.029750457 -0.023300242 -0.06992978 -0.056315362
000110 69 5c 7f 3d 8f 11 5e bd b8 fc 9d bd 53 d3 15 be
       0.06234399 -0.054215964 -0.07714218 -0.14631395
000120 c8 77 ed bd f8 76 07 bd 4b ab 24 bd d1 22 da 3d
       -0.11595112 -0.03307244 -0.04020242 0.10651172
000130 36 7a 15 3e b9 2e a3 3c 05 9b 32 3e eb c2 3d 3d
       0.14597401 0.01991974 0.17441948 0.046328466
000140 cf 62 ae bd 5e 56 d6 bd c5 c2 ac bd 78 27 1a be
       -0.0851494 -0.10465692 -0.08435587 -0.15054119
000150 39 f9 54 bd d5 cc 02 3e f9 a4 f0 bd 18 ec f6 3d
       -0.05199549 0.1277345 -0.11750216 0.1205675
000160 9a ba b8 bd db e0 9c bd 07 5e 3a 3d 92 93 68 bd
       -0.090199664 -0.07660075 0.045499828 -0.05678136
000170 3c e7 88 bd f8 a6 14 be 2a c2 b2 3d cc fb 7a bd
       -0.066847295 -0.14516819 0.0872844 -0.06127529
000180 ed ac a2 bd 3c 7a 34 bd dd 69 ea bd c9 dc 72 bd
       -0.07943139 -0.044061884 -0.11445973 -0.05929259
000190 35 03 48 bd e7 93 11 bd dd d4 f1 bb 87 c4 00 be
       -0.048831183 -0.03554144 -0.0073801116 -0.12574969
0001a0 cd 00 0d be 33 8f 4f be 50 31 c7 3c af d0 68 bd
       -0.13769837 -0.2026947 0.024315506 -0.05683964
0001b0 75 7a 40 3d dc 26 ba bd c4 f1 cd 3d 7c 59 fa 3c
       0.046991784 -0.09089443 0.10055879 0.030560248
0001c0 a9 f7 59 3d 1f 26 0e be 30 b7 b5 bd 5e b1 10 3d
       0.053214703 -0.1388173 -0.08872831 0.0353254
0001d0 cb a2 79 3d d9 a5 a3 3d f7 34 0a be fc e8 b9 bc
       0.060946267 0.07990617 -0.13496767 -0.022694103
0001e0 0f 2d aa bd 9a d9 50 be e8 d0 82 3d 58 df c8 bc
       -0.083093755 -0.20395508 0.06387502 -0.024520561
0001f0 f3 7d 5b bd 32 e9 bf 3d c6 1a 46 3d ae ab 93 bd
       -0.05358691 0.0937065 0.048365377 -0.0721048
000200 41 d5 6c 3c 4d e1 66 bc 20 fd dd bc e5 f0 6b b8
       0.014455141 -0.014091802 -0.027098238 -5.6252717e-05
000210 fb b5 7f bd 94 a3 d1 3c 98 a6 2c 3d d5 ca 9d 3d
       -0.06242941 0.025590695 0.042151064 0.07704703
000220 6d 0e f5 3d 58 93 ba 3b 66 ec f1 3d 9d d8 5a 3d
       0.11965642 0.0056938343 0.118126675 0.053429235
000230 6b c3 7b 3d e9 48 87 bd 60 d8 2a bd 99 45 e2 bc
       0.061465662 -0.066057034 -0.041710258 -0.027621077
000240 16 9e 77 3d cd b8 43 bd b3 2c 50 bd e9 61 d8 3d
       0.060453497 -0.04778366 -0.05082388 0.1056555
000250 e6 fc 88 bc b1 95 d0 bd 61 87 b1 3d b7 76 87 3b
       -0.016722154 -0.10184801 0.086683996 0.004134025
000260 12 ac 4e bd 89 d9 c2 bd 85 fa a1 3c 99 89 b1 bd
       -0.050457068 -0.09514148 0.019772777 -0.08668823
000270 a9 22 1d bd fb 8c 02 3d 71 4e 72 3d 83 8f 8d 3d
       -0.038363133 0.03187273 0.05915684 0.06912138
000280 f8 e5 ab bd 05 f3 5f bd 06 cd 04 be f6 63 1b bb
       -0.083934724 -0.05467512 -0.12968835 -0.0023710704
000290 59 6c d7 bc 32 ab 82 3d fa f0 e5 bd f4 5e f9 3d
       -0.026296781 0.06380309 -0.11227603 0.12176314
0002a0 08 65 de bc 99 7b af ba 56 72 5b 3d d9 b1 a5 bd
       -0.027147785 -0.0013388275 0.053575836 -0.080905624
0002b0 80 04 8d bd cb db 99 3d 2d 5d c6 3d 4a 3e 62 bd
       -0.06885624 0.07512625 0.096857406 -0.055235185
0002c0 4c f9 df bc 89 27 93 3d 70 86 0a 3e aa a4 7e 3d
       -0.027340554 0.07185275 0.13527846 0.062168755
0002d0 ed c1 c1 3c 56 2b e7 bd 50 38 9b 3d 8f c1 18 bd
       0.023652041 -0.112875625 0.075791 -0.037293967
0002e0 aa 2d 0a bd 58 8b 78 bd 72 5e 69 3d 36 29 19 3d
       -0.033734955 -0.060679764 0.056974836 0.037392817
0002f0 8a 90 90 3d ec 06 0a 3e 4c 5f a1 3d e0 f3 d6 bc
       0.07058819 0.13479203 0.078795046 -0.026239336
000300 11 3e cf bd 7d 5a 62 3d 53 8c 21 bd 64 0e c9 3d
       -0.1011926 0.055262078 -0.039440464 0.09817198
000310 0b 4c bf bb cd a9 f9 bb c2 3f 4c 3d 25 40 0e be
       -0.0058379225 -0.007619119 0.04986549 -0.13891657
000320 7d f5 da bc a8 1e 06 3e e1 2d 80 bd 25 be 8f 3d
       -0.026728386 0.13097632 -0.06258751 0.07018689
000330 2a 7e ea 3c 58 9d 0f 3b 4a a3 30 3d a9 61 69 3c
       0.028624613 0.0021913853 0.043124475 0.014244475
000340 af f4 65 3d 2a 25 af 3d 21 ff 34 bd 15 58 2c 3c
       0.05614155 0.0855201 -0.044188622 0.010519047
000350 a4 da 7b 3c c1 23 a3 3d 1c 84 5b bd 1c e9 84 bd
       0.015371952 0.07965804 -0.053592786 -0.064897746
000360 ed d1 9c 3c 04 4a b5 3c 26 e2 9b 3d e7 1c 94 bd
       0.01914307 0.02213002 0.07611494 -0.07232075
000370 1b 8d ab 3d 99 d2 19 3c 94 08 ba 3d cc 29 a1 bd
       0.08376523 0.009388589 0.090836674 -0.078693
000380 ca f7 0c 3c 13 19 07 be ee 13 85 3d 19 44 dd 3c
       0.008603999 -0.13193159 0.06497942 0.02701001
000390 ba c1 c2 bd fb ae 6b 3d f4 45 ee 3b e7 e4 f0 bd
       -0.09509607 0.05753992 0.0072715227 -0.1176241
0003a0 b5 bd 13 3b c6 5c 69 3d f0 2b 34 bc 33 5f d5 3d
       0.0022543494 0.05697324 -0.010996804 0.104185484
0003b0 b5 a7 8e 3d 8d e8 e8 bd 0c 77 a1 bd 92 0b 3b 3d
       0.06965581 -0.113724805 -0.078840345 0.04566533
0003c0 6b eb b3 bc 82 b7 46 3b c2 de 66 bc 3f 85 70 bd
       -0.021962842 0.0030321782 -0.014091196 -0.058720823
0003d0 a8 e1 06 be ed d4 e8 bd 95 a3 d2 3d 06 18 2e 3d
       -0.13172019 -0.11368737 0.10285107 0.04250338
0003e0 16 5a 76 bd 48 3b b4 bd d0 e9 f1 bc b7 6f 3f bd
       -0.060144506 -0.088003695 -0.029530436 -0.0467374
0003f0 b9 ac 1c 3d 09 e3 9d 3d f6 69 0b be a3 4b 72 3d
       0.03825066 0.07709319 -0.1361464 0.059154164

lstm.bias_hh_l0 f4 [256]
000000 02 44 ce bd 0b ee 84 3d 7c 8c 8d bd ec 7a 97 3c
       -0.10071565 0.064907156 -0.06911561 0.01849123
000010 22 77 b4 bd 08 18 a4 3c fd a7 a9 bd 59 b1 eb bd
       -0.08811785 0.02003099 -0.08283994 -0.11508436
000020 2e 92 bc 3d 5a 0e aa bc 9e f4 6c bd b3 cc b9 3d
       0.09207569 -0.020758796 -0.057850473 0.090722464
000030 17 7d bf 3d f5 05 68 bc cc dc 16 3e 5d 52 97 3d
       0.09350031 -0.0141615765 0.14732665 0.073887564
000040 f6 d9 a4 bd 90 e1 b1 3d 70 38 cb bd 7b 9a 39 3b
       -0.08049385 0.08685601 -0.09922874 0.0028320837
000050 7a d2 db 3d 18 e3 3f bd a2 04 d3 bc 39 76 08 be
       0.107335046 -0.046847433 -0.025759045 -0.13326348
000060 37 6b 5f 3d b3 c6 9c 3d a1 ef ff 3d e4 e6 38 3c
       0.054545607 0.07655086 0.124968775 0.011285517
000070 75 19 9a 3d be 9c 0c bd c6 90 93 bd 3a 66 eb 3c
       0.07524387 -0.03432917 -0.07205348 0.028735269
000080 73 94 e6 bd 5a 23 f3 bd a2 7d ec bd d1 43 54 bd
       -0.11258783 -0.11871977 -0.115474 -0.051822487
000090 d6 7f dd bb c0 6b 0a be da 90 ca 3d 93 e5 81 3d
       -0.006759624 -0.13517666 0.098909095 0.06342616
0000a0 0e f8 e2 3d 0f 74 04 be e0 87 12 be c9 c2 9c 3d
       0.11082469 -0.12934898 -0.14309645 0.0765434
0000b0 fa 48 32 3d 33 c9 50 bd 5b e0 43 3d 0d a2 be bc
       0.043526627 -0.05097313 0.047821384 -0.023270631
0000c0 3e ea ba bd 73 4f 4c bd ea 14 08 be 32 7b 4a 3d
       -0.091267094 -0.049880456 -0.13289228 0.049433894
0000d0 64 a5 28 3d 17 86 9d bd 0c 5b d9 3c a2 31 e2 3d
       0.041173354 -0.07691591 0.026532672 0.11044623
0000e0 e2 1b 13 be fc c0 09 be 13 b6 25 be 6b d5 3f bd
       -0.14366105 -0.13452524 -0.16182737 -0.04683439
0000f0 2d c9 dd 3d 22 8c 98 3d 82 66 5c 3d 18 27 ae b9
       0.10829387 0.07448603 0.053808697 -0.00033216993
000100 50 a7 d4 bd 33 d8 6b bd 09 33 55 b9 d5 c1 06 3d
       -0.10383475 -0.05757923 -0.00020332275 0.032899696
000110 8c 34 b6 bc c4 ff c4 3d c9 5c 92 3d 65 bf 88 bd
       -0.022241853 0.09619096 0.071466036 -0.066771306
000120 17 bf 60 3d d2 a7 1a 3e 91 7d 52 3d a6 35 9d 3b
       0.054869737 0.15103081 0.05138928 0.004797655
000130 6a 20 ef 3d 4b 20 fc bc af e7 12 3d a3 f1 17 be
       0.11676104 -0.030777117 0.035865482 -0.14838271
000140 33 64 8f bd f1 c1 05 be 64 bd 88 3d 06 a7 80 3c
       -0.07001533 -0.13062264 0.066767484 0.015704643
000150 a3 fe 8c 3d 8e eb fe 3c 81 17 39 3d 8d e7 b0 3d
       0.068845056 0.03111818 0.04518843 0.08637915
000160 18 fe 07 be bf 0d 78 bd 7b 73 12 bd 11 e6 db 3d
       -0.13280523 -0.060559984 -0.035754662 0.10737241
000170 d8 75 9a bb 0b 7c 94 bd 6e 9c 04 be a4 d6 0d bc
       -0.004713755 -0.07250222 -0.12950298 -0.008657131
000180 31 91 f8 bc b5 a9 7e 3d 5c fb e7 ba d1 9b cd 3d
       -0.03034267 0.062173564 -0.0017698812 0.10039485
000190 fd 78 3d be 14 06 8f 3d 10 77 32 3c 85 38 8c 3d
       -0.18503185 0.06983581 0.0108926445 0.06846718
0001a0 45 ed 37 be ab 5b 28 be 0c 7e 7d 3d 4a 15 d2 3b
       -0.17961605 -0.16441219 0.061887786 0.0064112293
0001b0 a1 79 41 bd 44 ca 09 bc 85 f9 e0 3d 02 4c 03 3e
       -0.047235135 -0.00841004 0.10985092 0.12821963
0001c0 70 9c 25 be 93 34 be bd 60 fe 0b 3b 91 22 a7 bd
       -0.16172957 -0.092873715 0.0021361336 -0.0816089
0001d0 4c c0 04 3d 91 50 34 3d 9a 92 b8 bd 50 99 00 bd
       0.03240995 0.044022147 -0.09012337 -0.03139621
0001e0 1a b4 08 3d f5 04 00 3c 58 3e 64 3c fa 56 a5 3c
       0.033374883 0.007813682 0.0139308795 0.020183075
0001f0 37 f8 c2 bd 27 91 ee bd 0c 79 07 be 7c 02 bb bd
       -0.095199995 -0.11648779 -0.1322977 -0.09131333
000200 dd fb 9d bc 25 d4 20 3d 4a 1d ed bd 9b cd 6e bd
       -0.019285137 0.039264817 -0.11577852 -0.05830155
000210 ca f0 8c bd 11 b2 4a 3d 9c a9 99 bd e8 6d 22 bc
       -0.06881864 0.049486224 -0.075030535 -0.009913899
000220 87 b1 ae bd ab 29 7d 3d 6a 68 a7 3c fe d0 b1 3d
       -0.085299544 0.061807316 0.02043553 0.0868244
000230 bf 04 f0 3d 19 83 ff bd d8 07 22 3d ee 3c e1 bd
       0.11719655 -0.12476177 0.03955826 -0.109979495
000240 88 ff c4 3d b4 08 db bd cd d9 f7 3c 89 9a bc bd
       0.09619051 -0.10695019 0.030255223 -0.09209163
000250 0d 44 3f bd 16 70 7c 3d d9 7f af bd ce bb 51 bd
       -0.046695758 0.06163033 -0.08569307 -0.051204495
000260 2b 7b 67 bb f1 b0 cf bc 99 f7 fa bd c5 24 99 3d
       -0.0035321217 -0.025352927 -0.12254257 0.07477716
000270 86 87 94 3d f7 a0 99 3d f2 bd b3 bc 2e cd 9e 3d
       0.072524115 0.07501405 -0.021941159 0.07753979
000280 90 b2 3a ba d7 c6 cf 3d b6 a3 c2 3d 07 a2 39 bd
       -0.0007121945 0.101453476 0.09503882 -0.045320537
000290 03 2f a8 3d 68 fe ad bc e5 7d ce 3d b8 6e 76 bb
       0.08212092 -0.021239474 0.10082606 -0.0037602615
0002a0 ee e6 90 3d 70 79 0d 3e b9 bc 60 bd dc 95 47 bd
       0.07075296 0.13815856 -0.05486748 -0.0487269
0002b0 a9 73 14 bd e6 04 f8 3b 40 d4 25 3d 52 64 91 bd
       -0.036243115 0.0075689433 0.04048562 -0.07099213
0002c0 0b 4c 92 bd 72 37 10 bd 8b d1 ac bc 9d 11 f7 3c
       -0.0714341 -0.035209127 -0.021096012 0.030159766
0002d0 ef 7a f7 bd 5a 98 fb 3c 3f f4 66 3d 6b 59 b9 bd
       -0.120839946 0.030712295 0.056385275 -0.09050258
0002e0 80 63 f8 3c 15 22 e0 3a fa 28 e0 bd 5a 8a d7 3c
       0.030320883 0.0017100001 -0.10945316 0.026311088
0002f0 12 f6 7f bd 18 cc d8 bb 23 f0 aa bb 27 27 a8 bd
       -0.06249053 -0.0066161267 -0.005216615 -0.08210593
000300 46 32 c7 3d a5 50 5d 3d ae 66 8e 3d 32 a0 44 bc
       0.09726386 0.054031987 0.06953178 -0.012001084
000310 09 16 00 be 24 be 18 be 9f 12 d1 bd 5b 80 7c bd
       -0.12508406 -0.14916283 -0.1020863 -0.061645847
000320 b2 9d 12 bb 7f 75 e8 3c 98 ca 8f 3d 38 95 09 3d
       -0.0022371826 0.028376339 0.070210636 0.03358957
000330 c8 93 f3 3d fa c3 b6 3d 4b 20 28 3b bb 03 88 bd
       0.118934214 0.08924098 0.0025654014 -0.066413365
000340 08 c5 b0 3d 24 05 c9 3d 4e 1b 19 be d2 f7 ef bc
       0.08631331 0.098154336 -0.14951822 -0.029292975
000350 b2 8f 9f bd a8 bb d6 3c ec 27 b4 bd 50 84 d6 3c
       -0.077910796 0.026212528 -0.08796677 0.026186138
000360 fe b5 99 bd 71 1d fd 3d 7e 99 d3 bc cd 53 e9 3d
       -0.075054154 0.12359131 -0.025830027 0.11392937
000370 bb 6c b0 3c e4 39 89 bc b6 3e 96 bd 4a 89 b0 3d
       0.021536222 -0.016751237 -0.0733618 0.08619936
000380 74 c8 80 3d 2a 7e 3d 3d 78 3b 99 3d e2 4b e3 bc
       0.062882334 0.046262898 0.07482046 -0.027746145
000390 d3 4c 19 be 74 f9 e7 bd ec 6d 15 bd 58 dc 00 be
       -0.14970712 -0.11326876 -0.036481783 -0.12584054
0003a0 4c eb b8 3c 08 a1 5e bd 83 50 9a bd 4d e2 6c 3c
       0.022573136 -0.05435279 -0.07534888 0.014458251
0003b0 73 e3 ba bd 4b 39 5f bd 26 69 03 bd a7 a1 a9 bb
       -0.09125414 -0.054498 -0.0320827 -0.005176741
0003c0 15 f2 0a 3c 76 b8 92 bd 60 e5 f9 bc 0e ad bb bd
       0.008480568 -0.071640894 -0.030504882 -0.09163867
0003d0 e4 8e ca 3d d9 63 03 bd 31 2f 0d 3e 9c 2f 26 3c
       0.098905355 -0.032077644 0.13787533 0.010143187
0003e0 14 bf 31 3c 3c dd 5f 3d d4 5f 98 bd 89 9a d9 bd
       0.010848779 0.054654345 -0.07440153 -0.10625178
0003f0 6f 62 97 3d 2d ad a3 bd 4e 95 2b bd 18 dc 01 3e
       0.073918216 -0.07992015 -0.041890435 0.12681615

lstm.weight_ih_l1 f4 [256, 64]
000000 ce 13 fa 3c fd 63 e9 3c 70 fc 0a 3e 66 b8 e8 bb
       0.030527022 0.028490061 0.1357286 -0.00710206
000010 60 db 97 bc ac 2b 00 be f0 03 87 3c 3f 88 be bd
       -0.018537223 -0.1251666 0.01648137 -0.09303331
000020 b9 65 e9 3d 00 c2 00 be 34 98 a9 bd 61 48 b9 bd
       0.11396355 -0.12574005 -0.082809836 -0.09047008
000030 37 54 e4 3b 1b 2a 8c 3c ce fe d8 bd 82 0e 95 3d
       0.006968047 0.017109921 -0.10595475 0.07278158
000040 4a ed 95 3d 84 43 32 bd 67 f8 40 3d 1a 9f 34 bd
       0.0732065 -0.04352142 0.047111895 -0.044097044
000050 d2 36 a2 3d 49 92 11 3b c2 9d 9e 3d 80 d9 b7 bd
       0.079206124 0.0022212437 0.07744934 -0.08977032
000060 4d 4c 00 3d 84 f7 46 3c c0 30 ac 3d 52 b1 57 bd
       0.031322766 0.012143973 0.08407736 -0.05265934
000070 1d 4d 76 3d ff 7f ee bd dc 3a 90 3d 06 80 11 be
       0.060132135 -0.11645507 0.070424765 -0.14208993
000080 03 5c cd 3c a6 7e c0 bd e3 33 7b bd a4 ee 48 3d
       0.025068289 -0.09399156 -0.06132878 0.04905571
000090 a1 51 d0 3d 2f 8b a0 bd bd 1d e5 3c 4e 4d da 3c
       0.101718195 -0.07839047 0.027968282 0.02664819
0000a0 9d 5d 89 bc 21 ac 3b 3d f5 f5 e5 3c f6 75 3b bd
       -0.016768271 0.04581845 0.028071383 -0.045766793
0000b0 75 7f f8 3d f3 c2 aa bd 4a cc a4 bd 8b af 93 bc
       0.121336855 -0.08337965 -0.080467775 -0.018028041
0000c0 33 b3 60 3c bc 5c a9 3c 48 ba be 3d 27 70 b5 bd
       0.013714599 0.020674102 0.09312874 -0.08859282
0000d0 32 49 ca 3d ca 51 3e 3d 43 12 a9 ba f4 f1 41 3d
       0.09877242 0.04646472 -0.0012899119 0.047349885
0000e0 96 5f 92 bd 22 b4 19 3d 57 05 4a bd 91 3c 11 be
       -0.07147138 0.037525304 -0.0493215 -0.1418326
0000f0 34 26 ac bd 20 e3 b5 3d 46 89 bf bd 8d c8 7d bd
       -0.08405724 0.08881211 -0.09352355 -0.06195884
000100 66 5a dd bd fb 66 c8 3d fd 0c d2 3c bf cb 9f 3d
       -0.10808258 0.09785267 0.025640959 0.07802533
000110 3e 8b 2a bd ff 33 e8 bd 0e a3 83 bb a1 2b 6b 3d
       -0.041636698 -0.113380425 -0.0040172404 0.057414655
000120 bb 20 f2 3d 03 36 04 be 19 96 96 3d bd 89 04 3d
       0.11822649 -0.12911229 0.073528476 0.03235792
000130 23 04 cf 3c ff aa 08 bd 3f 36 fd bc 70 26 01 be
       0.025270527 -0.0333662 -0.030909656 -0.12612319
000140 1f 5f 38 bc ac cc 28 3b 3f 05 fa 3d cb 29 a9 bd
       -0.011253147 0.002575676 0.12208032 -0.082599245
000150 5c cf 99 3d b8 b4 a0 3d bb 57 9f bd eb 5f 82 3d
       0.07510254 0.07846969 -0.07780405 0.06365951
000160 ac 83 4e bd 41 12 16 be 32 9d bf 3b 03 47 2b 3d
       -0.05041854 -0.14655401 0.0058475966 0.04181577
000170 70 0d 74 b8 b9 e3 d5 bd bf aa d4 3d 31 07 ae 3d
       -5.8186648e-05 -0.10443825 0.1038413 0.084974654
000180 4a 55 10 3d e8 d1 bf bd 24 35 a6 3d 50 c0 7f 3d
       0.035237588 -0.09366208 0.081156045 0.062439263
000190 fc b9 cc bb 7e 36 09 bd 29 18 d8 3c 28 cc 0f be
       -0.006247757 -0.033499233 0.026378708 -0.14042723
0001a0 05 76 ef bc 3d 32 a2 bd a3 da a1 bd dc 99 45 bd
       -0.02923108 -0.079197384 -0.0790303 -0.048242435
0001b0 69 c3 fe 3d 8c 87 fd 3c 62 08 a0 bd e8 53 95 3d
       0.12439615 0.030948423 -0.07814099 0.072913945
0001c0 c4 a1 d1 3d d9 e0 44 bd ca f1 4b bd c0 f3 aa 3d
       0.102359325 -0.048065994 -0.049791135 0.08347273
0001d0 03 ad 50 bd c7 37 06 be a5 6b 27 3e ca 84 f5 bd
       -0.050946247 -0.13107215 0.16349657 -0.11988218
0001e0 6e ff ae bc 8d 6f ee 3c 03 37 19 3e ff 77 c3 3d
       -0.021362033 0.029105926 0.14962392 0.09544372
0001f0 27 27 15 be 45 15 53 3c 70 07 b7 3c 49 16 5d 3d
       -0.14565717 0.012883489 0.022342414 0.05397633
000200 4c 8b 88 bd 41 82 b7 bd 5d 1c d6 3d 22 cb 1f bc
       -0.06667194 -0.08960391 0.104546286 -0.0097530205
000210 8f a6 f2 ba bd c1 c7 bd 70 a6 4d bd 37 67 29 3d
       -0.0018512773 -0.097537495 -0.050207555 0.0413582
000220 30 68 94 bc c3 7d 91 3d 0c b1 ba 3d 10 00 c6 bc
       -0.018116087 0.07104065 0.091158 -0.024169952
000230 c6 c3 0e 3e 38 57 ec 3d 58 39 0c be b8 ec b0 bc
       0.13941869 0.11540073 -0.1369375 -0.021597251
000240 f8 85 a4 3d 5d 2b 91 3d ca fd f3 3c ae 95 11 3a
       0.08033365 0.07088349 0.029784102 0.0005553615
000250 3b b8 fa bd 55 13 e8 bd 0a 64 8a bd 71 8d b1 3c
       -0.122421704 -0.11331812 -0.06757362 0.02167389
000260 56 1d 4b be 84 9c 22 3d 39 26 ac bc fb fa a8 3d
       -0.1983541 0.039700046 -0.02101432 0.08250996
000270 d6 93 44 bd d3 a6 b7 bd ac a5 51 bd d5 f7 85 bd
       -0.04799255 -0.08967366 -0.051183388 -0.06541411
000280 79 2a 03 be e2 16 18 bd 82 3f fb bd 1d 3a 90 bd
       -0.12809171 -0.037131198 -0.122679725 -0.07042334
000290 50 72 fb 3c d2 80 43 bd 4e f6 6a 3d f6 96 cf bd
       0.030694157 -0.047730274 0.0573638 -0.101362154
0002a0 d0 f9 62 3d 2c b2 3f bd ab 27 60 3d 34 64 c1 bd
       0.05541402 -0.046800777 0.05472533 -0.0944294
0002b0 5b d6 92 3d 16 ca 01 bd ff 97 f8 3d b7 47 87 bd
       0.07169791 -0.031686865 0.12138366 -0.066054754
0002c0 00 8d 0a 3e d5 ee 51 3c f0 c2 43 bd f0 0e d6 3d
       0.1353035 0.01281329 -0.04779333 0.10452068
0002d0 6a b7 b6 bc 1a 41 3f 3d 49 58 ff 3d 47 32 14 be
       -0.022304256 0.046692945 0.12468011 -0.14472304
0002e0 98 51 98 3d a0 43 7a bd 01 28 36 3e 31 1f 42 3c
       0.07437438 -0.06109965 0.17788698 0.011848257
0002f0 7f e8 1e 3d fb e3 a5 bd 62 97 e7 3d 27 9c a8 bd
       0.038795944 -0.081001244 0.11308171 -0.08232909
000300 a6 74 81 3d 47 da a9 bc 61 6c 05 be 21 85 3d bd
       0.06321077 -0.020733966 -0.13029625 -0.04626954
000310 10 f0 ad bd 05 d7 bf bd 68 f7 a0 3d 31 f9 9b bc
       -0.08493054 -0.093671836 0.07859689 -0.019039722
000320 4f ef 5b bd 28 7b 86 3d fb 0f 8c 3c d0 8f 26 3d
       -0.05369502 0.06566459 0.017097464 0.040664494
000330 54 d3 8c bd c2 45 a1 bd 47 9d 93 3c db 2a 03 be
       -0.06876245 -0.07874633 0.018019332 -0.12809317
000340 d8 19 ae bd f1 70 53 bd 70 34 25 bd 98 15 a5 3c
       -0.08501023 -0.05162138 -0.04033321 0.020151898
000350 db 61 90 3d ad 7e 8c bd f2 b4 d4 3d a9 46 9d bd
       0.070499144 -0.06860099 0.10386075 -0.07679493
000360 46 b3 57 3c 69 9c df bd db 63 ed 3d 42 15 00 be
       0.013165301 -0.10918505 0.115913115 -0.12508109
000370 48 47 d4 3d df e4 80 bd 97 71 b0 3c 50 76 e1 3c
       0.10365158 -0.06293654 0.021538539 0.027522236
000380 59 de ff bd 1b 07 10 3d 41 5e 98 3d 29 c1 1c be
       -0.12493581 0.035163026 0.074398525 -0.1530806
000390 82 73 5a bc 4a f6 1c bc 1e d4 18 3d 75 60 b8 3d
       -0.013333203 -0.009580204 0.037311666 0.09002773
0003a0 1e 74 90 bd e3 15 7d 3c c6 0d a7 3c eb 1d d4 bd
       -0.070533976 0.015447113 0.02039231 -0.10357269
0003b0 41 91 09 3e cb d5 99 3b 84 50 d6 3d 7c c3 87 3d
       0.13434316 0.0046946756 0.10464576 0.066290826
0003c0 71 ab 56 3c 52 b2 af 3d 19 75 b8 bd 17 fc 97 3d
       0.013102398 0.08578934 -0.090067096 0.07421129
0003d0 94 84 72 bd 37 83 89 bd c2 5b 48 bd ac 2e eb bd
       -0.059208468 -0.0671448 -0.048915632 -0.11483511
0003e0 13 ac af bd 70 09 85 3c 88 48 ae bd c6 a7 ef bd
       -0.085777424 0.016239852 -0.08509928 -0.11701922
0003f0 26 3f 95 bd 5d f8 70 bc b2 54 c7 bd 56 4a df bd
       -0.07287435 -0.014707652 -0.09732951 -0.1090285

lstm.weight_hh_l1 f4 [256, 64]
000000 fa 57 fa 3c 2c ef e2 bc 7d e7 ba 3d 54 fa c0 bd
       0.030559529 -0.027701937 0.09126184 -0.09422746
000010 fc 17 34 3d 03 09 89 bd 4d ed 0c 3e 3c 83 a9 bc
       0.043968186 -0.06691172 0.13762398 -0.02069246
000020 42 04 d4 bd ac d9 b5 3d e1 6b 77 bd f6 75 96 bd
       -0.103523746 0.08879408 -0.060405616 -0.07346718
000030 9d 12 75 3d e4 8c 95 3d 7d d7 14 be 93 1b 3e bd
       0.059832204 0.073022634 -0.14535327 -0.046413016
000040 ca cc a6 bd bd 28 ba bd eb b0 86 3d 0f f3 b6 3d
       -0.08144529 -0.090898015 0.06576713 0.089330785
000050 5b 5a e0 3b 34 ab 43 3d a9 7a 46 bc ea 8f b2 bc
       0.0068467087 0.047770694 -0.012114205 -0.02179714
000060 3d be a5 bd 6d c5 d5 3d ae 26 c9 3d 3c 58 c7 bd
       -0.08092926 0.104380466 0.09821831 -0.09733626
000070 06 47 1d 3c ed f2 ee 3d 55 00 c1 3d 33 4e c2 3b
       0.009599453 0.11667428 0.094238915 0.005929732
000080 11 86 3e 3d 05 98 20 bd 89 cd f4 3c 8d 3d 09 3d
       0.046514574 -0.039207477 0.029883163 0.033505965
000090 0a 79 2c 3d 6d 7a e1 bd e1 c8 52 bb 38 ae 72 bd
       0.04210762 -0.11009679 -0.003216319 -0.05924818
0000a0 d4 f7 d2 bc 5a de 7b bc 04 b8 aa bd 44 0c 7d 3c
       -0.02575294 -0.015372837 -0.083358794 0.015444819
0000b0 ef fb 04 3d 46 11 8a bd 48 90 88 3c 1e 9e 00 be
       0.032466825 -0.06741576 0.016670361 -0.12560317
0000c0 e7 11 9d bc 0a d8 a8 3d 81 78 0d be 2e 5d 0f 3d
       -0.019173576 0.08244331 -0.138155 0.035000972
0000d0 73 e2 84 bc 9d 8a d8 bd a7 08 a5 bd ea 4f 89 ba
       -0.01622126 -0.105733134 -0.08058291 -0.0010476087
0000e0 c6 9c 4b 3d 1c 08 f6 3d 6d b9 f6 3c 9c af 4a 3d
       0.049710058 0.120132655 0.030117715 0.04948388
0000f0 11 df 9d bd c9 01 c4 bc cf 37 68 bd 76 16 ce 3c
       -0.07708562 -0.023926632 -0.05669385 0.025157195
000100 ab a3 eb bd 2c dd 1b bc 67 37 b7 3b 4c b2 b7 3d
       -0.115058266 -0.009513181 0.0055913213 0.08969554
000110 92 fa 4a bd 90 56 60 bd 32 87 03 3d de 3b 09 be
       -0.04955537 -0.054770052 0.032111354 -0.13401744
000120 85 fa 20 bd 17 37 45 3d 88 9d f9 bd 60 3f 46 3d
       -0.039301414 0.04814824 -0.1218825 0.048400283
000130 69 d0 f8 3d 6f 8d 9f 3d c5 36 b7 bd 0b ce 2d 3d
       0.12149126 0.07790648 -0.08945993 0.042432826
000140 96 93 39 3d 87 1b 7c bc 2d e3 3b 3d 34 a0 c6 3b
       0.045306765 -0.015387422 0.04587095 0.006061578
000150 ea f2 16 bd aa 60 34 bd 2a 2b 90 3d 22 65 bb bd
       -0.036852755 -0.0440375 0.07039483 -0.09150149
000160 e1 22 33 bd 4a 13 88 bd 81 19 c8 3d 55 6e ab bc
       -0.043734435 -0.06644304 0.097704895 -0.020926634
000170 98 26 5b 3c ce e3 af 3c 4b 3a bd bd 88 4e aa bc
       0.013375901 0.02147093 -0.09239634 -0.0207894
000180 88 83 2a bc 74 6f 3b bd f8 27 5e bb 95 0a c1 3a
       -0.010407336 -0.045760587 -0.0033898335 0.0014727885
000190 2f 97 b3 bc 91 cf 0f 3e 37 0f 8e 3c 64 cf 11 be
       -0.021922676 0.14044024 0.01734124 -0.1423927
0001a0 ea 50 da 3d 18 5c 49 bc bd 39 54 bd 24 26 d9 3c
       0.106599644 -0.012290023 -0.051812876 0.026507445
0001b0 a2 a9 45 bd b0 b4 cb 3d 41 a8 f2 bd 52 dc a4 bd
       -0.048257478 0.09946573 -0.11848498 -0.08049835
0001c0 4b 6e d4 3d d4 86 cb bd 8a 40 ef 3d 3e 91 e6 3d
       0.10372599 -0.09937826 0.11682232 0.112581715
0001d0 5a 08 b9 bc 58 4c 03 3e c2 9a 1d be 7e ec 2d bd
       -0.02258699 0.12822092 -0.15391067 -0.042461865
0001e0 a5 47 10 3d 50 5a 9f bc 84 85 f9 3d 76 63 45 bd
       0.035224576 -0.019452244 0.12183669 -0.048190556
0001f0 a1 9c b3 bd 01 e6 ca 3d a8 da 59 bb a1 bc 9e bd
       -0.08770109 0.09907151 -0.0033241902 -0.07750822
000200 23 1c 23 bd 8e 39 f3 3c 75 c7 66 3d cd 14 8d 3d
       -0.039821755 0.02969053 0.05634256 0.06888733
000210 13 db 32 bb 46 c2 eb 39 1e 6f d6 bd 57 58 fb 3d
       -0.0027291223 0.00044967438 -0.10470413 0.12272709
000220 23 2b ac bd 29 5f 31 3c 18 4b 91 3d 7f 1e c7 bd
       -0.08406665 0.010825911 0.07094401 -0.097226135
000230 42 19 e6 bd ff 92 02 be 1a e2 40 bd 4d 32 0c 3d
       -0.11235286 -0.12751387 -0.047090627 0.034227658
000240 b8 e2 fc bd 04 b8 13 bc de 6c 56 bd 80 f0 9b bd
       -0.12347931 -0.009016041 -0.052349918 -0.07614231
000250 10 b0 3e 3d be 1a 6c bd f1 a2 a1 bd e7 84 84 bd
       0.046554625 -0.05764269 -0.07892407 -0.064706616
000260 9f 9e f0 bb 9f 38 ed bb 52 f5 9e bc 6d 4e ad 3d
       -0.007343128 -0.007239416 -0.019404087 0.08462224
000270 e9 58 da bb af 9a fc bd 43 21 76 3d 3d b1 e0 3d
       -0.006663431 -0.12334191 0.060090315 0.109713055
000280 96 9c c2 bd 19 d2 e1 3d 19 1f bc 3d e8 91 8e bd
       -0.09502523 0.11026401 0.09185619 -0.06961423
000290 94 ce f1 bd 04 52 82 3d 7f 3a 19 3d a0 7d 0b 3d
       -0.1180698 0.063632995 0.0374093 0.034055352
0002a0 f4 77 a9 3c 7d 86 f2 bc b8 3b e0 bd 02 e5 ac 3d
       0.02068708 -0.029605145 -0.109488904 0.08442117
0002b0 3d 3d 1a bd 0e c1 d8 3d 92 ad 73 3d 2d 64 6d bd
       -0.037656058 0.10583697 0.0594917 -0.057956863
0002c0 42 13 53 3d ac dd cb bd 42 6e 2d bc 7b 73 22 bd
       0.051532038 -0.0995439 -0.01058537 -0.039660912
0002d0 54 4e 97 bd 7b be d9 3d 66 19 6f bd e2 5e b7 3d
       -0.07387987 0.106320344 -0.05837383 0.08953644
0002e0 b8 eb 33 bd 7f 89 db 3d f0 5c c0 3b 27 6c da bd
       -0.04392597 0.10719585 0.005870454 -0.1066516
0002f0 88 32 fb 3b 4b 11 c9 bc 10 8d e7 3d d9 fd 3f 3d
       0.007665936 -0.024544379 0.113062024 0.046872947
000300 f5 d0 34 3d 5d c0 88 bc da c6 c9 bd 1e 7f fc 3d
       0.04414459 -0.016693288 -0.09852381 0.12328933
000310 9d b1 24 be 04 8d 50 3d f0 50 00 be 07 b3 08 bd
       -0.16083379 0.050915733 -0.12530875 -0.03337386
000320 56 ea a0 3b aa a9 7c bd b7 73 e2 bd be 91 ed bc
       0.0049107475 -0.06168524 -0.11057227 -0.02900016
000330 95 3f d5 3d 7a 5f 3f bd 91 9f 7d 3b 4e 8e 98 bd
       0.10412518 -0.046721913 0.0038699845 -0.074490175
000340 b7 76 e5 3d 82 fa ed bd 64 fd 3b 3d c2 dc 0a bd
       0.11204284 -0.11620046 0.04589595 -0.033901937
000350 31 27 7d bd f4 45 95 bb b9 71 c7 3d 16 7a 61 3d
       -0.061804954 -0.004555458 0.09738488 0.05504807
000360 c7 9f 9b 3d 9c 07 4e bd 72 85 44 3d b3 95 2e 3d
       0.075988345 -0.050300226 0.047978826 0.042623233
000370 42 62 a1 3d fe 1b ae 3c b0 5a 1f 3c 67 ad 45 3d
       0.07880069 0.021253582 0.009726211 0.048261072
000380 00 8a ff bd 17 64 8e bd b3 0e 25 3d a7 e7 bc bd
       -0.12477493 -0.069526844 0.04029722 -0.09223872
000390 62 47 f6 3d 3d 82 05 3e ad 6d 32 bd 04 d8 ee 3c
       0.12025334 0.13037963 -0.043561626 0.029155739
0003a0 b4 74 f0 3c 56 9b 19 3d ab 3a fa 3c 44 e7 c7 3d
       0.029352523 0.037501656 0.030545553 0.09760907
0003b0 6d 83 54 3d 2b 06 97 bd ae 5f bb 3d 9e 85 dd bd
       0.05188315 -0.07374223 0.09149109 -0.10816501
0003c0 23 79 f9 3d dd 8c cc bd 1c 93 93 3d 37 54 87 bc
       0.12181308 -0.09987805 0.07205793 -0.016519649
0003d0 20 46 63 3d 63 2c c9 3d 5c 57 ba 3d f2 58 7b 3c
       0.0554868 0.09822919 0.09098694 0.01534103
0003e0 02 2e 16 be e8 d4 93 3d fa da b6 bd 7d 45 ac bd
       -0.14665988 0.07218343 -0.08928485 -0.08411691
0003f0 ce cf bc bc d8 a9 32 bd da 4a 0e bd 80 de 99 bd
       -0.023048308 -0.043619007 -0.034739353 -0.07513142

lstm.bias_ih_l1 f4 [256]
000000 b5 4b 77 bd d1 2d df 3d ce 39 e8 3d fb 4f 61 3d
       -0.060374934 0.10897411 0.1133915 0.055007916
000010 98 22 b3 3c 8b f5 e7 bc 8d c6 d8 3d ee 35 ed 3b
       0.021867082 -0.028315326 0.105847456 0.007239095
000020 73 cf 9d bc 72 0f 93 3d 9b e9 1c 3d 35 04 32 bd
       -0.019263959 0.0718068 0.03830872 -0.043461043
000030 50 c8 91 bd c7 7a 8c 3a 53 80 98 bc 31 a2 a2 bd
       -0.07118285 0.0010717743 -0.018615877 -0.07941092
000040 5d a5 39 3d 9b 9a 98 bd 09 56 8f 3d 0e 52 8c 3b
       0.04532372 -0.07451364 0.06998832 0.0042822426
000050 62 6f 85 bc 5d 95 e9 3c 38 20 f7 3b 51 76 44 3c
       -0.016288463 0.028513605 0.0075416826 0.011991099
000060 fa 6a 37 3b 1b 97 9b bd e5 4d c6 3d 87 8e 92 3d
       0.0027987347 -0.075971805 0.09682826 0.07156091
000070 6e 72 ad 3d 56 14 27 3a c5 f8 96 bd f0 0a 3b bd
       0.08469091 0.0006373575 -0.07371668 -0.045664728
000080 05 ed db 3d e2 41 38 3d 17 11 44 3d 05 86 16 3d
       0.10738567 0.044984706 0.04786786 0.036748905
000090 39 ef c5 bd 88 e0 6f bc ec 4b 1e 3e 84 10 e3 bd
       -0.09664769 -0.014640935 0.1545865 -0.110871345
0000a0 4f 15 10 3e 1f 58 0b bc 40 de ce 3c 29 26 c3 3d
       0.14070629 -0.008504896 0.025252461 0.09528763
0000b0 3c 64 89 3d ff 2a 94 3d e4 6e 92 3d 15 ab 7f bd
       0.06708571 0.07234763 0.07150057 -0.062419016
0000c0 5c 2f 9a bc ee a3 30 bc d6 33 b0 bd fe d4 ad 3d
       -0.01882141 -0.010781271 -0.08603637 0.08487891
0000d0 27 a7 d1 bd 5c 55 93 bc e7 b5 04 be f6 bc db 3c
       -0.1023696 -0.017985038 -0.12960015 0.026823502
0000e0 ce f2 23 3d 2a f2 90 bb d8 f4 9b 3d 50 2e 50 bd
       0.04002648 -0.0044233995 0.076150596 -0.050825417
0000f0 16 cd b7 3d 74 02 3c 3d 79 c7 36 3b af 9c 13 bd
       0.08974664 0.045900777 0.002788989 -0.036038097
000100 8d 5b 49 3d 0d 93 ba bd a8 38 87 bd 0b f2 de 3b
       0.049159575 -0.09110079 -0.06602603 0.006803756
000110 df e9 54 bd 78 7f 2e 3b aa ef 37 3c 45 c3 8f 3b
       -0.05198085 0.002662627 0.011226574 0.0043872916
000120 3c 34 13 3e 32 19 0a 3e b0 72 f6 3d c5 46 ff 3c
       0.14375395 0.13486174 0.12033594 0.031161675
000130 be 7f b4 bd 42 ca de bc cd a5 bd 3c 06 c9 c7 bd
       -0.088134274 -0.027196053 0.023150349 -0.09755139
000140 9f f1 96 3d 01 be 96 bc 52 9b ae 3b 9c 06 a2 3d
       0.07370304 -0.018401148 0.005328574 0.07911417
000150 ae 36 e1 3d 87 18 06 be f8 06 03 bb e7 72 90 bd
       0.109967574 -0.13095294 -0.0019993167 -0.07053166
000160 fc 93 91 bd 71 9d 1f be 45 ae da bc 14 00 95 3d
       -0.07108304 -0.15587403 -0.026694426 0.072754055
000170 fb 18 2f 3d 78 6d ca 3d aa 73 4e 3d 89 75 b2 bd
       0.042748433 0.09884161 0.050403275 -0.08713824
000180 8c af 84 bd 6b a6 0b 3e 9a 72 29 be ee e5 88 bd
       -0.064787954 0.13637702 -0.16547623 -0.066844806
000190 54 a3 75 bd 83 e5 a3 bd e0 51 fb 3d 7b 0d 15 be
       -0.059970215 -0.0800276 0.12271476 -0.14555924
0001a0 22 1a 24 3e 45 52 2d 3e ff 82 9a 3d 0f 71 02 3e
       0.16025594 0.16925915 0.07544517 0.12738441
0001b0 44 e0 22 bd 6c 23 c0 3d f2 d7 be bd 07 b5 61 bd
       -0.039764658 0.09381756 -0.09318532 -0.05510428
0001c0 84 e2 cd 3c 15 0c 8d bd 30 0f a4 3d 8b f7 d0 3c
       0.025132425 -0.0688707 0.08010709 0.025508663
0001d0 d2 3d b5 3d 9c 56 9f 3b 30 8b 7f bb 0c ac 01 be
       0.08849682 0.0048626196 -0.0038992874 -0.12663287
0001e0 73 80 9b bd 51 c1 de bc 7b df be 3d ca 33 8e bd
       -0.07592859 -0.02719179 0.09319969 -0.06943472
0001f0 c4 57 d3 3d 67 34 48 bc 32 69 4b 3d ab 92 5c bd
       0.10319474 -0.012219525 0.04966087 -0.05385081
000200 97 cf 80 3c f3 7b 64 bd b9 0b 38 3c ec dd 19 3d
       0.015723987 -0.05578227 0.011233264 0.037565157
000210 0a e3 07 bd 7b 24 f7 bd d3 c5 97 3d e9 f2 13 bc
       -0.033175506 -0.12067505 0.07410779 -0.009030082
000220 bd 2b e1 3c 41 29 4e 3b 8c 3f 0d 3d b6 a2 ea 3d
       0.027486676 0.0031457695 0.03448443 0.11456816
000230 15 ac 5c b9 4e f8 01 bd 8d 88 80 3d 4d 78 73 3c
       -0.0002104494 -0.031730942 0.06276045 0.014860225
000240 54 1b d7 3d 7c 51 69 bd c1 ce 04 3e 35 80 ab bc
       0.10503259 -0.056962475 0.12969495 -0.020935157
000250 63 df 8c bc b0 ec 9b 3d 94 5b 1c 3e 75 d7 09 be
       -0.017196363 0.07613504 0.1526931 -0.13461097
000260 04 97 27 3c da 12 8b ba e2 c1 e7 3a eb 01 0c bd
       0.010228876 -0.0010610477 0.0017681683 -0.034181517
000270 62 89 86 bd cc 69 ec bd f4 82 c3 bd 2d 7d ac bd
       -0.065691724 -0.11543617 -0.09546462 -0.08422313
000280 32 2b 9a bd dd 21 fd 3d 6f c6 a4 3c 96 ad 49 bc
       -0.0752777 0.123599745 0.020114152 -0.0123094525
000290 5b 3e fb 3d ac 7a 7b 3d b4 14 d6 3d 79 d1 b1 bc
       0.12267753 0.061396286 0.104531676 -0.02170633
0002a0 c6 a9 21 be 13 84 df 3c 09 2c b5 3d cd b2 04 3e
       -0.1578742 0.027284658 0.0884629 0.12958832
0002b0 d5 88 19 3e d1 ca e6 3d 81 d8 e4 3d 9e b1 a5 bc
       0.14993604 0.11269153 0.11174107 -0.020226296
0002c0 f1 22 a8 3d 48 78 c0 bc b6 f4 16 3e f0 f6 26 be
       0.082097895 -0.023494855 0.14741787 -0.16305137
0002d0 be c2 d9 bd 04 95 47 3d 85 1a 94 3d 66 4b 8c bc
       -0.10632847 0.048726097 0.07231621 -0.017125797
0002e0 ea fe 96 bd f5 ac 7e bd 77 1f 15 3e 2b 02 cd 3d
       -0.0737284 -0.062176663 0.14562784 0.10010179
0002f0 03 89 01 be 0c 34 8d bd eb 4e 32 bd 89 e8 19 3d
       -0.12649922 -0.06894693 -0.043532293 0.03757528
000300 d0 4d 97 bb ef 1d 6e bd 7f aa 13 3d b6 f7 8f 3c
       -0.0046174303 -0.058134016 0.03605127 0.017574172
000310 96 d6 b7 3c 12 06 48 bd 0a a7 e2 3b 05 8a e4 3d
       0.02244119 -0.048833914 0.0069168853 0.11159138
000320 31 22 50 bd 43 69 00 3c 31 ac 9a 3d 9b cf c9 bc
       -0.050813857 0.007837596 0.07552374 -0.024635127
000330 ba 38 bd bd de ec 96 3d e9 ab 3b bd 1a c2 c5 3d
       -0.09239335 0.073693976 -0.045818243 0.096561626
000340 d4 3c cf 3d 03 51 21 be 70 78 67 3d c0 86 ee 3d
       0.10119024 -0.1575356 0.056511343 0.11646795
000350 45 ee f9 bc 59 09 c5 bd 57 47 3b 3d 8f 88 6f 3d
       -0.030509124 -0.096209235 0.04572233 0.05847984
000360 57 0d e9 3d ba 4f 9e bd 12 6e ee 3d 70 da a1 bd
       0.113794975 -0.077300504 0.11642088 -0.07902992
000370 af a8 82 bd 9f 3f 06 bd 24 f6 bc 3c 00 01 ee bc
       -0.0637983 -0.032775518 0.023066588 -0.029053211
000380 40 10 5e bd d2 23 0f 3e 71 fe 31 3d ee fb c3 bb
       -0.054214716 0.13978508 0.043455545 -0.00598096
000390 29 f8 2a 3d 1f f6 af 3d 42 76 42 bd 84 85 a3 3c
       0.04174057 0.08591866 -0.04747606 0.019961126
0003a0 71 49 82 bd 11 77 ba 3d d4 72 dd bd 86 2a 07 3e
       -0.06361664 0.09104741 -0.10812917 0.13199815
0003b0 11 b2 46 bc 82 6d aa bd 6e 60 38 3c 63 e1 58 bd
       -0.012127415 -0.08321668 0.011253459 -0.05294932
0003c0 92 c0 5a 3b ac 8d af bd d4 ce 51 bc 7f 12 b9 3d
       0.003337894 -0.08571944 -0.012805659 0.09036731
0003d0 61 39 2f 3d 29 19 76 3d c2 45 0f be b6 8f bf 3c
       0.04277933 0.06008259 -0.13991454 0.023383956
0003e0 80 d9 3b bc 54 fc 15 3e b7 8b 24 bb a6 9c d1 3d
       -0.01146543 0.14647037 -0.002510769 0.102349564
0003f0 29 a2 72 3a 00 5a 82 3d 0f c7 bd 3b 67 c2 c4 bd
       0.0009255731 0.063648224 0.005791552 -0.09607392
