data_storage/models/lstm_v1.0.0_20251231_145824/points_model.pt (torch, 217493 bytes, 9 tensors)

lstm.weight_ih_l0 f4 [256, 12]
0	0x3dfaf89e	0.12254451
1	0x3e10e2e9	0.1414906
2	0xbc9570bf	-0.018242238
3	0x3dfe103b	0.124054395
4	0x3c9c0d12	0.019049201
5	0xbd8ec894	-0.06971851
6	0xbd6e5d48	-0.05819443
7	0xbccb5ec5	-0.024825463
8	0x3d5c958f	0.053853568
9	0x3dc5db3f	0.096609585
10	0xbdcfb1dc	-0.10141346
11	0xbd9795de	-0.07401632
12	0xbd8622f3	-0.06549635
13	0x3d223af0	0.03960699
14	0xbd64a405	-0.055820484
15	0xbd8c122c	-0.068394035
16	0xbe037ebe	-0.12841317
17	0xbd8db123	-0.06918552
18	0xbe12b7ea	-0.1432797
19	0x3c1601da	0.009155715
20	0x3b2102ec	0.0024568392
21	0x3ce62587	0.028094066
22	0x3db77176	0.08957188
23	0x3d7bb8ed	0.061455656
24	0xbe14fa1d	-0.14548536
25	0x3c8d78d3	0.017269528
26	0x3d148bb2	0.036266036
27	0x3e1b4375	0.15162452
28	0xbc50110f	-0.01269938
29	0x3c9313ce	0.01795378
30	0x3d47dfb4	0.048797324
31	0xbdf85c94	-0.12127033
32	0xbc9b5d83	-0.018965488
33	0x3d90ae94	0.07064548
34	0x3dfb5797	0.12272566
35	0xbcfa0cd0	-0.030523688
36	0x3d501302	0.050799377
37	0xbddc4c8f	-0.1075679
38	0x3dbaf039	0.0912785
39	0xbda11508	-0.078653395
40	0xbc620bae	-0.01379673
41	0xbddef26c	-0.10886082
42	0xbd8fe563	-0.07026174
43	0xbddc861d	-0.107677676
44	0xbcb64a5e	-0.022252258
45	0xbddac2d1	-0.106816895
46	0x3da0c857	0.07850712
47	0x3de046c1	0.10950995
48	0xbe0c8a12	-0.13724545
49	0x3acd1a32	0.0015648066
50	0xb9905356	-0.0002752791
51	0xbda221b3	-0.07916584
52	0x3e086ee2	0.13323548
53	0xbe1e0a23	-0.15433554
54	0xbe41b772	-0.18917635
55	0xbdb0aef3	-0.08627119
56	0xbdcf08c8	-0.10109097
57	0x3beb5c65	0.007182645
58	0x3d6358af	0.055504497
59	0x3d7f07ec	0.062263414
60	0x3c515123	0.012775692
61	0xbd9539f1	-0.07286442
62	0xbe09e0b8	-0.1346463
63	0x3db7f504	0.0898228
64	0x3d2d45b9	0.04230282
65	0x3dceec50	0.10103667
66	0x3ded08fd	0.1157398
67	0x3d73e14b	0.059541028
68	0xbc16d609	-0.009206303
69	0xbd9d3f6b	-0.07678112
70	0x3d970713	0.07374396
71	0xbda9b34f	-0.082861535
72	0x3e026275	0.12732871
73	0x3e87408c	0.26416433
74	0x3d763803	0.06011201
75	0x3ded500a	0.11587532
76	0xbcef1551	-0.02918497
77	0xbe1d0b4b	-0.15336339
78	0xbd07b5e6	-0.033132456
79	0xbb16f5ce	-0.0023034695
80	0xbd460426	-0.0483438
81	0x3d7afe66	0.06127777
82	0xbded97de	-0.11601232
83	0xbdeb3c0a	-0.11486061
84	0xbda3a99c	-0.07991335
85	0x3e4c2c7b	0.19938843
86	0xbd4a591e	-0.049401395
87	0xbcaf9312	-0.021432433
88	0x3ca5c3d5	0.020234982
89	0x3c9c7400	0.019098282
90	0xbd8d5a0f	-0.06901943
91	0xbdc78d5f	-0.09743761
92	0xbd5f19e6	-0.054468058
93	0xbcc01bb1	-0.023450704
94	0xbdb88e1e	-0.09011482
95	0x3da02e3c	0.078213185
96	0xbcecde29	-0.028914528
97	0x3d93963f	0.072063915
98	0x3d3aae14	0.04557617
99	0x3c16a99e	0.009195713
100	0x3d1a0048	0.037597924
101	0xbd9075da	-0.070537284
102	0xbdbcb6e5	-0.09214572
103	0x3d265988	0.040612727
104	0xbcff7b37	-0.031186683
105	0x3bb438b5	0.005499924
106	0xbdb2481f	-0.08705162
107	0x3d931288	0.07181269
108	0x3cbe664c	0.023242138
109	0x3dd59d5a	0.10430403
110	0xbe0ae387	-0.13563357
111	0xbc61cd23	-0.013781819
112	0xbddd2f7a	-0.10800071
113	0xbe05c604	-0.13063818
114	0x3cff62c9	0.031175034
115	0xbdd9ec60	-0.10640788
116	0xbddcf08c	-0.10788068
117	0xbe277add	-0.16355462
118	0xbd495b17	-0.049159136
119	0xbdecd988	-0.11564928
120	0xbc290411	-0.010315911
121	0x3d1ccd2c	0.038281605
122	0x3d1fb1ae	0.038987808
123	0xbd8f8941	-0.07008601
124	0x3d70c824	0.05878462
125	0xbd58cad1	-0.052927796
126	0x3d5fa389	0.05459932
127	0xbe22e338	-0.1590699
128	0xbd7b626e	-0.061373167
129	0xbdcc5fbe	-0.09979199
130	0xbda00eec	-0.07815346
131	0x3e12b9e4	0.14328724
132	0x3cf5fea2	0.030028645
133	0xbd25f905	-0.040520687
134	0x3db45d50	0.088068604
135	0x3de4f4c5	0.111794986
136	0xbd30505d	-0.04304539
137	0xbded28ed	-0.115800716
138	0x3a27162e	0.00063738495
139	0x3d76a810	0.06021887
140	0xbe1e1274	-0.15436727
141	0x3e0dc7e1	0.13845779
142	0xbc8c1f06	-0.017104637
143	0x3dc7e31c	0.097601146
144	0x3ce84a0f	0.028355626
145	0xbd79c14b	-0.060975354
146	0xbc149a81	-0.00907004
147	0x3d782ac0	0.060587645
148	0xbd2418a5	-0.040062565
149	0xbd9fc786	-0.07801728
150	0x3d5dbe9b	0.054136854
151	0xbc1f91b6	-0.00973933
152	0xbce1d74a	-0.027568478
153	0x3dd3dee1	0.10345245
154	0x3d3f0344	0.046633974
155	0x3d69b990	0.05706173
156	0x3d67c2da	0.05658231
157	0x3e348ba6	0.17631397
158	0xbe2a686d	-0.16641398
159	0x3da619ec	0.08110413
160	0xbd388801	-0.04505158
161	0xbd4351d7	-0.04768547
162	0x3cde9c82	0.027174238
163	0xbd138bf4	-0.03602214
164	0xbc736021	-0.014854462
165	0x3ceb1a64	0.028699107
166	0x3bdb8d8c	0.0067002233
167	0x3cc4121c	0.023934416
168	0x3d632676	0.0554566
169	0x3cf18590	0.029482633
170	0x3da1c3d5	0.0789868
171	0xbc7a6346	-0.015282458
172	0x3db99b8a	0.0906287
173	0x3dd781d3	0.10522809
174	0xbdb5c0a2	-0.088746324
175	0x3da92d54	0.08260599
176	0x3df70bba	0.120627835
177	0xbda656ba	-0.081220105
178	0x3d5446a2	0.051825173
179	0xbda095f6	-0.07841103
180	0x3cd380e7	0.025818301
181	0x3acf0281	0.0015793593
182	0xbbe0a02b	-0.006855031
183	0x3d8ba5a4	0.06818703
184	0x3d6ad392	0.057330675
185	0x3d32dfc2	0.043670423
186	0x3dfd7e7a	0.12377639
187	0xbcb27bd6	-0.021787565
188	0xbe0fbfe5	-0.14038046
189	0x3d3e5c5e	0.046474807
190	0xbe04a5bb	-0.12953846
191	0x3dd0520c	0.10171899
192	0x3d884ca0	0.0665524
193	0x3daff217	0.08591097
194	0xbc266e5e	-0.0101581495
195	0xbe00f64a	-0.12593952
196	0xbdde60a0	-0.108582735
197	0x3e109d93	0.1412261
198	0xbdf8d3b4	-0.12149754
199	0xbd834f3d	-0.06411598
200	0xbd873775	-0.066023745
201	0xbdaec90f	-0.08534443
202	0x3d1e76d0	0.038687527
203	0x3dca5eb0	0.098813415
204	0xbdbbb860	-0.09166026
205	0xbd206cc8	-0.039166242
206	0x3d6ed21d	0.05830585
207	0xbd8f2f2b	-0.069914185
208	0xbbe394c5	-0.006945225
209	0x3d5ce5cb	0.053930085
210	0x3da97c5e	0.08275674
211	0xbddefb41	-0.10887767
212	0xbc864efe	-0.016395088
213	0xbd7a73e0	-0.061145663
214	0x3daf8051	0.08569396
215	0x3de9fe61	0.11425472
216	0x3b889ec9	0.0041693193
217	0xbd2b8090	-0.041870654
218	0x3da2682c	0.079300255
219	0x3d638836	0.055549823
220	0xbded1d23	-0.11577823
221	0xbde1e256	-0.11029498
222	0x3c848e73	0.016181206
223	0xb9d15601	-0.00039927664
224	0x3dd07ced	0.10180078
225	0xbc1c6812	-0.009546297
226	0x3dc07e94	0.09399143
227	0xbd11295f	-0.035439845
228	0xbd5ea8da	-0.05436025
229	0x3d6b5710	0.057456076
230	0x3c98666c	0.018603526
231	0xbc0f571e	-0.008748798
232	0x3d50c4c4	0.0509689
233	0xbb57a21e	-0.0032903026
234	0x3d81cbd9	0.06337709
235	0x3d8a3d6b	0.06749996
236	0xbb80466a	-0.003914644
237	0xbde9da21	-0.11418558
238	0x3c6b832d	0.014374536
239	0xbe0164ab	-0.12636058
240	0xbdd85bfe	-0.10564421
241	0x3c9852ed	0.01859423
242	0xbd306eea	-0.043074526
243	0x3e1e8a84	0.15482527
244	0x3bf8a3ca	0.0075878846
245	0xbdcc34ca	-0.09971006
246	0x3c1f1b21	0.009711058
247	0xbdca14a8	-0.09867221
248	0x3d19129e	0.03737127
249	0xbd977570	-0.07395446
250	0xbd75a2fe	-0.059969895
251	0xbd100bee	-0.035167627
252	0xbdc0b28c	-0.09409055
253	0x3e151075	0.14557059
254	0xbe274cde	-0.16337916
255	0xbdde7569	-0.10862238

lstm.weight_hh_l0 f4 [256, 64]
0	0x3dea5765	0.114424504
1	0x3dd8136c	0.105505794
2	0x3cf3ed38	0.0297762
3	0x3dc9aed4	0.09847799
4	0xbc009b12	-0.007849472
5	0x3d98b40e	0.07456218
6	0x3d6a40d2	0.057190724
7	0xbd042e06	-0.032270454
8	0xbdd31046	-0.10305838
9	0xbdccc74b	-0.099989496
10	0x3da05cd7	0.07830208
11	0xbbab68bb	-0.0052309907
12	0x3caf8eeb	0.021430453
13	0xbd9b2d43	-0.07576992
14	0xbd4f50b3	-0.05061407
15	0x3d4b44b0	0.049626052
16	0xbd17cd93	-0.037061285
17	0xbd4deb36	-0.050273143
18	0x3d8ef94d	0.06981144
19	0x3cc444b4	0.023958541
20	0x3e0ab259	0.13544597
21	0xbd195187	-0.037431266
22	0xbbba118d	-0.0056783617
23	0x3da34ef8	0.079740465
24	0x3d4391e2	0.047746547
25	0x3d90964b	0.07059916
26	0xbd3d7ed4	-0.04626353
27	0xbda74b9a	-0.08168717
28	0x3d156fbe	0.03648352
29	0x3cc08e27	0.023505284
30	0xbdb9c9c9	-0.090716906
31	0xbda53062	-0.08065869
32	0x3d7fc1a9	0.062440548
33	0x3cd91791	0.026500495
34	0x3d23df26	0.040007733
35	0x3d2160aa	0.039398827
36	0x3ce3e17f	0.027817486
37	0x3d1a372f	0.037650283
38	0xbdaa095b	-0.08302566
39	0x3d48df08	0.049040824
40	0x3dc49124	0.09597996
41	0x3dfd241d	0.12360404
42	0x3d98b24f	0.07455885
43	0x3d3572ba	0.044298865
44	0x3d57af67	0.05265751
45	0xbe080db5	-0.13286479
46	0xbe01c7c5	-0.12673862
47	0xbd8a05b7	-0.06739371
48	0x3daf5c20	0.08562493
49	0xbdc5444e	-0.09632169
50	0x3de453f3	0.111488245
51	0xbdc762f5	-0.097356714
52	0xbd85236f	-0.06500899
53	0xbd8ee56a	-0.06977351
54	0xbdad12f9	-0.08450884
55	0x3e0f0949	0.13968386
56	0xbdf4fa78	-0.119618356
57	0xbdd26c76	-0.102745935
58	0xbdb975d5	-0.09055678
59	0xbd3eacb7	-0.046551432
60	0xbdf1d258	-0.11807698
61	0x3dba4f92	0.09097208
62	0x3def1307	0.11673551
63	0x3e18949c	0.1490044
64	0x3dac6eb9	0.08419556
65	0x3cb6cf66	0.022315692
66	0xbb9a0100	-0.0046998262
67	0xbdc89b6a	-0.09795268
68	0x3e0a4c64	0.13505703
69	0x3be36004	0.006938936
70	0x3b326b85	0.0027224731
71	0x3d71b911	0.059014384
72	0x3d55dd77	0.05221316
73	0xbe00bfa8	-0.12573111
74	0xbe0916cf	-0.13387607
75	0x3dc5f0ce	0.096650705
76	0x3d20d13a	0.039262034
77	0x3e174a0b	0.14774339
78	0x3db1b0e4	0.08676317
79	0x3d7b6bad	0.061381985
80	0x3defabcb	0.11702689
81	0x3d3c8f48	0.04603508
82	0xbcb5e1b9	-0.02220236
83	0x3c94337e	0.01809096
84	0xbda54e1c	-0.08071539
85	0xbdc4d87f	-0.09611606
86	0x3d0fc7ad	0.035102535
87	0xbd16a654	-0.036779717
88	0xbdd871ec	-0.10568604
89	0xbe1a7332	-0.15083006
90	0xbcd9855b	-0.026552847
91	0xbdcb6049	-0.09930474
92	0xbe393841	-0.18087865
93	0xbdf3faf2	-0.119130984
94	0xbc4a7dff	-0.012359141
95	0x3dddd6e0	0.10832
96	0xbd0c5c1d	-0.034267534
97	0xbe400275	-0.18750937
98	0xbb9f58d7	-0.0048628855
99	0x3e0c7180	0.13715172
100	0xbd9ac1d3	-0.075565
101	0xbe099efa	-0.13439551
102	0xbce46b29	-0.02788313
103	0x3d83461f	0.06409859
104	0x3d86409d	0.06555293
105	0x3c84ac5a	0.016195465
106	0xbdbe23dc	-0.092841834
107	0xbc69a9f2	-0.0142617095
108	0xbd288158	-0.041138977
109	0x3d9f874e	0.07789479
110	0xbdf09b47	-0.11748367
111	0x3dcff625	0.1015437
112	0xbdeaf020	-0.114715815
113	0xbd93185a	-0.07182379
114	0x3e2161e0	0.15759993
115	0xbd0ae7e9	-0.033912573
116	0x3e27bd03	0.16380696
117	0xbd41ac99	-0.047283743
118	0xbdde9296	-0.10867803
119	0x3e7a2217	0.24427067
120	0xbe2da433	-0.16957168
121	0x3e6c2d1d	0.23064084
122	0xbd3e1a1f	-0.04641163
123	0xbd4fedb0	-0.050763786
124	0x3da25f29	0.079283066
125	0x3dc51add	0.096242644
126	0xbd87251b	-0.06598874
127	0xbdcd4a0b	-0.10023888
128	0x3d4bdd5c	0.04977165
129	0x3dfb18a4	0.12260559
130	0x3dfdb927	0.12388831
131	0x3cce6af3	0.025197482
132	0xbc974683	-0.01846624
133	0x3d963c42	0.07335712
134	0x3d8645ad	0.06556258
135	0xbe17e97b	-0.1483516
136	0x3b946f59	0.0045298752
137	0x3d254851	0.04035217
138	0xbd59eca2	-0.053204186
139	0xbda9c749	-0.08289964
140	0xbdaaa6bd	-0.08332584
141	0x3dd95745	0.106123485
142	0xbb75ed07	-0.0037525313
143	0x3d58da38	0.052942485
144	0xbe0c99cb	-0.13730542
145	0x3d054192	0.032533236
146	0xbd6df5c6	-0.058095716
147	0xbc9fd8a5	-0.019512484
148	0xbdd42f62	-0.103606
149	0xbd0688e7	-0.032845404
150	0xbdcca1d2	-0.09991802
151	0xbd0da8e3	-0.03458489
152	0xbdab0b55	-0.08351771
153	0x3e1978c3	0.14987473
154	0x3c1f966b	0.009740452
155	0xbdbe7882	-0.09300329
156	0xbdccddac	-0.10003218
157	0x3d6ad7cc	0.057334706
158	0x3db8f514	0.0903112
159	0xbda440b3	-0.08020153
160	0xbd1fcc21	-0.039013032
161	0xbd9cec89	-0.07662303
162	0xbc978c3b	-0.018499484
163	0xbd925404	-0.07144931
164	0x3d9ac871	0.075577624
165	0x3db09994	0.08623043
166	0xbd9f5b1b	-0.07781049
167	0x3e06bb12	0.13157299
168	0x3c0f6bf0	0.008753762
169	0x3d97c394	0.074103504
170	0x3d02c393	0.031924795
171	0xbd9f148f	-0.07767593
172	0xbc106583	-0.008813265
173	0xbdaae88d	-0.08345137
174	0xbdbf7b61	-0.093497045
175	0x3de25ee1	0.11053253
176	0xbbb87c9b	-0.0056300885
177	0x3cb9ea44	0.022694714
178	0x3de696ce	0.112592325
179	0xbd937555	-0.07200114
180	0xbd99c5a0	-0.07508397
181	0x3d2cbbe0	0.04217136
182	0xbdd92964	-0.10603598
183	0x3ca635be	0.020289298
184	0xbd66ba3c	-0.05632995
185	0x3d589fe7	0.05288687
186	0x3cd5e4bf	0.026110051
187	0xbd9b5b5b	-0.07585784
188	0x3d2b782f	0.041862663
189	0x3dbf59ac	0.093432754
190	0x3d7394fc	0.059468254
191	0xbcb0886e	-0.02154943
192	0xbda75593	-0.08170619
193	0x3d89c2c0	0.06726599
194	0x3dcbc709	0.09950072
195	0xbd5436b0	-0.051809967
196	0xbdffef21	-0.12496782
197	0xbdde6dcd	-0.108607866
198	0x3d6ddc46	0.058071397
199	0x3c22c177	0.009933821
200	0xbcb1b172	-0.021691058
201	0xbd11379e	-0.03545343
202	0x3a3b0128	0.0007133656
203	0x3db357e5	0.08756999
204	0xbd101bd0	-0.035182774
205	0x3c6ce6da	0.014459336
206	0xbd71576b	-0.05892126
207	0xbcacda50	-0.021100193
208	0x3d6dede1	0.058088187
209	0x3d156ad6	0.03647884
210	0xbcd46081	-0.025924923
211	0xbca702c9	-0.02038707
212	0x3c833c0e	0.016019847
213	0x3e31a954	0.1734975
214	0xbd6bc066	-0.057556532
215	0x3e0ba604	0.13637549
216	0xbc87215d	-0.016495401
217	0x3d180692	0.03711564
218	0x3e0b35a8	0.13594687
219	0xbd976485	-0.073922195
220	0xbdaacd5e	-0.08339952
221	0xbda385bc	-0.07984492
222	0x3e016be4	0.12638813
223	0x3dbaa46c	0.09113392
224	0xbd81ec03	-0.06343844
225	0x3c004df7	0.007831088
226	0xbdfc6e69	-0.123257466
227	0xbdda1481	-0.10648442
228	0xbddbf22e	-0.107395515
229	0xbd5661cb	-0.052339356
230	0x3ca0bc0b	0.019620916
231	0xbe1fc132	-0.15601042
232	0x3d4bccf7	0.049756017
233	0x3db4c6cd	0.08826981
234	0xbce6ad10	-0.028158695
235	0x3d574537	0.052556243
236	0xbdadad49	-0.08480317
237	0x3cc8f4bb	0.02453076
238	0x3b092ea0	0.0020932332
239	0xbdcae73e	-0.09907387
240	0xbdd8b0ea	-0.10580619
241	0x3e10d737	0.14144598
242	0xbe15350a	-0.14571014
243	0x3c8c2227	0.017106129
244	0xbe285dfd	-0.16442104
245	0xbd1a1a96	-0.03762301
246	0x3d36c596	0.044622026
247	0x3dd24497	0.10266989
248	0x3d812936	0.063066885
249	0x3e05576e	0.13021633
250	0xbd8b1f5a	-0.06793089
251	0xbc688a99	-0.0141932005
252	0x3db8c497	0.090218715
253	0x3d59a17d	0.053132523
254	0xbdf89743	-0.12138226
255	0x3d7ca1fd	0.06167792

lstm.bias_ih_l0 f4 [256]
0	0xbde16b26	-0.11006765
1	0xbd75ceb8	-0.060011595
2	0x3cf57db6	0.02996717
3	0x3db7cff3	0.0897521
4	0x3dc59d4b	0.09649142
5	0xbc784759	-0.015153729
6	0xbc6b558c	-0.014363658
7	0xbd75054a	-0.059819497
8	0xbdaa0dab	-0.08303388
9	0xbe0b0ebe	-0.13579842
10	0x3dada220	0.084781885
11	0xbdf1c5f3	-0.11805334
12	0xba3f7444	-0.00073033967
13	0xbd6fcdc5	-0.058545846
14	0x3cd381b4	0.025818683
15	0xbd08336b	-0.03325216
16	0x3d095249	0.03352574
17	0xbe02f9da	-0.12790623
18	0x3dd82344	0.105536014
19	0x3d461e9e	0.048369043
20	0xbd0cebb9	-0.03440449
21	0x3dd8fb8a	0.10594852
22	0x3d1f134d	0.038836766
23	0xbc7c16f9	-0.0153863365
24	0x3d19817f	0.037477013
25	0xbd893721	-0.06699968
26	0x3dcbb450	0.09946501
27	0xbe006dc2	-0.1254187
28	0x3d8b8457	0.06812351
29	0xbcdf188a	-0.02723338
30	0xbd9f06b3	-0.0776495
31	0xbe33e81e	-0.17569014
32	0x3d59e80e	0.05319982
33	0xbdacc47b	-0.08435913
34	0x3dd99a80	0.10625172
35	0xbdfecf06	-0.1244183
36	0x3db6afc2	0.08920242
37	0x3dce8a74	0.100850016
38	0x3da483e1	0.080329664
39	0x3dd50003	0.10400393
40	0x3ddcd712	0.10783209
41	0x3d6b8175	0.057496507
42	0xbde84f28	-0.11343223
43	0x3c71183b	0.01471525
44	0x3d003c37	0.031307425
45	0x3d0cf9c1	0.03441787
46	0x3dd35d43	0.10320523
47	0xbe14d22f	-0.14533304
48	0xbd6328d0	-0.055458844
49	0xbd6c6eff	-0.05772304
50	0xbe061c2e	-0.13096687
51	0x3c3c6469	0.011498549
52	0xbdefd3eb	-0.11710342
53	0xbd3da1d5	-0.046296913
54	0x3d3fd017	0.04682931
55	0x3dac14be	0.08402394
56	0x3c15288a	0.009103904
57	0x3d8b218f	0.0679351
58	0x3d677424	0.056507245
59	0xbd02ee29	-0.03196541
60	0xbe0bed56	-0.13664755
61	0x3db2860b	0.08716973
62	0x3cb10083	0.02160669
63	0x3dfe5cbf	0.12420034
64	0x3caad3d9	0.02085297
65	0x3da5eb82	0.0810156
66	0xbd81da2e	-0.063404426
67	0x3d88da69	0.066822834
68	0x3da624dc	0.08112499
69	0x3d9232c0	0.07138586
70	0x3d73c119	0.059510324
71	0x3dc1a203	0.094547294
72	0xbd47826e	-0.04870837
73	0x3cd226bf	0.025653241
74	0x3d6d4f1e	0.05793678
75	0xbde77516	-0.11301629
76	0xbc8788a8	-0.016544655
77	0xbdb270d9	-0.0871293
78	0xbd96eb4d	-0.07369099
79	0x3ce63b97	0.028104587
80	0xbc9b7f40	-0.018981576
81	0xbdb94bce	-0.09047662
82	0xbd6c34f9	-0.057667706
83	0x3db4f4a4	0.08835724
84	0xb9091f8a	-0.00013077087
85	0x3dcb5736	0.099287435
86	0x3cb242ca	0.021760363
87	0xbcba4289	-0.022736805
88	0x3d98d87f	0.07463168
89	0x3e08e909	0.13370146
90	0xba97cec8	-0.0011582011
91	0xbd86c52d	-0.06580577
92	0xbe048b91	-0.12943865
93	0x3ca598f9	0.020214545
94	0x3de7ee12	0.11324705
95	0xbe321417	-0.17390476
96	0xbc513c5f	-0.012770741
97	0x3c936f0a	0.017997283
98	0xbd28fb95	-0.041255552
99	0xbd7a5808	-0.06111911
100	0x3dd72333	0.105047606
101	0x3d9e0296	0.07715337
102	0x3c66f4d0	0.014096454
103	0x3d9b2e76	0.07577221
104	0xbdb44a2d	-0.088032104
105	0x3e4c1997	0.19931637
106	0xbc835365	-0.016030977
107	0xbe2307b1	-0.15920903
108	0xbded29a9	-0.11580212
109	0xbdee270b	-0.116285406
110	0x3d290c88	0.041271716
111	0xbd8d2510	-0.06891835
112	0xbd03822d	-0.032106567
113	0x3dc71cd3	0.09722295
114	0xbc4c1ca0	-0.012457997
115	0xbcf62a74	-0.03004954
116	0xbe205c4c	-0.15660208
117	0xbdd74c75	-0.1051263
118	0xbd35faec	-0.04442875
119	0x3cb13994	0.0216339
120	0x3dbf3266	0.093357846
121	0xbe1d4677	-0.15358911
122	0xbdd71080	-0.10501194
123	0xbde0fc50	-0.10985625
124	0x3aa599ae	0.0012634301
125	0x3e215297	0.15754162
126	0xbd9b7381	-0.0759039
127	0x3c5e9198	0.013584517
128	0xbd6e164c	-0.058126733
129	0xbc967850	-0.018367916
130	0xbd6ab43a	-0.057300784
131	0xbd66db79	-0.05636165
132	0xbddcbe87	-0.10778528
133	0x3db1a5ce	0.08674203
134	0x3d947c1e	0.07250236
135	0xbd7bb97e	-0.061456196
136	0xbd6af384	-0.05736114
137	0xbdacdae8	-0.084401906
138	0x3d78cdb0	0.060743034
139	0x3c18b68e	0.009320868
140	0x3c8b6e6c	0.017020427
141	0x3de93de6	0.11388759
142	0xbd1c7387	-0.038196113
143	0x3d260f86	0.040542148
144	0xbde68793	-0.112563275
145	0xbd853249	-0.06503732
146	0xbc1bcd53	-0.009509402
147	0xbd8d2a71	-0.06892861
148	0x3c0bfd90	0.008544341
149	0xbc9d6e9a	-0.019217778
150	0x3dc982fb	0.09839436
151	0x3e1822a0	0.14856958
152	0xbbefa51c	-0.0073133837
153	0xbd9b4021	-0.07580591
154	0x3dc2baaf	0.09508263
155	0xbd50ff74	-0.05102487
156	0x3d8face4	0.07015398
157	0x3db41762	0.087935224
158	0x3cb99868	0.02265568
159	0x3c9fe371	0.019517632
160	0xbd2d8b64	-0.04236926
161	0x3d628cd6	0.055310093
162	0xbd255e71	-0.04037327
163	0xbe0141f9	-0.12622823
164	0xbe10bbe7	-0.14134179
165	0xbc642c7f	-0.013926624
166	0x3df4ad2e	0.11947094
167	0x3cfac4ea	0.030611474
168	0x3dde49c0	0.108539104
169	0xbdf4009d	-0.119141795
170	0x3a30548e	0.0006726467
171	0x3cc22126	0.023697447
172	0xbd11e9d5	-0.03562339
173	0x3da66379	0.08124442
174	0xbdd35db5	-0.103206076
175	0xbc9ce758	-0.019153282
176	0xbcd407f3	-0.025882697
177	0x3dc2e4eb	0.09516319
178	0xbc26cfd3	-0.010181385
179	0xbe0028cc	-0.12515563
180	0xbd84f19a	-0.06491394
181	0xbd2692ca	-0.040667333
182	0x3bf575b6	0.007490839
183	0xbd829495	-0.06375996
184	0x3dd15e43	0.10223057
185	0xbd22e729	-0.039771233
186	0xbdd3151c	-0.10306761
187	0x3dec3f6c	0.11535534
188	0x3dc50f7c	0.09622094
189	0xbd50399c	-0.05083619
190	0xbe0174a1	-0.12642147
191	0x3d206978	0.039163083
192	0xbb8a8d49	-0.0042282683
193	0xbca760e3	-0.020431941
194	0x3d191a6c	0.037378713
195	0x3e177d17	0.14793812
196	0xbcb8686b	-0.022510728
197	0x3b7c9fa9	0.0038547313
198	0xbd1c8680	-0.038214207
199	0x3bc98951	0.0061504026
200	0xbdb9903c	-0.09060714
201	0x3da2cb2a	0.07948907
202	0xbdd60d14	-0.10451713
203	0x3dadac52	0.08480133
204	0xbda9de38	-0.08294338
205	0x3cbce8ae	0.02306017
206	0xbda3a1a4	-0.07989815
207	0xbe01d146	-0.12677488
208	0x3e07a0cf	0.13244937
209	0x3df520bf	0.119691364
210	0x3db97d0b	0.09057053
211	0xbd8f4db1	-0.0699724
212	0xbd5aa86b	-0.053383272
213	0xbd419af6	-0.047266923
214	0xbd7b2228	-0.06131187
215	0xbdf5103b	-0.11965986
216	0x3e1b8f8c	0.15191478
217	0x3dd2bb18	0.102895916
218	0x3d797065	0.060898203
219	0xbd915fc1	-0.07098342
220	0x3d645625	0.055746216
221	0x3a82878d	0.000995861
222	0x3d27fdcc	0.041013524
223	0xbde25753	-0.11051812
224	0x3b869e5a	0.0041082324
225	0x3d9bf4a6	0.07615022
226	0x3e0d204c	0.13781852
227	0xbc39953f	-0.011327087
228	0xbcb82ed3	-0.022483265
229	0x3d87a270	0.06622779
230	0xbd9ca3b6	-0.07648413
231	0x3df524df	0.11969923
232	0xbd4f1e90	-0.050566256
233	0x3d7687b1	0.060188
234	0x3d988ef9	0.07449145
235	0xbcec9b32	-0.028882597
236	0xbda0f504	-0.07859233
237	0xbd98e015	-0.07464615
238	0x3d373408	0.044727355
239	0xbb96cc94	-0.0046020243
240	0x3d984184	0.07434371
241	0x3d8cf645	0.0688291
242	0x3b86dd13	0.0041157096
243	0xbda88483	-0.082283996
244	0x3d42a4dd	0.047520507
245	0xbd0b5c05	-0.034023304
246	0x3e0f87b9	0.14016618
247	0x3dde557c	0.108561486
248	0xbd2be100	-0.041962624
249	0x3db00c45	0.0859609
250	0x3d24448f	0.040104445
251	0x3d0459d0	0.032312214
252	0xbdb9943f	-0.09061479
253	0xbd4f6408	-0.050632507
254	0x3dd64948	0.10463196
255	0xbd0e6fd3	-0.034774613

lstm.bias_hh_l0 f4 [256]
0	0x3d34ebce	0.044170193
1	0x3ceaffd6	0.028686445
2	0xbce45957	-0.027874632
3	0x3dd9c803	0.10633852
4	0x3dea60f8	0.114442766
5	0x3cbdcaf0	0.023168057
6	0x3da61233	0.0810894
7	0x3d9bda8d	0.07610045
8	0x3e09946f	0.13435529
9	0xbd33a130	-0.043854892
10	0xbe131e85	-0.14367111
11	0xbd9d3fad	-0.07678161
12	0x3d48d8d8	0.049034923
13	0xbdfb0cec	-0.12258324
14	0xbbdfd5a9	-0.00683089
15	0xbd14ff01	-0.036376003
16	0x3d180a46	0.037119173
17	0xbd3537ae	-0.044242553
18	0xbd087b10	-0.033320487
19	0xbe08b80f	-0.13351463
20	0x3c478909	0.012178668
21	0x3d57e0a8	0.052704483
22	0xbd7b3c37	-0.061336722
23	0x3d61d5a4	0.055135384
24	0xbbf8c849	-0.007592235
25	0xbca2dac5	-0.019879708
26	0x3d6a84e1	0.05725563
27	0x3dbb577c	0.09147546
28	0x3d49963c	0.04921554
29	0x3da82873	0.0821084
30	0xbdf6e445	-0.12055258
31	0xbddc786c	-0.10765156
32	0xbd962c31	-0.073326476
33	0xbcbada96	-0.022809308
34	0xbd951bb2	-0.07280673
35	0xbca4f3b0	-0.02013573
36	0x3d2ee2e4	0.04269685
37	0x3db0ac8e	0.08626662
38	0xbde010ce	-0.10940705
39	0x3d293bbe	0.04131674
40	0xbc839e61	-0.016066732
41	0x3bb72d14	0.0055900905
42	0xbe016c9b	-0.12639086
43	0xbdb287b4	-0.087172896
44	0xbdda1564	-0.10648611
45	0x3dc738fa	0.09727664
46	0x3d86653a	0.06562276
47	0xbd9e5076	-0.077301905
48	0xbc26a966	-0.010172224
49	0xbd974a81	-0.07387257
50	0xbc6dd84e	-0.014516903
51	0x3df960c1	0.121766575
52	0xbd4b3dd3	-0.049619507
53	0xbd9eae2c	-0.077480644
54	0xbd4b7edd	-0.049681533
55	0x3d1a75e2	0.037710078
56	0xbce7811b	-0.028259804
57	0xbe16a63e	-0.14711854
58	0xbdcf703d	-0.1012883
59	0xbde01d70	-0.10943115
60	0xbe077d60	-0.1323142
61	0x3d145093	0.036209654
62	0x3ce1bc96	0.027555745
63	0xbc9f4a1f	-0.019444523
64	0xbc04d5a2	-0.008107575
65	0x3cbd76cf	0.023127941
66	0x3d0076a9	0.031363163
67	0x3e180464	0.14845425
68	0x3cb198b9	0.02167927
69	0x3ce538ba	0.02798115
70	0x3ddcf1d2	0.10788311
71	0xbdab687b	-0.083695374
72	0xbdd774e7	-0.10520344
73	0x3d2efddc	0.042722568
74	0xbc056591	-0.008141891
75	0x3daa1661	0.0830505
76	0x3d797ad5	0.060908157
77	0xbd937e8e	-0.07201873
78	0xbe31b725	-0.1735502
79	0x3d079e62	0.03311003
80	0xbe371adc	-0.1788134
81	0x3dd28f8d	0.102812864
82	0x3da84ea3	0.08218124
83	0xbe0de093	-0.138552
84	0x3de31f30	0.11089933
85	0xbd3f6bc2	-0.046733625
86	0xbd8eeed3	-0.06979146
87	0xbdf74f41	-0.12075663
88	0x3deb78b0	0.11497629
89	0xbd2ddf28	-0.042449147
90	0xbe11e63f	-0.14247988
91	0xbcbafb5c	-0.022824936
92	0x3c97f328	0.018548563
93	0xbe075591	-0.13216235
94	0x3da01b68	0.07817727
95	0xbde68393	-0.112555645
96	0x3cdbf220	0.026848853
97	0x3dea46f4	0.114393145
98	0xbd02fb34	-0.031977847
99	0x3db9729f	0.09055065
100	0x3c42e6b7	0.011895827
101	0xbd10c982	-0.035348423
102	0xbe12c7d0	-0.14334035
103	0xbe0b835a	-0.13624325
104	0x3da823dd	0.082099654
105	0x3e026330	0.1273315
106	0x3bb51ce7	0.005527127
107	0xbde58cbc	-0.112084836
108	0xbd9fe3ef	-0.07807147
109	0xbd9e0787	-0.077162795
110	0x3e300f3b	0.1719331
111	0xbd25aad1	-0.040446106
112	0x3ca5d97d	0.020245308
113	0x3df09396	0.117469
114	0xbdbb63fa	-0.091499284
115	0xbd214b22	-0.039378293
116	0xbd5b73cb	-0.053577226
117	0x3d70de14	0.05880554
118	0x3c2d0b6d	0.010561806
119	0xbd8b1bfb	-0.06792446
120	0x3e093c57	0.13401924
121	0xbddfd1ef	-0.109287135
122	0xbd846e2c	-0.06466326
123	0x3dd22171	0.10260285
124	0xbe266f62	-0.16253427
125	0x3da2a025	0.079407014
126	0xbdd073dc	-0.101783484
127	0xbda3d00b	-0.079986654
128	0xbda3e949	-0.0800348
129	0xbdde93dd	-0.108680464
130	0xbda74c6d	-0.08168874
131	0x3de5372f	0.11192166
132	0xbd841c32	-0.0645069
133	0xbde4c8fe	-0.11171149
134	0xbda0a87d	-0.078446366
135	0xbcbf8138	-0.023377046
136	0x3ddece54	0.10879198
137	0x3cab1397	0.020883365
138	0x3dabd807	0.08390813
139	0x3d47d0a4	0.04878296
140	0xbd793bad	-0.060847927
141	0x3b9b27f3	0.004734987
142	0x3d4a42ed	0.04938023
143	0x3e014c62	0.12626794
144	0xbc868621	-0.01642138
145	0x3da6eaf2	0.08150281
146	0x3d0fefef	0.035140928
147	0x3de81250	0.11331618
148	0xbe06503d	-0.13116546
149	0x3d9a6c09	0.07540137
150	0x3d721840	0.059105158
151	0x3d610476	0.054935895
152	0x3cf5744f	0.029962687
153	0x3c125659	0.00893172
154	0x3bcb7d8f	0.006210036
155	0x3d9d95b0	0.07694566
156	0x3dc65b86	0.096854255
157	0x3dd710be	0.1050124
158	0x3ce82ca7	0.028341604
159	0xbd8d4021	-0.06896997
160	0xbe1f228c	-0.15540522
161	0xbdd0c79c	-0.101943225
162	0xbd7b1102	-0.061295517
163	0xbdd62294	-0.10455814
164	0x3d8cd4bc	0.06876513
165	0xbe17b591	-0.14815356
166	0xbcadec20	-0.021230757
167	0xbdefd697	-0.11710852
168	0x3e1e8c37	0.15483175
169	0xbdd6fd4f	-0.104975335
170	0x3da9d736	0.08293001
171	0xbd8e8ed8	-0.06960839
172	0x3d6aa29e	0.05728399
173	0x3be36300	0.006939292
174	0x3d14b6f3	0.036307286
175	0xbd51917c	-0.051164135
176	0xbd8423f5	-0.06452171
177	0x3df190cf	0.11795198
178	0xbddd0fd9	-0.10794038
179	0xbe0ebed9	-0.1393999
180	0xbe1a2240	-0.15052128
181	0xbe08d2f4	-0.13361722
182	0xbddc7283	-0.10764029
183	0x3dc91a2b	0.09819444
184	0xbde72dde	-0.11288045
185	0x3df03edf	0.11730742
186	0xbda15918	-0.078783214
187	0x3e179ec8	0.14806664
188	0x3d990a17	0.074726276
189	0x39da4e39	0.0004163848
190	0xbdf7ed1e	-0.121057734
191	0x3b1eaa64	0.0024210447
192	0x3dd0a857	0.10188358
193	0x3e0ac6c2	0.13552383
194	0xbe0ba03f	-0.13635348
195	0xbc9c2d14	-0.019064464
196	0x3bab49d4	0.005227307
197	0xbd0967a6	-0.033546112
198	0xbe02ea1d	-0.1278462
199	0xbc89306c	-0.016746722
200	0x3e0be76d	0.136625
201	0xbdc9858b	-0.098399244
202	0xbdf236b4	-0.1182684
203	0x3d66cce4	0.056347743
204	0x3dc7029f	0.09717297
205	0xbd3fd846	-0.046837114
206	0x3d7bef01	0.06150723
207	0xbd367e3f	-0.04455399
208	0xbd76d855	-0.060264904
209	0xbd9a1968	-0.07524377
210	0x3b67e0f4	0.0035381885
211	0xbcb08e59	-0.021552252
212	0xbd532e5e	-0.05155789
213	0xbd4e796b	-0.050408762
214	0x3c415a06	0.011801248
215	0xbd019bad	-0.031642605
216	0xbcbcbaa1	-0.02303821
217	0xbd9b824f	-0.07593214
218	0xbd8ad843	-0.0677953
219	0x3dc2bbb4	0.09508458
220	0xbdfbadfd	-0.12289045
221	0x3db6ee50	0.08932173
222	0xbdd07694	-0.10178867
223	0xbcdbd3ab	-0.02683433
224	0xba89bba4	-0.0010508192
225	0x3da778b8	0.08177322
226	0xbb349dfc	-0.0027559986
227	0xb975184b	-0.0002337407
228	0xbdd9a74d	-0.10627613
229	0x3d6b7721	0.057486657
230	0xbd9254c1	-0.07145072
231	0x3da294dd	0.0793855
232	0x3da325a8	0.07966167
233	0x3e5e6bb6	0.21720776
234	0x3db1cd4c	0.086817354
235	0xbe254593	-0.16139822
236	0xbd864e44	-0.06557897
237	0xbd6f689c	-0.058449373
238	0x3d4fffd3	0.050781082
239	0xbe2faf53	-0.17156725
240	0xbd925752	-0.07145561
241	0x3e2a2992	0.1661742
242	0x3cb0ac82	0.021566633
243	0xbd67206b	-0.0564274
244	0x3c27a16f	0.01023136
245	0xbd6375a3	-0.05553211
246	0x3dafe99e	0.08589481
247	0x3d176518	0.036961645
248	0xbdd91722	-0.10600115
249	0xbdb66627	-0.08906203
250	0x3dc71572	0.09720887
251	0xbdc5f356	-0.09665553
252	0xbd64fc0a	-0.055904426
253	0xbd943344	-0.07236341
254	0xbdf7d599	-0.121012874
255	0x3e0d5f1a	0.1380581

lstm.weight_ih_l1 f4 [256, 64]
0	0xbdeb0dfa	-0.11477275
1	0xbda7e30a	-0.08197601
2	0xbd5cd8a9	-0.05391756
3	0x3dc61664	0.096722394
4	0x3d22fc2a	0.039791264
5	0xbd85532e	-0.06510006
6	0xbcdde549	-0.02708687
7	0xbd1478fb	-0.03624819
8	0x3db04f7c	0.086089104
9	0xba0972ca	-0.000524324
10	0x3e13644e	0.14393732
11	0x3e0cc518	0.1374706
12	0xbe34a2ba	-0.176402
13	0xbaf3a969	-0.0018589917
14	0x3d9f71e4	0.07785395
15	0xbcfac636	-0.030612092
16	0xbdddee95	-0.108365215
17	0x3db9b0ae	0.09066902
18	0x3d421deb	0.047391813
19	0x3c577748	0.013150997
20	0x3d88ed7f	0.06685924
21	0x3e3c68ed	0.18399401
22	0x3cdffd6e	0.027342524
23	0x3e008b0d	0.12553044
24	0xbc8e6f73	-0.017387128
25	0x3d2b246d	0.041782785
26	0xbd2577af	-0.040397342
27	0x3dcf0a79	0.101094194
28	0x3d9fe010	0.078064084
29	0x3da20551	0.0791117
30	0x3df2f51d	0.11863158
31	0x3d637e68	0.055540472
32	0xbd0b7e57	-0.034056034
33	0xbd07052a	-0.03296391
34	0xbe2ae233	-0.1668785
35	0xbc9b708f	-0.01897457
36	0x3d9df748	0.07713181
37	0xbd350fd1	-0.044204537
38	0x3e14df60	0.14538336
39	0x3da40782	0.080092445
40	0x3cb694e4	0.022287793
41	0x3d91a4ed	0.07111535
42	0x3d30d0d0	0.04316789
43	0x3d372483	0.044712555
44	0xbe124751	-0.14285018
45	0xbc9942f2	-0.01870868
46	0xbdbbb45b	-0.091652595
47	0xbdd8140f	-0.10550701
48	0xbd9f2e3a	-0.07772489
49	0xbdb7f15a	-0.08981581
50	0xbdb93f35	-0.09045259
51	0xbc2a8bbe	-0.010409294
52	0x3db8fe40	0.09032869
53	0x3e8796a5	0.2648212
54	0xbe3643b2	-0.17799261
55	0x3e03e8d1	0.12881781
56	0xbdb3c3fb	-0.08777615
57	0x3cb1260a	0.021624584
58	0x3dc25548	0.09488922
59	0x3e078945	0.13235958
60	0xbcffa623	-0.03120715
61	0xbc90dcd8	-0.017683432
62	0xbe2599f8	-0.16172016
63	0xbd198f82	-0.037490375
64	0xbdd817b0	-0.10551393
65	0xbdbd1efe	-0.09234427
66	0xbc46b225	-0.012127434
67	0x3dc197d7	0.09452789
68	0x3d52b967	0.051446345
69	0x3dfed9d0	0.12443888
70	0xbc08bea4	-0.0083462335
71	0xbdf6b4fd	-0.120462395
72	0x3e48c863	0.19607691
73	0xbbd213cc	-0.0064110514
74	0x3e2cc439	0.16871728
75	0x3dba1150	0.09085333
76	0xbe614284	-0.2199803
77	0x3d418631	0.047247116
78	0xbc67ac9c	-0.014140274
79	0xbdb50851	-0.08839477
80	0xbcaa615d	-0.02079838
81	0x3cd33375	0.025781373
82	0x3e5adc9c	0.21373218
83	0xbe103066	-0.14080963
84	0x3d3b7ddc	0.045774326
85	0x3bc5b460	0.0060334653
86	0x3de206e5	0.11036471
87	0x3dd9c217	0.10632723
88	0xbe423824	-0.18966728
89	0x3dfed80b	0.12443551
90	0x3cdea633	0.02717886
91	0x3d13b575	0.036061723
92	0x3e075356	0.13215384
93	0xbd0302ee	-0.031985216
94	0x3e2482db	0.16065542
95	0xbe2989e5	-0.16556509
96	0xbe004c73	-0.12529163
97	0x3b8eddd7	0.0043599415
98	0xbe3b1ce6	-0.18272743
99	0xbe0d573f	-0.13802813
100	0xbd867e98	-0.065671146
101	0xbdb52db5	-0.088466085
102	0x3e1f2a21	0.15543415
103	0x3bb91785	0.0056485557
104	0x3c94f02b	0.018180927
105	0x3c2f1d84	0.010688189
106	0x3e0494df	0.12947415
107	0x3a3c0bf1	0.000717341
108	0x3da2c939	0.079485364
109	0x3cf330fd	0.029686445
110	0xbe601566	-0.21883163
111	0xbe1b93ea	-0.15193143
112	0x3bd75ecf	0.0065725814
113	0xbd1c33af	-0.038135227
114	0xbd386b9b	-0.045024496
115	0xbd9335f6	-0.071880266
116	0xbd01a8fd	-0.0316553
117	0xbc42ce21	-0.011889965
118	0xbd594ce7	-0.053051855
119	0x3c57ffd7	0.013183556
120	0xba0667d1	-0.0005127164
121	0xbd1063f2	-0.035251565
122	0xbde1f8ac	-0.110337585
123	0xbc0eb12d	-0.008709234
124	0x3e2b754c	0.16743964
125	0x3dd4d72f	0.103926055
126	0xbdee370a	-0.116315916
127	0xbe50ebcc	-0.2040245
128	0x3cafa390	0.021440297
129	0xbd83c8e4	-0.06434801
130	0xbddb1e14	-0.10699096
131	0x3df646e2	0.120252386
132	0xbd5f828d	-0.054567862
133	0x3dc43fd8	0.0958249
134	0x3e1ac560	0.15114355
135	0xbda1281f	-0.078689806
136	0x3de62dc8	0.11239201
137	0xbdaf7007	-0.085662894
138	0x3e11d460	0.14241171
139	0x3bf5db93	0.007502982
140	0x3d8578a0	0.06517148
141	0x3d06af64	0.03288211
142	0x3da56ae5	0.08077029
143	0xbbdf7f51	-0.006820597
144	0xbd95d244	-0.073154956
145	0xbd4a0006	-0.04931643
146	0x3cf7f76e	0.03026935
147	0x3d91c415	0.07117478
148	0x3b01ff31	0.0019835944
149	0xbc056878	-0.008142583
150	0x3df0c934	0.117571265
151	0x3e057d8e	0.13036177
152	0x3d1d2a5c	0.038370475
153	0xbd7bf413	-0.061512064
154	0xbd603d2a	-0.05474583
155	0x3cbde209	0.023179071
156	0xbd0a8791	-0.033820692
157	0xbca90807	-0.02063371
158	0x3c2a4db8	0.010394506
159	0xbdc05046	-0.09390311
160	0xbe11db26	-0.14243755
161	0x3d8ed1a6	0.06973581
162	0xbd4b49fb	-0.0496311
163	0xbdccb2e0	-0.09995055
164	0x3c041e53	0.0080638705
165	0xbd418633	-0.047247123
166	0xbb1384da	-0.0022509606
167	0xbc8c2e27	-0.01711185
168	0x3e11c593	0.14235525
169	0x3ddedb08	0.10881621
170	0xbcc23909	-0.023708837
171	0x3cd53351	0.026025446
172	0xbe0a8d16	-0.13530383
173	0x3dc2ff78	0.09521383
174	0xbc3cdf2a	-0.011527816
175	0x3c8872d6	0.01665632
176	0xbd72a163	-0.05923594
177	0x3df3f3f4	0.11911765
178	0x3c0e1e1c	0.008674171
179	0x3cbbf60e	0.022944476
180	0x3cdfda41	0.027325751
181	0xbc6abe1a	-0.01432755
182	0xbd73e105	-0.059540767
183	0x3d9c5f9d	0.07635424
184	0x3bfe97ba	0.007769552
185	0x3dff6e74	0.12472239
186	0xbde78b5a	-0.11305876
187	0x3e29ef75	0.16595252
188	0xbd275aa2	-0.04085792
189	0x3e063ba5	0.1310869
190	0xbd872248	-0.065983355
191	0xbda58820	-0.080826044
192	0x3db72ac1	0.089437015
193	0x3d3d1eb7	0.04617187
194	0x3cda9423	0.026681965
195	0x3db789e6	0.08961849
196	0xbdad1fe1	-0.08453346
197	0x3d852458	0.06501073
198	0x3d650496	0.055912577
199	0x3d6f221d	0.058382142
200	0x3dcbe7a7	0.099562936
201	0x3d1e6612	0.03867156
202	0xbd69481d	-0.05695354
203	0x3de71cda	0.112848
204	0xbdc9bf9b	-0.09850999
205	0x3e377919	0.17917289
206	0x3d91f163	0.07126119
207	0xbd79b4c2	-0.0609634
208	0xbd2746d5	-0.040839035
209	0xbd1c9b8e	-0.038234286
210	0x3d80b9a9	0.06285412
211	0x3cd8474a	0.02640118
212	0x3c8b3a91	0.0169957
213	0xbd5db76c	-0.054130003
214	0xbca660ef	-0.020309893
215	0xbd76eb44	-0.06028296
216	0xba651fcd	-0.00087403954
217	0xbc0d936f	-0.008641108
218	0x3e4165d3	0.18886499
219	0xbcc46b1e	-0.023976859
220	0x3db84c32	0.08998908
221	0xbd26c168	-0.04071179
222	0x3db07755	0.08616511
223	0xbe16fad9	-0.14744128
224	0xbcbd8b65	-0.023137758
225	0x3c241af5	0.010016193
226	0xbe4d19bd	-0.2002935
227	0xbc2b8184	-0.010467891
228	0xbdd825ae	-0.10554062
229	0xbe03db16	-0.12876543
230	0x3d88eb25	0.06685475
231	0x3cfc2f66	0.03078432
232	0xbd8d9219	-0.069126315
233	0x3cdc4756	0.026889484
234	0x3e0ccf1a	0.13750878
235	0x3c40462a	0.011735478
236	0x3d09b96e	0.033624105
237	0x3d154592	0.0364433
238	0xbe09c545	-0.13454159
239	0xbdd87692	-0.105694905
240	0xbd2cb81a	-0.04216776
241	0x3d0a635b	0.03378616
242	0xbd2ff3e1	-0.04295719
243	0xbc36ccc5	-0.011157219
244	0xbc00370a	-0.007825622
245	0x3e01501e	0.12628219
246	0xbe0fd3a5	-0.1404558
247	0x3e2bfd86	0.1679593
248	0x3c0a2a57	0.008432946
249	0x3d99a02f	0.07501256
250	0x3d99d5b2	0.07511462
251	0x3bb38aea	0.0054792063
252	0xbd8c7d69	-0.068598576
253	0x3afcad2a	0.0019277681
254	0x3d5248e8	0.05133906
255	0x3d7a15c0	0.0610559

lstm.weight_hh_l1 f4 [256, 64]
0	0xbe11f575	-0.1425379
1	0x3de93057	0.11386173
2	0x3da431d1	0.08017314
3	0xbd8a88a4	-0.067643434
4	0x3d6dc1a0	0.058045983
5	0xbd31cfb9	-0.04341099
6	0x3d534050	0.051575005
7	0xbd11bbec	-0.035579607
8	0xbdd4974f	-0.10380422
9	0x3d978e62	0.07400204
10	0xbc387b7a	-0.011259908
11	0xbd85136c	-0.06497845
12	0xbe065d0a	-0.13121429
13	0x3e0621ee	0.1309888
14	0xbc2d09cc	-0.010561418
15	0x3b871194	0.0041219685
16	0xbd5bb9a6	-0.053643845
17	0xbc6b6030	-0.014366195
18	0x3d049de7	0.03237715
19	0x3e04cb9f	0.129683
20	0xbd8092c3	-0.062779926
21	0xbdc4b242	-0.096043125
22	0x3d897014	0.0671083
23	0xbe06edba	-0.13176623
24	0xbd38637c	-0.04501675
25	0x3b4712ab	0.0030376117
26	0xbdeb9e22	-0.11504771
27	0xbcd31088	-0.025764719
28	0x3c89cd2d	0.016821468
29	0x3cc366c8	0.02385272
30	0x3d975b7b	0.073904954
31	0xbac48a55	-0.001499484
32	0x3d95bffd	0.073120095
33	0x3ce4e6e3	0.027942127
34	0x3dfee15d	0.124453284
35	0xbabbe9dd	-0.0014336664
36	0x3dfc2c79	0.1231317
37	0xbcccad67	-0.024985028
38	0x3c7b8701	0.015352012
39	0x3dd57094	0.10421863
40	0xbde278a9	-0.1105817
41	0xbd4d96fb	-0.050192814
42	0xbc474bb5	-0.012164046
43	0x3d696554	0.0569814
44	0xbde3896a	-0.11110194
45	0x3d0fed9c	0.03513871
46	0x3e0bcf34	0.1365326
47	0xbdf5399f	-0.11973881
48	0x3d8847ce	0.06654321
49	0xbd94a167	-0.072573476
50	0x3ca1573f	0.019694922
51	0xbd4a8486	-0.04944279
52	0xbba27685	-0.0049579763
53	0x3c09491f	0.00837925
54	0xbd4cf8c6	-0.050041936
55	0xbdfb8ce9	-0.12282736
56	0xbde06c74	-0.10958186
57	0xbca79064	-0.020454593
58	0xbbbbd857	-0.005732577
59	0x3dfdc8cb	0.12391814
60	0x3d012f31	0.031539146
61	0x3c81bc2d	0.0158368
62	0xbd8444c2	-0.06458427
63	0xbd7f7c1a	-0.06237421
64	0x3e2df719	0.16988792
65	0x3d68afde	0.056808345
66	0x3da370bf	0.07980489
67	0xbc008be2	-0.007845851
68	0xbd8e10e2	-0.06936814
69	0x3b41d16a	0.0029574283
70	0xbdca6287	-0.09882074
71	0xbd8ab52c	-0.06772837
72	0x3d47a645	0.04874255
73	0x3d9e0486	0.077157065
74	0x3dcf2993	0.101153515
75	0xbdf145ba	-0.117808774
76	0xbdf16a3f	-0.11787843
77	0xbd0a3b31	-0.033747856
78	0x3dd16aec	0.10225472
79	0xbde24b96	-0.11049573
80	0xbcff65b6	-0.03117643
81	0x3dbf263a	0.09333463
82	0x3e0171cd	0.12641068
83	0xbc3ae883	-0.011407974
84	0xbda1b790	-0.0789634
85	0xbd39518d	-0.04524379
86	0x3dc134bc	0.094338864
87	0x3d7a0bc2	0.06104637
88	0x3d949414	0.07254806
89	0x3e16fc23	0.1474462
90	0xbde30d23	-0.1108649
91	0x3d7fbcf3	0.062436055
92	0x3d84e664	0.06489256
93	0xbd998e21	-0.07497812
94	0xbdf2dce7	-0.1185854
95	0xbd8d67d6	-0.06904571
96	0x3cd1db05	0.025617132
97	0x3de9cea3	0.11416366
98	0xbdee9ee5	-0.116514005
99	0xbcfd7557	-0.030939741
100	0xbdfb0807	-0.122573905
101	0xbd0a6d52	-0.033795662
102	0xbdd7841a	-0.10523243
103	0x3d946795	0.07246319
104	0xbdc11662	-0.09428097
105	0x3c5c0455	0.013428767
106	0xbc9c76d2	-0.019099627
107	0xbe278211	-0.1635821
108	0x3d4a9c78	0.049465626
109	0xbd96235c	-0.07330963
110	0xbe27e2ef	-0.16395162
111	0xbbd8a7b8	-0.0066117905
112	0x3dd9e5fd	0.1063957
113	0x3db2f03f	0.087372296
114	0x3dcd5128	0.10025245
115	0x3db53287	0.08847528
116	0x3de8d0aa	0.113679245
117	0x3e1846ad	0.1487071
118	0xbd0e10e5	-0.03468408
119	0x3d3545b5	0.04425593
120	0xbe02c5e9	-0.12770809
121	0x3dea4361	0.11438633
122	0xbdcae8a5	-0.09907655
123	0xbda2214d	-0.07916508
124	0x3db15ca5	0.08660249
125	0x3cbfc198	0.023407742
126	0x3df6feb0	0.120602965
127	0xbd6ba611	-0.05753142
128	0xbcd7cdd8	-0.026343271
129	0xbe1b7dbe	-0.15184686
130	0x3d2ca2c0	0.042147398
131	0x3d201b6f	0.039088663
132	0x3ce696c0	0.028148055
133	0x3c0754dc	0.008259978
134	0xbd2430d2	-0.04008562
135	0x3d085933	0.033288192
136	0xbd3ddbda	-0.046352245
137	0x3d0bac62	0.034099944
138	0x3cf2b621	0.029627861
139	0x3cae904f	0.021309046
140	0x3dc671b4	0.09689656
141	0x3db0b0c8	0.08627468
142	0x3e114460	0.14186239
143	0xbd49b44f	-0.04924422
144	0x3e0dd9d3	0.13852625
145	0x3e00d986	0.12582979
146	0x3dacfe5f	0.08446955
147	0x3d67c00a	0.056579627
148	0xbd5ee855	-0.054420788
149	0xbcb5be0e	-0.022185352
150	0xbdadb138	-0.084810674
151	0xbd7e9beb	-0.062160414
152	0xbd8c8383	-0.06861021
153	0xbcc5e352	-0.024156246
154	0x3da68055	0.08129946
155	0xbdb0f682	-0.08640768
156	0x3d998acc	0.074971765
157	0xbc094483	-0.008378151
158	0x3db2e836	0.08735697
159	0x3d766750	0.06015712
160	0xbd1b25e7	-0.037877943
161	0x3db651b4	0.089023024
162	0x3d3a5a77	0.04549643
163	0xbdaa0df2	-0.08303441
164	0xbb035bdb	-0.0020043764
165	0xbe144d1b	-0.14482538
166	0xbdc98f26	-0.098417565
167	0x3d963915	0.07335106
168	0xbdbe7013	-0.0929872
169	0xbd85ca86	-0.06532769
170	0xbdc71a5f	-0.09721827
171	0x3cc14c3d	0.023595924
172	0x3dbd21c1	0.09234954
173	0x3dc9dad6	0.09856193
174	0x3d6bb3ef	0.057544645
175	0x3c208ec7	0.009799666
176	0xbd886b88	-0.06661135
177	0xbd8491aa	-0.06473096
178	0xbd59f9a3	-0.053216588
179	0xbc9b3f4f	-0.018951086
180	0xbdc33149	-0.09530885
181	0x3cac78a4	0.02105362
182	0x3c07a1e2	0.008278342
183	0xbcd1caaa	-0.025609333
184	0xbd80a05e	-0.062805876
185	0x3c8d862b	0.01727589
186	0x3cbcbee2	0.023040239
187	0xbd6aec1e	-0.057354085
188	0x3d369cd9	0.044583175
189	0xbe103c83	-0.14085583
190	0x3d420197	0.047364797
191	0x3d3f6f15	0.046736795
192	0xbdba5fe0	-0.09100318
193	0x3d421058	0.047378868
194	0xbbd548f3	-0.0065089404
195	0x3d9c2990	0.07625115
196	0xbd394616	-0.045232855
197	0x3d28aa6d	0.041178156
198	0xbda8b287	-0.082371764
199	0xbbfb74ac	-0.0076738205
200	0x3d324053	0.043518376
201	0xbdff6a55	-0.12471453
202	0x3d7a1078	0.061050862
203	0x3d85f973	0.06541719
204	0x3dcf4e87	0.101224
205	0xbdb2c3f8	-0.08728784
206	0xbcfcdc58	-0.030866787
207	0xbd5bb33a	-0.05363772
208	0xbd29a12a	-0.041413464
209	0x3dfb249d	0.12262843
210	0xbb1526f8	-0.0022758823
211	0x3ba8bd83	0.0051495447
212	0xbdd78b75	-0.10524646
213	0xbcf70a4a	-0.030156273
214	0x3df593e0	0.119910955
215	0x3c231079	0.009952658
216	0xbd0fa4a0	-0.035069108
217	0xbd18277e	-0.037147038
218	0x3deeec5c	0.11666176
219	0x3cb478b9	0.022030221
220	0xbd88b394	-0.06674877
221	0x3d145a59	0.036218975
222	0x3d6ae5c2	0.05734802
223	0x3e0fc211	0.14038874
224	0x3d0ca502	0.03433705
225	0xbdc99551	-0.09842933
226	0x3c966cff	0.01836252
227	0xbd6bf89f	-0.05761015
228	0xbd5d5021	-0.054031495
229	0x3c0123d1	0.007882074
230	0x3dde41d2	0.10852398
231	0xbde4cd9e	-0.11172031
232	0xbca4f71b	-0.02013736
233	0x3c0e2555	0.008675893
234	0xbdd8de3c	-0.10589263
235	0x3d5e5dc3	0.054288637
236	0x3d197004	0.037460342
237	0x3dfc90e2	0.12332322
238	0xbd1b5126	-0.037919186
239	0x3d8aff80	0.06787014
240	0xbbc5e4ff	-0.0060392614
241	0xbd765f95	-0.060149748
242	0x3e144beb	0.14482085
243	0xbd47dc75	-0.04879423
244	0xbdc9ca1d	-0.09853003
245	0x3db97b74	0.0905675
246	0x3cff76a1	0.031184496
247	0x3dba845a	0.09107275
248	0x3d2081ca	0.039186276
249	0xbd02fff7	-0.03198239
250	0xbdce0550	-0.10059607
251	0x3d67c39e	0.05658304
252	0xbd21b0f6	-0.039475404
253	0xbdf6c52e	-0.12049328
254	0x3dfe1a33	0.12407341
255	0x3c7b72fa	0.015347237

lstm.bias_ih_l1 f4 [256]
0	0x3daad3da	0.08341189
1	0x3d40f1c8	0.04710558
2	0xbd7cf7b9	-0.061759684
3	0xbd9e4e10	-0.07729733
4	0x3deea882	0.11653234
5	0xbd8c9151	-0.068636544
6	0x3d410301	0.047122005
7	0x3c803287	0.015649093
8	0x3e1dafc1	0.15399076
9	0x3d808d42	0.06276943
10	0xbd3194af	-0.043354686
11	0x3dcfcef7	0.10146897
12	0xbd789e90	-0.060698092
13	0xbd8cf272	-0.0688218
14	0x3e056240	0.1302576
15	0xbe03e9b1	-0.12882115
16	0x3df98272	0.121830836
17	0xbcae0a41	-0.021245124
18	0x3d0cf666	0.03441467
19	0xbd19d605	-0.03755762
20	0xbd923a26	-0.07139997
21	0x3e16be30	0.14720988
22	0x3d59e956	0.053201042
23	0x3d9b8f79	0.075957246
24	0xbc1a6e77	-0.009425751
25	0xbcaf6c24	-0.02141387
26	0x3d8183fc	0.06324002
27	0xbd519ab8	-0.051172942
28	0xbd541602	-0.0517788
29	0xbb9f8b66	-0.0048689125
30	0x3e0a7498	0.1352104
31	0xbd9f1579	-0.077677675
32	0xbcb9a993	-0.022663867
33	0xbe05d8a4	-0.13070923
34	0xbdaf03c2	-0.085456386
35	0xbc76a202	-0.015053274
36	0x3db5b48f	0.088723294
37	0x3d5e8135	0.05432244
38	0x3ced3b32	0.02895889
39	0xbd29a3db	-0.04141603
40	0xbdbe6521	-0.092966326
41	0xbc0b9a47	-0.008520669
42	0x3de58f6f	0.112089984
43	0x3c3c7c58	0.011504255
44	0xbd321034	-0.043472484
45	0x3dd83652	0.10557236
46	0x3d3f2f2b	0.046675842
47	0xbda1718e	-0.07882987
48	0xbda43c08	-0.080192626
49	0x3d89cd5c	0.06728622
50	0x3d43135d	0.04762589
51	0x3e06b69e	0.131556
52	0x3b91998a	0.004443352
53	0x3d571796	0.052512728
54	0x3da12fc4	0.07870439
55	0x3d04598a	0.032311954
56	0x3d8e7ef2	0.06957807
57	0x3bfb1661	0.00766258
58	0x3db533ea	0.088477924
59	0x3ddad2f9	0.10684771
60	0xbccf05de	-0.025271352
61	0x3c028f49	0.007968732
62	0x3cbd3af7	0.023099406
63	0xbd070252	-0.032961197
64	0xbdbe74d9	-0.09299631
65	0x3de59704	0.112104446
66	0xbced3ee6	-0.028960656
67	0x3debab21	0.115072496
68	0xbd38570e	-0.045004897
69	0x3d91b5cf	0.07114755
70	0xbce388cf	-0.027775196
71	0xbd9b18e2	-0.075731054
72	0x3e0362e4	0.12830693
73	0x3e0b45a7	0.13600789
74	0xbd551afc	-0.052027687
75	0xbdbc4620	-0.09193063
76	0xbdbd0774	-0.09229937
77	0x3e2d1f85	0.16906555
78	0xbd399b83	-0.045314323
79	0xbd4ea4ee	-0.050450258
80	0x3e28f8cb	0.16501157
81	0x3c371ec6	0.011176771
82	0x3d0f9790	0.03505665
83	0x3da57602	0.08079149
84	0xbd6d2faa	-0.057906784
85	0xbd643da3	-0.055722844
86	0x3cb66cc2	0.022268657
87	0x3db6f0ad	0.08932624
88	0x3cf653c3	0.030069238
89	0xbd39e3f7	-0.04538342
90	0x3bf7e974	0.0075656716
91	0x3dac245f	0.08405375
92	0xbddb787a	-0.107163385
93	0xbe32952a	-0.17439714
94	0xbcafa787	-0.021442188
95	0xbde0a2ea	-0.109685734
96	0x3e027d28	0.12743056
97	0x3c2aaca1	0.0104171345
98	0x3d40577b	0.046958428
99	0xbd5813a2	-0.0527531
100	0x3c57af19	0.013164305
101	0x3e11531b	0.14191858
102	0xbd91d45a	-0.07120581
103	0x3d0d7956	0.034539543
104	0x3d0ce8d6	0.034401737
105	0x3d36eed1	0.044661347
106	0x3d888d7d	0.06667612
107	0x3c528bbd	0.012850699
108	0xbd221e37	-0.039579596
109	0x3cbc1670	0.022959918
110	0xbe08e49d	-0.13368459
111	0x3d8088bc	0.0627608
112	0xbd1b7a29	-0.037958298
113	0x3b4b96eb	0.0031065296
114	0xbd8bc089	-0.068238325
115	0x3c2bfe64	0.010497663
116	0x3df613ca	0.12015493
117	0xbd477300	-0.048693657
118	0x3d8ef79d	0.06980822
119	0x3da573bf	0.080787174
120	0x3dd2f99f	0.10301518
121	0xbc4fb473	-0.0126773
122	0x3d1cea29	0.03830925
123	0x3dde43e4	0.10852793
124	0xbd80fc8f	-0.06298172
125	0xbde10412	-0.109871045
126	0xbd6d25cf	-0.057897385
127	0x3d8b7dc2	0.06811096
128	0x3a863713	0.0010239802
129	0xbcbfa804	-0.023395546
130	0xbe303468	-0.17207491
131	0xbd576211	-0.052583758
132	0xbe040d4e	-0.128957
133	0x3ce9d3b2	0.028543327
134	0xbd16b5dc	-0.03679453
135	0x3cdbe9d4	0.026844896
136	0xbde6a13f	-0.11261224
137	0xbe042b40	-0.12907124
138	0x3dae1490	0.08500016
139	0xbb3fe365	-0.0029279825
140	0x3c417ded	0.011809808
141	0xbe28f4b4	-0.16499597
142	0x3dcc6ab1	0.09981287
143	0xbc9561fe	-0.018235203
144	0x3df627cc	0.120193094
145	0xbd191c46	-0.03738048
146	0x3d492670	0.049108922
147	0x3d1cba30	0.0382635
148	0x3dbc0189	0.0917998
149	0xbc34f9b1	-0.011045859
150	0x3d0928a7	0.033486035
151	0xbd497ff9	-0.04919431
152	0xbe030c10	-0.1279757
153	0xbc15ce35	-0.009143402
154	0xbba31ca4	-0.0049777795
155	0xbc0489e1	-0.0080895135
156	0x3d5779e7	0.05260649
157	0xbd656da6	-0.056012772
158	0xbc2c8c77	-0.010531536
159	0x3d85b536	0.06528704
160	0xbde95002	-0.113922134
161	0xbd96c792	-0.07362284
162	0x3cb9a350	0.022660881
163	0xbdd11258	-0.10208577
164	0x3e285d8c	0.16441935
165	0xbd7215bd	-0.059102762
166	0xbd03bd80	-0.032163143
167	0xbcdcecd8	-0.026968405
168	0xbcffca27	-0.031224323
169	0x3dd7285e	0.10505746
170	0xbe244fd5	-0.16046079
171	0x38b69065	8.705332e-05
172	0xbd1de9b4	-0.038552955
173	0x3e14ea35	0.14542468
174	0xbabe0a8e	-0.0014498995
175	0x3c0981d9	0.0083927745
176	0x3c4b7f87	0.012420542
177	0x3d38d158	0.04512152
178	0xbd0c0e58	-0.034193367
179	0x3cbfb42d	0.023401344
180	0xbd9a4a4c	-0.07533702
181	0xbd84d644	-0.064861804
182	0xbd973667	-0.07383423
183	0x3e243b52	0.16038254
184	0x3cdc1a07	0.02686788
185	0xbe076cdd	-0.13225122
186	0xbdfab9ec	-0.12242493
187	0xbd11cc61	-0.0355953
188	0x3e148df8	0.14507282
189	0xbdd83d97	-0.10558622
190	0x3e15fef9	0.14648046
191	0x3d823429	0.06357605
192	0xbd9b9175	-0.07596103
193	0x3db48e98	0.0881626
194	0xbc9fa6ad	-0.019488657
195	0xbd8b096f	-0.06788909
196	0x3d02b219	0.03190813
197	0xbd886efa	-0.06661792
198	0xbd1e3553	-0.038625073
199	0x3e010c5d	0.12602372
200	0x3de36216	0.11102693
201	0x3e1ca46d	0.15297098
202	0x3ccbfb18	0.024900004
203	0xbc99f1c7	-0.018792046
204	0xbd1ac3c1	-0.03778434
205	0xbca25719	-0.019816922
206	0x3d690581	0.056890015
207	0xbdaaa7ef	-0.08332812
208	0x3d8f0c8b	0.06984814
209	0x3d1b2bac	0.037883446
210	0xbd079cd2	-0.03310854
211	0x3d3e8318	0.04651174
212	0x3df2179d	0.1182091
213	0x3dfd5523	0.12369754
214	0x3e13a47d	0.14418216
215	0x3d11ab58	0.035563797
216	0x3d63d185	0.055619735
217	0x3d9bc91e	0.076067194
218	0x3c5b3010	0.013378158
219	0x3d74f7e4	0.05980672
220	0xbdf71682	-0.1206484
221	0x3d79de86	0.06100323
222	0xbd1f02cf	-0.038821038
223	0x3cadb82b	0.021205982
224	0x3e126959	0.14298
225	0xbde0a906	-0.10969739
226	0x3dbd4579	0.092417665
227	0x3dbc1b33	0.09184875
228	0xbd59b036	-0.053146563
229	0x3e1a58db	0.15072958
230	0x3d3f29c9	0.04667071
231	0x3d0c5451	0.034260098
232	0xbdd55ea3	-0.10418441
233	0x3de54917	0.111955814
234	0x3c702841	0.014658035
235	0x3dd18bdc	0.10231754
236	0x3e126658	0.14296854
237	0xbc477adc	-0.012175288
238	0xbcf38fda	-0.02973168
239	0x3d40196c	0.046899244
240	0x3db88fbb	0.090117894
241	0xbdcf39c8	-0.10118443
242	0xbda9915d	-0.08279679
243	0x3c545959	0.012960755
244	0xbd45f769	-0.04833165
245	0x3e0a2d90	0.13493943
246	0x3df4f7a4	0.11961296
247	0x3e099758	0.1343664
248	0x3da2d56b	0.079508625
249	0xbdb9ab8d	-0.09065924
250	0xbdc6a33e	-0.09699105
251	0xbd6f9e92	-0.058500834
252	0xbbfec939	-0.0077754525
253	0x3dc20b85	0.094748534
254	0x3d93d994	0.07219234
255	0x3d93ee17	0.072231464
