data_storage/models/lstm_v1.0.0_20251231_145824/rebounds_model.pt (torch, 217525 bytes, 9 tensors)

lstm.weight_ih_l0 f4 [256, 12]
00000000: 8add 543c c4e4 a03d e171 0f3e f721 ae3c
00000010: 7ee8 b93d c3e3 19bc bf97 14bc 1a5c 88bd
00000020: 068c d5bd 3347 b4bd 6ab4 b63d fdfb d23d
00000030: 5c35 d7bc e46f 09be b778 d5bc d432 0abc
00000040: 7ab8 80bc 252e 42bd 7467 a73d e718 88bd
00000050: 325a 113e 7925 513d 2808 14bd 4d2e 523c
00000060: fc00 25be 878c edbd 37fe d73d 5791 8ebd
00000070: 2c54 9638 dd53 f6bc 5ffb b2bc 79ca 483d
00000080: 20a3 80bd bbe4 8dbc d1cd ecbc 41c5 573e
00000090: d586 8a3c 9c40 fa3a 46bb 1f3e 20f0 983d
000000a0: 9e0e 87bc 3e49 e2bb 96fb cfbd f512 4abb
000000b0: b5a2 533d c802 bfbd 6a48 7d3a cfa4 063e
000000c0: 3499 0a3d 26b7 8fbd 2158 35bc 45e0 98bd
000000d0: 4602 56bd fa16 8c3c 57d8 883d c661 aa3d
000000e0: 4fae 623d 154f 5b3c 9a69 6abd cbcb f4bd
000000f0: dbfc ce3b 843e 063d 740a 07bd a585 8f3d
00000100: e0fe 503d af92 57be d83e 9bbd e05d 153d
00000110: acce 89bd c893 dfbd 0d99 8dbb 90f3 8e3d
00000120: 178f b6bd dc61 5a3d f689 993d 7eee 50bd
00000130: 0dbe 93bd 7246 913d 77c4 003e 1b4a a73d
00000140: 94c4 9bbd 26e4 1b3e 2a82 b4bd 6cc3 a13d
00000150: 6729 08be c8a8 87bd 120a f53d 8e55 e83d
00000160: 2fc0 9e3c 1376 203d e337 8e3d 6302 91bd
00000170: c076 7d3c 731a 1bbd 2eb9 14bd 03db 493e
00000180: 02f3 223e ca9c af3d 6a1a 1c3e 461a fb3d
00000190: 5f05 1139 5050 29bd cea9 adbd 89ee 48bc
000001a0: fa1e 4ebc 24dd 40bc a8ea 813d 3520 083e
000001b0: 5132 e8bc 769e 19bd c6c1 583d ebe7 4d3d
000001c0: 1cb8 2fbe e91e ba3c db37 d2bd 060f d1bd
000001d0: a9ce 6e3d 2244 29be c50e 47bd 2c50 293d
000001e0: 3ac1 c5bc 1e47 b83d dc2e 4b3c e110 d53d
000001f0: 06e0 163d c89a 71ba 57ff 2a3d ca6f b13d
00000200: 998e 77bd 242a b3bd fb25 953d a41c 9fbd
00000210: e3c9 313d 6e49 12bc 6cb4 083e ea47 8fbd
00000220: 8a55 10be 8310 023d b20b ff3d 2974 043c
00000230: bc6d 0cbd 8a07 a63d cac5 b4bd b867 483d
00000240: 67c4 17bd eaa1 bb3d 53bb 403d ef37 a0bc
00000250: 5a5b db3d a699 a3bd ae69 823d d3d1 09bd
00000260: 6cce a23d 73a7 223c 9ad3 08be 6a50 6cbc
00000270: 4b4c 833d 1b58 b83c 0f86 87bc a649 973a
00000280: 99da 72bd 00f9 ad3d 33e9 1cbc 8fa7 213d
00000290: 3a59 94bd 1149 debd 1944 4f3d 14fd 5d3d
000002a0: 2d3c a13d 2d79 18bc c5bc b1b9 92fa 75bc
000002b0: f79f a03d e403 32bd 47fb bfbd 9d03 e23d
000002c0: 28b5 e7bd 713e b1bc a967 babd cee6 0e3d
000002d0: 7a29 a73d 4e5c a5bc ce34 9f3c 6b87 ea3d
000002e0: 1b0e 123d 7616 c13d 69a4 75bd ea38 01bc
000002f0: 7f0d bdbd 7ba9 a8bd 47ea 2ebd 21d0 dfbb
00000300: db5e 62bd 79fb d43c 0fc0 f23d 68de 623c
00000310: 7691 0dbe 0aec 82bb 9c0d 22bd 8faa 3dbd
00000320: 55cf 383d 3d39 a7bd b0ee c53d 23b6 3e3d
00000330: b0af d83b 9256 debd b0ba 033e 3590 953c
00000340: b2e9 79bd 71d3 ae3c 4efe 44bd 28f2 fbbd
00000350: 5954 f4bc 4863 723c fcf7 b0bd 6c1b 71ba
00000360: 0a5c b9bd 328b 7dbd 4acc 453d fc6a 29be
00000370: 0499 d63c 82fe 08bd 64f7 e1bb 7a52 43bc
00000380: d2fe 0e3d 71bc 1dbe c565 bb3c 32fc b0bc
00000390: 164e 01bd a811 42bd fab3 29bd 7028 e0bc
000003a0: 36af 8fbd 9dc2 d23a 3092 6bbd 120d 93bd
000003b0: 2b41 853d 5376 afbd 6dde db3d 2970 c73c
000003c0: c6fa 133d aaea 043d 87cb 473e 66ba e5bd
000003d0: 1c28 553d 9455 f7bd 9441 a1bd 5ed8 c7bd
000003e0: d27e bfbd c8b4 0bbe 5153 ce3d b31d 5f3e
000003f0: 5812 abbd 244d 283d b903 fa3d a562 da3d
0.012992272 0.078561336 0.14008285 0.02125643 0.090775475 -0.0093926815 -0.009069382 -0.06658192
-0.10427098 -0.08802643 0.0892113 0.10301969 -0.02627056 -0.13421589 -0.026058538 -0.00843497
-0.015712965 -0.047407288 0.08174029 -0.06645375 0.14194563 0.051061127 -0.03614059 0.012828422
-0.16113657 -0.11599069 0.105465345 -0.06961315 7.1682356e-05 -0.030069286 -0.021848379 0.049021218
-0.062811136 -0.017320981 -0.028906735 0.2107134 0.016909996 0.0019092741 0.15598783 0.07467675
-0.016486462 -0.006905704 -0.10155408 -0.0030834053 0.05166884 -0.09326702 0.00096619746 0.13148807
0.033837512 -0.07017355 -0.011068375 -0.07464651 -0.052248262 0.0171008 0.066818886 0.0831943
0.055342015 0.013385554 -0.057229616 -0.11952933 0.006316764 0.032774463 -0.032968953 0.070079125
0.051024318 -0.21052049 -0.07580346 0.03646648 -0.06728873 -0.10916859 -0.0043212236 0.069800496
-0.08914011 0.053315982 0.07497017 -0.051008694 -0.07213984 0.070935145 0.12574945 0.08168431
-0.07605854 0.1522375 -0.08813889 0.07898602 -0.13297044 -0.06623989 0.119648114 0.11344443
0.01937875 0.039175104 0.06944253 -0.07080533 0.015470207 -0.03786702 -0.036309414 0.19712453
0.15913013 0.08574827 0.15244451 0.12260871 0.00013830278 -0.041336358 -0.08479653 -0.012263902
-0.012580628 -0.011771474 0.06343585 0.13293536 -0.028344305 -0.037504636 0.05291917 0.050270002
-0.17160076 0.022719817 -0.1026456 -0.102079436 0.058302555 -0.16529897 -0.04859807 0.041336223
-0.02413999 0.089979395 0.012401309 0.1040361 0.03683474 -0.00092164846 0.041747417 0.086639
-0.060438726 -0.08748272 0.07282635 -0.07769135 0.043405425 -0.00892864 0.13350075 -0.069961384
-0.1409513 0.031754028 0.124534026 0.008084335 -0.03428434 0.08106907 -0.08826788 0.04892704
-0.03705254 0.09161742 0.047053646 -0.019557921 0.10710783 -0.079882905 0.06367813 -0.03364737
0.07949528 0.009927618 -0.1336197 -0.014423469 0.06411036 0.02250295 -0.016543416 0.0011542335
-0.059290502 0.084947586 -0.009577083 0.039466437 -0.07243581 -0.1085378 0.050602052 0.054196432
0.07872806 -0.009306234 -0.00033900715 -0.015013354 0.07843011 -0.04346074 -0.09374099 0.110358454
-0.1131385 -0.02163622 -0.09101803 0.03488808 0.08162208 -0.020185616 0.019434359 0.1145161
0.035657983 0.09428112 -0.059971247 -0.0078871045 -0.0923109 -0.08235451 -0.042703893 -0.006830231
-0.055266242 0.025998818 0.118530385 0.013846971 -0.1382502 -0.003995423 -0.03956376 -0.046305235
0.045119602 -0.08165214 0.09664667 0.046560418 0.0066127405 -0.10856356 0.12864184 0.01825724
-0.061013885 0.021341057 -0.048094086 -0.12302047 -0.029825376 0.014794178 -0.08641049 -0.00091975066
-0.09050758 -0.061900325 0.04829053 -0.16544718 0.02619601 -0.033445843 -0.0068959463 -0.011921519
0.034910984 -0.15403916 0.022875676 -0.021604631 -0.03156861 -0.04738012 -0.041431405 -0.027363032
-0.07015841 0.0016079728 -0.057512462 -0.07180227 0.065065704 -0.085674904 0.10735784 0.024345474
0.036127828 0.032450356 0.19511233 -0.11217193 0.052040204 -0.120768696 -0.07873836 -0.09758066
-0.09350361 -0.13643181 0.10074485 0.21788673 -0.08353108 0.041089192 0.12207741 0.10663346

lstm.weight_hh_l0 f4 [256, 64]
00000000: 9f20 fd3c 65d0 103d 2b55 b83c b09c 4abc
00000010: 4fd6 a93d 79b7 89bc 8074 02be 46af 183d
00000020: ad93 063e e9f8 d83d 908a 41bd b03b 7cba
00000030: 7fc8 2ebd 3a02 f13d 3992 58bd 1c2d c4bd
00000040: 723a 98bd 4918 3f3b cc93 3c3d e66d 6cbc
00000050: e467 c43d b799 65bd b6d0 f8bd 22d0 f4bc
00000060: d063 1bbd 1176 993d e6b0 86bd 0d3e cebd
00000070: 75a5 af3c 70d4 ac3d c4cd 703d 6a54 8a3d
00000080: 699e 0bbc 5027 9dbd a6e2 1ebd 23e7 863d
00000090: e7ae 91bd d4c6 7dbd 624e 793d 23b6 c6bc
000000a0: 1064 44bd 5fa0 07be b106 ff3c 4d86 833d
000000b0: 85ff c2bd 107f e93d 119c c1bc 274b 653d
000000c0: 7aa8 d1bc 19c1 583c d8c6 f239 ca57 2f3c
000000d0: 4dd6 9abd 1893 e33c 5bf1 a0bb fe12 eebd
000000e0: 3b76 8ebd 01f7 79bd 6342 babc 8151 a63d
000000f0: 343e 923d dc3e ce3d 640a 76bd 0cd4 363d
00000100: d44b bebc 0ee8 82bd aa8a c4bd 0def a73d
00000110: 3063 103d 4a17 64bc 554b 08bd 732a 30be
00000120: e886 86bd 626a cfbd 179b d3bd 868a 0d3d
00000130: 9720 3fbd f4d1 12be 31be 9dbd 005d f93c
00000140: 5ffc 2fbd a3db 243d 239e 773d 8cfd 77bc
00000150: cc6f eb3c 1c1e e83c dc0f c33d 53d4 4b3c
00000160: 4ce0 a3bd f293 01bd 1a19 453d cdbc 8bbd
00000170: bec3 89bb 8e6e 783b 50e5 c63d 01b0 c23c
00000180: f7ef 3bbc 7015 ae3d 188c 563d d45e 0c3e
00000190: 8e1e a8bc 374b 083e 4c5f e0bc 98da f0bd
000001a0: 4544 abbd 6786 073e 4557 353d 2933 bf3d
000001b0: 0778 673c c60f 0f3e aa25 813d 9c61 10be
000001c0: a2f3 9e3c dc9a 6d3d ece1 38bb 702d 5bbd
000001d0: 0bb0 a43d bdc1 b6bb b64f 663d d516 13be
000001e0: 67ec 9abd da8a adbd 86ce b6bd 0980 de3d
000001f0: c2dc 113d 24bc 363d 5526 39bd eda6 bbbd
00000200: 99db f3bc a6d6 b83d 09e6 83bd 161a 2dbd
00000210: 4b0d a3bc 130a 8abd 2144 003e 500f 023d
00000220: 80e0 fcbd fd4f 62bd aadc d33c ec76 13be
00000230: e39f e3bc 1a12 23bc a99d 13bc 6b82 f8bd
00000240: 7e65 e9bd cc62 673c 448a 68bd 7a58 dc3d
00000250: ae3f 6b3d c4f1 59be 9f0f 043c 54f1 96bd
00000260: c351 5e3d 6a0f 433d d02d d33c e4cb 97bd
00000270: 1436 02be 5464 a23d d602 edba c7a3 02bb
00000280: f97b 0a3d 08da 433d 5282 673d b6a0 043e
00000290: 64a0 8e3b ca74 13be 1f3b 71bd f421 7c3d
000002a0: 34d2 1ebd 7d7a a8bd 226b dfbc 035a fcbd
000002b0: c3d8 d83d 8a12 9e3c 606b c8bc 0926 d63d
000002c0: 3027 273d abb5 113e f385 1abb 95d8 823d
000002d0: 3867 e0bc 134b 953d 6521 b5bd ed08 79bd
000002e0: b0bb bbbc cbad 92bb d680 28ba 19dc 233d
000002f0: eea6 283d c511 763b 9734 c93d f009 94bd
00000300: c2cd 42bd 1633 2c3c 6f9a f0bd fbbc bd3c
00000310: 7c3c f53d 2537 8f3d b7fe df3d f9ba d1bd
00000320: 5e70 9b3d 47a9 ecbc 5d34 7d3d ee32 523c
00000330: efc9 b6bd 4021 6a3d ea39 b03c d435 1cbc
00000340: 052c 9d3d 82d1 703b fcab b9bd 8574 133e
00000350: 87cc 82bd 7caa 26bd fae5 7fbd 99c2 34bd
00000360: 5cf7 013e 1645 0e3d 0f70 5cbd eb6d 60bc
00000370: 2f49 8fbd 715a 0e3e 92b8 6e3d e451 6cbd
00000380: c973 6f3d 7c02 f43d 67f3 8cbd bcb5 a93d
00000390: 88ce f7bd d22b ba3d 377a e43d 575d 813d
000003a0: e79c 55bd 3d2f 363d 66fc 87bd c449 323d
000003b0: c6af 023e 33e0 15bd 82b6 873d fa52 ab3d
000003c0: 8a5d 533d 8927 00be 7430 07bb 32df e53c
000003d0: 9f2b 06ba f005 17bd c321 48bd 5e9c 38bd
000003e0: 0b56 eabd 90e2 3e3b e77b cabc 5020 85bb
000003f0: 399c 93bd ea11 063d 389f d0bd 1770 cfbd
0.030899344 0.03535499 0.022501549 -0.012366459 0.08292829 -0.01681112 -0.12739754 0.03727653
0.13142271 0.10594351 -0.047251284 -0.0009621931 -0.042671677 0.11768003 -0.052873824 -0.095789164
-0.074330226 0.0029158762 0.046039388 -0.014430499 0.09590128 -0.056054797 -0.121491835 -0.029884402
-0.037936985 0.074932225 -0.065767094 -0.10070429 0.0214412 0.08438957 0.058789983 0.06754382
-0.008521655 -0.07673514 -0.038790368 0.065870546 -0.07113438 -0.061957195 0.060865767 -0.024256771
-0.04794699 -0.1324477 0.03113112 0.064221 -0.09521393 0.114011884 -0.023633989 0.055979874
-0.025593031 0.013229632 0.00046305987 0.010702083 -0.07560406 0.0277801 -0.0049115843 -0.11624716
-0.069561444 -0.061026577 -0.022736734 0.081210144 0.071407706 0.10070583 -0.060068503 0.044635817
-0.023229517 -0.06391917 -0.095967606 0.08199892 0.035250843 -0.013921568 -0.033274967 -0.17203693
-0.065687 -0.10127713 -0.103323154 0.034555934 -0.04666194 -0.14337903 -0.07702292 0.030439854
-0.04296529 0.040248524 0.060453545 -0.015136134 0.028739832 0.02833467 0.09524509 0.012440759
-0.080017656 -0.031635232 0.04811964 -0.0682312 -0.0042042425 0.0037907693 0.09711707 0.023765566
-0.011470786 0.08500183 0.052379698 0.13708049 -0.020522382 0.13309942 -0.027389191 -0.117604434
-0.08362631 0.13234864 0.04427268 0.0933593 0.014127738 0.13970861 0.06306012 -0.14099735
0.019403283 0.058009014 -0.0028210832 -0.05351013 0.0804139 -0.0055772946 0.056228362 -0.14364178
-0.075646214 -0.084737495 -0.0892611 0.108642645 0.03561092 0.04461302 -0.045202572 -0.09162698
-0.029767798 0.09025316 -0.0644036 -0.042261206 -0.0199038 -0.06740203 0.12525989 0.031752884
-0.123475075 -0.055252064 0.025862057 -0.14400834 -0.0277862 -0.009953046 -0.009009757 -0.1213425
-0.11396311 0.014122676 -0.056772485 0.10759063 0.057433777 -0.21283633 0.008060365 -0.073702484
0.054277193 0.047622122 0.025778681 -0.07411936 -0.12715942 0.07929292 -0.001808251 -0.0019934045
0.033809636 0.047815353 0.056520768 0.12951931 0.004352616 -0.1440002 -0.058894273 0.061555818
-0.038774684 -0.08226488 -0.027272765 -0.12321856 0.10588219 0.01929595 -0.024465263 0.104564734
0.040808856 0.14229457 -0.0023578375 0.06388966 -0.027392969 0.0728971 -0.0884426 -0.060799528
-0.022916645 -0.004476284 -0.00064278895 0.040004823 0.04117482 0.0037547213 0.09824484 -0.07228458
-0.047559507 0.010510227 -0.11748206 0.023161402 0.11974427 0.0699294 0.10937255 -0.1024074
0.07589792 -0.028889311 0.061817516 0.012829525 -0.089252345 0.057160616 0.02151199 -0.009534318
0.07674412 0.003674597 -0.090660065 0.14399917 -0.06386667 -0.04068993 -0.062475182 -0.044130895
0.12692016 0.034733854 -0.053817805 -0.0136980815 -0.069963805 0.13901688 0.05828149 -0.057695284
0.05846003 0.11914536 -0.06882363 0.08286616 -0.120999396 0.09090389 0.11156123 0.06316631
-0.052151587 0.044478644 -0.06639938 0.04352738 0.12762365 -0.036590766 0.066266075 0.08365436
0.051602878 -0.12515081 -0.0020628246 0.02806053 -0.00051181944 -0.036870897 -0.048860323 -0.045071
-0.11442193 0.002912674 -0.024717284 -0.00406269 -0.072075315 0.032731928 -0.101866186 -0.10128801

lstm.bias_ih_l0 f4 [256]
00000000: aed1 bf3d a1f3 c5bc 372a 083d 3980 9d3d
00000010: 8872 a53d 7dbb c73d 18d1 42bc 3b53 69bd
00000020: ba45 deba 4249 2ebd 94c2 6cbd c3c5 02bd
00000030: 5743 42bc 4094 09be df04 f33c 5928 27bd
00000040: 744c adbd 7bd3 fb3d 502f 573d 4194 8abd
00000050: 62e3 83bd 7ef0 013c cd41 4abc a756 c7bd
00000060: 2b0e 41bd 4830 bfbd 78fb 8dbd b728 c73d
00000070: c9e8 c93c fc41 4cbd 4673 4f3c b365 08be
00000080: bb79 eabd 152b d43d 078a 073d 64e6 2abd
00000090: d628 0abc 293c a7bd d617 e5bd 967e b0bc
000000a0: 9a73 af3d c2f5 f83c 09a6 923d 07b8 dabd
000000b0: 16c6 b03d ac0e c9bd 2071 86bc ea28 623d
000000c0: 30f0 abbd 56c7 6c3d aa15 653c f8e4 9d3d
000000d0: 7a7e d93c 8053 893d e2e1 c43d d992 653a
000000e0: 0b8d 3e3d 0ffe d0bc 8c54 d63d 60b3 9abd
000000f0: 81ad 8a3d d659 5ebd 5a2b 94bd 3d5e cebd
00000100: 2e31 77bd 5d5d debd 98d0 91bd 8392 3c3d
00000110: 8939 433d 0615 a6bd 4236 40bc f8ff ed3d
00000120: 193e a5bc c7ad 41bd 0316 53bd 91e9 a13b
00000130: cf9f 85bd 3372 3ebc cff0 44bd 4623 81bd
00000140: fe07 0c3d bd94 073e 90ea e73d 42e1 083d
00000150: f10e 413d 2b8f 0ebd cf9e 34bd 2e80 4bbd
00000160: 8ea0 b7bd da1f 22ba eef7 7d3c bb95 023e
00000170: bd6b 00be aeb2 db3d 9815 0abe 615f 893d
00000180: 858d 20bd 9cd1 9f3d e47b 6fbd b2d8 a83d
00000190: 7afa 613d 84a5 aa3c 1b3f 683d 20f3 a1bb
000001a0: 04af 4c3d 55c1 833c 9313 c7bd 9cc5 f7bd
000001b0: acec 5bbd 2d57 8cbd e211 a8bd 1ff2 503d
000001c0: d3cf 1abe 4643 c3bd bddb 9ebd df20 1bbe
000001d0: f5e5 f23c e2b3 823d 5371 3ebd 1341 07bd
000001e0: 71bc 0e3d b396 aebd 5976 783d e431 00bd
000001f0: 2037 6b3d 7dc0 793d 6063 e73d d687 eabc
00000200: f688 d43d 4fc0 c13d bc3d dabd 39e4 b23d
00000210: c801 abbd ac7a d0bd eaf2 023e c8fe 213d
00000220: e5de 013e 55e5 633d 212d 583c c92c 873c
00000230: 282e ca3d 4184 e3bd 347f 8fbd 3391 32bc
00000240: 8223 c1bc aeb5 8f3d 4e6f bcbd 3af6 603c
00000250: 9153 ee3d 4556 64bd 1b0b a6bc 75c2 313d
00000260: 5cf2 e4bc fe34 8d3d 026f 053b cfe2 08be
00000270: fcce 66bd c542 a7bc a84d c03a dbb4 df3d
00000280: c170 043e e8f2 b83d e2ff 443d a2b5 133d
00000290: 8afa 843d c61b 8ebc 4376 61bd 0d62 8ebd
000002a0: affc 673d 1008 cc3d 2687 313c 562c cf39
000002b0: b2eb 34bd b173 163d bac8 8dbd b2d5 60bd
000002c0: ee5c 88bd 7ed4 69bd 0b1d 13be efba 083d
000002d0: 54cf d9bd 43c5 89bb 2a18 b23d 619a c4bd
000002e0: be19 dc3d 5c85 093e 7cff d43d 839e afbc
000002f0: 9a7f 99bd 74e7 11bd ee07 6c3d d358 81bc
00000300: ccac 18bd fccb f63d 1fa0 113d 7778 f03c
00000310: d523 b53c 4006 ce3d bf46 d7bb c644 de3d
00000320: 3a0e 2dbe e5de b2bd 8cc8 babd 8633 db3d
00000330: a509 8ebb 5b4f a33c 33dc 12be 7128 ea3c
00000340: 6363 593d a146 04bd d155 9f3d 941d 0c3e
00000350: 1ae4 ec3d 3486 fb3d 4c11 5fbb cc99 fe3d
00000360: eeda e3bd 146f 903d 0848 10bb 2d4d ffbc
00000370: 356f 043d 1274 70bc dcc5 ab3d c8c5 bb3c
00000380: d37a db3c f13b 133e 717b b53d b51d ef3d
00000390: a1dc df3d 2869 3dbd 4deb fb3c 9483 8ebd
000003a0: 53d1 433c beec 3cbd 73dc 4e3d 2cf0 49bd
000003b0: 0ae3 f63d 1565 cf3d 2300 843a 66e7 b4bd
000003c0: d67d 2b3d 165e 8d3c 506c f83d 7326 2ebe
000003d0: 12c1 a6bd dc74 abbc 4176 cdbd 559c 0b3d
000003e0: d4f8 123d 5044 793d f1de 54bc 8378 ebbd
000003f0: aee3 eebd ecac d8bb c2b3 ee3d 75b6 973d
0.09366165 -0.024164023 0.033243384 0.07690472 0.08078486 0.097525574 -0.011890672 -0.05696414
-0.0016958036 -0.042550333 -0.05780275 -0.03192688 -0.011856875 -0.13435459 0.029665409 -0.040809963
-0.08461848 0.12296196 0.052535355 -0.067665584 -0.06439854 0.007930873 -0.01234479 -0.097333245
-0.047132652 -0.09335381 -0.069327295 0.097245626 0.024647133 -0.049867615 0.012661761 -0.13320045
-0.114489995 0.1035978 0.033090618 -0.041723624 -0.008432588 -0.081657715 -0.11186187 -0.021544736
0.08566971 0.030390624 0.07160575 -0.10679632 0.08631532 -0.098172516 -0.016411364 0.0552148
-0.083954215 0.05780729 0.013982216 0.07709688 0.026549567 0.067053795 0.09613396 0.0008757539
0.046521228 -0.02551177 0.10465345 -0.07553744 0.067713745 -0.054284893 -0.07234831 -0.10076568
-0.060349636 -0.108576514 -0.07119864 0.046038162 0.04766229 -0.08109479 -0.011731686 0.11621088
-0.020171212 -0.047284868 -0.051534664 0.0049411734 -0.06524622 -0.011623907 -0.048081215 -0.06305556
0.03418731 0.13240333 0.11324036 0.033417948 0.04713339 -0.034804504 -0.044096764 -0.04968279
-0.0896617 -0.0006184556 0.015501006 0.1275243 -0.12541099 0.1072744 -0.134848 0.06707645
-0.039197464 0.07803652 -0.05846776 0.08244456 0.055170514 0.020830877 0.056700807 -0.004942313
0.049971595 0.016083399 -0.0972053 -0.12098238 -0.053692505 -0.06852565 -0.08206536 0.051012155
-0.15118341 -0.09534316 -0.077567555 -0.15149258 0.029650668 0.06381966 -0.046494793 -0.033021044
0.03484768 -0.08524837 0.06065974 -0.03129758 0.05742562 0.060974587 0.11298251 -0.028629225
0.10377686 0.09460508 -0.10656306 0.08734936 -0.08349949 -0.10179648 0.12787977 0.03954962
0.12682684 0.05563863 0.013194353 0.016500847 0.09872085 -0.1110921 -0.07006684 -0.010898876
-0.023576502 0.070170745 -0.09200917 0.01373058 0.11637033 -0.055746336 -0.020268967 0.04339834
-0.027947597 0.06894873 0.0020360355 -0.1336777 -0.05634974 -0.02041758 0.0014671581 0.10923167
0.12933637 0.09030706 0.04809559 0.03606189 0.06493099 -0.017347228 -0.055044424 -0.069522955
0.056637462 0.09962475 0.010835445 0.0003951515 -0.04417009 0.036731426 -0.06923051 -0.054891296
-0.0665835 -0.057087414 -0.14366548 0.0333814 -0.10635248 -0.0042044236 0.08696015 -0.09599758
0.107470974 0.13429779 0.10400292 -0.021437889 -0.07495041 -0.03562112 0.05762475 -0.015789425
-0.037274167 0.12050626 0.035553094 0.029354317 0.022111813 0.10059786 -0.006569713 0.10852961
-0.16899958 -0.0873392 -0.091202825 0.10703187 -0.004334646 0.0199353 -0.14341812 0.028583737
0.0530733 -0.03229392 0.0778004 0.13683158 0.115669444 0.122814566 -0.003403741 0.12431678
-0.11125742 0.070524365 -0.002201559 -0.03116473 0.032332618 -0.014676111 0.08387348 0.022921458
0.026791966 0.14378335 0.08861435 0.11675588 0.109307535 -0.046242863 0.030751849 -0.0695869
0.011951762 -0.046124212 0.050503206 -0.04930131 0.12055023 0.10126702 0.0010070842 -0.08833198
0.041868053 0.017256778 0.12130034 -0.17006855 -0.08142294 -0.020929746 -0.10032321 0.034084637
0.035881832 0.060856164 -0.0129926065 -0.11497595 -0.1166452 -0.006612411 0.1165538 0.07407848

lstm.bias_hh_l0 f4 [256]
00000000: 64c8 b5bd 447d 99bc 20f8 f33d 4acd c3bd
00000010: 08ba ec3c 221f b83d 7417 963d 6b35 bb3d
00000020: 56bb 10be 60c0 e3bd ab27 1fbd 00ae 6c3c
00000030: c181 333d 7b56 fdbd 1473 f639 01c6 98bb
00000040: 315d 16bd bf45 a93d 5b54 483d 0b59 843a
00000050: e7ac b53d 1308 1b3d 4e67 04be a9e7 fabd
00000060: ab89 063d 72f8 003e 5fb8 793d 4b50 c5bd
00000070: 8126 07bd c542 2a3d d548 0c3e 6945 7abd
00000080: 7e87 c2bd 4990 c43d c9f9 823d 4e4c eb3c
00000090: ca21 8dbd 7098 873d 76f3 cabd df2b da3c
000000a0: 8a6f 8e3d 0855 a43d fe1d ab3d 198f 91bd
000000b0: 6174 b43d 8594 f3bd 2e2c 3d3d 1625 aabd
000000c0: 0cff be3d db74 7e3d a6f4 fb3d c3ad ff3c
000000d0: fe3d 6d3d 5396 0cbe 7298 f2bd e2dd d6bd
000000e0: 5139 73bd 5db3 a7bc a602 0fbc 14e5 d2bd
000000f0: f1c7 983d 4a75 d83b 7fce ba3a e5ca cebc
00000100: 9dba d23d a805 9b3d 4c23 d2bd 4a95 8a3c
00000110: b302 f4bc 64d2 76bd d3ae fa3c 787d 88bd
00000120: 9193 29bd e8aa a0bd 4658 91bd d3e9 7cbd
00000130: 1abe b93d c59b f53b c707 88bd 3ab3 7c3d
00000140: a940 55bd df0c 08bd 97c9 f5bd db70 0e3e
00000150: cd3b 98bd 4bc3 3d3d 03b2 cdbd 35d0 3fbd
00000160: 124e 90bc 768a 963d 7ee8 803c d254 003e
00000170: 8938 1dbd cd0e b13b 2eb7 033d aa6e eebd
00000180: b336 e73b b41a 763c 7a81 833d e8b5 51bd
00000190: 94ac 5cbd e327 dbbc 79f5 d3bd 90d5 6fbd
000001a0: 003e babd 7230 7d3d 9b4d 1fbd b6f4 02be
000001b0: 0720 1abe 56bf 84bd b420 423c be16 153d
000001c0: 1363 19bc ef89 e0bc f48a 1fbd add6 12be
000001d0: 9f79 dcbc 6851 34bb 9123 9d3d 7652 403d
000001e0: 0cd0 273c 67e0 1c3b 8f67 de3b 59ba 7a3d
000001f0: f8f9 36bd a4dd 8abc 3849 8139 bc38 7a3c
00000200: 869b 913c d92e d63a 91e4 e6bd d020 933d
00000210: 0d26 d93a 1419 a8bd b1b6 ef3d 1c3c cbbd
00000220: 9e72 8dbd 89a6 cfbd bbf2 f33d 0ebe c3bd
00000230: bcc1 113c 43f4 96bd 779f d4bd 3038 46bd
00000240: 5eb4 f83d 48c3 a6bd bb96 0fbe ed22 a8bc
00000250: d1dc 953c 5a78 cd3c 7dd3 d73d bccc 583d
00000260: d853 b5bd efe0 c4bc 112c 9f3d 0214 00be
00000270: 1d7f 3c3d 28d8 eebb 7e7b ef3d 298f 96bd
00000280: 51eb bc3c 6d1a c3bd 6470 6d3d dfa7 963d
00000290: c415 ca3d 42b5 a63d 47bf f63d e879 8fbc
000002a0: 7a10 94bd e5d8 093e ddfe 19be 339f d53d
000002b0: a73b 52bd b70a a43c f730 52bd 39d6 d3bd
000002c0: 71d6 7dbd abb4 9b3d 2664 be3d addc c4bd
000002d0: 2f5a d1bc e501 54bd fe07 51bd 0925 b4ba
000002e0: ee49 93bc f9fd d7bc c91c 93bb 867f 88bd
000002f0: 0e99 e0bd 5771 eabc a9ef b73d 41df 80bd
00000300: 4b84 e2bd a37f 43bd f2dd 31bd f6b0 a1bc
00000310: 6e3b c43d ccd2 c33d e97c 8ebd 9b8a 7bbd
00000320: a5c9 bbbd dcf5 833d 2dbb 1cbd 6fa8 bebd
00000330: 07f2 05be b1fc a63d 2c4a 973d c924 ff3c
00000340: 9f34 7e3c 546e 30bd bd70 f33d b763 493d
00000350: 74ef 45bd caef 50bd 0e33 d13d df3a 863d
00000360: 0ece 3cba 22a4 953d aad3 c0bd b7da db3d
00000370: 5b72 a33c 86c8 0f3e 482c c43d 9f5d e9bd
00000380: 657f 99bb e80e d1bd 5fb7 e9bd d8ab d9bd
00000390: 612f a93d d9fe e4bd 6d8f e53c 78c2 17be
000003a0: 0e9a 21bd e322 223d bbdf 403d 3bf8 2e3c
000003b0: 12bb 34ba 4bf0 063d b1ca bebd 5cd0 8c3d
000003c0: 06ec 7bbc 60de 69bd 7faa 033d 7df4 56bd
000003d0: 568c 8d3d 807c 03be a262 bf3b c1bd d33c
000003e0: a7e6 76bd 4231 0c3e 3f2b 48bd 374d 06bd
000003f0: 0fa7 85bd 332a 1d3d db52 edbd 9fc1 b4bd
-0.08876112 -0.01873649 0.119125605 -0.0956064 0.0288973 0.08990313 0.07328692 0.09141048
-0.14133963 -0.11120677 -0.03885619 0.014445782 0.043824915 -0.123700105 0.00047006516 -0.004662276
-0.036709968 0.08265256 0.048908573 0.0010097338 0.08870869 0.037849497 -0.12930033 -0.12251217
0.032846134 0.12594774 0.060966846 -0.09634455 -0.032995705 0.041567583 0.13699658 -0.06110135
-0.09498499 0.09597833 0.06395299 0.028722908 -0.068912104 0.06620872 -0.09909718 0.026632247
0.06954868 0.08024031 0.0835533 -0.07107372 0.0881126 -0.11893562 0.04618471 -0.08307855
0.0932599 0.06212316 0.12302522 0.031210786 0.05792045 -0.13729219 -0.11845483 -0.104915395
-0.059380833 -0.02047127 -0.008728659 -0.102975994 0.07460011 0.006605779 0.0014252214 -0.025243232
0.102895 0.07569438 -0.102606386 0.01691689 -0.029786443 -0.060259238 0.03060094 -0.06664556
-0.041400496 -0.07845098 -0.07096915 -0.06174643 0.09069462 0.007495376 -0.066421084 0.06169436
-0.052063618 -0.0332154 -0.12001341 0.13910238 -0.07433281 0.046328824 -0.10043719 -0.04682942
-0.017615352 0.07350628 0.01573586 0.12532356 -0.038383994 0.0054033757 0.032157116 -0.11642201
0.007056081 0.015021015 0.0642118 -0.05119887 -0.05387552 -0.026752418 -0.103495546 -0.05855328
-0.09093857 0.06181378 -0.03889237 -0.12788662 -0.1505128 -0.06481807 0.011848617 0.03639864
-0.009362 -0.027409522 -0.038950875 -0.14339705 -0.026913462 -0.0027514342 0.076727994 0.04695364
0.010242473 0.0023937465 0.0067872475 0.06121287 -0.044671983 -0.01695139 0.0002465935 0.015272316
0.017774355 0.0016340866 -0.11274064 0.07183993 0.0016567126 -0.08207908 0.117047675 -0.09923574
-0.06906627 -0.10139186 0.119115315 -0.095577344 0.0088962875 -0.07370808 -0.10381978 -0.04839343
0.12143777 -0.08142716 -0.14022343 -0.020524466 0.01829377 0.025081802 0.10538385 0.052929625
-0.088538826 -0.024033038 0.07772077 -0.12507632 0.046019662 -0.0072889514 0.11693476 -0.073515244
0.023061426 -0.09526525 0.057968512 0.073562376 0.09867433 0.08140041 0.12048202 -0.017514184
-0.07229705 0.13461645 -0.15038629 0.104307555 -0.05132642 0.02002464 -0.051316228 -0.10343594
-0.061972085 0.07602819 0.092964455 -0.09612403 -0.025555698 -0.05175962 -0.051033013 -0.0013743947
-0.017979588 -0.02636622 -0.0044895154 -0.06664948 -0.10966693 -0.028618498 0.089812584 -0.06292582
-0.11060389 -0.047729146 -0.043424554 -0.019737702 0.09581648 0.09561691 -0.069574185 -0.06141148
-0.0916932 0.06443378 -0.038264442 -0.0930947 -0.13080607 0.08153666 0.07387194 0.03114547
0.0155154755 -0.043073967 0.118867375 0.04916736 -0.048324063 -0.05100993 0.10214816 0.065541975
-0.00072023354 0.073066965 -0.09415372 0.10735076 0.01995199 0.14041337 0.095787585 -0.1139481
-0.004684376 -0.10207921 -0.114119284 -0.1062848 0.0826099 -0.11181421 0.028022492 -0.14820278
-0.03945356 0.03958405 0.047088366 0.0106793 -0.0006894331 0.032944005 -0.09316004 0.06875679
-0.015376097 -0.05709684 0.03214502 -0.052479256 0.069115326 -0.12840462 0.0058406154 0.025847318
-0.06027856 0.13690665 -0.048869368 -0.03278848 -0.065260045 0.038370322 -0.11588069 -0.08825993

lstm.weight_ih_l1 f4 [256, 64]
00000000: dc33 acbb 549a b63d 9912 dcbd 8084 9d3d
00000010: f6d1 ce3d 33a0 b6bd f6c2 263d dff5 fd3c
00000020: 0d2a 0dbe 6fa1 b4bd 12f4 25be 2ea3 3f3d
00000030: 1ead debd 5bc1 193c 75c8 48bd a446 41bd
00000040: 5eb9 7abd 2992 a63c 6126 5abc e792 dabc
00000050: eb49 c83d 60f4 51bd 950a 2fbc 56c0 08bd
00000060: cb0c b4bd 432a b6bc a5b1 833d 49cf 2bbd
00000070: f179 d4bc 7bf1 fb3b 11f7 ce3d 3ce9 513e
00000080: 10b6 d6bc afd5 1a3d 76b5 afbd 4291 053e
00000090: 3d14 5fbd 4099 d53d c3c8 1c3e 96c1 0c3e
000000a0: 6330 3cbe c767 cbbd dd8b 283e f285 2fbd
000000b0: 55af 75bd cadc c73c 694f cabd 88ed 7cbd
000000c0: c7d5 6abd 2ed7 ed3a 87e5 9f3d 6da0 4ebd
000000d0: 0971 11bd 3e57 b53b a634 103e 2d07 c3bd
000000e0: 4ce5 033e c813 803d 2f2d 9c3d dfb9 9bbc
000000f0: 3b5f 543d 5268 113c 3338 e23d 9c8e 4ebd
00000100: 96df b4bd a189 f73d aec8 043d 1d15 b43d
00000110: ba07 b7bd 31ca c1bb cd0e c83b e100 32be
00000120: 62f8 02be 278b 353b c7e3 71be 91b2 b43c
00000130: 222e a5bc 9ce9 58bd d0fb 383d ffb1 493d
00000140: c606 8abd ca0b 2dbe 8988 9abd 1aeb 393e
00000150: 2d04 293e c258 03be 9114 b8bd df88 6ebc
00000160: 340f 713a a587 1dbd b0fb 243e 87b5 883c
00000170: 8997 f2bd a593 943c 64a8 c73d c801 553e
00000180: 5eae 7fbe 6ca6 ecbb 3771 14be 3d30 76bd
00000190: d31c 363e 672f 2cbd b26a 4ebc c12a cfbd
000001a0: 578d e6bd d12c 883d dcd3 a73d 23f2 fabc
000001b0: a538 3a3d 1bb9 35bd f21d 93bd ce4b 3a3d
000001c0: b551 9dbd 5cc8 db3c 7e81 2b3e fdba 273e
000001d0: 2d99 3bbd ea9d d13c 298d 4d3e 46af 23bd
000001e0: a250 66bd 7d77 963c fbca 98bd e69f 283e
000001f0: 649e 7abd fb24 1cbe 700b e53c 6e02 99bd
00000200: 2ba8 dcbb 6830 b43d 46ef 11bd 2088 43bd
00000210: c498 013e 3bd9 a4bd f649 4bbd 8b6d d93c
00000220: 380d 823b 9e73 c9bd c94c 4c3d 8606 6cbd
00000230: 0042 073d 2fe9 f5bd e1db c0bc 4d9f cf3c
00000240: 50a2 b3bb fd71 1cbe 2db7 41bc 1694 073e
00000250: c007 8b3d e397 cb3c b337 20be 4733 10bd
00000260: e800 c8bd eea5 733d 71c4 e33c 011b 85bd
00000270: 322f 173e c663 8b3d 9323 13bd e7bd a9bc
00000280: 9c85 aebd fff9 db3a 8162 363d d6c6 cd3d
00000290: d3d4 033d 762b c13d 5815 153e 6b1c 81bd
000002a0: b273 8cbd 9ccd 063c 8d38 3f3e 700d 213e
000002b0: fcd5 0ebe 03cc d73d 893f 08be 1158 37bd
000002c0: 54cf 51bd c8fd 3cbd 8f11 2abc e7c1 c0bd
000002d0: c333 fcbd a9d1 1d3e 51cb 233e 4edc 5d3d
000002e0: 856d d03d 0ed1 ccbd 9abf 053d 4f01 003e
000002f0: e0fc 7abd 3740 acbd ec55 c3bd 67fe a83c
00000300: 53bf c93d 0ce0 603c edbe cfbd 1515 73bd
00000310: 6a70 653d 8bdc c9bd 5259 b43d f01e 3ebd
00000320: c875 aebd c342 9d3c e1fe 7ebb cb6c b13c
00000330: 7d2e a83c f2fd 71bd a565 323b a5d6 7dbd
00000340: ccf9 93bd d87b 443d c0e8 41be 6122 553d
00000350: ba89 993c 97c3 a5bc 39f0 4c3d a7f8 163e
00000360: f53b e5bd 6a8b 29bb ede0 073e 1d09 05bc
00000370: 5575 04be 10dc 0d3e 884e 033e 2f6b 0bbc
00000380: 0611 23be 1cac 1d3d e2c6 8b3c 7eac 3cbd
00000390: e342 553d 1a2c 3d3e d625 4f3d 414e 0d3e
000003a0: 680e e7bd 4647 073e 643d f03d c333 e03d
000003b0: d962 98bd 76fa 143e 8dcc 1abd da1f 893c
000003c0: 600b a8bd 1cfc aebc d5ad 38bd 472f 493d
000003d0: b33a e4bd 8161 f73d 5c50 36bc cb61 12be
000003e0: 14ba db3d 6475 a73d a6e7 563e ce48 2e3e
000003f0: e808 99bd efdc e8bd 571a c73d 1610 3fbd
-0.0052552056 0.089161545 -0.10745735 0.07691288 0.100986406 -0.08917274 0.040713273 0.03100103
-0.13785572 -0.088198535 -0.16206387 0.04678648 -0.10872863 0.009384478 -0.049019296 -0.04718651
-0.061211936 0.020333366 -0.013314814 -0.026681377 0.09779724 -0.051258445 -0.010683675 -0.03338655
-0.087915026 -0.022236949 0.064303674 -0.04194573 -0.025937052 0.007688699 0.10105718 0.20499128
-0.026209861 0.03780144 -0.08579533 0.13043693 -0.05446266 0.10429621 0.1531096 0.13745722
-0.18377833 -0.09931903 0.16459604 -0.04285235 -0.059981663 0.024397273 -0.098784275 -0.061749965
-0.05733278 0.0018145794 0.07807451 -0.050445963 -0.03550819 0.0055340817 0.14082584 -0.09522853
0.12880439 0.06253773 0.076258056 -0.019009529 0.05184863 0.00887497 0.110458754 -0.05042897
-0.08831708 0.120867975 0.032417946 0.087930895 -0.089370206 -0.0059139957 0.00610528 -0.17383148
-0.12790063 0.002770135 -0.23622046 0.022057803 -0.0201636 -0.052957162 0.045162022 0.049242016
-0.06739573 -0.16899028 -0.07545573 0.1815609 0.16505499 -0.12826827 -0.08988298 -0.014559
0.0009195686 -0.03845944 0.16111636 0.016688121 -0.11845309 0.018136809 0.09748915 0.2080146
-0.2496886 -0.0072219875 -0.14496313 -0.060104597 0.17784433 -0.042037394 -0.01259868 -0.101155765
-0.11257427 0.06649173 0.08194706 -0.030633038 0.045464177 -0.044365983 -0.07183446 0.04548245
-0.076816 0.026828937 0.16748616 0.16379924 -0.045800377 0.025587995 0.2007338 -0.039962076
-0.05622924 0.018367523 -0.074605905 0.16467246 -0.06118621 -0.15248482 0.027959555 -0.074711666
-0.0067339144 0.08798295 -0.03562858 -0.04773724 0.12655932 -0.08049246 -0.04963108 0.026541492
0.003968861 -0.09836505 0.049877916 -0.05762341 0.033021927 -0.12007367 -0.023542346 0.025344515
-0.0054819956 -0.15277858 -0.011823458 0.13240084 0.067885876 0.024852699 -0.15646248 -0.035205152
-0.09765798 0.059484415 0.027803631 -0.06499291 0.14764097 0.0680614 -0.035922598 -0.020720435
-0.08521578 0.0016782879 0.044527534 0.100476906 0.032185387 0.09432118 0.14558923 -0.063042484
-0.06858005 0.008227732 0.18673916 0.15727782 -0.13948816 0.10536959 -0.13305487 -0.04476172
-0.051223114 -0.046140462 -0.010380163 -0.09411984 -0.1231456 0.1541201 0.15995528 0.054165177
0.10177139 -0.100008115 0.03265343 0.12500499 -0.061276317 -0.084106855 -0.09537873 0.020629121
0.09850945 0.013725292 -0.10143838 -0.059346277 0.05601541 -0.09856518 0.08806099 -0.046416223
-0.08518559 0.019196874 -0.0038909244 0.021658322 0.02052998 -0.05908007 0.002722123 -0.06197228
-0.07225379 0.04796967 -0.18936443 0.05203474 0.018742431 -0.020234866 0.05003378 0.14743291
-0.111930765 -0.002587045 0.13269396 -0.008119849 -0.12935384 0.13853478 0.12822926 -0.008509441
-0.15924463 0.038494214 0.017062608 -0.04606294 0.05206574 0.18473855 0.050573193 0.13799383
-0.11282045 0.13210782 0.11730459 0.10947373 -0.07440729 0.14548668 -0.03779273 0.01673882
-0.082052946 -0.02136045 -0.045087654 0.049117353 -0.111440085 0.12079144 -0.011127558 -0.14295118
0.10728851 0.08176687 0.20986804 0.1701996 -0.07472402 -0.11370265 0.09721821 -0.0466462

lstm.weight_hh_l1 f4 [256, 64]
00000000: 2022 a73d 0f54 393d f6ba 6e3c 6b20 4dbc
00000010: 762e 023c 196d d7bd 8485 8fbd 8db3 43bc
00000020: 69e6 b6bd 0a4c 5c3d 903b 94bd 15f0 a73d
00000030: 5968 c9bd b657 a13d 8d44 e93d 4296 003e
00000040: 74bb 84bc e8e2 e3bd 2c49 ffbc 0914 203c
00000050: 6f84 60bd bf6d 853d b831 1dbd fae7 cbbd
00000060: 84c7 933d 2319 0e3e c8e0 e23c 83d0 ab3d
00000070: 8571 bbbd c482 98bd 248d 65bd fe49 43bd
00000080: 4c52 3fbd 6565 a6bd 7d14 d1bd 4ab9 22bc
00000090: 2aea 8dbd c2b6 71bd 434f 013d 1ee4 fa3c
000000a0: 2cae 25bb 3769 2ebd f9ad 743d 2d40 953d
000000b0: d30c 953d f280 f3bd 4dc3 053e 0e72 e1bd
000000c0: 2bb7 b6bd 0076 be3d 8633 793c 0c70 a6bd
000000d0: a84d dfbd 8288 453d e046 a6bd 9b17 b2bc
000000e0: 5097 47bb eda5 80bd b71b 43bd d095 e4bd
000000f0: ee45 943d 37bd 91bd 9895 e4bc 9415 5cbc
00000100: 94ca 303d 0d67 293d 2dd9 033e f0af 12bd
00000110: 3cfd b7bd a2c6 cabc 2e78 7a3e d810 76bd
00000120: 434b 953d f883 303d 81ea 8cbd d830 7abd
00000130: 734a 5c3d 8ef2 4cbb 2dd9 9c3d c3cd 743d
00000140: 5ddf 623c 31fa dfbd 20b7 eabd 5899 75bc
00000150: b30d d8bc f02a eabd ca86 0a3d b915 64bd
00000160: a79f 1cbe f088 4abd 1522 de3c 5a22 0c3e
00000170: 1629 083c 37c9 dc3d d5f4 e73d 031a 8abc
00000180: e390 cf3d 319c b83d 771d e43d ed8f eabd
00000190: cf87 873c d6b9 e3bb aedf ddbd e35f 813b
000001a0: a983 8a3d 44a5 9cbc d8cd 65bd 57fb f3bd
000001b0: 38cd bf3d 018f f4bd a038 073e 2c1e c43d
000001c0: 027c d43c a031 44bc b6bf 3d3c 6fe6 bb3c
000001d0: 2167 293e 919e 0bbd 0eee 9abd 4dfc 9b3d
000001e0: 7c1e f03d 2def 333d e93c 4f3d f65e 8f3d
000001f0: 9b7d 5a3d f5fd 00bd 6d51 8d3d 8089 d4bc
00000200: b4da 3b3d 7267 a13c e533 6bbd 8be1 87bd
00000210: 52d3 3b3d 8d4b 5bbd 20de 85bd 674e 96bd
00000220: cea0 64bd 20de 28bd 7656 c93b 02b6 b03d
00000230: 8acf 88bc 7dc4 a3bd d373 443d 0317 67bd
00000240: 5714 263c c1a5 b63d 195a f83c b6ad d8bd
00000250: d393 cf3d 74bc 62bd 7b1d 69bd 8963 f7bd
00000260: d680 27bd 92ef 063e 8946 233e 5222 adbd
00000270: f95d 57bc c6ec b2bd 15ec 1f3d 160c 9bbd
00000280: e2ad f63d d53d a2bd 677e a03d 3940 6c3c
00000290: a3e4 dd3c e128 4bbd 33cf 90bc 60a9 e83c
000002a0: 8f4f eb3d 847e c63c b452 633d c6bf bdbd
000002b0: d799 2abd 6295 b6bc 5c21 a73d f1a5 fcbb
000002c0: 37fb 163d b39b bc3d a75d 43bd 2e18 93bc
000002d0: 4a72 d13b f744 9c3c 9b35 d33d 0a48 4a3d
000002e0: 6cb6 f03d d6ec dc3c a8a5 e83b f681 ab3d
000002f0: 839e ab3d 9efd 403d 3e88 adbd e9c9 efbb
00000300: a5b7 b2bd 0c04 e33a a3f0 98bd 863b 60bb
00000310: 25f2 403d 6be1 c3bd fcc1 07be 468c 773d
00000320: 2de6 b9bb 7f62 c3bc e2cf 173d abd1 37bc
00000330: 920f 38bd 2320 b83d 69a2 a9bd 6919 7dbd
00000340: 80b3 9ebd 9685 033e f8bb 62bc 0cff ffbb
00000350: 8bdf 1ebd 5779 9a3d 3033 da3c a492 36bd
00000360: 7c99 dcbb f4f5 b2bc c88d 593d b905 0cbd
00000370: f3f0 c13d eb8e adbd c1d3 e6bd 517d 813d
00000380: 886e a2bd 51c1 a1bd 5a40 833d 542b ebbd
00000390: d01a b03d 348c dd3d 5459 c73d 753e 00bd
000003a0: 9966 e4bd 240c a2bd 3fe1 fbbd bd91 e73d
000003b0: 53ad 3b3d 68d6 fd3d 69f7 36bd fc13 91bd
000003c0: 7ce1 9c3d 17a5 983b 79e4 cd3d f023 a53d
000003d0: ec3f cfbd 4445 0bbd 038c 023e e719 5abd
000003e0: 570d 82bd e299 02bd aa63 54bd d90c bc3d
000003f0: 8973 dd3d 1895 543d c61a c93b d235 fbbc
0.08160806 0.04524618 0.014570942 -0.012519936 0.007945647 -0.105188556 -0.07007888 -0.011944664
-0.08930666 0.053783454 -0.07237923 0.08200089 -0.09834356 0.07878058 0.11390028 0.12557319
-0.016202666 -0.11127263 -0.03116282 0.009770402 -0.0548138 0.06515073 -0.038377494 -0.099563554
0.07215789 0.13876776 0.027695075 0.0838938 -0.091525115 -0.074468166 -0.056042805 -0.047677986
-0.046709344 -0.08124808 -0.10208986 -0.009931872 -0.06929429 -0.059012182 0.03156973 0.030626353
-0.0025280816 -0.04258081 0.059736226 0.07287631 0.07277837 -0.11889829 0.13062783 -0.11008082
-0.08921655 0.092998505 0.015210038 -0.0812684 -0.10903484 0.048225887 -0.08118987 -0.021739772
-0.003045518 -0.06281648 -0.047633853 -0.11161387 0.072399005 -0.07116168 -0.027903363 -0.013432879
0.043161944 0.041358043 0.12875815 -0.03581232 -0.089838475 -0.024752919 0.24459907 -0.060074657
0.07289746 0.043094605 -0.068806656 -0.061081737 0.053781938 -0.0031272504 0.076586105 0.059766542
0.013847199 -0.10936392 -0.114607096 -0.014990173 -0.02637372 -0.11433971 0.03381995 -0.05568478
-0.15295278 -0.049447 0.027115861 0.13684979 0.008310577 0.10780566 0.11325995 -0.016858106
0.10135057 0.09014166 0.111384325 -0.11453233 0.01654425 -0.0069496436 -0.10833679 0.003948198
0.067633934 -0.019121774 -0.05610451 -0.11913174 0.09365314 -0.11941338 0.13205194 0.09576067
0.025938038 -0.011974722 0.011581352 0.022937028 0.16543247 -0.034086768 -0.075649366 0.07616482
0.117245644 0.043929268 0.050595198 0.07000534 0.053342443 -0.031492192 0.06900296 -0.025944471
0.04586287 0.019702647 -0.057422537 -0.06634816 0.045855828 -0.053538848 -0.065365076 -0.07339173
-0.055817418 -0.04122746 0.00614434 0.08628465 -0.016700525 -0.079964615 0.04796202 -0.05641843
0.010136685 0.08918334 0.0303164 -0.10580008 0.10135617 -0.055355504 -0.05691288 -0.12079532
-0.040894352 0.13177326 0.15944876 -0.08453812 -0.013144963 -0.08736567 0.039043505 -0.075706646
0.12044884 -0.0792195 0.07836609 0.014419609 0.027086562 -0.049599532 -0.017676925 0.028401077
0.11489784 0.02423025 0.055498794 -0.092650935 -0.04165062 -0.022288028 0.0816066 -0.0077102114
0.03686067 0.09209385 -0.047696736 -0.017955866 0.006391798 0.019075854 0.10312959 0.049385108
0.11753544 0.0269684 0.007099826 0.083743975 0.08379843 0.04711687 -0.08473252 -0.0073177707
-0.08726434 0.0017319932 -0.07467773 -0.0034215166 0.047105927 -0.095644794 -0.13257593 0.06043651
-0.005673191 -0.023850678 0.037063487 -0.011219422 -0.044936724 0.089905046 -0.082829304 -0.06179181
-0.07749081 0.12843928 -0.013838761 -0.0078123864 -0.038787406 0.07542675 0.026635736 -0.04457344
-0.006732164 -0.021845795 0.05311373 -0.034185145 0.094697855 -0.08474525 -0.112708576 0.0632273
-0.079312384 -0.078982 0.064087585 -0.114828736 0.08598864 0.10817757 0.09733835 -0.031309564
-0.111523814 -0.07912472 -0.12298822 0.11307094 0.04581959 0.1239441 -0.044669542 -0.0708389
0.07660195 0.004658352 0.10053343 0.08063495 -0.10119614 -0.034001604 0.12748723 -0.05324736
-0.063502006 -0.031885035 -0.05185286 0.09182138 0.10813052 0.0519 0.006137225 -0.030665312

lstm.bias_ih_l1 f4 [256]
00000000: ac7f dabd 80e4 95bd a6b6 fc3c 2991 8cbd
00000010: 3dc7 89bd 6c3d 00bd 7376 5d3d 1c23 bc3d
00000020: 3188 1fbd 812f d93c 0069 b53c ee21 69bc
00000030: 2b9d d6bc 1383 a03c f9d3 033e 7131 0d3e
00000040: ea00 f33d e4b3 193e b7ea 863c d1cf 203e
00000050: c0ce 8e3d 4105 b73d 7ce7 b5bd 7091 ad3b
00000060: e870 e93c 59f6 52bd 9d8d 1abc 11f0 5d3d
00000070: 4b79 483c ac8d 5b3d 297d 5fbc a0fd 4a3d
00000080: 441c d63c 039a 353d df38 203d 2c11 46bd
00000090: 5b30 c3bd a593 ac3d 9f2a 0c3e 5fe1 c33d
000000a0: 26c0 c4bd 3c5f 39bd 539d 02be 1a64 9f3c
000000b0: 0024 e13d e2b4 87bd b083 4f3b 311c 1bbd
000000c0: 0045 bb3d f10f b0bd bc9e fd3d 6f18 bdbd
000000d0: e175 a23d 95d0 8abd a715 d3bd d077 5ebd
000000e0: 6d14 abbd 66c9 a23d 6296 353d 2deb d43d
000000f0: 5c15 043d 9279 173e 33dc 743d 8fcd d13c
00000100: 0bf6 b43d 4b9c aa3d 759c a73d b761 e93d
00000110: eba3 b9bc 4dfd 933c 36f7 a5bd e65d 01bb
00000120: 9ca9 8bbd 7463 b23c 4642 0dbd 6c81 823d
00000130: 4929 81bc b147 463d 8613 0f3e 8ddb c33d
00000140: 01f6 a53d c9a5 2a3e 2c66 093e 5256 243d
00000150: dacb b6bd 08e9 163e 8364 9b3d 3a9f d73b
00000160: 7b7d 9a3d 07b6 883d 8875 173d 1ecb a3bd
00000170: 39bf 363e 2391 26be 8316 ffbb 7228 c2bc
00000180: d9b3 37bd ff27 1fbe 73f8 99bd 92a6 093e
00000190: 2238 953d 9fc6 2dbb 0bb9 acbd 3710 f3bc
000001a0: 6cbd f3bd cc61 d13c d677 1bbe f7b8 1cbd
000001b0: 824e 023d e04f f63d 8578 a33d 8047 8ebd
000001c0: ae0b e4bd db96 f23d db95 a7bd a8ec 923c
000001d0: 893b 2e3e d2b5 953d adf4 b8bb d3b5 463d
000001e0: 8551 25bd db82 c43d 11ef 9bbd 3d1b 15bd
000001f0: 053c 84bd 9812 9dbd 79bf 753d 115a b03c
00000200: a1d1 d6bd f65c 4dbd 3ab5 cabc d104 9dbd
00000210: 29dd 1f3e d3cc c53d 8104 39bd 180b 57bc
00000220: b52d d63d bd5c 90bd 1153 b63d 1e80 8ebd
00000230: d0f3 b5bd a662 0b3e 3636 f5bd a36d 82bd
00000240: 2e05 8a3d c524 163e 4ae5 86bd b0e1 6a3d
00000250: 46a9 edbd d706 153e 54ce 1fbe 3f45 bf3d
00000260: b8ff f43d 859d e6bd fc18 643d 3285 4b3d
00000270: e523 813d cff7 cd3d 4943 0ebe 801f 033e
00000280: 7c71 babd ce73 e8bc ed6e 19bc b7dd a93d
00000290: b167 d63d 14d1 17bc 4f35 de3c 7143 263e
000002a0: 4ba4 1dbd 2223 8b3d f04a cc3d 908e 6c3d
000002b0: f04d a03d 9537 213e 06a5 1a3c fddc 2bbd
000002c0: 29b1 dcbd 186e a73d 5d34 bcbc fb1d 443d
000002d0: 19d3 cabd 97b7 e2bd 09d0 b4bd cd55 56bc
000002e0: 586f 84bd 824d 0abd e5bb 93bd 9597 08bb
000002f0: 419d 143e c5a6 26bd 26a1 babc 79d3 2bbe
00000300: 19b8 c03d aa58 e4bd 7fc2 e8bd f8e5 ebbc
00000310: debe b5bd db8b 103e d834 90bd 7a2b 8bbc
00000320: f3e6 203d e254 d0bc 8033 17bd 956e c63d
00000330: 36fc d5bd e6cb e7bd bc63 91bd 96a4 b63d
00000340: 6da6 a3bd 8329 8abd 8f2a c5bd 1565 86bd
00000350: 8fdc 963d 027f a7bd 7002 c13d 6b6d 60bd
00000360: 2b11 8abd 0305 163e 3b22 813d 27c4 233b
00000370: 3324 84bd b551 a2bd 0765 693d 609a 923d
00000380: e36f 84bd d373 36bd 9a0a 49bd 3019 3f3b
00000390: 431f 933c 8871 913c 584c 9f3d 8da9 f1bc
000003a0: 30e7 913c 424a e73b 6532 50bd d3be 7fbd
000003b0: 07a7 ba3d fba5 863d 5f56 c03d 8b5d 03be
000003c0: 651a 8c3d 3658 afbd 004c 193e 9f17 c7bd
000003d0: bc70 523b 528b 0b3d a767 783d 2183 23bd
000003e0: 399b cbbd e60a 413d bd65 073e 1f0d 8cbd
000003f0: a9ce d6bd ca75 c23d df62 7f3c ba29 2dbd
-0.10668883 -0.073189735 0.030848812 -0.068636246 -0.06727455 -0.031308576 0.05406804 0.09186384
-0.03894824 0.02651191 0.022144794 -0.014229281 -0.02619799 0.019593751 0.1287383 0.13788392
0.11865409 0.15010029 0.016469343 0.15704276 0.06973028 0.08936549 -0.08882043 0.0052968785
0.02849622 -0.051504467 -0.009433177 0.054184023 0.01223595 0.053601906 -0.01364068 0.049558282
0.026136525 0.04433633 0.039116737 -0.04835622 -0.095307074 0.084265985 0.13688134 0.095644705
-0.09606962 -0.04525684 -0.12755327 0.019456912 0.109931946 -0.066262975 0.0031664185 -0.037868682
0.0914402 -0.085967906 0.12383792 -0.09233176 0.0793264 -0.06778065 -0.10306864 -0.05431348
-0.08353505 0.0794857 0.04433287 0.10396419 0.032246932 0.14792469 0.05978031 0.025610713
0.088359915 0.08330592 0.08184139 0.11395591 -0.02266117 0.01806512 -0.08103792 -0.0019739806
-0.0681946 0.021775939 -0.03448703 0.063723415 -0.015766757 0.048408214 0.13972291 0.0956336
0.08103562 0.16664805 0.13417882 0.040121384 -0.089256 0.14737332 0.075875305 0.0065802606
0.07543465 0.06675344 0.03697732 -0.07997726 0.17846383 -0.16266303 -0.007784666 -0.023700926
-0.04484925 -0.15542601 -0.07518091 0.13442448 0.07286097 -0.0026516092 -0.08433732 -0.029670818
-0.11901364 0.025559328 -0.15182433 -0.038262334 0.031813152 0.12026954 0.07981972 -0.06947231
-0.1113504 0.1184518 -0.081828795 0.017935112 0.17014898 0.0731007 -0.005644402 0.048513245
-0.040360946 0.09595271 -0.07613958 -0.03640293 -0.0645676 -0.07669562 0.059997056 0.021527322
-0.10489202 -0.050137483 -0.024744619 -0.07666934 0.1561171 0.09658208 -0.04517031 -0.013125204
0.10457937 -0.070489384 0.089025624 -0.0695803 -0.08884394 0.1361185 -0.119732305 -0.06368568
0.06739269 0.14662464 -0.06586702 0.05734414 -0.11604552 0.1455339 -0.15606052 0.093393795
0.11962837 -0.11260513 0.05568789 0.04968757 0.063056745 0.10057031 -0.13892855 0.12804985
-0.09103677 -0.028375532 -0.009364826 0.08294242 0.10468996 -0.009266157 0.027125029 0.16236664
-0.03848676 0.067938104 0.09975231 0.057753146 0.078273654 0.15743859 0.009438759 -0.041958798
-0.10775978 0.081752956 -0.022974188 0.047880154 -0.09903545 -0.11070173 -0.08828742 -0.01308198
-0.0646655 -0.033765323 -0.072135724 -0.0020842303 0.14513113 -0.040686388 -0.02278192 -0.16779889
0.09410114 -0.11149724 -0.11365222 -0.028796181 -0.08874296 0.1411585 -0.07041329 -0.016988505
0.03928275 -0.0254311 -0.03691435 0.096890606 -0.10448496 -0.113181874 -0.07099101 0.08918111
-0.079907276 -0.06746199 -0.09627258 -0.065622486 0.07366287 -0.08178522 0.09424293 -0.05479185
-0.06741556 0.1465035 0.06305357 0.0024988742 -0.06452217 -0.07925741 0.056981113 0.07158351
-0.06466653 -0.044544052 -0.049082376 0.00291593 0.017959243 0.017754331 0.07778233 -0.029499793
0.017810434 0.007058413 -0.05082931 -0.062437844 0.09113889 0.06574627 0.09391474 -0.12828653
0.06840972 -0.08561747 0.14970398 -0.09721302 0.0032110652 0.034068413 0.060645726 -0.039919976
-0.09941716 0.047129534 0.13222404 -0.0683844 -0.10488636 0.09495123 0.015587538 -0.04227612
