data_storage/models/lstm_v1.0.0_20251231_105351/assists_model.pt (torch, 217509 bytes, 9 tensors)

lstm.weight_ih_l0 f4 [256, 12]
00000000: 6699 e33b a920 84bd 0319 013f 320c 1f3e
00000010: d560 ca3e 1fce 4e3d 9e71 2ebe af21 c2bd
00000020: 4170 503e 30af e63d 3fd7 c8bc 054b ec3e
00000030: 11e6 04be b08a 98bd 7504 f6bd dc88 8c3e
00000040: 2940 c6bd 7d87 02be c71a 823e 1203 afbd
00000050: 73c2 99bd fd44 2d3f 975e 8b3e 9160 273e
00000060: 58e8 9cbd c241 813e 89c4 29be 41bb 2b3e
00000070: fcd1 b23e 101f e83e 5a3c 9b3e 61c0 4f3d
00000080: 46b0 333e 5a2a b8bd 6ab8 743d 5cef f43e
00000090: 9395 e2be 1b4f 453e 1cd7 55be 0ff2 18bf
000000a0: 1eff 533e 7a43 48bc 5b57 a33d 1930 cb3e
000000b0: b0e0 833d f355 24bc de07 033e e6fa c63e
000000c0: b677 25be 281d e1bd b412 49be c759 9c3e
000000d0: 030a f2be 4000 4abe f810 98be 834f 1d3d
000000e0: 1446 6dbe eda9 04be ed72 07be 403c 853e
000000f0: bd29 6a3d c1d3 4cbd e071 06be 0ed2 143e
00000100: 0201 a73e f783 553d 283d 0fbf 37ec b03d
00000110: dea4 aebc c8ad b7be 7b9d 5cbe c2cc 75bd
00000120: 1576 30bd d721 08be 1ade 603d 041b eebd
00000130: 6053 4fbe 45c6 843e 624e be3e 8174 ce3e
00000140: 8e50 ea3e bdd7 78be af6a babd 6178 aa3e
00000150: d4ed 70be e138 9fbe 89c5 72be 1c63 77be
00000160: e13f 11be e1d4 99be fc0e 903d 002f d2be
00000170: d054 91bd 1732 743d 85c6 70bd 55b5 a23e
00000180: 58f4 92bc bba1 3a3e e84a e4bd 83ef 393b
00000190: 3f6d 223e 5328 e63c 9d71 443d 7f85 11bf
000001a0: cee2 13be 00c3 0d3f 1241 99bb e6fd 9dbd
000001b0: 03b9 57be bc26 d3bd 98db 92be 3e51 e13d
000001c0: 3e50 5ebe 0df9 513c c47f 23be 1a86 fcbd
000001d0: 312d 0cbe 834f aabc c523 8d3d ffe7 513e
000001e0: 3444 c5be ce06 bdbe 9418 7ebe 6e5d 233e
000001f0: 034e 06bf 8df5 81be edaa 5ebe 7544 5abd
00000200: ce6b 6ebe 4f5f 5fbe 7937 e2bd 516e f3be
00000210: 5d2c 263d f51c b4bd 845e 03be 88ac 3d3e
00000220: 430b 2cbe 48f2 643d 2f06 2e3e d045 79bd
00000230: f62a 20be 2a54 283e 7f35 353f cabd 3c3e
00000240: bbd3 163e 4899 ab3e 0db1 b7bd 2c61 833d
00000250: d48a 683e fd09 e03d 3843 dcbb acd2 f73d
00000260: a687 b33e d90e d33e d12e 61bd 261c 84bd
00000270: f54d 84bd cd36 c73d 3216 e33d f676 ae3e
00000280: 45e3 45bd 877f 813e f350 883e 18f0 86be
00000290: e25e 00be da07 0cbe fb18 a93e 6b44 b73e
000002a0: d7af 03be 76fe 1abe fe2f 5dbd c9a3 41be
000002b0: 47ec 1a3d 213c 21be 4d3e 1abe 84c8 58be
000002c0: ad75 89be 5184 4cbe d07f 0b3e bce5 00be
000002d0: a329 1d3d 0565 14be bb81 113d 03a7 8b3e
000002e0: 68ed a93e 14b8 58be 9b85 6f3e 42e3 92be
000002f0: a16c 6e3e 24f2 9a3e 7f73 c1bc 037b f33e
00000300: 8168 de3d bded dabc 4e2d 64ba 5b46 d43c
00000310: 5672 a6be 634d 04be 7ccb 75bd 4550 f43d
00000320: bb9c 653e 0148 abbd b918 c93d 960c 1f3d
00000330: 3101 08bf 23ae b3be 98d8 83be 5ed6 74be
00000340: b343 3ebc 35c0 c5be b930 88be e221 7b3e
00000350: 03a8 07be 6c71 a9be b054 253e c9a4 653d
00000360: c4f3 10bd a871 f03c db20 5abe b699 ba3d
00000370: ac3a 8ebd dbd6 d0bc ecea 303c 36e0 89be
00000380: a075 103e abcc 84be 9631 553e 7c9a 5d3f
00000390: 7a21 733e 0515 d0be 2546 1c3f e0bf fb3d
000003a0: 3748 c8bd 1ff1 20be 2d8c 73be f8e0 78bd
000003b0: 7323 d5bd f65d 0a3e d12c da3e 4bb7 bfbe
000003c0: 9bf3 89be db01 8ebe c2d5 7b3d 30f0 863e
000003d0: 0f14 98be 6f82 02be 6049 ffba c44f 643e
000003e0: 988e b73d 3219 92be e078 eebe dfbd af3e
000003f0: 204b ce3d 31db f2bd c574 d03e 5ba5 533e
0.0069457768 -0.06451542 0.5042879 0.15531996 0.39527002 0.05048954 -0.17035529 -0.09479081
0.20355321 0.11263883 -0.0245167 0.46150985 -0.12978388 -0.074483275 -0.12012569 0.27448165
-0.09680206 -0.12746997 0.25411054 -0.085455075 -0.07507791 0.6768339 0.27220604 0.16345431
-0.076615036 0.25245482 -0.16578878 0.1677065 0.3492583 0.453362 0.30319482 0.050720576
0.17547712 -0.08992453 0.059746183 0.47838867 -0.4425474 0.19268458 -0.20882839 -0.5974435
0.20702788 -0.012223119 0.07975646 0.39685133 0.0643934 -0.0100302575 0.1279597 0.38863295
-0.16158947 -0.10991889 -0.19636041 0.30537245 -0.47273263 -0.19726658 -0.29700446 0.038405906
-0.23171264 -0.12955447 -0.13227434 0.2602253 0.05716871 -0.05000663 -0.13129377 0.14533255
0.32617956 0.052127805 -0.5595269 0.086388044 -0.02131885 -0.35874772 -0.21544449 -0.060009725
-0.04308136 -0.13294159 0.054899313 -0.116262466 -0.20246649 0.25932518 0.37169176 0.4032326
0.45764583 -0.24301048 -0.091023795 0.33294967 -0.23528224 -0.31098083 -0.23708166 -0.24158901
-0.14184524 -0.30045226 0.07034108 -0.41051483 -0.07096255 0.059618082 -0.058783073 0.3177897
-0.017938778 0.18225758 -0.111471 0.002837152 0.15861987 0.0280954 0.047959913 -0.56844324
-0.14441988 0.5537567 -0.0046769464 -0.07714443 -0.2106667 -0.10310122 -0.28683162 0.11001824
-0.21710297 0.012815726 -0.15966707 -0.12330265 -0.13689114 -0.020789867 0.06891588 0.20498656
-0.38528597 -0.36919254 -0.24814063 0.1595361 -0.52462786 -0.25382653 -0.2174489 -0.053287942
-0.23283312 -0.21813701 -0.11045737 -0.47545102 0.040569652 -0.087945856 -0.12829024 0.18522847
-0.16801171 0.05589512 0.16994546 -0.060857594 -0.15641388 0.16438356 0.70784754 0.18431774
0.14729206 0.33515382 -0.08969317 0.064150184 0.22709209 0.10939405 -0.0067218803 0.12100729
0.3506443 0.41222265 -0.05497629 -0.064506814 -0.064601816 0.09727249 0.11088218 0.34075135
-0.048312444 0.25292608 0.2662426 -0.26355052 -0.12536195 -0.1367487 0.3302687 0.35794386
-0.12860046 -0.15136132 -0.054000847 -0.18910135 0.037822988 -0.15745594 -0.15062828 -0.2117024
-0.26847592 -0.1997235 0.13622975 -0.12587637 0.038369786 -0.14491661 0.03552411 0.27275857
0.3318894 -0.2116397 0.2339081 -0.2868901 0.23283626 0.30262864 -0.023614643 0.47554788
0.10859776 -0.02672469 -0.00087042607 0.025912454 -0.32509106 -0.12920146 -0.06000851 0.11929373
0.22423069 -0.08363343 0.098191686 0.038830362 -0.5312682 -0.35093793 -0.25751185 -0.239099
-0.01161282 -0.38623205 -0.26599672 0.24524644 -0.13247685 -0.33094347 0.16145587 0.056065354
-0.035388723 0.02935107 -0.21301596 0.09111349 -0.069447845 -0.025493076 0.010798197 -0.26928872
0.1410737 -0.259374 0.20819697 0.8656385 0.23743239 -0.40641037 0.6104453 0.122924566
-0.09779399 -0.1571698 -0.23783942 -0.060761422 -0.10407152 0.13512406 0.42612317 -0.3744453
-0.2694367 -0.2773579 0.061483152 0.26355124 -0.29702803 -0.12745069 -0.0019476824 0.22296053
0.089627445 -0.28534847 -0.46576595 0.34324548 0.10072923 -0.11858214 0.40714088 0.20668547

lstm.weight_hh_l0 f4 [256, 64]
00000000: c1c5 05be 07ae e7bd 909b 683e 9747 263e
00000010: d9af 62be 9c68 8a3c 8abc 3b3e fe09 22be
00000020: 5b99 f03c 8230 1f3d eeb8 a93e 562d c0be
00000030: 1a92 9c3d 4021 e8bd 883c d8bd 1267 d63d
00000040: 15bc 65bd e8b5 793d 6975 6b3d 42d1 8e3e
00000050: 8ba0 2fbe 2438 06be aeaf 96bc b47d 83bb
00000060: e4e2 ea3e a919 a13e 24d9 dfbd 5ce5 683e
00000070: 829b 043d e220 763e de27 a23e 1a02 86bc
00000080: 141b db3e 1891 b43c 1360 0bbe 3eaa 2cbe
00000090: bdd5 2b3d 3bce c8be 9fa2 87be 89ab a0be
000000a0: 9d6e d9bd 4cb2 c23e 70c8 e13e 8fc2 a53e
000000b0: 7274 1e3e 621c c33d a59d 163e 3862 e4be
000000c0: a168 8d3e 0848 acbe bb4d 90bd 2fe6 7c3d
000000d0: 0b18 323e 6626 14be ccaf 093e 7657 08be
000000e0: 9009 c7bd 6c60 df3d 7f17 17be e8d6 853e
000000f0: d790 f43e f656 cf3c 75a7 81be 46a6 53be
00000100: f5f3 a23d 2971 903e 566f e03e 67a9 f83e
00000110: 0d1c 1e3d 6325 1c3e 5998 aabe 4c39 b53e
00000120: c837 153e ab84 9c3d 5d71 fd3e dae0 ed3c
00000130: 2313 06be 242c c4bc 3304 0b3e cd6d d63c
00000140: c4e2 c0bc 1942 07be cf6d 92bd ec4c 0c3e
00000150: 86c1 823d 3c92 1fbe 286d a3bd 57b6 063e
00000160: 300a 213d 54b1 133e f727 803d 1660 80bd
00000170: 3be0 02be 0394 8b3c 8d69 0dbd 516f 1e3e
00000180: 48aa d53e 48c4 5abe 7959 6bbe c9c5 a53d
00000190: 9692 a13d 379c 29be 6cc3 12be 05bc 7bbd
000001a0: 24e1 2dbe 50ba df3d 4741 1f3f 2a07 ab3d
000001b0: 64ef b6bb 764d fa3e a24a 87be 50d8 8fbe
000001c0: 012f 65be 5dd8 5dbe ea94 b0be 83c2 5a3e
000001d0: 3132 883d c0b2 2cbe e72f 1e3e 35da b63c
000001e0: eeeb dfbd f640 d3bd c035 d43d 8545 afbd
000001f0: 7b86 c53e b138 acbe 0cbc fc3b d3bb 83bc
00000200: b3cc e7bd 364c a1bc 501c 923e 2254 2f3f
00000210: 4c12 2ebe 8e9f 8dbe 466b 0a3e 6ed0 8cbe
00000220: 957f 93be ac48 553e e344 ed3e 3032 883d
00000230: 0d3c 73bd ca95 6bbc 8438 30be f020 c6bd
00000240: 4d4f a8be 70ac 48bd 2f3e 2cbd 80e5 07bf
00000250: 9c43 92ba 6b55 97bd 4583 bbbc c919 1bbe
00000260: eb54 61be 3e82 5e3f f74b 94be d499 c13e
00000270: f6b1 26bd 82a3 e8bd c777 8fbe d8b5 4d3c
00000280: 85fd 903e fc5a 91be 4c2e 9abe 202b 0dbe
00000290: f6d2 ccbd 3b4e 163e e9b8 6dbe 7e90 7e3d
000002a0: 600d 0abe f888 803e 95e0 4c3d bdae d8bd
000002b0: aede 94bd 996d 40be 34fa a4be c12c 40be
000002c0: e679 b1be d1db 8f3d 5945 afbe 9580 4a3d
000002d0: 3e12 28be 633e b13e 6563 48be a00c 57bd
000002e0: 5e04 82bd 6e0f 063e 3007 58bd fb7e 103e
000002f0: c85d 69be 12e1 843e 2586 5ebe 743a 2cbe
00000300: 6f6c b43e 39f8 cfbd 4a72 973e ab01 723d
00000310: db45 8e3e b12f b3bd 89a5 883e 9710 e9be
00000320: 5bff afbe 8aa9 413e 08ef 7b3e 8b45 753e
00000330: 5504 063e 58ca 3f3e 019b aa3e dd8c 07bc
00000340: 36ad 03bf e36b 23bf d37f 17bc 8e2d 4fbd
00000350: 858c 55be 5730 963e 1aa5 7bbc 876f e3bd
00000360: 34c3 e7be cfdd 853e 8b0d acbe d03e fbbc
00000370: ca4b 92be 89d2 e7be be31 0dbe afa2 8c3e
00000380: 9523 a03e f94a 1dbf 1846 e7be 3b4f f03b
00000390: de1a e3bc 01e9 163e f28f 4fbe 41f1 5cbe
000003a0: 875f 8c3e 3531 763e 486e 753d 7085 a43e
000003b0: cd96 f4bd 8317 1ebe 3d15 403e ea3c 0a3f
000003c0: 8cd7 603e 5be2 a2be 8ec2 a6be f998 64bd
000003d0: 94dc 9fbe dc81 a03e dc8f 213d a069 453e
000003e0: e278 513e 8ff9 793e 1e97 d3be 4a71 a1be
000003f0: d600 8cbe bc03 aabb 201d 8e3e 25c5 d43d
-0.13063718 -0.1131249 0.22715592 0.16238247 -0.22137393 0.016895585 0.1833364 -0.15824124
0.02937 0.03886462 0.33148903 -0.3753459 0.07645054 -0.11334467 -0.105584204 0.10468878
-0.056087572 0.060964495 0.057485018 0.27894026 -0.17151086 -0.13107353 -0.018394317 -0.0040127877
0.4587623 0.3146489 -0.10930088 0.22743744 0.032374866 0.24035981 0.3167104 -0.016358424
0.42794096 0.022041842 -0.13610868 -0.16861817 0.041951884 -0.3921984 -0.26491258 -0.3138087
-0.10616801 0.38026655 0.44098234 0.32375 0.15474108 0.09526898 0.14708574 -0.44606185
0.27618888 -0.33648705 -0.07046076 0.061742958 0.17391984 -0.14467773 0.13445967 -0.13314614
-0.09718621 0.10907063 -0.14755057 0.26140523 0.47766754 0.02531002 -0.25323072 -0.20668897
0.07956687 0.28211334 0.43834943 0.48566744 0.03860097 0.15248637 -0.33319357 0.35395277
0.1457206 0.07642492 0.49500552 0.029037882 -0.13093238 -0.02394683 0.1357582 0.026175404
-0.02354563 -0.13208808 -0.071498506 0.13701218 0.06384568 -0.15583128 -0.07979804 0.13155495
0.039316356 0.14423114 0.06257623 -0.06268327 -0.1278085 0.01703835 -0.03452449 0.15472151
0.41731477 -0.21363938 -0.2298335 0.08094365 0.07889287 -0.16563497 -0.1433236 -0.061458606
-0.16980416 0.10924208 0.6220898 0.08350976 -0.005582737 0.48887223 -0.26424128 -0.2809472
-0.22381212 -0.21664567 -0.34488612 0.21363263 0.06650198 -0.16865063 0.15447961 0.022320846
-0.10933672 -0.10315125 0.103618145 -0.08558182 0.38579163 -0.33637002 0.0077128466 -0.016080773
-0.1131834 -0.01968966 0.28537226 0.6848775 -0.16999167 -0.27660793 0.13517484 -0.2750277
-0.28808275 0.20828503 0.4634162 0.066501975 -0.05938344 -0.014378974 -0.17209059 -0.09674251
-0.32873002 -0.048992574 -0.04205149 -0.53084564 -0.0011159065 -0.07389339 -0.022889743 -0.15146555
-0.2200505 0.86917484 -0.28964207 0.37812674 -0.04069706 -0.11359312 -0.2802107 0.012555562
0.2831842 -0.28389728 -0.30113447 -0.13785982 -0.10001175 0.1467828 -0.23215069 0.062149517
-0.13481665 0.251045 0.050018866 -0.10580204 -0.07269035 -0.18791808 -0.3222214 -0.18767072
-0.34663314 0.070243485 -0.34232596 0.04943903 -0.16413209 0.3461791 -0.19569166 -0.052502275
-0.06348489 0.13091823 -0.05274123 0.14110939 -0.22789681 0.25952965 -0.2173086 -0.16819173
0.35238978 -0.101547666 0.29579383 0.059083622 0.2778767 -0.08749331 0.26688793 -0.4552047
-0.34374508 0.1891233 0.24602902 0.2395231 0.1308759 0.18729532 0.33321384 -0.0082733305
-0.51436174 -0.638365 -0.009246784 -0.050580554 -0.20854385 0.29333755 -0.0153591875 -0.111052565
-0.45266116 0.2614579 -0.33604082 -0.0306696 -0.28573447 -0.45277813 -0.13788506 0.27467868
0.31277147 -0.61442524 -0.45170665 0.0073336638 -0.027722772 0.14737321 -0.20269755 -0.21576406
0.27416632 0.24042208 0.059919626 0.32133055 -0.119428255 -0.15438657 0.18758102 0.539992
0.21957225 -0.3181332 -0.32570308 -0.05580995 -0.31222975 0.31349075 0.039443836 0.19278574
0.2045627 0.24411605 -0.4132623 -0.31531745 -0.27344388 -0.0051884335 0.27756596 0.10389165

lstm.bias_ih_l0 f4 [256]
00000000: db21 25be 8be0 d53d 10d9 d63d 712e e2bc
00000010: f29a 4cbe 38cd 223d 8822 693e 82da 903c
00000020: 4a0d 1bbe e132 e3bc c672 2a3e 8307 01be
00000030: ff05 babd 8379 81bd 644e debd 12cb 80be
00000040: c9eb 403b 0869 803d d894 15be 7f0a 48bd
00000050: f213 01be 6232 be3e 8023 4dbd a6f2 12be
00000060: ffbe ca3d 7ae6 2fbe 6f9a 0abe f877 3ebe
00000070: 8b06 94be e032 b13d 0153 993d 7e4b c3bb
00000080: 8643 823b 6c30 e53d bde2 d53b 6f75 85be
00000090: f978 00be 9c9f 5c3d d736 fdbc fc77 9dbd
000000a0: 4db4 d83b 3257 82be 6c88 3cbd 2abd 223d
000000b0: da3f 083e ea63 f83d c305 19be 17d6 523d
000000c0: 8e35 8a3c 38d2 743b 8abc 3e3e 5987 14be
000000d0: a6b0 85bc d856 993d 8fb4 65be 7c15 12be
000000e0: a308 f1bd 9f51 cfbd 5191 193e 558e 433c
000000f0: c4c7 413e e4bb a93d 94b5 d2bd c309 573d
00000100: a377 1bbe 41d6 7d3c 430d 2f3e bdef d93b
00000110: f579 12bd 20f9 823c c019 953d a8e8 d7bd
00000120: bda4 893e 5abf f63d 0bc9 9dbb 03a5 3c3e
00000130: e51e f1bd 9d7c d5bd 282c f5bb 1b7a 163c
00000140: aa95 983e 5c00 5f3e 7242 cdbd fba6 583c
00000150: 0388 c2bd 17b6 20be 46d6 223d e889 ffbd
00000160: d621 c43c 4e6e 853c 449d 20be 4436 49bd
00000170: e23d a43d 9ce4 8a3e 8078 27be 26a3 1a3e
00000180: 8b89 223e 20d5 4abc a4a4 ffbd 12ce c63d
00000190: 5788 24bd 5a49 ca3d 22c4 9a3d 7065 763d
000001a0: 609f d6bc a379 743e ea1c 083e 7e80 483e
000001b0: 7ee9 14be 5435 6b3e 0095 553e 39b2 a13e
000001c0: d9dc cb3d 393a b23b ff02 e3bc 6e8f 02bd
000001d0: 01b9 973e 4ca9 a0bd f6ac de3c b327 e33d
000001e0: 51a5 3e3e 28b6 ce3d 80f6 cdbd be34 21be
000001f0: b403 01be 0a9d 533e 3f54 483e 52d7 19be
00000200: 3a9a 38be fdbd 8f3d 3da2 b83c e0c1 72be
00000210: 2654 e23d 5fa5 843c d1d8 96bd d1bb cebd
00000220: 7927 943d 5d1b 5abd 5b82 c53d 9952 0e3e
00000230: 6173 18be b1a6 66bd aeb7 2f3e c512 2bbb
00000240: 4183 fb3d 7be4 fa3b bcc1 963c 7926 353d
00000250: 4977 3d3e 9ae1 8fbc 6d57 b2bd ab00 5e3d
00000260: 74e5 8f3d cd28 1fbe a348 f83d 3c02 42be
00000270: 1d3f a13d e6ed 91bd 56e6 d83d 60af 1abd
00000280: a1cc 15be 8ee6 33bd fc9d 8fba f434 00be
00000290: 8595 b6bd 9e92 373d b69e 953d 2736 a1bd
000002a0: b5ee ed3c a553 56be cd78 503c 1f39 1a3d
000002b0: 707e 68bc e102 f0bd de12 4cbe 08f6 60bd
000002c0: b2be 00bd bc83 d1bc a5eb 683d 3122 83bd
000002d0: 7082 0c3c 34ef 0a3d 54ff 07bd 506f 013c
000002e0: 8f20 bcbc d243 3abe 21b4 22bd 0969 4a3d
000002f0: 6ca9 38be aa18 7738 0828 023d 404d 7f3b
00000300: ffc5 1cbe 18f7 443e f48e 6a3e 79c3 1b3d
00000310: c0c6 15be fadc 723e 07fb 883d 6f06 613b
00000320: b16b f73c f3ac 823d 0c57 5c3e a4e5 07be
00000330: 12f7 5f3d 684f 0fbe e362 393d 1619 24be
00000340: d8d2 503e fd8e a53e 22d4 24be 04fa bebc
00000350: 527e 073b 0159 f53c 6a49 9d3d 8e8d 88bc
00000360: 6288 973d ef9c cdbd ccdc 0fbe 989e 45be
00000370: d864 00be 1c25 013e 46de 8f3d 248e 9bbd
00000380: d8d4 9f3d 5cb0 6e3e 9cf6 a2bd 7d30 87bd
00000390: f8f3 e6bc fe49 90bd 67a5 43bd 0744 48be
000003a0: 2b47 763d d567 2abe ad7e 5cbd 8053 20bd
000003b0: dac8 c5bc 4bf9 c63d 3564 043e 7c0f 953e
000003c0: 14a9 983c 23a3 22be 68ae 143e c049 3a3d
000003d0: 28cd 0d3e 1408 d93c 7779 0cbd 9c47 593c
000003e0: 156a bf3b a50b 253d 8a24 81bc 9e10 413c
000003f0: d833 9c3e fe07 2d3e 61cf f23d 650c 5cbd
-0.16126196 0.10443219 0.1049062 -0.027610036 -0.19980982 0.039746493 0.22767079 0.017682318
-0.15141788 -0.027734222 0.16645345 -0.12600522 -0.09083175 -0.06322005 -0.108547956 -0.2515493
0.0029437414 0.06270033 -0.1460756 -0.048838135 -0.12605265 0.37147814 -0.050082684 -0.14350376
0.09899711 -0.17177764 -0.13535474 -0.18600452 -0.28911242 0.08652282 0.07486535 -0.005959927
0.0039753346 0.11190876 0.0065272735 -0.26066157 -0.12546147 0.053863153 -0.030909939 -0.07688901
0.0066132904 -0.2545715 -0.04602854 0.039731182 0.13305607 0.12128432 -0.14943604 0.051473703
0.01687124 0.0037356745 0.1862661 -0.14504756 -0.016319584 0.07487267 -0.22432159 -0.14266008
-0.117692254 -0.1012299 0.1499684 0.01193579 0.18923861 0.082877904 -0.102885395 0.052499544
-0.15182357 0.015492977 0.17094903 0.0066508935 -0.03576084 0.015987933 0.07280302 -0.105424225
0.26883498 0.12048216 -0.004815226 0.18422322 -0.11773471 -0.10424159 -0.0074820705 0.009184386
0.29801685 0.21777481 -0.10022439 0.013223405 -0.094985984 -0.15694462 0.03975513 -0.124774754
0.023941915 0.016287949 -0.15684992 -0.049124017 0.08019616 0.2712754 -0.16354561 0.15101299
0.15872781 -0.0123799145 -0.124825746 0.097072735 -0.040169086 0.09877272 0.075569406 0.060155332
-0.026199043 0.23874526 0.1329228 0.19580266 -0.14542195 0.22969562 0.2085762 0.31581286
0.09954233 0.0054390696 -0.02771139 -0.031875066 0.29633334 -0.07844791 0.027182084 0.110915564
0.1861775 0.10093337 -0.10056782 -0.15742776 -0.12599069 0.20665374 0.19563387 -0.15023544
-0.18027583 0.07018659 0.022538299 -0.2370677 0.11051206 0.016192136 -0.07365573 -0.10094417
0.07234091 -0.053248752 0.09644004 0.13898696 -0.14887764 -0.056311313 0.17159912 -0.0026103717
0.12280894 0.0076566315 0.018402927 0.044226144 0.18502535 -0.01756363 -0.087080814 0.054199856
0.070261866 -0.15542908 0.12123229 -0.18946165 0.07873366 -0.07125454 0.10590808 -0.037764907
-0.14628841 -0.043921046 -0.0010957117 -0.125202 -0.08915237 0.04481756 0.07305662 -0.07871657
0.029044488 -0.20930345 0.012724114 0.03765213 -0.014190301 -0.11719299 -0.19929072 -0.054922134
-0.03143186 -0.025575511 0.056865353 -0.06403006 0.008576021 0.033919528 -0.033202484 0.007900074
-0.022964744 -0.18189934 -0.039722566 0.049416576 -0.1803338 5.891236e-05 0.031776458 0.0038955957
-0.15309905 0.19234884 0.22906095 0.038028214 -0.14626598 0.23717108 0.06688505 0.003433611
0.030202718 0.06380644 0.21517581 -0.13271195 0.054678984 -0.13995135 0.04526032 -0.16025195
0.2039293 0.32335654 -0.16096547 -0.023312576 0.0020674658 0.029949667 0.07680018 -0.016669061
0.0739906 -0.10039698 -0.14049071 -0.1929878 -0.12538469 0.12611812 0.07024817 -0.075954705
0.078042686 0.23309463 -0.07957193 -0.06601045 -0.028192505 -0.07045363 -0.04776516 -0.195572
0.060126465 -0.16641171 -0.053831745 -0.03914213 -0.024143625 0.097155176 0.12928851 0.29113376
0.01863531 -0.15882544 0.14519656 0.04548049 0.13847792 0.02649311 -0.034295525 0.013261702
0.0058415034 0.04029431 -0.015764493 0.011783747 0.30508304 0.1689758 0.11855961 -0.053722758

lstm.bias_hh_l0 f4 [256]
00000000: 7c42 9ebe 0a09 46bc 68df f43d 13bd 9c3d
00000010: 7fc7 34be 7654 123d 54f1 243e dc8c a5bd
00000020: d884 38bd 4574 d43c b224 433d c910 b53c
00000030: b9ae 14be 5a2a bdbd 3f23 bdbd c00e dfbd
00000040: 5870 1b3e 910f 133e 4602 aabe b940 b83d
00000050: cda3 d73c 235c 8d3e 90bd 5cbc 668f 1bbd
00000060: 3c59 683e 4297 d1bd d3cd 7dbe 7e4e 78be
00000070: 346f 94be 0e99 c9bc 292b 963c c4c0 a6ba
00000080: cf5c a53c 1c0d 603e 7566 8f3d 6872 11be
00000090: a619 69be 314b 843d 6ff8 afbd cace 2abe
000000a0: 7d17 323e 7cbe 7bbe 53b3 103d 70f7 583d
000000b0: 6ac1 163e 54b4 153e d346 81be 860e 9b3c
000000c0: 6e39 f1bd 9cb0 413d e8d9 8c3e 7622 36bd
000000d0: d3d2 16bc b483 16bb ad38 8ebe a841 64bd
000000e0: bf06 c9bd 8b23 0d3d f40f 96bd e731 8d3d
000000f0: 63fd 723e 2be2 73bd 6222 373b c8ac c9bc
00000100: b1bf ddbd 399d 563e 5a10 9e3d 5401 d53d
00000110: 519c 8f3d 7a38 48bd f66b af3d 48b5 0fbe
00000120: 2629 323d 0228 b03e 98eb 943d 1125 143e
00000130: 29f7 3ebd 185b c0bc 439f 713d 0b3e 22be
00000140: af39 8e3e 7cb5 4a3e ada0 a93c 6101 9c3d
00000150: a27e 1b3c d5af 00be 07ca 013e 0047 d2bd
00000160: e81c 89bc a161 35bd 0a12 09be 69c4 1ebc
00000170: 12de ca3b 9fc5 8a3e c1b4 0e3d 3dbd f9bc
00000180: e907 193d a1cf 9cbd 80d2 b53d 2bf7 203d
00000190: c760 12bc cb3b 493e ba87 8dbd df77 7c3e
000001a0: 74ed aa3b 14c4 413e eac5 333d f4fc b23d
000001b0: fa79 d2bd 09b2 f73d 2a14 493e 9029 c63d
000001c0: 04ad a2bd d438 ccbd 82f9 94bc eaad 99bc
000001d0: bcf2 4e3e 7ec7 f83c e3ef 10bd 446c 553c
000001e0: 3fb3 bebc c826 063e 40e7 b6bd a059 e2bd
000001f0: 6bee 87be 2d89 a43d e6f1 1b3d b74c e1bd
00000200: 4b12 98bb e2f5 abbb 081d b4bd 08f8 31bc
00000210: c877 8fbc 9648 a33d 99d1 4abc 4738 dfbd
00000220: 9f9a bf3d 5f0a 6abd b375 dcbd 100b 0f3b
00000230: 1791 ed3b 83cd b03c d3cc 183e 3f89 023d
00000240: dde6 5f3d 43ed 2e3e 4f7f b4bd 0df8 a7bb
00000250: af1d 0c3e cd55 82bd 9d85 01be 45d7 c13d
00000260: 7202 023e af84 70be 810a 6e3d c10b bdbd
00000270: efb5 5d3b 9013 3abd 8171 ed3a f4a9 dbbc
00000280: 7a11 cebd ab72 223d 0121 bdbc 18b5 25be
00000290: 3098 6bbd a804 483d beb8 e5ba 91cd 1a3e
000002a0: fb71 d63d 5a7f 94bc 1027 98bd 910e 00be
000002b0: 036b 5a3b a5d9 d4bd a5f9 a9bd ea9a af3d
000002c0: 5ec6 203d 3de0 083e 87bb 7a3d 0483 2dbd
000002d0: 9386 b23d 1713 c03d 3440 e3bc 1e74 2a3d
000002e0: 53b8 3b3d 8826 aabd 1d62 e6bd cfdb d13c
000002f0: 7c30 08be df00 c4bd 9fb0 cebb 27ae da3c
00000300: cfc5 d6bd 5e7d 4a3e bf3e af3e 4980 1c3e
00000310: 40ee 9dbb e5fb 873e 383b b1bd ee56 f43d
00000320: e769 68bd b62e 903c a01c 8a3d 3402 abbc
00000330: cb2c 1bbd 45c9 06be c6cc 593c f88c bdbd
00000340: de06 513c 8dc0 d23d 50f9 07bc f4c1 fcbd
00000350: 5ca1 d8bd d613 1f3c de91 9fbd e63c a4bb
00000360: 717f cf3d fd5d a03d eab7 d23c 9188 92be
00000370: 195a c9bd 605d 103e 28cf 4e3d e38d 0b3b
00000380: 8a76 b5bd d5db 013e 8947 00bd 3c85 b53d
00000390: cd99 3ebd 7916 a4bd 37cc a43d 18ab 27be
000003a0: cd8c 563e de61 59be cc21 8a3d da58 a83c
000003b0: 7a63 3abd 71fa 8c3d f7b4 dc3d a808 f83d
000003c0: 0376 cb3b 4fec ebbd ba67 a33d 2320 cebc
000003d0: 9910 3f3e 4cf7 d63d 4cb1 df3c 16d6 ce3d
000003e0: 951c 2d3d 213a 6e3d 015c 2bbd 0a09 c93d
000003f0: 7b6c 423e 7b6a 1d3e 67f7 f7bc 6aa5 043e
-0.309101 -0.012087116 0.11956674 0.076532505 -0.17654227 0.03572508 0.16107684 -0.080835074
-0.045048565 0.025934348 0.047642417 0.02210273 -0.14519776 -0.092365935 -0.09235238 -0.10891485
0.15179574 0.14361407 -0.3320486 0.0899672 0.026323223 0.27609357 -0.01347293 -0.037978552
0.2269029 -0.10233928 -0.24785547 -0.24248692 -0.2899109 -0.024609115 0.018331127 -0.0012722244
0.020185856 0.21880001 0.07001964 -0.14203799 -0.2276369 0.06459654 -0.08592307 -0.16680446
0.17391773 -0.24584383 0.035327267 0.05297035 0.14722219 0.14619571 -0.25249347 0.018927824
-0.11778532 0.04728757 0.2751 -0.04446646 -0.009205538 -0.0022966685 -0.27777615 -0.055726677
-0.0981574 0.034457725 -0.073272616 0.06894284 0.23729472 -0.059541862 0.0027944078 -0.024618521
-0.10827578 0.20958413 0.077179626 0.10400644 0.07012237 -0.048881985 0.08565514 -0.14033997
0.043496273 0.34405524 0.072714984 0.14467265 -0.04662243 -0.023480937 0.058989774 -0.1584398
0.27778384 0.19795793 0.020706499 0.076174505 0.009490641 -0.12567075 0.12674724 -0.102674484
-0.016737416 -0.04428256 -0.13385788 -0.0096903825 0.0061910236 0.27103898 0.03484035 -0.030485744
0.03736106 -0.076567896 0.0887804 0.039298218 -0.008934206 0.19651715 -0.069106534 0.24655102
0.005216295 0.18922454 0.043889917 0.08739653 -0.102771714 0.120945044 0.19636598 0.09675896
-0.07943156 -0.099717766 -0.01818538 -0.018759686 0.20209783 0.030368563 -0.035385024 0.013026301
-0.02327883 0.13100731 -0.08930826 -0.11052251 -0.26549086 0.08033977 0.03807249 -0.1100096
-0.0046408526 -0.0052478174 -0.087946 -0.010862358 -0.01751317 0.07972829 -0.012379074 -0.10899406
0.093556635 -0.057138797 -0.10764637 0.0021826662 0.007249962 0.02158237 0.14921884 0.03186917
0.054663528 0.17082696 -0.08813345 -0.0051260055 0.13683198 -0.063640215 -0.12648626 0.094648875
0.12696245 -0.23488115 0.058115486 -0.092307575 0.0033830365 -0.045428813 0.0018115492 -0.026814438
-0.10061927 0.039660137 -0.023087027 -0.16182363 -0.057518184 0.048832566 -0.0017526371 0.1511748
0.10470959 -0.018127132 -0.074293256 -0.12505557 0.0033327944 -0.10393075 -0.08299569 0.085744694
0.039251678 0.1336679 0.061213996 -0.042361274 0.08717074 0.09378641 -0.027740575 0.041614644
0.045830082 -0.083081305 -0.112491824 0.025617508 -0.13299745 -0.09570479 -0.006307676 0.02669437
-0.10486948 0.19774386 0.3422756 0.15283312 -0.0048196614 0.26559368 -0.08653873 0.11930643
-0.05674162 0.017600399 0.06743741 -0.020875074 -0.037884515 -0.13162716 0.013293451 -0.09255403
0.012757985 0.102906324 -0.008299187 -0.12341681 -0.10577652 0.009709319 -0.07791494 -0.0050121425
0.101317294 0.07830427 0.025722463 -0.28619817 -0.09831638 0.1409812 0.05049053 0.0021294288
-0.088605 0.12681516 -0.03131822 0.08863303 -0.046533395 -0.08012099 0.080467634 -0.16373861
0.20952149 -0.2122874 0.067447275 0.02055018 -0.045505024 0.068837054 0.10776704 0.12111026
0.0062091365 -0.11519682 0.07978769 -0.025161808 0.18658675 0.10496387 0.027306221 0.100994274
0.042263586 0.058160905 -0.04183579 0.09816177 0.18986695 0.1537265 -0.030269338 0.12953725

lstm.weight_ih_l1 f4 [256, 64]
00000000: fcd7 303e b028 37be 0117 103e 8ff1 6d3d
00000010: ea90 843e 27a8 03be 07c5 763e 52ee 413c
00000020: 3f02 59be 3a7f 953e 44f8 82bd a6e8 203e
00000030: f9a4 bd3e 37d3 993e 166e a63e bfad 4abe
00000040: 121d bdbe dc24 31be 7887 2dbe 0765 8a3c
00000050: 2910 7e3e 89b7 a23c ef72 0a3e d699 723e
00000060: d828 2cbe 6ebf ca3c d7b3 80be 4294 90be
00000070: 5d53 363c 98e7 3dbe 985b 27be bfb6 c73e
00000080: 1044 4abd f78f f9bd 8c9a 4ebe 9026 8e3e
00000090: 862a 843e 92de d23e 9940 e33c 1bbf ad3d
000000a0: 60b5 a23d bd09 a23d 05a1 253e fb80 98be
000000b0: ab82 54be 4857 dcbd e208 533e 861d 093d
000000c0: 821f 7abe 7968 1dbe e004 d93d a72f e3bd
000000d0: e66a fdbd 4b08 adbc ad69 8ebe cfe9 183e
000000e0: 27a2 bcbd 81a3 f23e d222 93be 3a69 bb3d
000000f0: d8d6 6abd 5288 a73e 6551 853e dfbc 223e
00000100: 862c 30be 535b 0c3e c445 a43d c2df 143e
00000110: 4085 dfbe 348d f33d 1998 e0bd c300 79be
00000120: 7201 9c3e 8a58 80be 700e f83e 0bb5 20be
00000130: 9be1 cfbe 4423 9f3d 237a 97bd 1797 833e
00000140: 86a2 9f3e 2003 be3e 5c69 e63d ea64 ad3c
00000150: c716 c2be c16f bcbd 5f79 05bf 12a3 a4be
00000160: bb0e 083e dd1a 7e3d 2d80 c73e 781c 0b3e
00000170: f0e9 873d ca37 9e3e feb1 a33e 420d 23be
00000180: fd08 1d3f 02fd 9c3e c666 243e f7ba bcbe
00000190: 99e5 94bc 854c 1fbf b3ca 723e 7114 35be
000001a0: 6a4d 9fbd 2fde 59be 03fe 1c3d 2122 b63e
000001b0: 9ae1 a83e 33e9 20be d7ce b7be 7445 1abe
000001c0: 2908 94bd 0ab0 8a3d cf94 033e 41df 373e
000001d0: fb0e ab3e c034 1a3e 9a32 9c3d 50cf 19bf
000001e0: acc7 8c3a dffd 2ebe 1472 7bbd 2782 ad3e
000001f0: 067c b6bd 55fb e8be 301f bebe 784b 3fbe
00000200: d6e6 2c3d c892 d9be 030a 4ebe 0098 34be
00000210: 2352 463e e06d 2fbe d897 11be 19c2 b1bd
00000220: 722c 14be a01a 0c3e 95dd 18be 22b8 653e
00000230: c2b8 1c3e e6d5 da3e 420f 693e 4a47 dfbd
00000240: 6e68 20be 530b 063d 322e 50be 3efd 933d
00000250: 31d6 ee3e 2fcb 9a3e 1c63 4d3e fccc ce3e
00000260: 9685 f73d 77a4 d6bd 79e9 55be 933d eebe
00000270: a61e 4b3e f93a ccbe 26af a23d 7d89 bd3e
00000280: 76a8 cbbd fada 9f3d 7205 69be 2245 ba3c
00000290: 3254 6bbd 7b7b e13e effa 533c 3b2b 463e
000002a0: e452 a03e 52bc 92bd 3a90 39be 0aff aebe
000002b0: e697 a0be 6e22 543e 130f 023e 0e19 8cbd
000002c0: ec01 cebe fffb a1be 986e a43d 4ef6 66be
000002d0: 1d09 e8be 0028 6c3d 0aeb 52bc fbe1 903e
000002e0: c8f2 6fbd a580 e03e 8586 09be 5c12 bc3c
000002f0: 45ff 5cbe 2f4d 733e 342d 7f3e f96c 403e
00000300: e645 16bc a4b7 89be 86ee e7bd 2bc4 883c
00000310: 8c8d 463e 6096 a4be 0962 893d 42b9 1a3e
00000320: ff45 44be 5c5b c03d 4437 c43c a5ce 3b3e
00000330: 75e0 853e 031a 6e3e bbda e53d 0e1e 21be
00000340: 3396 ccbd 5dc1 54be a57d 5ebd 7177 04be
00000350: 9776 f8bb 9a5d a43d c259 dc3e 87a8 553e
00000360: dcdb 603d d3e8 54be a91c bcbc 43f9 99be
00000370: c2a0 f5bd f36e d7bb 0c51 8b3b ddc3 713e
00000380: 876c 2dbd 84c6 28be 0427 72be dc41 d83d
00000390: ab5a 833e 9cbc 9e3c a311 efbd b42b e9bd
000003a0: a1b7 0b3e a188 a63d 245a e43c ed28 83bc
000003b0: 75a2 9dbe 9c53 0b3b c7ef b43d fc55 c9bd
000003c0: 74f3 ae3d 93ea a3be 0b72 b03e e051 85be
000003d0: bf62 30bd c307 663e aa12 8bbd 928e 893d
000003e0: bdd2 733d 878a 753e 5964 9cbd f79b 063d
000003f0: 4d58 443d c33d 133e 56d1 92bc 9c28 c03e
0.17269892 -0.17886615 0.14071275 0.058091696 0.2589181 -0.12857114 0.24098597 0.011836605
-0.21192263 0.2919863 -0.06395009 0.15713748 0.37039927 0.30043957 0.32505864 -0.19792841
-0.3693624 -0.17299217 -0.16946208 0.016893877 0.24810852 0.019862907 0.13520406 0.23691496
-0.16812456 0.024749484 -0.25137207 -0.28238112 0.011128274 -0.18545377 -0.16343534 0.39006612
-0.049381316 -0.12185662 -0.20176142 0.27763796 0.25813693 0.41185433 0.027740764 0.08483716
0.07944751 0.07912014 0.16174705 -0.29785904 -0.20752971 -0.10758835 0.20608857 0.03347542
-0.24426082 -0.15371884 0.10596633 -0.11093073 -0.12373905 -0.021122118 -0.27815 0.14932941
-0.092106156 0.4739037 -0.28737503 0.0915093 -0.057333797 0.32721192 0.26038662 0.15892361
-0.17204484 0.13706712 0.08021119 0.14538482 -0.4365635 0.11892167 -0.1096651 -0.24316697
0.30469853 -0.2506755 0.48448515 -0.15694062 -0.4060181 0.07770398 -0.073963426 0.2570121
0.31178683 0.3711176 0.112505645 0.021166284 -0.37908003 -0.09201003 -0.5213832 -0.32155663
0.13286869 0.062037338 0.38964978 0.13585079 0.06636417 0.3090194 0.31971735 -0.15923026
0.6134184 0.3066178 0.1605483 -0.36861393 -0.018175887 -0.62226135 0.23710136 -0.17683579
-0.077784374 -0.21276163 0.038328182 0.35572913 0.3298462 -0.15713958 -0.35899994 -0.15065557
-0.07228119 0.06771858 0.12849735 0.17956258 0.33409867 0.15059185 0.07626839 -0.6008196
0.0010740659 -0.17089032 -0.06138809 0.3388836 -0.08910374 -0.4550425 -0.3713317 -0.18681133
0.04221233 -0.42494798 -0.20121007 -0.17636108 0.1936727 -0.17131758 -0.1421808 -0.08679599
-0.1447008 0.13682032 -0.14928277 0.22433522 0.15304855 0.42741317 0.22759727 -0.10902269
-0.15664837 0.032725643 -0.20330122 0.072260365 0.4664779 0.30233142 0.20057338 0.40390766
0.12086026 -0.10480588 -0.20889844 -0.46531352 0.1983591 -0.39888743 0.07943563 0.37018958
-0.09944241 0.07805438 -0.22755983 0.022738043 -0.05745334 0.4403952 0.012938245 0.19352429
0.3131324 -0.071648255 -0.18121424 -0.34178954 -0.3136589 0.20716259 0.12701063 -0.06840716
-0.4023584 -0.3163757 0.080289066 -0.22554895 -0.45319453 0.057655334 -0.0128734205 0.2829741
-0.058581144 0.43848148 -0.13430221 0.022957973 -0.21581753 0.23759912 0.24919587 0.1879157
-0.0091719385 -0.2689792 -0.113247916 0.016695103 0.19389933 -0.32145977 0.06708152 0.15109733
-0.19167326 0.093924254 0.023952134 0.18340547 0.2614781 0.2325211 0.1122336 -0.15734121
-0.09989586 -0.20776887 -0.054319043 -0.12936188 -0.0075824964 0.080256656 0.4303723 0.2086507
0.054897174 -0.2079194 -0.022962885 -0.30072984 -0.11993553 -0.0065745055 0.004251605 0.23609872
-0.042339828 -0.16481978 -0.23647696 0.10559437 0.25655112 0.019377045 -0.11673286 -0.11385289
0.13644268 0.08131529 0.027875014 -0.016010726 -0.30788007 0.0021259552 0.088347964 -0.09830853
0.08542529 -0.32014903 0.34462008 -0.26039028 -0.04306292 0.22463898 -0.06790669 0.06716646
0.059527148 0.23978625 -0.07636327 0.032863583 0.047935773 0.14379029 -0.017922085 0.37530982

lstm.weight_hh_l1 f4 [256, 64]
00000000: 45e5 f73d dcd4 51bd 19bb fc3c 2e35 423d
00000010: 86da 94bd fc3f 743e 57a3 cdbd 8935 213d
00000020: 0fe9 0bbe 94d9 d2bd e35b 9b3d 7f97 943d
00000030: c470 063c b7ed 4bbe ce4f 95bd c93b 2d3d
00000040: ebba 493e 8671 69bd b423 74bd 301a 57bd
00000050: 3ead 2abe 3d7b 45bd e3c0 f23c c433 813d
00000060: 77e6 c9bd 160e 233e 9189 883c 519e cf3d
00000070: 7aaa 6e3d 792b 6b3d 29c3 30be 4f78 2b3d
00000080: 9295 babd c622 0d3d 8a91 57bb 5e9e babc
00000090: 6b97 9e3d b218 433d bf77 ca3d 47e6 463d
000000a0: 6407 e8bd 0073 9a3b 8f10 1bbe 67c9 913d
000000b0: d1ac b83d 5725 09be cf31 42bd bd06 373d
000000c0: f397 f13d ba1b 6d3e 2373 bd3d 582b 2e3e
000000d0: 314c 03be 1922 acbd 7bb9 d83c 02d7 d43d
000000e0: bb7b 1fbe d5aa 163c e192 7c3d 1805 133c
000000f0: 340e 31bd 2ff5 6bbd 08f2 e3ba 0905 06bd
00000100: e431 f9bd 035c 13be 0170 c53d 1369 14be
00000110: e710 25bf 2e29 f4be 766a da3d 4434 02bc
00000120: ec36 2c3d c88d b5bd 6dc8 273e f531 643b
00000130: 332f e23d 3de1 803e 33a7 26be 3e78 52be
00000140: 7806 aa3c d14e cebb c661 bfbc e3f5 1d3e
00000150: 9ea8 573e 2bfe aa3c 76eb b6bd d579 edbc
00000160: 9be0 323e 9cf5 04be 8c9d cbbd ee02 db3c
00000170: cb1c 80bc 3e3f 47bd 754f 1ebe 0064 1fbd
00000180: 8292 50be 6881 223e 7e8e eabd 144a ccbd
00000190: f779 ff3d bb5a 82bd 002d a83c 6a1e c93d
000001a0: 5979 f93d f0a2 30be d487 5dbd 93f1 edbd
000001b0: 712f e7bd 5b78 0d3f 604e b13d 6c19 5cbb
000001c0: a04b b13d 242e 9cbd 78ad 533d 1b41 29be
000001d0: e4d5 673e 7ad4 16be 36dc 3e3e 36e4 61be
000001e0: 132b 25bd 558d 6b3d 554f b13d ec0a 15bd
000001f0: 155c 5abe 489e 9abd 76bc d9bc ba6e 83be
00000200: 34d9 77bd 5c47 59be 2176 c13e c8a3 cebe
00000210: 3435 d6bd 18e6 703b 1fca 873e 2db5 89bd
00000220: fc6b 7d3d fe97 eb3d b7c4 3c3e a9dd 163e
00000230: a714 37be 51bf 963d 1d12 183d 0a55 7bbd
00000240: 07f2 903e b520 913e 1aad dc3d 7101 b53d
00000250: 8ed9 1d3e 9380 8dbe 7342 edbc 3bd9 a5bb
00000260: ac87 d5bc b256 813e 27bc d2bd 85ab 9ebc
00000270: 296b a83e e5d6 3f3d b666 e5bd ebb0 c9bd
00000280: dbe8 0fbd c4fc ed3d bda7 4bbe 347d d73d
00000290: 9db7 58be 80f5 e6bd 7882 233e 5c09 943d
000002a0: 71a2 333e 49ae ef3d 8ade 123e 73fd 21be
000002b0: f67b f33e 3bd6 67be 69ca 8a3d 1f74 983d
000002c0: 1f58 2dbe 18ab 003f 69a5 5ebe 5222 4dbd
000002d0: ab96 97be 167f 883d 4f39 b5bd 62b7 76be
000002e0: 5b0a 513e d11e 173e 11ae 943e 09db 8c3d
000002f0: 0a1e 7dbe 5546 283d a813 88be 2211 693e
00000300: 5c86 c53d b293 b83d 3c49 13be d97b a23d
00000310: 2d27 2bbe f8e1 a9bd fc7d 2f3c 5e46 003d
00000320: 96ce c0bd 734b f5bc 48e9 5ebe 4937 ccbd
00000330: 5c6e 843c 8541 42be f30b 593e eed2 53be
00000340: e7d2 97bd 21c2 febc 0381 18be 84cd 41be
00000350: 7a18 9dbd d71e 643e afd9 013e 0382 293e
00000360: e00e 27be 2758 81bd 63a4 c03c 92b8 943d
00000370: 1ecb 9fbe 5cdf 1fbd 9971 423e 40fa 8ebe
00000380: 3ec6 f23d aa25 043e 426b 183e 4466 e23c
00000390: aa1e ef3c c9b6 1a3e f301 5dbe b607 73be
000003a0: 9e40 05be ca3a 5b3c 6b12 90ba fdb1 1a3d
000003b0: e680 9abd f3ab 94bd cc7a 0ebc d3f4 bcbd
000003c0: 5b6a 64be 51ca 3d3b c5bc aebd 2e32 62bc
000003d0: c83c 113e 675a fcbd 7071 03be e9f1 903d
000003e0: 4cbe 8d3c 82ba 103d 1a33 18bd 5d44 3fbe
000003f0: a160 a73c aad4 553e d839 6c3d 6e1d d3bc
0.121042766 -0.05122839 0.030850934 0.047413997 -0.072682425 0.23852533 -0.1004092 0.039357696
-0.13663124 -0.10295406 0.075858854 0.07255458 0.008205596 -0.199149 -0.07290612 0.042293344
0.1970021 -0.05699303 -0.05960436 -0.05251521 -0.16667649 -0.048213232 0.029632991 0.06308702
-0.09858411 0.15923342 0.01666716 0.10137618 0.058268048 0.057414506 -0.17261948 0.041862782
-0.091105595 0.03445699 -0.0032893145 -0.022780593 0.077437244 0.047630973 0.09886121 0.048559453
-0.11329535 0.004713416 -0.15143035 0.071184926 0.09017337 -0.1339315 -0.047410782 0.04468416
0.1179656 0.23155108 0.09250476 0.17008722 -0.12822033 -0.08404941 0.026455631 0.10392572
-0.15574543 0.009196003 0.061663512 0.008973382 -0.043226436 -0.057606872 -0.0017390857 -0.032719646
-0.12167719 -0.14390568 0.09640504 -0.14493208 -0.64478916 -0.47687668 0.10664837 -0.007947031
0.042044565 -0.08864933 0.1638505 0.0034819816 0.11044159 0.25171843 -0.16274719 -0.20553681
0.020755038 -0.0062960167 -0.023362052 0.1542583 0.21060416 0.02087315 -0.08931629 -0.028988758
0.17468493 -0.12984318 -0.09942159 0.026734795 -0.01563873 -0.048644297 -0.15459998 -0.038913727
-0.20368388 0.15869677 -0.114529595 -0.09975067 0.12474435 -0.06364962 0.02052927 0.09820254
0.12181348 -0.17249656 -0.054084614 -0.11618342 -0.112883456 0.5526177 0.08657527 -0.0033584489
0.086570024 -0.07625988 0.051679105 -0.16528742 0.22640187 -0.14729491 0.18638691 -0.22059712
-0.040324282 0.05750783 0.086577095 -0.03638737 -0.21324189 -0.07549721 -0.026579123 -0.25670415
-0.060509875 -0.21218628 0.37785438 -0.4035933 -0.104593664 0.003675824 0.26521394 -0.0672401
0.06187056 0.115035996 0.18434416 0.14732994 -0.17878972 0.073607095 0.03712665 -0.061360396
0.28309652 0.28345266 0.10775204 0.088381656 0.15415022 -0.27637157 -0.02896235 -0.0050612963
-0.02606567 0.25261456 -0.102897935 -0.019368896 0.32894257 0.0468358 -0.11201231 -0.098481975
-0.035134178 0.11620477 -0.19888206 0.105219275 -0.21163793 -0.11277294 0.15967739 0.07228348
0.17542435 0.11703164 0.14342704 -0.1581934 0.47555512 -0.22640316 0.06776888 0.07444023
-0.16928147 0.5026107 -0.21742786 -0.05008156 -0.29607138 0.06664865 -0.08848821 -0.24093392
0.20414107 0.1475785 0.29039052 0.06877715 -0.2471849 0.0410827 -0.26577497 0.22760442
0.09644768 0.09012546 -0.14383405 0.07933778 -0.16714163 -0.08295053 0.010711189 0.031317107
-0.09414403 -0.029943204 -0.21768677 -0.09971482 0.016165905 -0.18970306 0.21195965 -0.20685932
-0.07413273 -0.031098427 -0.14892964 -0.18926054 -0.07670684 0.2227739 0.12680696 0.16553502
-0.16314268 -0.06315642 0.023515886 0.072617665 -0.31209654 -0.03903137 0.18988647 -0.279253
0.11854218 0.12904993 0.14884666 0.027636655 0.029189426 0.1510879 -0.21582775 -0.2373341
-0.13012931 0.013380716 -0.0010991817 0.0377674 -0.07544117 -0.07259359 -0.008696269 -0.09226384
-0.22306196 0.0028959701 -0.08532099 -0.013805909 0.14183342 -0.123219304 -0.12836242 0.07077391
0.017302655 0.035334118 -0.03715811 -0.18678422 0.020431818 0.20881906 0.05767235 -0.02577087

lstm.bias_ih_l1 f4 [256]
00000000: 784c b9bc 53cc e43e 7a77 1f3d b3f7 603c
00000010: 8d2f a63d 5051 8a3e 73fa 63be 16fa 21be
00000020: 8f4f 8d3a 2e99 93be a52e 30be e003 f5bb
00000030: f909 e1bd 9859 73bd 9dd5 f6bd 2598 c1bd
00000040: 2791 4abe d21b f4b9 42e2 0dbe e5dc efbc
00000050: 86cb d83e 922d f53d 9a1e 5cbe 5e7d 51be
00000060: b4ef 87bd 2324 3d3c 8738 e4bd e1a3 03bd
00000070: e3e2 073d 3c96 08be a560 92ba e641 39be
00000080: 0932 8bbd 0d25 0abe 7d05 9dbd 225a 81be
00000090: b158 72be 48bd 4dbe 6a37 dbbd 9681 27bc
000000a0: 91cf 21be ad81 95bd 9da1 70be e7e8 80bd
000000b0: b8a3 283d 3a47 283d 19a4 d9bd 504c 81be
000000c0: 5ebf 9bbd e82e 5cbe 1df6 583d 1ce6 10bc
000000d0: aba2 f7bd f206 3dbe e288 8dbe be42 11bd
000000e0: 4781 0dbe 76a6 bfbd e021 963d b5f1 58be
000000f0: d64d 7ebd f87d 20be 8b47 d8bd 1592 77bd
00000100: 031c c0bd d59c 5e3e d400 3a3e b447 f9bc
00000110: 8555 bfbd 7bd4 4a3d 5962 82be 715d ffbb
00000120: 721d df3d 6e48 2b3d 33f4 d93b 3a55 cabd
00000130: 78ce 52bd f108 673d de16 61be fd26 053c
00000140: 3632 55bb c8e3 46bd b630 c73d f81c bf3c
00000150: 1747 b03e 470b 2cbe 4d43 c2bd e598 1abd
00000160: 5a7c e7bc ed3b f5bd f036 bebd 885a 73be
00000170: f803 f5bd 6b2a 7cbc 31e5 ffbd 1998 573d
00000180: f694 c7bd 5593 46be 6aaa c0bd 0794 efbc
00000190: 566c c9bd b096 8d3c 7f94 c03d 1660 2bbc
000001a0: f2a4 7bba 351d 17bd 0092 8dbd 58cb e5bd
000001b0: 4939 7b3e 0f66 08bd 5dca 41be d44e 4e3d
000001c0: 68c9 e63d e079 c73d b75d eabd 6b31 ebbb
000001d0: 0000 5abe 7947 373e ea3a 35bc 1c07 48bd
000001e0: 06ba 2bbe e2bb 72bd caf0 4f3e b1c2 693d
000001f0: b2eb d63c 4575 27bd d70f 123d dc87 92bd
00000200: e313 b5bc 956e 91be 0d57 133e 41fb e7bc
00000210: 9b2c 01be 6027 a3bd 0d35 38bd ba69 00bc
00000220: 8363 6e3e aab6 9d3b 8b46 4a3e 6e9d 0b3e
00000230: a086 2d3e aa28 793e 887d bb3d 8b7a ce3c
00000240: d6c1 443d e598 073e 5dee 1a3e 7b4c 793e
00000250: 3993 a63e bf09 a93d 5323 73be 24d9 08bd
00000260: c08a e43d feb0 10be e3a4 353e 96ce 46bb
00000270: c8d4 08be f3cf f23d e7ff f1bd d421 1bbc
00000280: b16d 07be a33e 943c 6770 58bc 1403 4bbe
00000290: 77dc b63d 28da b3bd 48d3 333d 4ecf f73d
000002a0: de2d 323e 0999 07be 19c9 9e3d fad1 96bd
000002b0: 4d93 863d 2de1 0f3e cf6e 0fbe 3b3a 1e3d
000002c0: aa09 aa3d 216f efbc e22a 973c f0eb 81be
000002d0: 9467 773d 14cd 34b9 40bc 4f3b b276 6bbe
000002e0: 3490 fc3d ef7e 0f3e 98de 133e 1c58 ec3d
000002f0: 6779 65be bba7 3fbe 7752 52be d37c 0abe
00000300: 1f63 3f3c 2278 253e c166 91bc 2e32 2d3d
00000310: 1056 cebb 361b 593e e950 38be 500b bbbd
00000320: 6f6c 1e3d 379b 59be 65b7 8f3d 3c79 03be
00000330: 4024 5dbe ec61 a73d 3239 11bd 217f 0cbe
00000340: ca09 65be 465b acbd 14eb 99bd 6215 e83c
00000350: e7aa a73e d736 66bd 14c9 3dbc c85c 87bd
00000360: b024 46bd 7500 4f3d d805 a9bd 1225 00be
00000370: f1ef 983c ef0a 34bd 3617 a8bd 52e0 27be
00000380: 7556 e6bd faed 87be a3d2 55be de0d e4bc
00000390: c306 14be a09d eabd 1e8f 7bbd 6942 36be
000003a0: 53a1 123d 1527 91bd 5ab6 90bd ebfc cebd
000003b0: 1cba f63d 3d81 dd3d 9603 8bbe 03ad c9bd
000003c0: 98cb 02be c70b 0f3d 1ac7 b03d 6433 3a3d
000003d0: 04b2 b4bc f4c1 4dbe def8 2ebd fe68 06bb
000003e0: 55b2 6cbe 868d 3cbe 38c6 4a3e 47b0 4bbb
000003f0: d701 e2bd 80b2 3ebe 60fd d8bc eb5c 78bd
-0.022619471 0.44687137 0.0389323 0.013730931 0.08114538 0.27015162 -0.22263508 -0.15818056
0.0010781157 -0.28827804 -0.17205293 -0.0074772686 -0.1098823 -0.059411615 -0.12052462 -0.094528474
-0.19781934 -0.00046560034 -0.13855842 -0.029280135 0.42342776 0.119715825 -0.21496049 -0.2045798
-0.066375166 0.01154426 -0.11143594 -0.03213871 0.03317536 -0.1333856 -0.0011167718 -0.18091545
-0.06796653 -0.13490696 -0.076670624 -0.25264078 -0.23666646 -0.20091736 -0.10703929 -0.010223767
-0.15801837 -0.07300124 -0.2349915 -0.062944226 0.04117176 0.041083552 -0.10627002 -0.25253534
-0.0760486 -0.21502268 0.052969087 -0.008843925 -0.12091573 -0.1845968 -0.27643496 -0.03546404
-0.13818847 -0.09357922 0.0733068 -0.21185954 -0.06208595 -0.15673053 -0.10560521 -0.06044205
-0.09380343 0.21739514 0.18164378 -0.030429699 -0.093424834 0.049519043 -0.25465658 -0.0077931215
0.10894288 0.04181712 0.0066514253 -0.09879537 -0.051466435 0.05640501 -0.2198138 0.008126971
-0.0032531149 -0.048557073 0.09726088 0.023329243 0.34429237 -0.16801177 -0.09485493 -0.037743468
-0.028257538 -0.119743206 -0.09287822 -0.23765004 -0.119636476 -0.015390973 -0.12494887 0.052635286
-0.09745209 -0.1939214 -0.09407504 -0.02924539 -0.098351166 0.017283767 0.094033234 -0.01045992
-0.0009599469 -0.03689309 -0.06912613 -0.11220425 0.24533571 -0.033300456 -0.18924852 0.050368145
0.11268884 0.09740043 -0.11443656 -0.007177522 -0.21289062 0.17898358 -0.0110614095 -0.048834905
-0.16770181 -0.05926121 0.20306697 0.057070438 0.026235435 -0.04088332 0.035659637 -0.07154819
-0.02210421 -0.2840468 0.14388676 -0.02831805 -0.12614672 -0.079664946 -0.04497247 -0.007837707
0.23280148 0.004813035 0.19753473 0.13634273 0.16945887 0.24331918 0.091548026 0.025204917
0.04803642 0.13241918 0.15129991 0.24345581 0.32534197 0.08253812 -0.23743944 -0.033410206
0.11159277 -0.14130017 0.1773868 -0.0030335537 -0.1336242 0.118560694 -0.118163876 -0.0094685145
-0.13225438 0.018096274 -0.013210393 -0.19825393 0.08928769 -0.087818444 0.043902665 0.12100087
0.1740031 -0.13241972 0.077532 -0.073642686 0.06571064 0.14050741 -0.14007114 0.03862975
0.083026245 -0.029227795 0.018453065 -0.2537532 0.060401514 -0.00017242535 0.00316979 -0.22994497
0.12332192 0.14013265 0.14440382 0.11540243 -0.22409593 -0.18716328 -0.2053927 -0.13524179
0.011681347 0.16159108 -0.017749192 0.042284183 -0.0062968805 0.21201786 -0.17999615 -0.09133017
0.03867763 -0.21250616 0.070174016 -0.12839216 -0.2159586 0.08172974 -0.035454936 -0.13720371
-0.22367015 -0.084158465 -0.07515541 0.028330509 0.32747576 -0.056204643 -0.011583585 -0.066094935
-0.04837483 0.050537545 -0.08253068 -0.12514141 0.0186691 -0.04395574 -0.08207552 -0.16394165
-0.11246959 -0.2654875 -0.20881133 -0.027838644 -0.14455704 -0.11455846 -0.061415784 -0.17798771
0.035798382 -0.070875324 -0.07066031 -0.10106834 0.12047216 0.10815666 -0.27151173 -0.098474525
-0.12772977 0.03492334 0.086317256 0.045459166 -0.02205754 -0.20093518 -0.042717807 -0.0020509358
-0.23114903 -0.18413362 0.19802177 -0.0031080411 -0.11035507 -0.1862278 -0.026488006 -0.06063549

lstm.bias_hh_l1 f4 [256]
00000000: 5511 53bd 3bd9 043f 6aa4 18bd b6bb 5fbd
00000010: d638 573c 7d19 e93d bf2b b5be 7cf0 19be
00000020: 3447 9e3d 65b5 f4bd 35c3 babd f98e 1ebd
00000030: 42f4 5ebe 1b6b 19be bf59 4cbe 2b53 e0bd
00000040: c569 61be fc44 40be cd11 61bd d55c c0bd
00000050: 3039 0d3f 78c4 fa3d 96ff 08bd f0b7 53be
00000060: 2aa0 2fbe 39cf 053e 9c1b 5fbe 6c59 5dbe
00000070: 71ed 4dbd 6178 80be 056d 87bd 41b5 83be
00000080: 26c0 ccbd d53f 89be 2ae9 2dbe 4461 5dbe
00000090: d732 ddbc 4f8e 39bd ad01 27be a680 02be
000000a0: c073 c1bc 1e46 d1bd 7f05 c2bd 4b3b a5bc
000000b0: a7a6 3f3e d31a 8d3c 9d4c 7ebe 5ac0 8abe
000000c0: 742e b4bd 9f16 f0bd 8bd5 563b a966 6f3d
000000d0: e0e3 c1bd 43bb 06be 076c 4abe a990 bb3d
000000e0: 4e4f dabd efb9 0fbe f5ff 023e 6ce1 80be
000000f0: 0c60 2abc ee04 1abe 2a8b 793d a9ed cabd
00000100: 1d35 79bd 8870 b43c da26 1c3d 3366 37be
00000110: 4082 b83d 3f11 a53d 1966 36bd bd4d 07be
00000120: f694 8b3c 43e4 f8bc fd48 003e 3f89 f2bd
00000130: bb8c 29be f2e3 3e3d ec0e 6ebb 02eb c53d
00000140: 7bec d1bd 9b10 e53c c189 61bd 2498 ec3d
00000150: 8c47 203e d1eb aabd 7054 f63c 5f6c 89bd
00000160: f831 a6bd a174 93bd 0b41 10bd d271 87be
00000170: 9916 8ebe a2fa 92bb 189c 11bd dad3 25be
00000180: ac04 62bd f24f cfbd da1e 193d 42d1 1bbe
00000190: 1348 d3bd 6f20 933d 2a88 5e3d a010 23be
000001a0: f475 343d 0e6e 6fbd 9028 a1b9 c571 84bd
000001b0: aa30 0c3e 0695 0bbe 1b3c 6cbc f96c 3dbd
000001c0: ac00 e43c 576b a23c 7634 cabc 67a3 2ebd
000001d0: d00e 64be 2135 3a3e 08fd debb cfca fd3d
000001e0: 814c 0ebe 3bfe 883d a555 183e 5d7b 0e3d
000001f0: e37c 5bbd 64df 993d 1961 103e 75cd d3bd
00000200: c55f 13be 15fd b7be d386 a63d 5dfc 863d
00000210: 783b 3cbe 3763 ccbd 3519 47bd 67a7 b5bd
00000220: 7f73 373e 4740 c43d c1ac 3b3e 7ba9 623e
00000230: 741d 32bc 9619 7f3e dae2 003e 8d97 a0bd
00000240: 1940 233e 6073 033e d3ae 033e ad81 2c3e
00000250: 2b4a 6e3e 891b f23c fa8a 97bd dd11 fe3a
00000260: 94b8 183e 368f cebc 85f7 293e 12fd 953d
00000270: 5bc9 5ebc 7a60 23bd 1d5c c1bd 1c2e 143e
00000280: 2cae 05be 0918 cf3d c49e 28be 8174 213d
00000290: c93d 29bc 4f15 74be defc 463d 6c9c 243c
000002a0: c922 5a3e 9d62 18be 0be0 49bc a457 53be
000002b0: b612 bf3d 0f58 793d 2bd5 4ebd b7e4 8abb
000002c0: ec6e c83d 89f4 aa3d 67f6 b23c 3fd5 4ebe
000002d0: 10a9 2e3d 5b10 afbd 7809 563e 9066 40be
000002e0: d51f 5c3d f695 8b3d 495f 053e 8293 3cbd
000002f0: ca76 65be 48ab 93bb 3173 4bbe 730f fcbd
00000300: 6f6b f9bc d81c 6b3e a8e2 1d3e dceb 38be
00000310: a6d1 983d 0551 733e b2e6 9abe 6bda 8bbe
00000320: ebfb 913d 7760 febd 8cf7 cc3c 6a37 f03c
00000330: ec96 7ebe fb90 12be 2345 59be 97a0 13be
00000340: 6474 69be 3d31 2fbc 2d23 38bd 237c 05be
00000350: 8ab8 b93e be1d 2fbe 9fa4 44be 68f1 6bbe
00000360: 11d6 cdbc 247c b8bd a4d4 57be 80d8 cbbc
00000370: 3250 2ebe cda4 9cbd 6643 103c 0c04 25be
00000380: 29c3 05be 9401 46be 089f afb8 acc4 d9bd
00000390: 5ce1 d13b dd3b af3c 1cdf 0fbe 0ddb 11be
000003a0: 248c 10be 55ba 56be b6d9 44bd f7ff 70bc
000003b0: a169 0fbd 7893 6a3c bcfc 0abe 4f52 64be
000003c0: e378 0ebe 437c 83bd 0ccc 063e e2df cbbd
000003d0: 1635 e9bd 4480 18be f7bf c7bd fc04 3dbd
000003e0: 6aa3 8cbd fa88 2bbd 2372 5d3e 6e35 bcbd
000003f0: fbdc 2b3d 6679 afba f42a 8d3c 5a82 adbc
-0.0515302 0.5189397 -0.037266172 -0.054622374 0.013136109 0.11381815 -0.35384938 -0.15033144
0.07728425 -0.11948661 -0.09119264 -0.038710568 -0.21772864 -0.14982264 -0.1995611 -0.10953363
-0.22013004 -0.18776315 -0.054948617 -0.09392706 0.55165386 0.12244505 -0.03344687 -0.20675635
-0.17150941 0.1306733 -0.21787876 -0.21616143 -0.05027527 -0.25091842 -0.06612591 -0.25724223
-0.09997587 -0.26806512 -0.16983476 -0.21619135 -0.027001781 -0.04530173 -0.16309233 -0.12744388
-0.023614764 -0.10218452 -0.094737045 -0.020169875 0.18715917 0.017224705 -0.24833913 -0.27099878
-0.08797923 -0.11723065 0.003278109 0.058447514 -0.09467292 -0.13157372 -0.19767772 0.09158451
-0.106596574 -0.14035772 0.12792952 -0.25171983 -0.010398876 -0.15040943 0.060923733 -0.09908611
-0.06084167 0.022026315 0.03812299 -0.1791008 0.09009218 0.0805993 -0.04453096 -0.13213249
0.017038804 -0.030382281 0.12527843 -0.11842584 -0.1655759 0.046604104 -0.0036324812 0.09663965
-0.10250183 0.02796202 -0.055063013 0.11552456 0.15652293 -0.0834576 0.03006956 -0.06710123
-0.081149995 -0.071999796 -0.03521828 -0.26454026 -0.27751616 -0.004485444 -0.035549253 -0.16194096
-0.055180237 -0.1012267 0.037382938 -0.15216544 -0.103164814 0.071839206 0.054329075 -0.1592431
0.0440578 -0.058454566 -0.00030738534 -0.06467012 0.13690439 -0.13631067 -0.014418627 -0.046246503
0.027832352 0.019826574 -0.024683218 -0.0426363 -0.22271276 0.1818433 -0.006805066 0.12392198
-0.13896371 0.066891156 0.14876421 0.034785617 -0.053585898 0.075133115 0.1409954 -0.10341922
-0.14392002 -0.35935274 0.081311844 0.06591103 -0.1838206 -0.09979861 -0.048608024 -0.0886982
0.17915152 0.095825724 0.18327619 0.22134964 -0.01087128 0.24912104 0.12586537 -0.07841406
0.1594242 0.12836981 0.12859659 0.16846342 0.2327048 0.029554145 -0.073995546 0.0019383986
0.14914161 -0.025214773 0.16598327 0.0732366 -0.013597812 -0.03988693 -0.09441397 0.14470714
-0.13054723 0.10112006 -0.16466814 0.039417747 -0.010329672 -0.23836254 0.048580997 0.0100470595
0.21302332 -0.14881368 -0.012321482 -0.20638901 0.09329741 0.060874995 -0.05049626 -0.0042386907
0.09786782 0.08347423 0.02184601 -0.20198534 0.0426417 -0.085480414 0.2090205 -0.18789124
0.053741295 0.06815712 0.1302463 -0.046039112 -0.22408596 -0.0045065023 -0.19868161 -0.12307634
-0.030446736 0.22960222 0.15418494 -0.18058723 0.07461862 0.23761375 -0.30254132 -0.27315077
0.07128128 -0.12420743 0.025020383 0.029323298 -0.2486226 -0.14313118 -0.2121778 -0.14416729
-0.22798306 -0.010692892 -0.04495542 -0.13035636 0.36273605 -0.1710119 -0.19203423 -0.23041308
-0.025126489 -0.09008053 -0.2107721 -0.024883509 -0.1702278 -0.07648621 0.008805132 -0.16114825
-0.13062729 -0.1933654 -8.374272e-05 -0.10633215 0.0064050388 0.02139085 -0.14049953 -0.14243717
-0.1411596 -0.20969518 -0.048059188 -0.014709464 -0.035012845 0.014317386 -0.13572973 -0.22297023
-0.13913302 -0.064201854 0.13163775 -0.09954812 -0.113870785 -0.1489268 -0.09753411 -0.04614733
-0.06867106 -0.041878678 0.21625571 -0.091898784 0.04195879 -0.001338762 0.017232396 -0.02118032
