data_storage/models/lstm_v1.0.0_20251231_105351/points_model.pt (torch, 217493 bytes, 9 tensors)

lstm.weight_ih_l0 f4 [256, 12]
00000000: f15b 90be d3e6 dbbe 4246 c5bd e231 9a3c
00000010: 5b71 22bb 36b3 92be 93fc 4a3d ebf2 a0be
00000020: ad01 84bd 081c a7be 9856 c23e bfee b73d
00000030: a1ce b83d 0ecb d93e 169b 553e a76e 36bc
00000040: 1d55 cfbc a92d d4bc 0ded 023f eeca febc
00000050: e1d4 89be 03c2 fd3e 2c23 1e3e 7fd6 8a3e
00000060: 1d03 54be 1636 f63d 4e59 82be dca2 2dbe
00000070: 0d2b 693e a74c 7f3e 95f9 573e ffd7 21be
00000080: 1082 713e 0d33 8a3d 38d3 663e cadb 443e
00000090: 616c 653d f0a8 8dbb 39ee ab3e 3292 a9bc
000000a0: 919c 813e 58b0 073e bfb6 283c eee4 0d3e
000000b0: 8282 5ebe d026 343d e973 79be 10e9 a4bd
000000c0: 4a04 79be 8fe4 2a3e 55a8 06bd c656 95be
000000d0: 97fb 383e cfb8 8d3e 5686 9bbe 8bb5 dd3d
000000e0: 527b 83be dcce 5fbd 0909 a33e 7587 6b3d
000000f0: 1f45 1ebe 4f07 3bbe ef4d 6dbd a1bd f8bd
00000100: 63bc 6fbe 8e56 e7bd ee1f d13d 1737 373e
00000110: 356d e2bc 0a81 143e 156e a13d f724 06be
00000120: 915c f0bb dfe9 933d 59eb 3f3d f51a f73c
00000130: fc47 533d e93a bc3e 01a4 043e 5b72 cbbe
00000140: e1f8 213e 7fc6 8dbe f457 17be 4ffb 763e
00000150: 8eed 2c3e 9cc7 9f3e a0e9 893e 5d3f 8ebd
00000160: ba1e e03e f873 d83e 6d84 08be 3da8 2cbe
00000170: 98b6 84bc e742 b2bd 9ee6 8bbe fa1e 193c
00000180: d4fd 46be 7988 d83e d9c3 afbc bee7 32be
00000190: b1b4 573c 2248 cdbb 6e48 a4bd 0fd3 e3be
000001a0: 7e48 973c 1a96 6e3d 909b 71be f80e ff3e
000001b0: 7257 c8bd d9b9 5e3d f3bb b13e 3f6d d3be
000001c0: ddbc 2cbd 769b 13bd 006a 33bd 607e 8dbe
000001d0: 81f0 a13e 25fd 3d3d 2e86 383e e5fb d03d
000001e0: 55ab 8c3e 0638 053f a98e db3d fb1a b3bd
000001f0: 556f fbbd b364 66be cf05 c1bd 8ced e33e
00000200: b086 bb3e d6e5 37be 4835 61be 32d2 a63e
00000210: 7c9b 6abd cc5f c9bd d402 a2be 9b5d b23d
00000220: e105 81be 2273 03be b3d8 a83e b1b5 a3be
00000230: 0363 60bd 5eca 83ba 728e bcbc 07fa b83d
00000240: a50d 90bd f3aa 52bd 7985 c0be df3f 113d
00000250: d70a a43c 2304 aebe b49e e1bc cd8a 293e
00000260: 16bf 67be 39ad 66bd 6348 04bf a371 60bd
00000270: 4fc7 96bd 0ee6 6ebc 3142 ac3e 60d3 173d
00000280: 0b22 013e a7a6 c8bb 38ff 8fbe 3fc1 dd3e
00000290: 3716 e03d 5a85 323e 1489 9c3c 337a b8be
000002a0: 0c98 f9bd 4c27 7dbe d287 86bd 14f2 823d
000002b0: 3e05 983e 301b c2be 5f8b ad3d 48a1 c53d
000002c0: c741 ea3d 1717 803e f2d3 31bd 7c5f a03e
000002d0: a942 09be af15 e93d 574e de3d 5a86 293e
000002e0: f682 ed3d 3f35 e0bd b8b5 8bbe bd48 6cbe
000002f0: a71e 2ebe c752 75be 3425 5d3d 8945 a2bd
00000300: 72f4 f03e 29dd 843e a889 c53e 06e1 0abe
00000310: e4f5 9b3e 1af8 97bd d0c2 de3e b0c0 ef3e
00000320: 7ce9 2f3d bd57 633e 60df 9abe 7b59 e53d
00000330: b142 9bbe 308a 853e 6d16 c2bd 658a 7f3d
00000340: 14da ff3d 52ad 9f3d 4d93 edbd 0fdf d93c
00000350: 322d f43d 0d95 203e 132a 5f3e ae85 b83e
00000360: b1e1 fc3c fff1 3c3e 64e7 bf3e 1ba0 d4bd
00000370: 58af 9e3e 799d a73d a248 07be e829 d73d
00000380: 531b b13e a634 6cbe ca7d 083e 0089 253e
00000390: eb40 29bd 7820 203c 91c7 57bd 25f3 353e
000003a0: a44e 07bd 267c f2bd 8f61 84bc 9127 023d
000003b0: 3c4c 1dbe f398 043f e35d 97bd 48be ae3e
000003c0: aa66 cebe 4f10 623c 1ed1 ff3d 7d63 233d
000003d0: 25c3 1c3e 3e0d 283e 418c 46be 5a34 b53d
000003e0: 0300 a4be 9662 933c 3316 c13d d708 153f
000003f0: fbc5 a9bd 33ac 8b3e 3d9c eabb dff5 21be
-0.28195146 -0.42949542 -0.09632541 0.018822614 -0.0024786803 -0.28652352 0.04955728 -0.31435332
-0.06445632 -0.32638574 0.3795669 0.08981084 0.09023786 0.4253773 0.20859942 -0.01113478
-0.02530914 -0.025900679 0.5114296 -0.031102624 -0.26920226 0.49562082 0.15443105 0.27116773
-0.20704313 0.12022035 -0.2545876 -0.16956657 0.22770329 0.24931584 0.21091302 -0.15805052
0.23584771 0.067480184 0.22541511 0.19224468 0.05601156 -0.0043231174 0.33580187 -0.020699594
0.25314763 0.13250864 0.010297476 0.13856861 -0.21729472 0.043982327 -0.24360622 -0.08052266
-0.24318042 0.1668875 -0.032875378 -0.29167765 0.18064724 0.2768006 -0.30375928 0.10825642
-0.25680023 -0.054640636 0.3184283 0.05750223 -0.15456055 -0.18264507 -0.05793565 -0.12145544
-0.23411708 -0.11295806 0.10211168 0.17892109 -0.027639965 0.1450235 0.078823246 -0.13100038
-0.0073352535 0.07222342 0.046855304 0.030164221 0.05158232 0.36763695 0.12953188 -0.39735684
0.15817596 -0.27690503 -0.14779645 0.24119304 0.16887495 0.31206977 0.26936054 -0.06945679
0.43773443 0.42275977 -0.13331766 -0.16861053 -0.016200349 -0.08704167 -0.27324384 0.009345764
-0.19432765 0.4229162 -0.021455692 -0.17471215 0.013165639 -0.0062647024 -0.08021627 -0.44496962
0.018467184 0.058248617 -0.23594499 0.49816108 -0.09782304 0.054376457 0.34713706 -0.41294286
-0.0421723 -0.03603693 -0.04380226 -0.2763548 0.31628802 0.046383996 0.18019935 0.10204295
0.27474466 0.5203861 0.1072057 -0.087453805 -0.12277094 -0.22499351 -0.09424936 0.4451717
0.36626196 -0.17958769 -0.21992981 0.3258224 -0.057277188 -0.09832725 -0.31642783 0.0870926
-0.25199798 -0.12836888 0.32977828 -0.31974557 -0.054781925 -0.0010054817 -0.023017142 0.09032064
-0.070338525 -0.05143256 -0.37601832 0.035461303 0.0200247 -0.3398753 -0.027541496 0.16556855
-0.22631487 -0.05631754 -0.51672953 -0.054795872 -0.07362234 -0.0145812165 0.3364425 0.037066817
0.12610643 -0.006123382 -0.28124404 0.43311498 0.10941737 0.17433682 0.019108333 -0.3603073
-0.12187204 -0.24722022 -0.065688744 0.06393829 0.296915 -0.37911367 0.084738486 0.096499026
0.11438327 0.25017616 -0.043415017 0.3132285 -0.13404335 0.11381089 0.10854786 0.16555157
0.115972444 -0.10947656 -0.27287078 -0.23074622 -0.1700388 -0.23957358 0.053990558 -0.07923419
0.47061497 0.25949982 0.38581586 -0.13562402 0.30461037 -0.074203685 0.43508005 0.46826696
0.042947277 0.22201438 -0.30248547 0.11198708 -0.3032432 0.2608199 -0.09476934 0.062387843
0.12492767 0.0779673 -0.11600361 0.02659562 0.11922683 0.15681858 0.21793394 0.3603949
0.030869337 0.18451689 0.37481225 -0.103821 0.30993152 0.081843324 -0.13211301 0.1050604
0.3459116 -0.23066959 0.13329235 0.16165543 -0.041321676 0.009773366 -0.052680556 0.17768534
-0.033033982 -0.11840086 -0.0161598 0.031776015 -0.15361112 0.5179588 -0.07390954 0.34129548
-0.403127 0.013797834 0.12491058 0.0398898 0.15308817 0.16411301 -0.1938944 0.08847876
-0.3203126 0.017991345 0.09428062 0.58216614 -0.08289715 0.27279815 -0.0071597383 -0.15816449

lstm.weight_hh_l0 f4 [256, 64]
00000000: fdec fcbd b4cf 67bd 91ef 0ebd 4a85 27be
00000010: d8c6 5b3e 5c43 6b3e bf86 0d3d 7f0b ba3d
00000020: 6ac7 ed3d ade2 c03a 0c29 a4bc 4da7 853e
00000030: 8b87 a93e 7133 87bd 6aa4 c3be ec2d 39be
00000040: b091 613e 28a1 25bd d0fb 08be 4473 94bd
00000050: 31f5 603e 1a0f 2fbe bf66 923d 0c8c a6bb
00000060: e8c0 493e 9f3c 3c3d f7fa 443b 67ec 03be
00000070: 8cf9 5fbd 172b 5bbc a159 66bd 65f5 1cbc
00000080: ae8b 3a3e d715 6e3d 478c bd3e 5938 8fbd
00000090: f26a 71bd 0b4d 843e 189e 5ebb 257c cfbd
000000a0: 1afa 40be c6cc fdbd 52c6 2cbe 5b8b e33d
000000b0: ef31 583e db6a 87be 6445 e5bd 413f a93d
000000c0: 29c0 603e 92f7 633d c0f8 69be 33ae 373e
000000d0: abec 25be dda5 283c 0df9 7abd 1faf 303e
000000e0: 0389 0e3e d0d3 ba3d 5992 e43d 84e9 74be
000000f0: fb86 8cbc 7291 77bd 962b 773e 8c30 f6bd
00000100: d24f edbd c604 0fbd 8969 a13e 6403 a9be
00000110: dad2 d6be cd4d ae3e 1fe9 083f 2755 8f3e
00000120: 0153 14be 82c2 b43c 6c0d 09be 5ace 0bbd
00000130: b6b6 123f aa00 31be 8800 41be babb 34be
00000140: c702 85be a90d 6a3e 43c5 dcbc 5b04 ca3e
00000150: 6736 44be 5d0c 953e 3c87 3abe 71f2 edba
00000160: cb0e 913c 00e7 bf3d 4bd6 493c a382 b03e
00000170: 7953 70be fa1f bcbc 24c1 043f 919a c73d
00000180: 4a21 ad3e 1bd9 adbd 0eac 95bd ee3c 5fbe
00000190: d779 80bc 6292 8dbe 0410 8f3e ac2b 55be
000001a0: 95e9 86be 8db5 21be dfce 61be ffc3 b53d
000001b0: b56c 17be 673c 42bd 508b 1fbe 865b 6f3e
000001c0: 879c 103f 0089 7c3e 978b 973e 69c7 f43d
000001d0: bbfe f23d 7177 4cbe c143 44be 5773 703e
000001e0: bbcb fbbc 0ba0 373d 657c 9ebe be13 0e39
000001f0: b4c4 e9bc 4fa4 46be 5137 f0be 3dc3 da3d
00000200: 643a c13d 227a c3be d3d1 a0bd 35b0 a4be
00000210: 8a48 43bd 5419 033e 57e0 833e e214 443e
00000220: f3d9 a63e a104 623e 9c4a 8a3c c43b 233e
00000230: 0c63 aa3e 65a5 09bc 9ec8 6dbe 86ba eabe
00000240: 3290 dc3d df9e 763e 88e9 d53a 1898 543e
00000250: 67b5 ddbd 0f47 c03e b56b 603e f81a 3e3e
00000260: bf2a bb3e e06a a13d b61f 013c b755 333c
00000270: e7e9 3c3d c2ec 103d f0b8 28be 8371 863e
00000280: 81ef 963e 66fa b9be d749 f5be 7774 943e
00000290: c621 82be 05d6 79bd 778f 043e 6f66 48be
000002a0: b5b1 b43e 4e04 083e c654 cebe c868 4dbd
000002b0: 3c0b b73d 9079 1b3e 9f1a a4be ce4c 8bbd
000002c0: 05b5 883e e54d 5ebe a9f0 033f c669 6abe
000002d0: 39e3 b43e 51f3 5bbe d646 b63c 4ba2 143e
000002e0: e76b 8b3d 7975 8b3e 553c ffbd 49ee 9ebd
000002f0: a631 c93e 6434 82bd ac7a 3dbe 5de6 8fbe
00000300: 25a5 d1bc dba7 b03c 6002 223e 18f9 093d
00000310: 7ad2 263e 89a3 21be 3ed9 55be 4521 96bc
00000320: 34c8 adbc be39 96bd 9523 a83e 6e25 40be
00000330: 14f7 c5ba 15ea 383e 0777 673e 2eff 1b3e
00000340: d954 693d 8479 e33d 6482 a13d 8ad5 70be
00000350: 83a3 2d3d 96bf 34be db36 823e 53f0 653e
00000360: dbdd aebd 0be9 d63d edd8 a7bd 8d45 593d
00000370: 7fdd 4e3d ad21 993c 37f4 82be b9de 0b3d
00000380: 2228 23bd 7d4b 6f3d 57b7 bcbd 8b46 5dbe
00000390: a812 583e d258 80be c0e3 ad3d 7d82 933e
000003a0: 8571 a23e d6ea 3cbe e435 6a3d cff6 523e
000003b0: 7811 f4bd 750b 42bd 1bcd 39be 9053 9d3d
000003c0: 61a3 df3d 0bc0 f43c 637d 3c3c 03a5 773e
000003d0: 9c20 2f3e 47ca eebd 693a 343e e8a3 efbb
000003e0: 01ea 13be 97cf 903d fd16 8a3d e00d 3b3e
000003f0: 8be1 163e a747 3dbe 8e5c 913e 0f6a 973c
-0.123498894 -0.056594566 -0.034896437 -0.1635944 0.21462572 0.22974914 0.034552332 0.09084224
0.11610301 0.0014715992 -0.020039104 0.26104203 0.33111224 -0.066016085 -0.38211375 -0.18083924
0.22028232 -0.040436894 -0.13377309 -0.07248548 0.21968533 -0.17095605 0.071485035 -0.005082613
0.19702494 0.04595625 0.0030056813 -0.12883149 -0.054681346 -0.013376973 -0.05623782 -0.009579991
0.18217346 0.058126297 0.37021086 -0.06993169 -0.05893988 0.2584003 -0.0033968743 -0.101311006
-0.18845406 -0.12392573 -0.16872528 0.11110564 0.21112798 -0.26448712 -0.11194876 0.08264018
0.21948303 0.055656023 -0.22848797 0.17937545 -0.16203563 0.010293451 -0.06127267 0.17254303
0.13919453 0.09122431 0.11160726 -0.23917204 -0.017154207 -0.06044144 0.2413772 -0.12020978
-0.1158749 -0.03491666 0.3152583 -0.330104 -0.41957742 0.34043732 0.53480715 0.27994654
-0.14484788 0.022065405 -0.13384026 -0.03413234 0.57310045 -0.1728541 -0.18847859 -0.17649737
-0.2597868 0.22856773 -0.02694953 0.39456448 -0.19161378 0.29110995 -0.1821565 -0.0018153918
0.01770725 0.09370232 0.012319158 0.34474668 -0.23469342 -0.022964466 0.5185721 0.09746278
0.3381446 -0.08488675 -0.073082075 -0.21800587 -0.015683098 -0.27650744 0.27941906 -0.20817441
-0.26350084 -0.15791912 -0.22051571 0.08875274 -0.14787562 -0.047420885 -0.15580487 0.23374757
0.5648884 0.24661636 0.29598686 0.11952097 0.11864992 -0.19967438 -0.19166471 0.23481499
-0.030736795 0.044830363 -0.3095428 0.0001354953 -0.028536178 -0.19398616 -0.46917203 0.1068177
0.09434965 -0.38179117 -0.07852521 -0.32165685 -0.0476766 0.1280263 0.25757095 0.19148591
0.32588157 0.22072078 0.01688128 0.15940768 0.33278692 -0.00840125 -0.2322106 -0.4584543
0.107696906 0.24084042 0.0016320208 0.20761144 -0.108256154 0.37554213 0.21916087 0.18564975
0.3655605 0.07881713 0.007881096 0.010945729 0.046121504 0.03538204 -0.16476798 0.26258478
0.29479602 -0.3632385 -0.47907898 0.28995106 -0.25416392 -0.06099512 0.12945352 -0.19570325
0.3529183 0.13282892 -0.40299052 -0.050148755 0.0893769 0.15183091 -0.3205156 -0.06801759
0.26700607 -0.21709402 0.51539093 -0.22891912 0.35329607 -0.21479537 0.022250574 0.14515035
0.0680769 0.27238062 -0.12462679 -0.07760293 0.3929569 -0.06357649 -0.18503827 -0.2810544
-0.025591442 0.021564415 0.15821218 0.03368482 0.16291228 -0.1578504 -0.20883653 -0.018326411
-0.021213628 -0.07335232 0.32839647 -0.18764278 -0.0015103542 0.18058045 0.22603999 0.15234062
0.056965683 0.11107162 0.07886198 -0.23518959 0.042392265 -0.17651209 0.25432476 0.22454958
-0.08538409 0.10493668 -0.08195672 0.053044844 0.050504204 0.018692816 -0.25576946 0.03414795
-0.039833196 0.0584216 -0.09214657 -0.21608941 0.21100867 -0.25067765 0.084907055 0.28810492
0.31727234 -0.18448958 0.0571803 0.20601963 -0.119173944 -0.047374208 -0.18144648 0.07681954
0.10919834 0.02987673 0.011504504 0.2418404 0.17102283 -0.11659675 0.17600407 -0.0073132403
-0.14444734 0.070708446 0.06742666 0.18267012 0.14734475 -0.18484364 0.28390926 0.01848319

lstm.bias_ih_l0 f4 [256]
00000000: d3a7 23be 8755 b0bd c7c1 81bd 2e57 6c3d
00000010: 28d6 39bc f319 a43c 3c6e 273e a68f 05be
00000020: c3d2 de3d 9862 11be 79a2 82bd 6c73 603d
00000030: 7fc8 e83c 2d85 853c 2b82 c83d 5c6c 983d
00000040: 8ec2 cdbd c248 0cbe 18d0 19bc 7198 12be
00000050: 156c 17be c7f8 86bd 7aa2 3a3e 8cb5 48be
00000060: bfbf 94bc f9a9 923d 9dc9 b33c adb3 103e
00000070: e48d 373d 8aca 75bd 4bef 983d 1944 883d
00000080: 89c2 fcbd c3d6 dbbd f0fb bdbc 0ac2 ff3d
00000090: db55 a5bd 90a7 f23c ea66 31be 5333 fd3d
000000a0: 6070 9abd c1a9 01be aefc a13d 0270 babd
000000b0: d708 c9bd 58e5 0b3e 8ae1 f4bc bf12 17be
000000c0: 0eb2 dcbd 193e 3cbd 891c 48bd d419 993d
000000d0: b00a b8bd e4ec 15be 7bf4 b7bd 09da 8ebd
000000e0: b326 80bd fcff a3bd 9c33 8abe f397 b33d
000000f0: a867 e33a f6cf 3abd c9ff 543d 8398 f4bd
00000100: f9b9 203d ac31 37bd aae7 863a 5654 d53b
00000110: 7ce5 3ebe 3146 863c e333 b2bd 0ba8 ac3d
00000120: bf2a 19be 1ffb e63d 8f72 85bd 073b aa3d
00000130: 14d0 f93d 6e96 3f3e 2f27 15be e250 a33e
00000140: 92f4 98bd 03ba c3bd 62e6 7e3e e5ff 183e
00000150: d4ec d03d 0a39 bd3c a79a 5e3e 22f2 063e
00000160: cbf0 74bd 0d9c 8dbd 974b 5abd f5d8 8e3d
00000170: a37c b9bd 04ac 9dbd 5fc7 0e3e 041a 6cbb
00000180: c308 743d 92db 20bd 25f4 15bd c920 2abd
00000190: d6f5 89bd 0e0f c4bd 9b87 bdbe bc80 39bd
000001a0: c9fb 1bbb 9b13 653e e517 da3d 1594 143e
000001b0: a7da b0bd 3675 ee3d a5c1 673d 62fe f53c
000001c0: e671 593c e9ba c43d 4e01 8bbc 904b 20bd
000001d0: de74 413e 6146 f93c b4b3 973e 6bb9 533e
000001e0: 0121 953d 5d25 e53d 3fab 0f3d 253d 253e
000001f0: 1a19 de3c f450 4abd 5a2a 77b9 199a d8bd
00000200: 44a0 07be 7d9f f13d 6c18 e23d 76c2 1a3e
00000210: 030b 5cbd 1618 b53d d8e5 4d3c ebd2 3cbe
00000220: db75 543d 2120 9dbb fe8a d3bc bdd7 fbbb
00000230: e18c a1bd b19f 44bd 6296 ccbd 7827 09bd
00000240: e765 8bbc 2942 7bbc 3473 5bbd fe10 a1bb
00000250: d6dd aabc 657e d9bd 8cf9 78bd 5583 1cbe
00000260: 44ea 843c 517b fa3d d3d0 0e3d 6527 913d
00000270: c9bd d9bd 5a5b ccbc 0b1a 873d 2ee9 adbd
00000280: 2630 0b3d bd5d a9bc 28c5 debc 16ab 60bd
00000290: 37ac c7bc 610a e43d 73dd 803d c3b1 2fbd
000002a0: d964 01bd 410d c03d e980 363e 3b24 e5bd
000002b0: 159d f43b eeb4 633c c991 f73d d4c4 8d3d
000002c0: eb38 b23d 982a 97bc 5f9e c9bd a04e 06bc
000002d0: 4ced 93bc 9022 77bd 9ac3 8c3c a639 0e3c
000002e0: bf99 f13d 3cba 6bbd 9896 0a3c 7736 2ebc
000002f0: 5077 713c beab 71bd b859 323d 8047 f43b
00000300: a2ad 85bd e640 703c 1238 56bd fe07 b9bd
00000310: 9f41 d93c d962 a33d 3697 60bd d2ad 473c
00000320: b093 69bd 8b02 8d3d ffcb abbc cea2 15be
00000330: 32b9 33bd cce6 89bd 881f 073e b652 acbc
00000340: 5ec3 9a3d 474c da3c cc25 a53d 946a c3bd
00000350: 91a7 ff3b 350e 0cbd 7fb5 843e c0e7 3bbd
00000360: 4ec3 c43d bf98 18bd 2c63 0a3d a98d 023e
00000370: 64c2 65bd 9b4c b9bd bb19 2c3e 8268 73bd
00000380: 0563 323d bc51 a9bd 1eb8 283d 6d1e 833d
00000390: 5bf6 14be 0948 c03d a648 4fbe 26b7 0b3d
000003a0: 96bc 0b3d 5cae c7bc 892e e83d 4899 6abd
000003b0: 3059 e53d 3cf4 cf3c 5cb3 04be 2815 823d
000003c0: 1aef 1c3e 9e12 f2bc a199 e1bc 1990 7cbd
000003d0: 60d9 803c 89f0 5bbb 84c9 f23d 705f 5bba
000003e0: ff35 05bd 4b59 f53d 5a4a 1cbe 4c79 983e
000003f0: 8cf6 24be 6892 8d3c ca0d cf3d 36d0 d2bd
-0.15981989 -0.08610063 -0.06335788 0.05770033 -0.011342563 0.020031905 0.16350645 -0.13043079
0.10880043 -0.14197767 -0.063786454 0.054797575 0.028415916 0.016298855 0.097904526 0.07442543
-0.10046874 -0.1369963 -0.009387992 -0.14315964 -0.14787324 -0.06590419 0.18226042 -0.19600505
-0.018157838 0.07161326 0.021946723 0.14131041 0.04481305 -0.06000761 0.074675165 0.066536136
-0.12341792 -0.10734322 -0.023191422 0.12488182 -0.08073016 0.029620916 -0.17324415 0.12363305
-0.07540965 -0.12662412 0.07909523 -0.09103395 -0.09816139 0.13661706 -0.029892702 -0.14753245
-0.10776149 -0.04595766 -0.04885534 0.074756294 -0.089864135 -0.14641148 -0.08982178 -0.06975181
-0.06257381 -0.080078095 -0.269925 0.087692164 0.0017349618 -0.045608483 0.05200175 -0.11943152
0.039239857 -0.044725105 0.001029243 0.006510298 -0.18642229 0.016390892 -0.08701303 0.08430489
-0.14957713 0.11278366 -0.06515991 0.0831204 0.12197891 0.18709728 -0.14565729 0.31897646
-0.07468523 -0.09556963 0.24892572 0.14941366 0.102014214 0.023098487 0.21738683 0.13178304
-0.05979995 -0.0691453 -0.053294744 0.06974975 -0.09056976 -0.07698825 0.13943242 -0.0036026249
0.05957867 -0.0392719 -0.036609787 -0.041535173 -0.067363426 -0.09573184 -0.3701752 -0.045288786
-0.0023801199 0.2237076 0.10649089 0.14509614 -0.086354546 0.1164345 0.05658116 0.030028526
0.013271784 0.09605963 -0.016968396 -0.039134562 0.18892238 0.030429067 0.2962929 0.206762
0.072816856 0.11188767 0.035075422 0.16136606 0.027111579 -0.04939361 -0.00023571533 -0.10576267
-0.1324473 0.11797998 0.11039814 0.15113243 -0.05372144 0.08842485 0.012567006 -0.18439834
0.05187021 -0.00479509 -0.025823113 -0.00768563 -0.07888199 -0.048003856 -0.09989621 -0.033484906
-0.017016364 -0.015335598 -0.053576663 -0.0049153557 -0.020857733 -0.10619811 -0.06078486 -0.15284474
0.016224988 0.12230552 0.03486712 0.07087592 -0.10631902 -0.024945904 0.06596764 -0.08491741
0.033981465 -0.02067458 -0.02719362 -0.05485066 -0.02437411 0.11134792 0.06292238 -0.042894136
-0.031590316 0.09377528 0.17822613 -0.11188551 0.0074650147 0.0138981175 0.12088353 0.069223076
0.087022625 -0.018452927 -0.0984466 -0.008197457 -0.018057488 -0.060335696 0.017183114 0.008680737
0.11796903 -0.057550654 0.008458756 -0.010633103 0.014737919 -0.059001677 0.043542594 0.0074548125
-0.065272585 0.0146639105 -0.052299567 -0.090347275 0.026520548 0.07977838 -0.054831706 0.012187438
-0.05702561 0.06885251 -0.020971296 -0.14612886 -0.043877788 -0.06733474 0.13195622 -0.021035533
0.075567946 0.0266477 0.0806385 -0.095418125 0.007801958 -0.034193236 0.2591972 -0.04587531
0.09607564 -0.037255045 0.033785984 0.12749352 -0.05609359 -0.090478145 0.1680669 -0.05942584
0.043551464 -0.08267543 0.041191213 0.06402288 -0.14547102 0.093887396 -0.20242557 0.03411021
0.034115396 -0.024375133 0.11337001 -0.057275087 0.11198652 0.025385015 -0.12959045 0.063516915
0.15325585 -0.029549893 -0.027539076 -0.06166086 0.015728652 -0.0033560118 0.11854842 -0.00083684083
-0.032522198 0.11979922 -0.15262738 0.29780042 -0.16109675 0.017281726 0.10110052 -0.10293619

lstm.bias_hh_l0 f4 [256]
00000000: 5051 c8bd 3f14 73bd cc72 fabd a11e 1bbd
00000010: 9123 b4bc 9297 3b3e 7bee 9b3e 4867 3dbe
00000020: 8aff c63d b2d8 da3c e733 103c 5402 753d
00000030: cfb2 5c3d d10e fbbd 7caa a93a d3ba bdbc
00000040: 1a2e 74bd a2dc 21bd c568 0bbe 3737 1abd
00000050: f86a 10be ff22 f0bd 3304 3e3e 7a7c 5abe
00000060: 9fc0 e0bc f4cb dfbd fc73 aabd 6448 6f3e
00000070: 9672 95bd 27f3 a33d d196 8c3d af39 ecbd
00000080: 388d b1bd c533 0cbe f2af adbd bcce f53c
00000090: c614 e4b9 5f65 493e d298 3abd 1be0 193e
000000a0: 5f01 aa3c ce97 85bd ed36 373e 7507 efbd
000000b0: 44a4 8dbe 7a36 823d 9a99 acbd 7b7f 8c39
000000c0: 6fad 39bd e9c6 20be 4c22 48be f0c8 3e3d
000000d0: 0c56 3ebe 7658 41be d1e0 83bd 8493 8c3d
000000e0: dbbb 7c3d 9bc0 753d 421a 03be 976a 6d3e
000000f0: 2831 473c 66f8 78bd c74c 89bd 4dc7 ba3d
00000100: af07 4b3e 4768 b5bd a28d 76bd 3a6d 513d
00000110: ddaf 23be b075 cf3d 92ef 3fbd 3455 3b3c
00000120: 6358 d0bd c141 0f3e 43d8 a43d 2bd9 99bd
00000130: af70 483e 1bb7 263e d1ca 28be 83ee 913e
00000140: 2eae a13c 3b62 df3c 9f95 553e af08 0b3e
00000150: d983 06be de4e 2abe a4f0 053e 5e18 7c3d
00000160: d655 293e e63d d6ba b52d a2bd 7299 ed3c
00000170: a310 a33d 53b1 0f3d c65b 143e a3e3 f2bc
00000180: e431 ec3d 228b 01be c2c4 d8bd c37f bc3d
00000190: 9ced dd3d e2a0 42bc 250c 33be 96da 233e
000001a0: ddcc e23d f101 223e 1182 923e 878c e73d
000001b0: 6f81 fcbd fefc 373d edd2 2d3b 1499 913d
000001c0: bcfb aa3d 0bc9 173e 381b 323e cc2f 01bc
000001d0: fa4a 3b3e 080c d33d 9eb1 8c3e 2673 673e
000001e0: 00d6 0b3e b469 483e 518e f3bc e545 8cbd
000001f0: e819 203d 86fa d8bc 05a3 893d fae4 73be
00000200: c6c3 f3bc 5340 133c 150d da3d 83e6 8a3d
00000210: cb66 e43b f04e c6bd 2b31 1d3d c83d 4abd
00000220: 8074 443d d358 79bd 955d a4bd 1b86 733d
00000230: 91f3 3bbd 6104 34be a331 4c3d 0acf 2f3d
00000240: 805e 22bc 693e ab3c c5a9 533d 652f f5bd
00000250: a72f b3bd 9320 013d 8897 46bd b90e 5bbd
00000260: 285f 9a3d 0861 563d 8321 83bd 318f 3cbd
00000270: dc48 dc3b 614e 123d ea10 743d ba56 523c
00000280: ec14 81bc 7163 9bbd 76c8 c23d 3dca 3abe
00000290: cd7f 0e3d 25b3 a0bc 7529 5dbc 3abc 883a
000002a0: 5e89 59bd 6192 a73d 050e cf3b de9f 07be
000002b0: d5f3 88bd a7c0 523d 6a3b 2e3e 4690 98bd
000002c0: 0045 c63d d0a1 59bc fbf1 86bc 1dab babd
000002d0: 29a6 eabd 6a19 c1bb d6b9 e4bd f3f6 dbbd
000002e0: 7a99 ebbc a8b5 02bd faa7 e7bd e93b a1bd
000002f0: fe22 cabd da45 08bd e5c6 c5bd ce2b d13a
00000300: 0c77 ecbd 1e24 e1bc f7ff e0bd 30b5 bc3c
00000310: ac37 30bd be96 1e3c 312b 0b3d 88a7 38be
00000320: b542 813d 68d9 813d f4b8 5c3d ce0c e7bd
00000330: 510c bcbc 5c1e 6e3d 64c1 603d fd37 113e
00000340: 1059 55bd 326c 11bd 4023 dfbd b84e 7c3b
00000350: 359a 953d 467b abbc 0d72 023e 392e 053d
00000360: ea46 01be 5c6e 1d3e cf41 c63d 04e3 1a3e
00000370: dcc5 483d ea34 b03d 91a0 cb3d 5332 6bbd
00000380: 056a 04bd cc22 993c 2f62 3c3d df9f 04be
00000390: dd74 26be ec7f babd 9fab e5bd 0eab 3f3b
000003a0: 6d87 30bc f9b4 f5bc a672 f8bc 7087 cabd
000003b0: 4716 3f3d 47f8 5f3d 1c2c a9bd 4ba8 73bd
000003c0: 085b 4b3c f416 f1bd c92d 17bc db6d d6bd
000003d0: bcc6 fc3d 60e4 933c b9a7 843d 7326 4fbd
000003e0: 6b39 223b f7dc 363e 4d57 40bd 405e 523e
000003f0: 1d01 3b3c 5ca9 2ebe 8712 903d a5dd 2ebc
-0.09781134 -0.05934548 -0.12228927 -0.037871007 -0.021989616 0.18319538 0.30455384 -0.1849643
0.09716709 0.026714657 0.008801437 0.059816673 0.053881463 -0.122586854 0.0012944485 -0.023160374
-0.05961428 -0.039517052 -0.13614185 -0.037650313 -0.14103305 -0.11725425 0.1855629 -0.21336547
-0.027435599 -0.10927573 -0.083229035 0.23367459 -0.07297246 0.08005362 0.068647034 -0.1153444
-0.086695135 -0.13691624 -0.084808245 0.030005805 -0.00043503026 0.19667576 -0.045555897 0.15026896
0.020752607 -0.06523095 0.17892046 -0.11671344 -0.27664387 0.06358047 -0.08427735 0.0002679786
-0.045331415 -0.15700878 -0.19544333 0.046578348 -0.18587512 -0.18881401 -0.06439365 0.06864074
0.06170259 0.059998136 -0.12802985 0.23185192 0.012157716 -0.060783766 -0.06704097 0.09120045
0.1982715 -0.0885778 -0.060193665 0.051129557 -0.15985055 0.10129869 -0.04685933 0.011433888
-0.101731084 0.13989927 0.08049061 -0.07512125 0.19574235 0.16280787 -0.16483618 0.28502283
0.019736376 0.02726852 0.20857857 0.13577531 -0.13136233 -0.16631648 0.13080078 0.061546676
0.1653665 -0.0016345351 -0.07918874 0.029003832 0.079621576 0.03508122 0.14488134 -0.029649561
0.115329534 -0.12650731 -0.105844036 0.09204056 0.10836336 -0.011879178 -0.17485102 0.16001353
0.11074231 0.15821053 0.28614858 0.113061 -0.12329375 0.044919007 0.0026523427 0.071092755
0.08348796 0.14822786 0.17393196 -0.007884931 0.1829032 0.10305029 0.2747926 0.2260252
0.13655853 0.19571573 -0.029730948 -0.06849269 0.039087206 -0.026486646 0.06720547 -0.23817816
-0.029756438 0.008987504 0.106470264 0.06782248 0.0069702617 -0.09683025 0.03837697 -0.049375325
0.047962666 -0.060875725 -0.08025662 0.059454065 -0.04588658 -0.17579795 0.049852025 0.042922057
-0.009910226 0.020903783 0.051675577 -0.119719304 -0.08749323 0.031525206 -0.048484355 -0.053480837
0.07537681 0.05233863 -0.06402876 -0.046034995 0.0067225527 0.03571928 0.059586443 0.01283806
-0.015757047 -0.07587326 0.09510891 -0.1824121 0.03478985 -0.019616673 -0.013498654 0.0010432072
-0.05310952 0.081822164 0.00631881 -0.13244578 -0.06687132 0.05145326 0.17014852 -0.07449393
0.096811295 -0.013283208 -0.016472807 -0.091146685 -0.11457474 -0.005892922 -0.11168258 -0.10740461
-0.028759707 -0.031911522 -0.11311336 -0.07872755 -0.098699555 -0.03326974 -0.09657077 0.0015958489
-0.11546144 -0.027483042 -0.109863214 0.023035616 -0.043021843 0.009679494 0.033976737 -0.18032658
0.063115515 0.06340295 0.053887323 -0.11281739 -0.022955092 0.05813442 0.05487193 0.14181514
-0.05208689 -0.035503574 -0.10895395 0.0038499068 0.07304803 -0.020932805 0.1273882 0.032514784
-0.12624708 0.1537413 0.09680521 0.15125662 0.04901682 0.086038426 0.09942735 -0.05742104
-0.03232767 0.01869335 0.045992073 -0.12951611 -0.16255517 -0.091064304 -0.11214375 0.0029246244
-0.0107744755 -0.029993521 -0.030328106 -0.09889114 0.046652105 0.054680135 -0.08260366 -0.05948667
0.01241184 -0.11771956 -0.009227225 -0.10470172 0.12342593 0.018053234 0.06477303 -0.050573777
0.0024753462 0.17857729 -0.046958257 0.20543766 0.01141384 -0.17056793 0.07034784 -0.010672961

lstm.weight_ih_l1 f4 [256, 64]
00000000: f7d4 173d 5860 ffbd 7113 e93d 5b87 2cbd
00000010: 28f9 0fbe cda0 5b3e 18f5 19be 85e7 e83c
00000020: 8ad7 c03a d40b 3cbc c2f5 78bd e026 103e
00000030: 80a1 af3d 0720 78be ef13 85bd 0b22 e63c
00000040: a43a eabd 0bc2 763e c28b 05be 43c3 203e
00000050: 132c a5bd 4601 c9bc cfad 173d 4b2d 84be
00000060: e9d1 4a3e 1ef7 763d 714a bd3d 4971 a0be
00000070: 8bcd 803e 6632 943d de39 96bd 724e a23c
00000080: f9c6 393d 3262 05be e54b 8fbd 60b5 3bbd
00000090: e3cd 24be 0a1c a33d 9590 293e 7b2c 68be
000000a0: 8581 2fbd ef4c 063e 7e12 37bd 3f46 8bbe
000000b0: 50b9 5ebe ed2b d93d 98f2 a03d 02a2 b23d
000000c0: a7a9 d9bd fb77 2fbe da06 a53d 6116 edbd
000000d0: 0970 3fbd fdb1 773b 310c bbbd 05f8 263d
000000e0: e614 d13d ce3c 19bd 9299 7bbd 2923 0e3e
000000f0: 4cfa 2bbd 76a1 a0bb 692c 6ebe 83f7 3bbd
00000100: 8ed4 61bd 759e 88be b379 5c3d 9fbc 29be
00000110: 19f3 89be b28d 443e bd65 893d 8a59 8a3d
00000120: dd08 183e e438 823e ae28 26be aa23 f03d
00000130: 3a7c a33e 3f39 72be a921 cbbb f86f b7be
00000140: 6c56 99bd ca81 183e 47ac 05be f896 0e3e
00000150: 653e 80be 3428 a13e 1afe 0b3e 07d1 9ebe
00000160: f4f3 d63e 144e 3fbd 7c85 4abe bfce 06be
00000170: 48da aa3d ceaa 303c a8e7 1eba f6b8 403e
00000180: b1b3 6a3e 8ba9 24be 3d00 8abe 9369 2a3c
00000190: 93a6 b1bd 04e9 53be c37b 8b3d 789d 88be
000001a0: a9f9 313e dcab d13d 3ec9 b13c 85d0 56bd
000001b0: 209c adbe 97a1 abbd 20f3 c33a 1918 993e
000001c0: bdb8 47be f2b6 4ebe d979 453e 0c88 9abd
000001d0: d3e2 a63e 52ed 11be db45 04be 7cb8 873e
000001e0: a2fa 7a3e 7697 f03b 0253 a7be 16c6 a43d
000001f0: 339e 593e 9cd9 773d f84d 1fbd 24f2 cd3d
00000200: 9d98 adbd 4521 433e bad6 cb3d 75cd 84bd
00000210: 2983 3dbd 2faa fb3d 9bc9 29be e8e5 1abe
00000220: 5ae2 343e ceef 10be 47d4 7ebe 0d6b 283e
00000230: b0fc d53d 385f fb3c 5ade ffbc f450 8abd
00000240: 8fea 823c 8aec 4cbd c69a c7bd b592 80bd
00000250: 3905 5dbe 4b15 64bb c19f 67be b2a4 2fbe
00000260: 7877 be3d ab51 323e 9c16 27be 352c ffbd
00000270: 918c 253e 5137 3dbc 5c8a d43d 232f 92bd
00000280: 1003 ac3b d5bc 89bd ea97 98bc d272 c03d
00000290: 8f2c e43d c2ac 85bd 3f5f 2f3d 125a 8bbc
000002a0: 9e08 71bd 77f1 c2bb 9c33 f93c 7178 2dbe
000002b0: 90bb 02be 43c0 b2bd 6f92 ee3d 298d b2bd
000002c0: 8b67 44bd 4bae d2bc 72c5 403d 373b a13d
000002d0: f8c4 f33d 7c65 173d 0b97 42bd 6a12 23be
000002e0: 2c4d a33d 1bab 37be bd49 89bd 3325 b03d
000002f0: ec7e 10be 7e60 23bd 88e5 4abd d53b 24bd
00000300: ba22 e0bd 1c90 6fbd e3ab 023e 3967 36bd
00000310: 121c 80bd d624 f63d 6359 c5bd a5a3 9a3d
00000320: 5c14 943d 604c 173e c841 0bbe aa68 873e
00000330: a515 533e baf4 5bbe a6ec 66bd 316a 39be
00000340: 272c 1a3c f6ce 3b3e 72d2 1abe e083 ad3c
00000350: 5bc2 cebd f4b3 cc3d 58c0 72bd 86f4 1bbe
00000360: 674d 143e dfb8 523d b33a 363d fae5 2bbe
00000370: 0df7 e93d 7253 883d aa2b ecbd f7a7 c8bd
00000380: b93c 7fbb aa1b 3cbe 8727 05be 009a 7fbe
00000390: 6d79 81bc 1650 1abe 7ab2 86bc e0c6 52be
000003a0: 59b9 a23c 8344 a03e 300b 863d 2616 8abe
000003b0: d91c 77be da2c ac3d a23f 143d cfae f63d
000003c0: 5210 b2bd f1a6 35bd e7a9 ad3c a95f b1bd
000003d0: acb9 9f3e d1c4 85bd ebf6 78be ba4b 8c3d
000003e0: a696 c03e 4f43 50be 67c2 03be 0b1b 6f3e
000003f0: d7f6 8a3d dec8 d53a ec5a fabd cb7d db3d
0.037068333 -0.12469548 0.11380661 -0.042121273 -0.1405989 0.2144806 -0.15034902 0.02843071
0.0014712673 -0.011477429 -0.060781248 0.1407733 0.085757256 -0.24230967 -0.06497943 0.028092405
-0.11436966 0.24097459 -0.13041595 0.15699486 -0.08065047 -0.02453674 0.03703099 -0.25815806
0.19806637 0.060294263 0.09242714 -0.3133643 0.25156817 0.07236175 -0.07335256 0.019812796
0.04535577 -0.1302574 -0.069968976 -0.04582727 -0.16094165 0.079643324 0.1655906 -0.22673218
-0.04284813 0.13115285 -0.04469537 -0.2720203 -0.21750379 0.10604081 0.07858771 0.08722307
-0.10628062 -0.17135613 0.080579475 -0.11576534 -0.046737704 0.0037795298 -0.09133185 0.040763874
0.10209064 -0.037411503 -0.061425753 0.138806 -0.04198675 -0.00490206 -0.23259129 -0.045890342
-0.05513435 -0.26683393 0.053827 -0.1657586 -0.2694328 0.19194677 0.06708858 0.067553595
0.14847131 0.2543403 -0.16226456 0.117255524 0.31930715 -0.2365465 -0.006199081 -0.35827613
-0.07487187 0.1489326 -0.13054 0.13924778 -0.25047603 0.31475985 0.13671151 -0.3101885
0.41982996 -0.04670532 -0.19777483 -0.13164805 0.08342415 0.0107829105 -0.0006061741 0.18820557
0.2292011 -0.160803 -0.26953307 0.010401147 -0.0867435 -0.20694357 0.06810715 -0.2668264
0.17380394 0.10237858 0.021702405 -0.052444953 -0.33908176 -0.0838043 0.0014949776 0.29901198
-0.19504066 -0.20186976 0.19284762 -0.0754548 0.32594928 -0.14250687 -0.12917273 0.26507938
0.24509671 0.0073422743 -0.32680517 0.080455944 0.21251754 0.060510263 -0.038892716 0.1005595
-0.08476374 0.1905566 0.09953065 -0.064845 -0.046267662 0.12288319 -0.16580813 -0.15126765
0.17664471 -0.14153978 -0.24885665 0.16447087 0.10448587 0.030685052 -0.031233955 -0.06753722
0.015980987 -0.05003027 -0.097463176 -0.06277982 -0.21584024 -0.003480273 -0.22619535 -0.1715267
0.093001306 0.17413966 -0.16317219 -0.12459604 0.16166903 -0.011548833 0.103779525 -0.07137897
0.0052493885 -0.0672547 -0.018627126 0.093969 0.111413114 -0.065270916 0.042815443 -0.017010722
-0.05884611 -0.005949195 0.030420117 -0.16940476 -0.12766862 -0.08728077 0.11649024 -0.087183304
-0.04795031 -0.025717875 0.0470633 0.078726225 0.11902803 0.036962017 -0.047507327 -0.15924993
0.07973704 -0.17936365 -0.067035176 0.08600845 -0.14110917 -0.039886944 -0.049535304 -0.040096123
-0.109441236 -0.058487043 0.12760882 -0.044532035 -0.06255354 0.12018745 -0.0963619 0.07550744
0.07230446 0.14775229 -0.13599312 0.2644704 0.20613725 -0.21480075 -0.05637803 -0.18106915
0.009409941 0.18340668 -0.15119341 0.021181047 -0.10095664 0.09995261 -0.059265465 -0.15229997
0.14482652 0.051445838 0.044489574 -0.16786948 0.11424074 0.06656541 -0.11531766 -0.09797662
-0.0038946106 -0.18369928 -0.1300336 -0.2496109 -0.01580497 -0.15069613 -0.016442526 -0.20583677
0.019863771 0.3130227 0.065451026 -0.26970023 -0.24132098 0.08406992 0.036193497 0.12045061
-0.08694519 -0.04434866 0.02119918 -0.08660824 0.31196344 -0.065316804 -0.24312942 0.06850381
0.37614936 -0.20338176 -0.12867127 0.2335016 0.06785362 0.0016310473 -0.12224373 0.107173525

lstm.weight_hh_l1 f4 [256, 64]
00000000: e9d7 c9bd c316 afbd 07f8 043e 5111 a6bd
00000010: 7773 cb3d b67d 37bd 8f98 8a3d b5b3 8e3d
00000020: da92 0fbe de0d 5a3e e180 31bd a783 7dbc
00000030: 1c71 013e 8376 8ebd e93a d03c 8411 b13d
00000040: a9a0 10be 9674 093e e7c1 4b3b aa65 bdbc
00000050: a53b 343e bd97 db3d 24d7 f6bd 5635 593d
00000060: 2479 ad3d 65af 12be f92a 01bd e0b1 a8bd
00000070: b1f4 b33d f6a7 583d 7e03 c2bc df3b babb
00000080: 9e54 d0bd beb3 b13c 2302 393d 3c10 08be
00000090: 248d 003d b018 fd3d 563e 0dbe 28f0 81bd
000000a0: c993 0b3e f951 e53d 6a7c 6dbd d1e7 a73d
000000b0: 8ec1 ee3d 52ce f6bd 516e cd3d bf0e be3d
000000c0: de25 68bb bc02 ca3a 323f 203d 2ebc 203e
000000d0: 6fb0 bdbc cacd 953d 25c6 463c 7b75 c53d
000000e0: f068 9c3d e021 a83d 2ed9 92bc 3871 e53d
000000f0: e944 e33c d93a dbbc e935 cc3c 89e4 68bd
00000100: f615 a13d 1cd4 14be 45e9 2dbc 7d68 3e3d
00000110: 73ac b83d 3414 383e a699 abbd 2760 673d
00000120: 973c 6abd 99ca 333e 8d26 e33d 0bc8 0bbe
00000130: b5d6 6d3d 0070 173e 763b 5b3d 0465 243d
00000140: cb4f 19be 5406 bd3d 1a42 353e a332 19be
00000150: d2c2 d43d d15d 343e eb58 9bbc c58f 013d
00000160: aa7b 31bd 9776 b9bd e189 693b 00f2 f53d
00000170: 6dd4 d53b 22f5 1bbc 2ee8 cf3d 3ceb fabc
00000180: eaa9 9cbd e343 1abc 68e5 c3bd 5276 e7bd
00000190: 4fe5 443e 3be7 243e 88fe a73c a45d 063e
000001a0: 5b9c 363e 0698 da3d d586 9cbd 8b1e bc3c
000001b0: d76d ab3c 7fe3 833c e704 023d 0cdb df3d
000001c0: 829c ba3d 16c2 003e f489 993d 0bc5 663d
000001d0: 9b81 a1bb 5378 483c ee1e 4d3e d4d4 02bd
000001e0: b8bf 813c dc60 edbd 0afc 123e bb94 633e
000001f0: 28f2 8fbd 9706 41be e215 fb3d 660d 0bbd
00000200: 5594 473e 4e27 2a3e 203c 553d 0f7d e0bd
00000210: 48e0 153d ee97 9bbc 6d89 023e 6fe1 b5bd
00000220: 85cb ef3b 95e5 133d e02b b5bd ef80 343e
00000230: 42df 643e 0479 e1bd f78a 47bd 2dad 8bbc
00000240: 0ca9 66bc f4c4 bd3c ec67 4d3e 5033 033e
00000250: aae6 343a 0794 d03d cfc1 5abd afae d7bc
00000260: 70fe 4dbd 5b01 58be 49f4 5cbe cd0c 3b3b
00000270: a039 303e a8d4 44bc 0bd7 10be 7abf d4bc
00000280: e327 a8bd cfcb 483c 3d29 76bc a000 babd
00000290: bcb4 5fbd 8703 f9bd 9da2 a63c f9d3 1fbd
000002a0: e896 383e f374 403e 46b1 29be 4d2d d13d
000002b0: 2a86 ebbd 8260 d0bd f482 2d3e 9dab dfbd
000002c0: c427 1e3e 6af5 b6bd ca0b a3bd ff13 92bc
000002d0: 4f7d 92bc b334 c93d 63d6 39bd fda1 fb3a
000002e0: 15d0 1c3e a625 f23d 3dc0 0abe 0019 033d
000002f0: 2c59 c53d 93b5 98bd 053e f43c 8ffa 0e3e
00000300: 63c5 bcbd a5d7 a23a d19f f53d 03a2 a0bd
00000310: 8954 2b3d 718a fd3d e7c0 0ebe 906f 60bd
00000320: 9a0e d6bd 7576 8d3e 40b0 5ebd 489b 07bd
00000330: fb09 1d3c df4f ac3d 1c66 7c3d 5e08 02bd
00000340: 3682 0cbd 0ec0 b23d 7195 b13d f858 babd
00000350: 838f 3f3e 4f57 3bbd 2d43 d5bd 556a 1c3c
00000360: 581b eabd 956c 8fbd 5995 d13b 6e06 053d
00000370: 540f 43bd f9b3 bfbc f268 ad3d af37 003e
00000380: be42 973d 9743 183e 8193 073d 2d1a 54bd
00000390: 876a 6ebc 2625 903d 7363 423d 85a2 bebc
000003a0: 9b63 b53d c60e 283e c76e b2bc 8532 8e3d
000003b0: 11d0 d03d ce75 2e3d ae7c 7a3d 1259 c5bd
000003c0: 79b7 793d cd67 9fbd b41a 38bd 97e7 143e
000003d0: 6b2d a0bd c883 f33d 8dea 3dbd 1ccf 5e3e
000003e0: 7f72 b5bd 6ad7 bb3d 153c a4bc 7df1 3c3b
000003f0: 3316 da3a 1998 b2bd 6f58 bbbd 3e31 d4bc
-0.09855635 -0.08549263 0.1298524 -0.081087716 0.099341325 -0.04479762 0.067673795 0.0696787
-0.14020863 0.21294352 -0.0433358 -0.015473283 0.12640804 -0.06956198 0.025418716 0.08645919
-0.14123787 0.1342338 0.0031090917 -0.023119766 0.17600878 0.10722301 -0.120527536 0.05302938
0.08470371 -0.1432472 -0.031535123 -0.08237052 0.087869056 0.052894555 -0.023683306 -0.0056834067
-0.101723894 0.021692153 0.045168053 -0.13287443 0.031384602 0.123582244 -0.1379331 -0.06344634
0.13630594 0.11197276 -0.05797998 0.08198512 0.116580114 -0.12051071 0.10030807 0.09280156
-0.0035422961 0.0015412192 0.039122768 0.15696785 -0.02315542 0.07314642 0.012132202 0.09641548
0.07637203 0.08209586 -0.017925825 0.112032354 0.02774282 -0.02676146 0.02492805 -0.056858573
0.07865517 -0.14534038 -0.010614698 0.046486367 0.09017267 0.17976457 -0.083789155 0.056488182
-0.05718669 0.17557754 0.11091337 -0.13650529 0.05806609 0.14788818 0.053523503 0.0401354
-0.14971845 0.092297226 0.17700997 -0.14960723 0.103887215 0.17613913 -0.018963298 0.03163125
-0.043330826 -0.09055822 0.003563516 0.120090485 0.0065255673 -0.009518893 0.10151707 -0.030629747
-0.07649596 -0.0094155995 -0.0956524 -0.11301865 0.192281 0.16103832 0.020507112 0.13121659
0.17833082 0.106735274 -0.07642905 0.022963783 0.0209264 0.01609969 0.031742956 0.10930452
0.09111883 0.12574038 0.074970156 0.05634026 -0.0049287803 0.012235719 0.2003133 -0.03194125
0.015838489 -0.1159074 0.14353958 0.22224705 -0.070286095 -0.1885017 0.12260033 -0.033948325
0.19490178 0.16616556 0.052059293 -0.10961353 0.036590844 -0.018993344 0.12747736 -0.08880889
0.0073179626 0.03610762 -0.08846259 0.1762731 0.22350791 -0.1100941 -0.04871651 -0.01705035
-0.01407839 0.023165204 0.20059174 0.12812543 0.00069008267 0.10184484 -0.053407487 -0.026328413
-0.05029148 -0.21094267 -0.21577562 0.0028541565 0.17209482 -0.012013592 -0.14144532 -0.02597021
-0.08210733 0.012255623 -0.01502448 -0.090821505 -0.05461572 -0.12158876 0.020341212 -0.039020512
0.18026316 0.18794613 -0.1657153 0.102137186 -0.11500199 -0.101746574 0.16944486 -0.109214045
0.15444857 -0.08933528 -0.07961233 -0.0178318 -0.017882017 0.09824505 -0.04537047 0.0019198057
0.15313752 0.11823587 -0.13549896 0.032006264 0.09636149 -0.074565075 0.02981473 0.13962768
-0.09217336 0.0012423886 0.11993373 -0.07843401 0.041828666 0.12379921 -0.13940774 -0.054793894
-0.10452004 0.27629438 -0.054367304 -0.033107072 0.009584899 0.08413672 0.061620817 -0.03174626
-0.034303866 0.08728038 0.08671082 -0.09099001 0.18707089 -0.04573756 -0.104132034 0.009546836
-0.11430997 -0.07003132 0.0063959775 0.032476835 -0.04762204 -0.023401247 0.08467282 0.12521242
0.07385777 0.14869533 0.033099655 -0.051782776 -0.014551765 0.070383355 0.047458123 -0.023270855
0.08856889 0.16411886 -0.021781338 0.069432296 0.101959355 0.042592816 0.06115406 -0.096361294
0.06096599 -0.0778347 -0.04494734 0.1454147 -0.07821163 0.1189037 -0.046366263 0.21758693
-0.08859729 0.09171946 -0.02004818 0.0028830462 0.0016638696 -0.087204166 -0.09147727 -0.025902387

lstm.bias_ih_l1 f4 [256]
00000000: 2c5a 633c 6064 13be af52 423e def7 aabd
00000010: 0a13 9d3d 7100 cfbd c17a 31be d35d a0bc
00000020: 04c1 2f3d 3409 e5bd 64f7 e1bc 9307 a83d
00000030: 1bf3 e4bd 780e a93d 6f0e 793d 36a4 d4bd
00000040: 5236 ea3d 643f a7bd 4aeb 1bbd 4a75 143e
00000050: 8464 18be 9ac5 14be 98fe 193e 05d9 d93d
00000060: 19ca 98bd ab04 7abd 8388 53be 9781 7c3d
00000070: 68aa ccbd 1b67 483e 298e 2cbe 06ed 90bd
00000080: fa97 06be 2ab2 463d 3e65 f9bd 32d7 20be
00000090: b4ba 66bd b6e4 49bd 7f56 ba3d 9ad5 873c
000000a0: 2408 9bbe 90cf 4abe cecc adbd 31bf a4bd
000000b0: 386f 953c 9f1d 66bd 45a6 d0bc 25b4 a3bd
000000c0: bb9d 023d fb3f 5dbd c69e 01be 7e3b a0bd
000000d0: 750f 37be bbf3 3cbd be40 f73c cea2 d2bd
000000e0: 5634 bb3b a722 0bbd cd5b 013d 4f93 df3d
000000f0: cb62 a3bd e26e f6bd 4369 5f3d 8f3a 043d
00000100: a67d f33c 7f8f 9d3d c8e2 d23b 9dd4 89bd
00000110: 7d03 07bb d090 74bd 3ff1 bb3d 293c 503d
00000120: b195 923c 97c0 0cbe 0661 a73d 1578 d23d
00000130: ea57 123e 25d0 583d 96cc fa3d 0c90 1f3e
00000140: 44e8 153c 9b19 c73d 891f 4cbc 853d 3c3d
00000150: 41cf c43e e06e 1b3d 8874 723e 2ee9 a63d
00000160: 39d7 d03b 690e 133e 0580 debd a00f 383e
00000170: 29d9 7cbd 1089 393e ee0a 20be 85d3 363e
00000180: 451e 63be 7925 9cba 614d af3d 0322 5d3e
00000190: 6e9d b23c 4fe2 58bc fed3 543e e102 dd3d
000001a0: 51bf 3ebe 3ef5 2ebe a0a6 633e 2e8b c33d
000001b0: aa31 3dbe 83a1 503e a8a3 7c3c 9af7 94bc
000001c0: 6df6 a93c aa3b e53d 1b56 2cbc bfc0 0bbd
000001d0: 4ba5 d9bd f214 9bbd 4d77 853d 3b54 05be
000001e0: 7c7c 503e 7950 3d3d bb0a 9b3e 427d 7fbd
000001f0: 21e1 033c fe1c 35bd f198 523e 57a1 633c
00000200: 89d6 0c3e 9bac fb3d d2f1 543e 1b86 9cbd
00000210: 4edf 55be 1607 bcbb dfdf a53c 6c88 0ebe
00000220: 2325 4fbe d515 27be d50b 5abe 1b35 3a3e
00000230: 6512 0b3e 3258 413d ad71 07be fce8 313e
00000240: d3be 56bd c5e8 633d 6fe0 be3d 4a70 5c3e
00000250: ad53 aabc aa7a d7bb 8185 303c 7a1d 2fbe
00000260: ed16 a33d 37ac 2ebe f7aa 223d 9c85 4cbd
00000270: 82b6 33bd 4988 80bd 0773 e0bd 4384 193e
00000280: 408e 2f3d fd5f 783d 99de cc3d 81e5 94bd
00000290: b8db 613d 79f5 22bd 1865 4dbe df04 823d
000002a0: 8031 083e 3636 cd3c 9e77 40be 36ae 3a3e
000002b0: 8e03 1d3e fcc1 863c bd0e 4e3e 0057 92bd
000002c0: 061b 89bd 8ef7 b13b 1e4b 77bd 181d b43d
000002d0: af1f e03d 9cf0 86bc 52ac 1d3e e62b c2bd
000002e0: cf74 1f3e 89eb ee3d 03c0 66be a464 0dbe
000002f0: 6b6e 883d 44c3 1d3d cde4 57be 0ea9 ce3d
00000300: b59c 8fbd e286 21bd 1a73 e23b 5ad3 b53c
00000310: b116 4e3d a229 62be dec2 1c3d ab18 3c3e
00000320: 900c 013c cad8 453d 07d2 683d 26b0 18bd
00000330: 7347 0abe c752 613b 15f3 123e a1f1 f0bd
00000340: 6865 2dbe ffbd 6bbd aeb6 0ebe 01df 433e
00000350: c6c1 283e 9031 63bd 5d70 773d 5c64 d53d
00000360: bca3 913d a1c6 603d 6aa6 13be 1bac d7bd
00000370: 76dc 5cbe f2f1 823e a2eb fdbd 0d22 cdbb
00000380: 8cf9 23bc e0dc 953d 0256 afbd 0ed3 55bd
00000390: b048 83bd af80 ff3c 7ba2 033d 49e2 fb3d
000003a0: e4e4 b3be b96c df3c 8d7f ff3c 4780 273d
000003b0: 5620 53bd 65a8 893d 0243 b43d 6b41 36be
000003c0: 1f7f 48be 1781 d4bd 44e9 2a3d 05b2 583c
000003d0: 4473 20be 7977 84bd 2dce 083e 5259 1bbd
000003e0: ad28 163e beb8 a9bd 297d 403e 19ae 6a3d
000003f0: ce92 e7bd adc4 e5bd 55c7 8cbd 4f42 d43d
0.013876479 -0.14393759 0.18976854 -0.08348058 0.07669647 -0.10107506 -0.17331983 -0.019575989
0.042908683 -0.11183396 -0.027583785 0.0820457 -0.11179181 0.08254713 0.06080478 -0.10382883
0.11436142 -0.08166388 -0.038066186 0.14497867 -0.14882094 -0.14528504 0.15038526 0.10637096
-0.07460422 -0.061039608 -0.20657544 0.061647024 -0.0999344 0.19570582 -0.16851105 -0.07076459
-0.13143912 0.048509754 -0.121775135 -0.1570709 -0.056330398 -0.04929038 0.09098529 0.016581345
-0.30279648 -0.19805741 -0.08486329 -0.08044279 0.01824151 -0.056180593 -0.025469908 -0.07993344
0.031888705 -0.054016095 -0.12658224 -0.07823847 -0.1787699 -0.046130877 0.030182239 -0.10284959
0.005713026 -0.033968594 0.03158169 0.10916769 -0.07977828 -0.12032868 0.054543745 0.03228241
0.029723 0.07693385 0.006435726 -0.06730006 -0.0020601444 -0.059708416 0.091768734 0.050838623
0.017893644 -0.13745342 0.081728026 0.1027681 0.14291349 0.052932877 0.12246053 0.15582293
0.009149615 0.09721681 -0.01245869 0.045957107 0.38439372 0.037947536 0.23677266 0.08149944
0.006373313 0.14360966 -0.108642615 0.1797471 -0.061730538 0.18118691 -0.1562917 0.17854126
-0.22179516 -0.0011913023 0.08559681 0.21595006 0.021803584 -0.01323755 0.20783994 0.10791565
-0.18627669 -0.1708574 0.22231531 0.09548031 -0.18475977 0.20374112 0.015419878 -0.018184472
0.020747388 0.11193021 -0.010518576 -0.034119364 -0.1062723 -0.075723544 0.065168954 -0.13020413
0.20359987 0.046219323 0.30281624 -0.062375315 0.00804928 -0.044217102 0.20566155 0.013893447
0.13753714 0.12288781 0.20795372 -0.07642766 -0.20885965 -0.0057381494 0.020248352 -0.13919228
-0.2022901 -0.16316922 -0.21293576 0.1818432 0.13581236 0.04720325 -0.13226958 0.17374033
-0.052428078 0.05564191 0.09320151 0.2152721 -0.020791853 -0.006575902 0.010774017 -0.17101088
0.07963357 -0.17057882 0.039713826 -0.049932107 -0.043875225 -0.06275994 -0.1095944 0.1499186
0.04286027 0.060638417 0.10003395 -0.07270337 0.05514118 -0.039784882 -0.20058095 0.06348585
0.13300133 0.025050264 -0.1879563 0.18230519 0.15333387 0.01644992 0.2012281 -0.071455
-0.066946074 0.005431122 -0.06037437 0.08794612 0.10943543 -0.016472153 0.15397766 -0.09481029
0.15571903 0.116660185 -0.22534184 -0.13807923 0.066616856 0.038516298 -0.21083374 0.100908384
-0.07012311 -0.039435275 0.006910694 0.022195507 0.05031461 -0.22086194 0.038271777 0.18368785
0.00787653 0.04830245 0.056840923 -0.037277363 -0.13503818 0.0034381615 0.14350541 -0.11764837
-0.16933215 -0.05755424 -0.13936874 0.19128038 0.16480169 -0.05546719 0.060409892 0.10419533
0.07111308 0.054876927 -0.1441895 -0.105308734 -0.21568474 0.25575215 -0.12398459 -0.0062601627
-0.010008227 0.07317519 -0.085613266 -0.05220323 -0.064103484 0.03118929 0.032137375 0.1229902
-0.35135567 0.027273523 0.03118875 0.04089382 -0.05154451 0.06721572 0.08801843 -0.17798392
-0.19579743 -0.103761844 0.041726366 0.013226037 -0.1566897 -0.064681 0.133599 -0.03792698
0.14663954 -0.0828719 0.18797745 0.05729494 -0.11307298 -0.112191536 -0.06873957 0.1036421

lstm.bias_hh_l1 f4 [256]
00000000: 2e13 32bd fd36 ffbd 430a e73d 60c6 083e
00000010: 84cb 92bd 8657 87be 7c32 3dbe 4e8d 2d3e
00000020: f1e5 e33d 83d0 31be cece 073d 4a82 b63d
00000030: 2851 3cbe ab40 c0bc 91eb a2bd f7f1 16be
00000040: 3de7 90bb f7a7 aa3d 534f 4dbc 4dd7 223e
00000050: 563e 98bd d2f4 9dbd 0c2d ae3d 4f90 f43d
00000060: 8d02 d83d ba5d 26bd acab 13be ef27 d9bd
00000070: 5897 0dbe 98c4 ff3c ad49 34bc 473e e3bc
00000080: ba4f 25be dd58 573d 7948 dcbd 548f 1dbe
00000090: 2041 c7bd f884 adbc c077 a33d 0516 e33d
000000a0: 65cb a5be 6e15 50be e59a bd3d 621b 153e
000000b0: 32b0 933b 42f5 db3c 6347 23bd f4ee 253d
000000c0: af0d 25bb 4061 6e3d 9f75 04be 6986 813d
000000d0: 9b35 53be 93a9 35be c305 023e 10c5 7cbc
000000e0: 6d14 fdbc 71e5 fabd 4945 213e 15ed 8bbd
000000f0: 8aad afbc 23dd 08be 9e38 d23d 3c8b 0f3e
00000100: ae47 043e fc18 003e 9093 163c e7d0 8bbb
00000110: 3ef5 ca3c c65c cbbd b25c 3d3e c0e7 803e
00000120: e034 dd3c 44b9 a6bc 997c 343d ce81 27bd
00000130: 2064 a43d d95c 873d 01e0 18bd af30 0b3d
00000140: 6ac9 e0bb 82c3 1dbd 957f dbbd 2e2a ec3d
00000150: a462 943e 0a0a 003e c8d1 6f3e 5e97 4d3e
00000160: 9cef 213e 211b ed3c 3971 eb3d 4aa7 063e
00000170: 9c2c 4ebe 17e1 813e d046 22be 97ee 2b3e
00000180: 456e 40bd a633 033e 6398 e63d 7b0c 0b3d
00000190: 5210 8f3d 2271 89bc 7729 4a3d 5bab 523e
000001a0: 7e69 b5bd 74fd d4bc eb22 103c f259 be3d
000001b0: 7cf5 74bd daaa ae3d 161b bd3d ae51 083e
000001c0: 6870 d93b 1264 543c c6b8 37bd 0ee5 14bd
000001d0: 1d96 4d3d c242 24bd 15fd 973d 5759 33be
000001e0: e83e 6a3d c615 763d 6ea1 743e ab0a 5a3d
000001f0: f5e2 2fbd 22c6 cebc 4b28 103e 3f7d 533e
00000200: 4b0c 333e 6a5b 403e 4b6b 6d3e deae 08bd
00000210: 8919 f8bd 822c 523d 0acb e2bd 3a8c bdbd
00000220: 8711 07be e341 3e3d 55cb 29be 3dbf 6a3d
00000230: e1d5 993d 4c38 f13c 2e7f 0abe 7dd2 f3bc
00000240: 0b9d 74bd 010c ed3d cc73 1d3e 073a 913d
00000250: 42ca 1d3e fc9a 2a3d 5930 d6bd f936 83bd
00000260: 9bda 303e e154 2ebe 3d81 2cbc 045d 61be
00000270: c4b6 f6bb 94b2 da3d 419e d0bd cdb2 be3d
00000280: a53d 8cbc fadb 0bbe 685f 613b c9d0 b6bd
00000290: 7c09 86bd 8a12 e0bd 08c3 8b3c cef5 b33b
000002a0: a415 aa3d 272f d8bd ed0e 17bd a0cf f63d
000002b0: 9df3 b83d 2748 11be 5201 183e 56d5 fc3a
000002c0: ae8c 2ebd b22f 09be 09f5 cfbd 12a0 2e3e
000002d0: 4bdc 93bc de60 fabd 6ca3 933d d66d 1cbe
000002e0: 190f 863d 8b92 0c3e 41da 55be aa4e b63c
000002f0: 29f1 0b3d a281 a83d 8b67 f7bd a6f6 4f3e
00000300: 88dc c3bd ecb5 e5bd b163 b2bb 0388 123d
00000310: 1da2 2bba 98d3 0bbe 956a b8bd 09ae 513e
00000320: b28c acbd 34eb e6bb 5754 fabc 1b1c e8bd
00000330: 1702 c4bc 7adb 593d cc42 ffbb 44d9 073d
00000340: 0517 dfbd 4b46 f13d 1304 06be 684e d83d
00000350: 5910 d03d 82f7 94bd b030 9ebc a69d aeba
00000360: 53f3 3bbc 64b1 a73d 2e7e be3c 772c 08be
00000370: f3e1 8dbe 48dc 0b3e c782 103d 2a2f 0c3c
00000380: b99e 00be 6fb3 95bd 4531 1ebe a92e e8bd
00000390: 1600 c0bd 99f5 01be 1d5a b73c 52e7 d33d
000003a0: 27ec 54be 8361 15bd 9fc7 63bd 3a80 63bc
000003b0: 5f71 89bd 3f18 f73c 7d13 813d 1407 a2bd
000003c0: 9fd4 8f3c 80e5 afbd 8555 e43d e1ae c83d
000003d0: 6c73 a4bc 35fa 803d e3f6 0ebc 39da c5bd
000003e0: 1fea 7f3d dde1 e1bd 0fef 063e 3490 153e
000003f0: 0ed8 75bd 8a31 26bd e77e 84bd 434c 023d
-0.043475322 -0.1246166 0.11281254 0.13356924 -0.07167724 -0.26433963 -0.1847629 0.16948435
0.11127842 -0.17364697 0.03315621 0.089115694 -0.18390334 -0.023468336 -0.07955087 -0.1474074
-0.004422097 0.08332818 -0.012531119 0.15902443 -0.07433765 -0.077127114 0.08504686 0.11941587
0.105473615 -0.04061673 -0.14420956 -0.1060332 -0.13827264 0.031221673 -0.011003894 -0.027739657
-0.16143695 0.05257498 -0.107560106 -0.15386707 -0.097292185 -0.021181569 0.07981825 0.11088184
-0.3238174 -0.20320675 0.092580594 0.14561227 0.004507088 0.026850346 -0.039863 0.040511087
-0.0025185158 0.058198214 -0.12935494 0.06324465 -0.20625918 -0.17740469 0.1269751 -0.015427843
-0.030893529 -0.12250794 0.15749086 -0.06832329 -0.021445055 -0.13365607 0.10264705 0.14017957
0.12917969 0.12509531 0.009190455 -0.0042668465 0.024775144 -0.099298045 0.18492392 0.2517681
0.027002752 -0.020352013 0.044064138 -0.040895276 0.0802691 0.06609506 -0.037323 0.033981975
-0.006859948 -0.03851653 -0.10717694 0.11531483 0.28981507 0.1250383 0.23419869 0.20077273
0.1581406 0.0289436 0.11496205 0.13149753 -0.20134205 0.25367042 -0.15847325 0.16790234
-0.04698016 0.12812671 0.11259534 0.03394745 0.06985535 -0.016777579 0.04935595 0.2057318
-0.08858012 -0.025999762 0.008797388 0.092944995 -0.059804425 0.08528681 0.09233682 0.13312408
0.0066357143 0.012963312 -0.044853948 -0.036351256 0.050191987 -0.040102728 0.074213184 -0.17514549
0.0571889 0.06007936 0.23889706 0.05323283 -0.042941052 -0.025240961 0.1407787 0.20653246
0.17485158 0.18784872 0.2318546 -0.03336989 -0.121142454 0.051311977 -0.11073883 -0.09255262
-0.1319028 0.046449553 -0.16581471 0.057311285 0.07511497 0.02944579 -0.13525078 -0.029763455
-0.05972008 0.11574555 0.15376204 0.07091146 0.15409186 0.04165171 -0.1045844 -0.064069696
0.17270891 -0.17024566 -0.01052886 -0.22008139 -0.0075291116 0.10678592 -0.101864345 0.09311447
-0.017119238 -0.13658133 0.0034389142 -0.08926541 -0.06544778 -0.10941036 0.017060772 0.0054919487
0.08304909 -0.105558686 -0.03687947 0.1205132 0.090308405 -0.1418768 0.14844254 0.0019289653
-0.04261463 -0.133971 -0.101541586 0.1705325 -0.01804938 -0.12225507 0.072089046 -0.15276274
0.065458484 0.13727777 -0.20884039 0.022254307 0.034165535 0.082278505 -0.12080296 0.20308933
-0.095635474 -0.112163395 -0.005444013 0.035774242 -0.0006547289 -0.13654935 -0.09004704 0.20476545
-0.08425273 -0.0070470814 -0.030557794 -0.11333486 -0.023926778 0.053187825 -0.007789945 0.033166185
-0.108930625 0.117809854 -0.13087492 0.1056183 0.10159368 -0.07273771 -0.019310325 -0.0013322129
-0.011471587 0.081881315 0.023253527 -0.13298212 -0.27711448 0.1365825 0.03528097 0.008556167
-0.12560548 -0.07309615 -0.15448482 -0.11337025 -0.093750164 -0.12691344 0.022381837 0.10346855
-0.2079321 -0.036469948 -0.055610295 -0.013885552 -0.06711077 0.030162929 0.06302545 -0.07911506
0.01755744 -0.085886955 0.11149124 0.097989805 -0.020074569 0.06297723 -0.008725855 -0.09660763
0.062479135 -0.11029408 0.13177131 0.1460579 -0.0600205 -0.040574588 -0.06469517 0.03181101
