data_storage/models/lstm_v1.0.0_20251231_105351/rebounds_model.pt (torch, 217525 bytes, 9 tensors)

lstm.weight_ih_l0 f4 [256, 12]
0	0xbeb1f307	-0.34755728
1	0x3e2be151	0.1678517
2	0xbd8a43d1	-0.06751216
3	0xbe4c9dee	-0.1998212
4	0x3d66c18b	0.05633692
5	0x3c8b8d9c	0.017035298
6	0xbe9fb606	-0.3119356
7	0xbe00eac3	-0.12589554
8	0xbdb104cb	-0.08643492
9	0xbe537041	-0.2064829
10	0x3e425c92	0.18980625
11	0x3e3861a0	0.18005991
12	0xbecd76b8	-0.40129638
13	0xbe8129e0	-0.2522726
14	0x3e24ee6b	0.16106574
15	0x3de0b111	0.10971273
16	0xbe33aa22	-0.1754537
17	0xbda45868	-0.08024675
18	0x3e216b98	0.157637
19	0xbdb615fe	-0.088909134
20	0xbcaff5a2	-0.021479432
21	0xbd53d1ea	-0.05171386
22	0xbdfebedc	-0.12438747
23	0x3e55e3eb	0.20887725
24	0xbe5b11aa	-0.21393457
25	0xbe1d4ddc	-0.15361732
26	0xbdbdea04	-0.092731506
27	0xbca8e07a	-0.020614851
28	0x3e6eeda2	0.23332837
29	0x3dd744e9	0.105111904
30	0xbe873bf2	-0.26412922
31	0x3d1c3299	0.03813419
32	0x3d9e941a	0.07743092
33	0xbd907956	-0.07054393
34	0x3e8f0ffa	0.27941877
35	0x3ec18cd1	0.37802747
36	0xbcc5ffb4	-0.02416978
37	0xbe34e552	-0.17665604
38	0x3e1bc8c1	0.152133
39	0x3e9be50e	0.30448192
40	0x3c4830c3	0.012218657
41	0x3e8294a3	0.25504026
42	0xbe10de99	-0.14147414
43	0xbd2298e8	-0.039696604
44	0xbecf4833	-0.4048477
45	0x3d609f09	0.054839168
46	0xbdc6c587	-0.09705644
47	0x3e0b7027	0.13617001
48	0x3e8fe645	0.2810537
49	0x3eaa687e	0.33282846
50	0x3ed52d27	0.4163601
51	0xbd640b5e	-0.055674903
52	0xbe312773	-0.17300205
53	0x3ed13b39	0.40865496
54	0x3d40aeb7	0.04704162
55	0x3f337f8d	0.701165
56	0xbe25885f	-0.16165303
57	0xbe7bbf83	-0.24584775
58	0xbe91f128	-0.285043
59	0xbdcbd3d0	-0.099525094
60	0xbe47e213	-0.19519834
61	0x3df0d0c4	0.11758569
62	0x3e8393ad	0.25698605
63	0x3d9ca205	0.0764809
64	0xbe7ff5ee	-0.24996158
65	0xbdf26e3b	-0.11837431
66	0x3e3b58fb	0.18295662
67	0xbdc93433	-0.09824409
68	0x3e473866	0.19455108
69	0x3e660954	0.22464496
70	0x3ebede20	0.37278843
71	0x3ceeb9a5	0.029141257
72	0x3c8ebbed	0.017423594
73	0x3e481a2e	0.19541237
74	0x3cec62df	0.02885574
75	0x3dee166b	0.1162537
76	0x3eb0310b	0.34412417
77	0xbe9d6cb6	-0.30747002
78	0xbe486421	-0.19569446
79	0x3e119c0b	0.14219682
80	0x3c879394	0.016549863
81	0x3e11a7eb	0.14224212
82	0xbd0df1b2	-0.034654327
83	0xbdf9b964	-0.121935636
84	0xbe90d500	-0.28287506
85	0xbeb1a9a1	-0.3469973
86	0x3a456e89	0.00075314246
87	0xbdf0dd14	-0.11760917
88	0xbdda78c3	-0.10667565
89	0x3e103976	0.1408442
90	0xbe022488	-0.12709248
91	0x3dfca9c6	0.12337069
92	0x3d765b67	0.06014576
93	0xbeff706b	-0.49890456
94	0x3e12828f	0.14307617
95	0x3ea183bd	0.3154582
96	0xbe6c93d7	-0.23103271
97	0xbc8a1f2d	-0.016860569
98	0x3e0b04ae	0.13576004
99	0xbea6fe0a	-0.3261569
100	0xbdba0138	-0.09082264
101	0x3d84da44	0.06486943
102	0x3dd712f0	0.10501659
103	0x3e66723a	0.22504511
104	0xbe586823	-0.21133475
105	0xbd241fae	-0.040069275
106	0x3ec1446e	0.3774752
107	0xbe1d66a9	-0.15371193
108	0xbe87639d	-0.26443186
109	0xbeeaa10f	-0.45826003
110	0xbd0a7306	-0.0338011
111	0xbec79b07	-0.38985464
112	0x3d2bace0	0.041912913
113	0x3eca3c25	0.39499012
114	0xbe27f70d	-0.16402836
115	0x3e9265af	0.28593203
116	0xbd8f76be	-0.0700507
117	0xbd81a42c	-0.063301414
118	0xbc79a141	-0.0152362
119	0x3e32b882	0.17453197
120	0x3cb3b0b6	0.021934848
121	0xbd02e08a	-0.03195242
122	0x3e45d18c	0.19318217
123	0x3ba0cea5	0.0049074464
124	0x3d8f7610	0.070049405
125	0xbe90a182	-0.2824822
126	0x3e07e8ca	0.13272396
127	0xbe7aae47	-0.24480544
128	0x3ea14f21	0.31505683
129	0x3e63af17	0.2223476
130	0xbc57c718	-0.013170026
131	0xbe059bbd	-0.1304769
132	0xbd7934bf	-0.06084132
133	0xbdad5d75	-0.08465091
134	0x3e855606	0.26042193
135	0xbdd8c883	-0.105851196
136	0xbcb6fb03	-0.022336489
137	0x3e1451a9	0.14484276
138	0xbe337f3c	-0.17529005
139	0x3e72e7d7	0.23721252
140	0xbe5d7810	-0.21627831
141	0xbe9c162c	-0.30485666
142	0x3e600692	0.21877506
143	0x3ea7f17e	0.3280143
144	0x3db6464e	0.08900128
145	0xbe14451c	-0.14479488
146	0x3dd5875d	0.10426209
147	0x3e8bbec5	0.27293983
148	0x3e795e78	0.24352443
149	0x3e10b725	0.14132364
150	0xbe1939aa	-0.14963403
151	0x3c33bfd3	0.010971027
152	0xbdf4c72e	-0.11952053
153	0x3e247e08	0.16063702
154	0x3ed1ace3	0.40952215
155	0x3e2ba4f3	0.16762142
156	0xbe9c4c65	-0.30527034
157	0xbe10f688	-0.14156544
158	0xbe38fcb7	-0.18065153
159	0xbe8e7a61	-0.27827743
160	0xbe06ab96	-0.13151392
161	0xbe13cf8a	-0.14434639
162	0xbe02d8cc	-0.12778014
163	0xbec8aa37	-0.39192364
164	0x3c0319dd	0.008001772
165	0xbe1e913a	-0.15485087
166	0xbe5a3a02	-0.2131119
167	0x3e4f5cbe	0.20250222
168	0xbea4bb3d	-0.321741
169	0x3d007063	0.03135718
170	0xbce05c41	-0.02738774
171	0x3d0cf576	0.034413777
172	0xbdebc37b	-0.11511894
173	0xbe7e1c07	-0.24815379
174	0xbd165e8a	-0.036711253
175	0xbe2d465c	-0.16921371
176	0xbcfa1f77	-0.030532582
177	0x3da34378	0.07971853
178	0x3ecabc86	0.39596957
179	0x3d975ebb	0.07391115
180	0xbe2e2a59	-0.17008342
181	0xbe4842be	-0.1955671
182	0x3e59a019	0.21252479
183	0xbdf471fd	-0.11935804
184	0x3d14da9c	0.036341295
185	0x3d14eaf5	0.036356885
186	0x3ced3ce2	0.028959695
187	0x3f08776f	0.5330724
188	0x3e9ac3fc	0.3022765
189	0xbe7bca4a	-0.24588886
190	0x3ec9f6ca	0.39446098
191	0x3f0838cc	0.53211665
192	0x3e133cf5	0.14378722
193	0x3df61010	0.120147824
194	0x3e07ada3	0.13249831
195	0x3ebff1e1	0.37489226
196	0xbde1ebf5	-0.11031333
197	0x3d261cdc	0.040554866
198	0xbd3b6ffc	-0.045761093
199	0xbdeeb20e	-0.11655055
200	0xbe52e5f1	-0.20595528
201	0x3d816d57	0.06319683
202	0x3e784439	0.24244775
203	0x3dd90fac	0.10598692
204	0x3e14e48c	0.14540309
205	0xbdfe8c18	-0.124290645
206	0x3c9ad5ac	0.018900715
207	0xbb6060d0	-0.0034237392
208	0x3e9a30a9	0.3011525
209	0xbde90efa	-0.1137981
210	0x3e40bb70	0.18821502
211	0x3ced3c9f	0.02895957
212	0xbec21359	-0.37905386
213	0xbd3e8c6e	-0.046520643
214	0xbddbfed7	-0.10741966
215	0x3ee4d803	0.44696054
216	0xbe6b3a52	-0.22971466
217	0xbf129bfc	-0.57269263
218	0x3ef92318	0.48659587
219	0xbc278b51	-0.010226087
220	0xbd9624ae	-0.07331215
221	0x3df63435	0.120216765
222	0xbe3aeaf8	-0.18253696
223	0xbe6fc8e7	-0.23416482
224	0xbf25e3ee	-0.6480092
225	0x3bbcee2b	0.0057656965
226	0xbe78d8eb	-0.24301498
227	0x3e82abe8	0.2552178
228	0xbd82cac2	-0.06386329
229	0xbd9bfe1e	-0.076168284
230	0x3d9565ad	0.07294784
231	0x3daf0514	0.085458905
232	0xbed1a821	-0.40948585
233	0x3d9325fc	0.07184979
234	0x3e31b871	0.17355515
235	0xbe86ce91	-0.26329473
236	0xbe39c611	-0.18141963
237	0xbe023c98	-0.12718427
238	0x3e88c4f1	0.26712754
239	0x3eaf5892	0.3424726
240	0xbe109455	-0.14119084
241	0x3e4814ff	0.1953926
242	0x3dacd372	0.084387675
243	0x3ec4947e	0.3839454
244	0x3e8b752c	0.27237833
245	0xbed863bd	-0.42263594
246	0x3ea1cb91	0.3160062
247	0xbdfeb5ae	-0.124369964
248	0x3f04f300	0.5193329
249	0x3ca9493a	0.0206648
250	0xbed5837e	-0.41701883
251	0xbe8bf72b	-0.27337012
252	0xbdd52be8	-0.10408765
253	0xbe53dd1e	-0.20689818
254	0xbcb6a373	-0.022294736
255	0x3ecd35eb	0.400802

lstm.weight_hh_l0 f4 [256, 64]
0	0xbe88342f	-0.26602313
1	0xbd2fc1df	-0.0429095
2	0xbefdec55	-0.4959437
3	0xbc8cc034	-0.017181493
4	0x3e9e6c18	0.30941844
5	0x3e2afae9	0.16697277
6	0x3f2da4b3	0.67829436
7	0x3e4cac82	0.19987682
8	0xbcd20adf	-0.02563995
9	0x3e1b202d	0.15148993
10	0x3e5931d9	0.21210422
11	0xbe22e213	-0.15906553
12	0x3ae2a9b3	0.0017293006
13	0x3d213031	0.0393526
14	0xbe795d7f	-0.24352072
15	0x3e82f1d5	0.25575128
16	0x3f0f6dbe	0.5602683
17	0x3c9bb0a3	0.019005125
18	0xbe8a0e35	-0.26963964
19	0xbd6b4121	-0.05743516
20	0xbe686e07	-0.22698222
21	0xbda6a014	-0.08136001
22	0x3e394900	0.18094254
23	0xbe76af46	-0.24090299
24	0x3edc3247	0.4300711
25	0xbe7cf167	-0.24701463
26	0x3ddbd950	0.107348084
27	0x3e01034b	0.12598912
28	0x3e2c220e	0.16809866
29	0xbf18389b	-0.59461373
30	0x3e4d03eb	0.20021026
31	0x3dae1e94	0.08501926
32	0x3e9487c3	0.29009828
33	0x3ef440ac	0.4770559
34	0xbda04058	-0.078247726
35	0x3e005cd7	0.12535416
36	0xbee5a030	-0.44848776
37	0x3deafe1d	0.114742495
38	0x3d95aa2b	0.073078476
39	0x3dc413e5	0.09574107
40	0xbea04cb5	-0.31308523
41	0x3e7f1a79	0.24912442
42	0xbd5600f2	-0.052246995
43	0xbf11928f	-0.56864256
44	0x3de60361	0.11231113
45	0xbed837b0	-0.42229986
46	0xbe24f94e	-0.16110727
47	0x3e12c009	0.14331068
48	0x3eb5bf8f	0.3549771
49	0xbc10975d	-0.00882515
50	0xbea01ac6	-0.31270427
51	0x3d915fe6	0.07098369
52	0xbde00ac2	-0.10939552
53	0xbebab922	-0.3646937
54	0x3df4f8aa	0.119614914
55	0xbe806e03	-0.25083932
56	0xbe556534	-0.20839387
57	0x3cbfaed6	0.023398798
58	0xbf02a443	-0.51031893
59	0x3eb445dc	0.35209548
60	0xbee20e4c	-0.44151533
61	0x3f026937	0.50941795
62	0xbe939c2b	-0.28830084
63	0xbe1235ea	-0.14278379
64	0xbd7b52a2	-0.0613581
65	0xbe2496c3	-0.16073136
66	0x3dd4f950	0.10399115
67	0xbd7df122	-0.06199754
68	0x3e2e3fe1	0.17016555
69	0x3e8117cc	0.25213468
70	0xbe36ed41	-0.17863943
71	0xbe478f3b	-0.19488232
72	0xbe025c6c	-0.12730569
73	0xbe8acfdf	-0.27111718
74	0x3dcf64a8	0.101266205
75	0x3c07fe72	0.008300411
76	0xbeaee56b	-0.34159407
77	0xbdf51a91	-0.11967958
78	0xbd8f1e51	-0.06988204
79	0xbcc56493	-0.02409581
80	0x3e49a044	0.19690043
81	0x3ef23dd5	0.473128
82	0xbdd8744e	-0.10569058
83	0xbdd61c51	-0.1045462
84	0xbdd0e764	-0.10200384
85	0x3d11a502	0.035557754
86	0xbe02daf8	-0.12778842
87	0xbed272ff	-0.4110336
88	0x3ee6ac04	0.45053113
89	0x3db35b93	0.08757701
90	0xbee8161a	-0.45329362
91	0x3cd899a7	0.026440455
92	0xbe685396	-0.22688136
93	0xbf005f0b	-0.50145024
94	0x3dc27917	0.09495752
95	0xbf0682c3	-0.52543277
96	0xbd8cbee7	-0.06872349
97	0x3ead6f8c	0.33874166
98	0xbde868e7	-0.113481335
99	0xbe7dfa31	-0.24802472
100	0xbd7c14e4	-0.06154336
101	0xbd70c774	-0.058783963
102	0xbe331bd4	-0.17491084
103	0x3e8a5afd	0.27022544
104	0xbe9024c9	-0.28153065
105	0x3e9ff25e	0.312396
106	0x3d963713	0.07334723
107	0xbc427cec	-0.011870604
108	0xbef8251a	-0.48465806
109	0xbcb9e712	-0.02269319
110	0xbe8754b0	-0.264318
111	0x3e24a585	0.16078766
112	0x3cb9441a	0.022615481
113	0x3e05ccf4	0.13066465
114	0xbc96cca0	-0.01840812
115	0x3e2eaecc	0.17058867
116	0xbe0b529d	-0.13605733
117	0xbe6936d6	-0.22774825
118	0xbe8da23f	-0.27662846
119	0xbe5aaea7	-0.21355687
120	0x3e077a69	0.1323029
121	0xbc915357	-0.017739935
122	0x3e6fd22b	0.23420016
123	0xbe569e91	-0.20958926
124	0xbe0f5533	-0.13997345
125	0xbf2ead32	-0.68233025
126	0xbe08410c	-0.13306063
127	0xbda0ecad	-0.07857642
128	0x3e2ff729	0.17184128
129	0xbde3bc83	-0.1111994
130	0xbe4736fc	-0.19454569
131	0xbe1b2b5e	-0.15153262
132	0x3eee4c55	0.46542612
133	0x3e514e0b	0.20439927
134	0x3d89336a	0.066992596
135	0xbe5c12ea	-0.2149159
136	0x3d058e51	0.032606427
137	0x3e81b93e	0.2533664
138	0x3d9d26b1	0.076733954
139	0xbe300472	-0.17189196
140	0xbe009569	-0.12556995
141	0x3e3794b8	0.17927825
142	0xbd209b1c	-0.039210424
143	0x3e90e67d	0.2830085
144	0x3dd574b8	0.10422653
145	0x3e298e2d	0.16558142
146	0x3d3de383	0.04635955
147	0xbdd88a2b	-0.105732284
148	0x3cdfd94e	0.027325299
149	0x3e77259d	0.24135442
150	0x3de66b3b	0.11250921
151	0x3eae21b3	0.34010085
152	0x3eb6b856	0.35687512
153	0x3dfcc858	0.123429
154	0xbec76b4d	-0.38949051
155	0x3e355976	0.17709908
156	0xbdb18744	-0.08668378
157	0xbea425ef	-0.3206019
158	0xbe32e399	-0.17469634
159	0xbe82dff0	-0.25561476
160	0xbe855deb	-0.26048216
161	0x3e6543ef	0.22389196
162	0x3e6f0c75	0.23344596
163	0xbe4ba52a	-0.19887224
164	0xbe617d7d	-0.22020526
165	0x3dcb0652	0.09913315
166	0xbdf8ebbe	-0.12154339
167	0xbe93dba0	-0.28878498
168	0xbe937cfa	-0.28806287
169	0x3e6ddcae	0.23228714
170	0xbdc1a0f4	-0.094545275
171	0xbe03f577	-0.12886606
172	0xbe5148d3	-0.20437936
173	0xbe457e0f	-0.19286369
174	0xbe0a08ce	-0.13479921
175	0x3e79cdd8	0.2439493
176	0x3e9ef61d	0.31047145
177	0x3e47d217	0.19513737
178	0xbe7127d7	-0.23550354
179	0x3e4b50d4	0.19855052
180	0xbde5968b	-0.112103544
181	0x3e174821	0.14773609
182	0xbeb347cd	-0.35015717
183	0xbdfd40da	-0.12365885
184	0x3c089690	0.008336678
185	0x3ec5cc44	0.38632405
186	0x3d31237b	0.043246727
187	0x3f0f9eb9	0.56101567
188	0xbd1806b8	-0.037115782
189	0x3d274549	0.04083756
190	0xbdae1e8b	-0.08501919
191	0xbda3f2ea	-0.080053166
192	0xbe99e0d0	-0.3005433
193	0xbdb6b71a	-0.089216426
194	0xbea8e48b	-0.32986864
195	0xbd37e398	-0.044894785
196	0xbde8e99c	-0.113726825
197	0xbad47878	-0.0016210219
198	0x3ec43b81	0.38326648
199	0x3ecabf7f	0.39599225
200	0x3e85329d	0.26015177
201	0xbea2bba6	-0.3178379
202	0x3d400616	0.046880804
203	0x3e47c107	0.19507228
204	0x3e3e78a4	0.18600708
205	0xbe9feaf9	-0.31233957
206	0x3e306cc0	0.17228985
207	0x3daf3b08	0.08556181
208	0xbdd62d48	-0.104578555
209	0xbee32e49	-0.4437125
210	0x3ecb6e23	0.39732465
211	0x398c4870	0.0002675685
212	0xbe9fe8ca	-0.3123229
213	0x3e793277	0.24335657
214	0x3e5ba107	0.21448146
215	0x3e2a42e0	0.16627073
216	0xbdb7309c	-0.089448184
217	0x3da22227	0.0791667
218	0xbbfb7723	-0.0076741143
219	0xbd945454	-0.07242647
220	0xbd6a1e94	-0.057158068
221	0x3deb3073	0.1148385
222	0xbc87e546	-0.016588818
223	0x3e9b19c3	0.30293092
224	0x3e9e42b8	0.30910277
225	0x3d3a8865	0.045540232
226	0x3e25f472	0.1620653
227	0x3e41f45a	0.18940869
228	0x3d3d1a05	0.046167392
229	0x3e1f915b	0.15582792
230	0x3e95850c	0.2920307
231	0x3da82053	0.0820929
232	0xbd3a16fb	-0.045432072
233	0x3e253a45	0.1613551
234	0xbe4e5737	-0.20150457
235	0xbe76ba32	-0.24094465
236	0x3ebc751d	0.368081
237	0x3daba996	0.08381955
238	0x3e6070bb	0.21918003
239	0xbd4ddb89	-0.050258193
240	0xbe00e740	-0.12588215
241	0x3d960f21	0.07327104
242	0x3e8b64e5	0.27225414
243	0x3dca70d0	0.098847985
244	0x3c91caec	0.017796956
245	0xbde98e29	-0.11404068
246	0x3f028eae	0.5099896
247	0xbd8bb3eb	-0.06821426
248	0x3dbcc50a	0.0921727
249	0xbdc3fa2a	-0.095691994
250	0xbdaf4c7a	-0.085595086
251	0x3dc04f75	0.09390155
252	0x3ddf7062	0.10910107
253	0xbd82b66a	-0.06382449
254	0x3dfd617c	0.12372109
255	0xbe34b04f	-0.17645381

lstm.bias_ih_l0 f4 [256]
0	0xbe212e71	-0.15740372
1	0xbdaa16f0	-0.08305156
2	0xbdb3a7bd	-0.08772228
3	0xbdd73068	-0.1050728
4	0xbb036fef	-0.0020055731
5	0xbdb07a29	-0.0861705
6	0x3dc12d7e	0.09432505
7	0xbe493e63	-0.19652705
8	0xbe2b86ef	-0.16750692
9	0xbdf6443a	-0.12024732
10	0x3dc490bd	0.09597919
11	0xbe219364	-0.15778881
12	0xbd46d89f	-0.04854643
13	0xbda71bd5	-0.081596054
14	0xbe31b2fe	-0.17353436
15	0xbd771cdf	-0.060330268
16	0xbe27e58b	-0.16396157
17	0xbc83e303	-0.016099459
18	0xbde7844c	-0.113045305
19	0x3d332880	0.043739796
20	0xbdb89318	-0.09012431
21	0xbe1275ba	-0.14302722
22	0xbc9473d3	-0.018121636
23	0x3d3e91d5	0.046525795
24	0x3e04cd3b	0.12968914
25	0x3c0202b0	0.007935211
26	0x3e190e60	0.1494689
27	0xbd2b0694	-0.04175432
28	0x3d706705	0.058691997
29	0xbd0bfffc	-0.034179673
30	0xbe0aeb66	-0.1356636
31	0xbcc6e3d3	-0.024278557
32	0xbdb82636	-0.08991663
33	0x3bebea56	0.007199566
34	0x3be29297	0.0069144475
35	0xbd1c67bc	-0.038184866
36	0xbddc38d0	-0.107530236
37	0xbdfc54b9	-0.12320847
38	0xbd1490d9	-0.03627095
39	0xbe48c71f	-0.19607209
40	0xbddbab30	-0.10726011
41	0xbdd6a220	-0.10480142
42	0x3e02becb	0.12768094
43	0xbd50aaa4	-0.050943986
44	0xbe5e94fa	-0.21736518
45	0x3d5574a5	0.052113194
46	0xbde7d009	-0.113189764
47	0x3e12821b	0.14307444
48	0x3d021462	0.03175772
49	0xbe9c2ef4	-0.30504572
50	0x3c418ab0	0.011812851
51	0xbe4d2e52	-0.20037201
52	0xbeac7ed1	-0.33690503
53	0xbd313755	-0.04326566
54	0xbb2d32a4	-0.002642789
55	0xbe0954c3	-0.1341124
56	0xbe087b88	-0.13328373
57	0xbdc0115d	-0.09378312
58	0x3c1a12f1	0.00940393
59	0xbe220f92	-0.15826252
60	0xbd551586	-0.05202248
61	0xbd3f1abb	-0.04665635
62	0xbdb82b87	-0.08992677
63	0xbdc827b1	-0.097731955
64	0x3d704bb3	0.058665942
65	0x3d8ec175	0.06970493
66	0xbe12db09	-0.14341368
67	0x3dbee0d0	0.09320223
68	0xbda442cd	-0.08020554
69	0x3e131b2b	0.14365833
70	0xbdb719bb	-0.089404546
71	0x3cd475a0	0.025934994
72	0x3db223f4	0.08698264
73	0xbdb51ac7	-0.08842998
74	0x3ae00da4	0.0017093909
75	0x3e2c7a4f	0.16843532
76	0xbd0b3191	-0.033982817
77	0x3dbbd776	0.09171955
78	0x3e3322dc	0.17493767
79	0x3dc4c095	0.096070446
80	0x3e37daa1	0.17954494
81	0x3d51ef7a	0.051253773
82	0xbe055a1a	-0.13022652
83	0xbdd60c75	-0.10451595
84	0x3e49a38e	0.19691297
85	0xbe252fe7	-0.16131555
86	0xbc711899	-0.014715337
87	0x3d32ac90	0.0436216
88	0xbe251f9e	-0.16125342
89	0x3e8e0948	0.27741456
90	0x3d915923	0.070970796
91	0xbcb5529e	-0.022134122
92	0x3e5517f3	0.20809917
93	0x3ea0b530	0.31388235
94	0x3dc99152	0.09842171
95	0xbced62da	-0.0289778
96	0x3cfd3e3c	0.030913465
97	0xbc80fbcc	-0.015745066
98	0x3e4ba4f2	0.1988714
99	0x3cebecb9	0.028799402
100	0x3db43156	0.087984726
101	0x3d7900e9	0.060791884
102	0xbdbf5b4d	-0.09343586
103	0xbd3386b4	-0.043829635
104	0xba2ba180	-0.00065471977
105	0x3db97697	0.09055822
106	0x3d9d70e8	0.07687551
107	0x3e907c1d	0.2821969
108	0xbe3bdb35	-0.1834534
109	0x3e0e4a53	0.1389554
110	0x3e7df8bd	0.24801917
111	0x3e8ccf86	0.27502078
112	0x3d744e25	0.059644837
113	0xbcc2bd44	-0.02377189
114	0xbd5f2f53	-0.05448849
115	0xbcbfaf70	-0.023399085
116	0xbc65ce44	-0.014026228
117	0x3c243b62	0.010023924
118	0xbd8ea90a	-0.069658354
119	0x3d887e35	0.06664697
120	0x3c49498f	0.012285604
121	0xbc322d08	-0.010874994
122	0xbe0e1d89	-0.13878454
123	0xbe0c085d	-0.13675065
124	0x3d45d722	0.04830087
125	0xbe4862f8	-0.19569004
126	0xbbfb59c2	-0.007670612
127	0xbd642aba	-0.05570481
128	0x3e4daa66	0.20084533
129	0x3db96fc2	0.09054519
130	0x3de1bb76	0.110220835
131	0x3d6b236b	0.057406824
132	0x3d75cfcf	0.060012635
133	0x3d1b979e	0.03798639
134	0xbe0cfff7	-0.13769518
135	0x3cfc1a2a	0.030774195
136	0x3dff452d	0.12464366
137	0x3dfb985d	0.1228492
138	0xbd5e5316	-0.054278456
139	0x3deea6d3	0.11652913
140	0xbc0f5747	-0.008748836
141	0x3b3fe0a8	0.0029278193
142	0xbcae8877	-0.021305306
143	0xbca122e0	-0.01966995
144	0xbdeb3358	-0.114844024
145	0x3ca84bfe	0.020544048
146	0xbca4485f	-0.02005404
147	0xbd25d294	-0.040484026
148	0x3d6aab9f	0.057292577
149	0xbdfbe91a	-0.1230032
150	0xbde24348	-0.11047989
151	0x3bb57a0f	0.005538232
152	0x3d83e78e	0.0644065
153	0xbd9bc204	-0.07605365
154	0x3cd04d78	0.025427565
155	0xbc597712	-0.0132730175
156	0xbd8644e9	-0.06556112
157	0x3d079ab4	0.03310652
158	0x3dc8e487	0.09809213
159	0x3d80285b	0.06257697
160	0x3d258abf	0.04041552
161	0xbd93ef5a	-0.07223387
162	0xbe157762	-0.14596322
163	0xbd43a26c	-0.04776232
164	0xbdfc300e	-0.12313853
165	0xbdafb149	-0.08578736
166	0xbd5c358e	-0.05376201
167	0xbbac9bfa	-0.0052676173
168	0x3df4bced	0.11950097
169	0x3df57157	0.119845085
170	0x3c51cefd	0.0128056975
171	0x3e1037bb	0.1408376
172	0xbd9737d6	-0.07383697
173	0xbd1c22ad	-0.038119007
174	0xbc31b2e2	-0.010845872
175	0xbd3e3b46	-0.046443246
176	0xbdc2f44e	-0.09519254
177	0xbc10b228	-0.008831538
178	0xbcd5aa61	-0.02608222
179	0xbcb5d5e5	-0.02219672
180	0x3da41e08	0.080135405
181	0xbd0b5f95	-0.0340267
182	0xbb3fc17e	-0.0029259617
183	0xbd592820	-0.05301678
184	0xbb75aa0b	-0.0037485387
185	0xbaa645ae	-0.0012685561
186	0x3da6fdd7	0.08153885
187	0xbdccbb00	-0.09996605
188	0x3da24476	0.07923214
189	0x3d8e506f	0.06948935
190	0xbd66799b	-0.056268316
191	0x3e05afd6	0.13055357
192	0xbe1d2311	-0.15345408
193	0xbdda6e44	-0.10665563
194	0xbe0ab701	-0.13546373
195	0xbe0630d1	-0.1310456
196	0xbe14297a	-0.14468947
197	0x3dba97df	0.09110998
198	0x3e0a9946	0.13535032
199	0xbe2d8bc6	-0.1694785
200	0xbadf17f3	-0.0017020687
201	0x3b990e73	0.004670912
202	0x3cd3a966	0.025837611
203	0x3d7e94ef	0.062153753
204	0x3c16cae6	0.009203648
205	0xbdc38162	-0.09546162
206	0xbd833ca2	-0.06408049
207	0xbe5bf3c2	-0.21479705
208	0xb9033530	-0.00012512947
209	0x3cc3cc2b	0.023901066
210	0xbd74d470	-0.05977291
211	0xbd3a54c6	-0.045491003
212	0x3d90fcec	0.07079491
213	0xbe24f0b4	-0.16107446
214	0xbccbac95	-0.024862567
215	0x3e0ecd01	0.1394539
216	0x3c3c6f7d	0.01150119
217	0x3c872096	0.01649503
218	0x3d897209	0.067112036
219	0xbb6c3b9a	-0.0036046267
220	0x3e0fb005	0.1403199
221	0x3e45de4e	0.19323084
222	0xbd5ae5b1	-0.053441707
223	0x3d9e4e9b	0.077298366
224	0xbe1bf07a	-0.15228453
225	0xbd913b65	-0.07091407
226	0xbd9adc4c	-0.075615495
227	0xbdd8e855	-0.10591189
228	0x3d25f14b	0.040513318
229	0xbe040e98	-0.12896192
230	0xbcfee980	-0.0311172
231	0xbe0d75df	-0.13814496
232	0xbd300ed9	-0.04298291
233	0x3cf42e0d	0.029807115
234	0x3da3d3ba	0.07999368
235	0x3d7d2d9d	0.06181108
236	0xbe0c9428	-0.13728392
237	0x3c2b6556	0.010461172
238	0x3da55bf4	0.08074179
239	0x3c4ed254	0.012623388
240	0xbddb48a9	-0.10707218
241	0xbd9d12f3	-0.0766963
242	0x3cbbe467	0.02293606
243	0xbcd964cf	-0.026537327
244	0xbd9ddac4	-0.07707742
245	0xbd383c9b	-0.044979673
246	0x3dc90481	0.09815312
247	0xbe042f41	-0.12908651
248	0xbd787d31	-0.060666267
249	0x3dd058f6	0.10173218
250	0x3e59fb2d	0.21287222
251	0xbdea14cb	-0.11429747
252	0x3d8e3dd8	0.069453895
253	0xbe225af0	-0.15855002
254	0xbd2096de	-0.03920638
255	0x3c8c06c3	0.017093068

lstm.bias_hh_l0 f4 [256]
0	0xbe51e28a	-0.20496574
1	0xbd840f59	-0.0644824
2	0xbd7e4894	-0.062080935
3	0xbd4ff338	-0.05076906
4	0x3d9e47d8	0.07728547
5	0xbe20e540	-0.15712452
6	0x3ca1c9f2	0.019749615
7	0xbe9c80fa	-0.3056715
8	0xbdbb846b	-0.09156116
9	0xbe5a0e2c	-0.21294469
10	0x3b96bac0	0.004599899
11	0xbdd2ba37	-0.10289424
12	0xbdf3e1f3	-0.11908331
13	0xbe82b979	-0.2553213
14	0xbd1c0011	-0.038086
15	0xbe24d78d	-0.16097851
16	0xbe70ec2d	-0.23527594
17	0xbcc3282f	-0.023822872
18	0xbd0ed5ce	-0.03487187
19	0xbe4593a8	-0.19294608
20	0xbd5247c5	-0.051337976
21	0xbe6afd5e	-0.22948214
22	0xbde4c309	-0.111700125
23	0xbd48b8ef	-0.04900449
24	0x3db4d6a2	0.088300005
25	0x3db479f8	0.08812326
26	0x3d3e9f9a	0.046538927
27	0xbe0e71f3	-0.13910656
28	0x3e668eb0	0.22515368
29	0xbd0b962c	-0.034078762
30	0xbcb44f42	-0.02201045
31	0x3dc8c397	0.09802931
32	0xbe3eb864	-0.18625027
33	0xbdc3817d	-0.09546182
34	0x3c224e65	0.009906386
35	0x3df2feb4	0.11864987
36	0xbd4d56de	-0.05013167
37	0xbe2a88ef	-0.16653799
38	0xbd050692	-0.03247697
39	0xbd556248	-0.05209568
40	0xbdbfb2de	-0.09360288
41	0xbe1cee75	-0.15325339
42	0x3d6d11a7	0.057878163
43	0xbd1d16b7	-0.03835174
44	0xbe323ac3	-0.17405228
45	0x3b11d818	0.0022254046
46	0xbcf84195	-0.03030471
47	0x3e1c92c7	0.15290366
48	0x3df51c74	0.11968318
49	0xbe23303b	-0.15936367
50	0x3d6dd3ad	0.058063198
51	0xbcaf6295	-0.021409312
52	0xbe409224	-0.18805748
53	0xbc1211f0	-0.008915409
54	0x3d16e055	0.036835033
55	0xbd70c522	-0.05878175
56	0xbdda49b4	-0.10658589
57	0x3d25f5fe	0.0405178
58	0xbde42654	-0.11140123
59	0xbdcafe9c	-0.09911844
60	0xbc887f08	-0.016662136
61	0x3cffd70d	0.031230474
62	0xbda899bb	-0.08232447
63	0xbe2ab7ec	-0.16671723
64	0x3b855389	0.004068796
65	0xbcaa1592	-0.020762239
66	0xbdc8c93b	-0.09804007
67	0xbcde20dd	-0.02711528
68	0xbe334a04	-0.17508703
69	0x3c7a466a	0.015275577
70	0x3dc5a18e	0.09649955
71	0xbe2c59d6	-0.16831145
72	0x3e350d73	0.17680912
73	0xbe864451	-0.26223996
74	0x3d15abf0	0.036540926
75	0x3df86f0f	0.12130558
76	0xbc4c422e	-0.01246695
77	0x3c10bccd	0.008834076
78	0x3e510f14	0.20415908
79	0x3e0f291b	0.13980524
80	0x3d0e82c8	0.03479269
81	0xbe03ae37	-0.12859426
82	0x3d8ff285	0.07028679
83	0xbd822629	-0.06354935
84	0x3dad08f6	0.08448975
85	0x3c9ba382	0.018998865
86	0x3cd7ddd7	0.026350899
87	0xbd18ebad	-0.037334133
88	0x3c145ca4	0.00905529
89	0x3e35cb5f	0.17753361
90	0x3da1f904	0.07908824
91	0xbe0a758a	-0.135214
92	0x3d9b1736	0.075727865
93	0x3e966dfa	0.2938078
94	0x3bf692de	0.007524832
95	0xbd881a1f	-0.06645607
96	0xbd86d5cf	-0.065837495
97	0xbbf7166e	-0.0075405156
98	0x3e8ddfa2	0.2770968
99	0x3daa6aef	0.08321177
100	0x3de6dbc9	0.112723894
101	0x3de9a93e	0.114092335
102	0xbe10417c	-0.1408748
103	0xbddf5679	-0.10905165
104	0x3d18cc42	0.03730417
105	0x3e3d2c19	0.18473853
106	0x3d9c44d2	0.07630314
107	0x3e5b1fa2	0.21398786
108	0xbdcc800d	-0.09985361
109	0x3da0b644	0.078472644
110	0x3e6ac130	0.22925258
111	0x3e794c7b	0.24345581
112	0x3e5a13fd	0.21296687
113	0xbdd5a0da	-0.104310706
114	0xbe6147c1	-0.22000028
115	0x3c91c489	0.01779391
116	0xbdebc39f	-0.11511921
117	0xbc13c4f2	-0.009019123
118	0xbe53dce8	-0.20689738
119	0xbdfbd860	-0.1229713
120	0x3e597ad9	0.21238269
121	0x3e2f3b68	0.17112505
122	0xbe763af1	-0.24045922
123	0xbd64a97e	-0.055825703
124	0x3d80c5f5	0.06287757
125	0xbe1751a7	-0.14777242
126	0x3df1e943	0.11812069
127	0x3e3e8879	0.18606748
128	0xbb4b4fea	-0.0031022974
129	0xbd75ae08	-0.059980422
130	0xb868e7c0	-5.5528944e-05
131	0x3d8f59ee	0.069995746
132	0x3d92f07a	0.071747735
133	0xbb8f976f	-0.004382066
134	0xbdcb7572	-0.0993451
135	0xbda9185d	-0.082566
136	0xbce16aeb	-0.027516803
137	0x3dc04490	0.09388077
138	0x3c4068b8	0.011743717
139	0x3c27dff6	0.010246268
140	0xbd901053	-0.070343636
141	0x3e098c10	0.13432336
142	0x3dffbb9e	0.12486957
143	0xbe3ae8fb	-0.18252937
144	0x3c430707	0.011903531
145	0xbd809912	-0.06279196
146	0xbe272612	-0.16323116
147	0x3c67bcdf	0.0141441515
148	0xbd1d480d	-0.03839879
149	0xbde9c88a	-0.11415203
150	0xbdbda5ca	-0.092601374
151	0xbe43c20a	-0.19116989
152	0xbd1734c4	-0.036915556
153	0xbbad70ee	-0.0052930033
154	0xbde4f9e1	-0.11180473
155	0x3d9df14f	0.077120416
156	0xbd9d9634	-0.076946646
157	0x3d6dc22e	0.058046512
158	0x3db55e73	0.088559054
159	0xbdb36dc6	-0.08761172
160	0xbdb9b88a	-0.09068401
161	0xbe3b0292	-0.18262699
162	0xbe0d4e27	-0.13799344
163	0xbdd3f7cb	-0.10349997
164	0xbddb8435	-0.10718576
165	0xbe053ab8	-0.1301068
166	0xbcab6ee8	-0.020926908
167	0x3d88bdd8	0.06676835
168	0x3d2168ab	0.03940646
169	0x3b64aebb	0.0034894187
170	0xbda20abc	-0.07912204
171	0x3e403f04	0.18774039
172	0xbe0c9df4	-0.1373213
173	0x3c5bfb62	0.013426634
174	0xbd841272	-0.06448831
175	0x3dd36954	0.10322824
176	0xbd514fde	-0.051101558
177	0xbdf3dc35	-0.119072355
178	0x3dd5e7da	0.10444613
179	0x3db3c7c2	0.08778335
180	0x3c504e23	0.012713942
181	0x3d977ac5	0.07396463
182	0x3ccf0d53	0.025274908
183	0xbbac3804	-0.005255701
184	0x3dab8071	0.08374108
185	0xbc6c0afb	-0.014406915
186	0x3ddcc8b8	0.107804716
187	0x3cdfadf5	0.027304629
188	0x3d845220	0.064609766
189	0x3d8a57b7	0.067550115
190	0x3df2b2fe	0.11850546
191	0x3dacb602	0.08433153
192	0xbde2f2f7	-0.11081498
193	0xbde7f7f7	-0.113265924
194	0xbdbfdaf1	-0.09367932
195	0xbd73d486	-0.05952885
196	0xbca8746d	-0.020563329
197	0x3d0b3d9d	0.033994306
198	0x3dbdadda	0.09261675
199	0xbd3187e9	-0.043342505
200	0xbd9c032d	-0.07617793
201	0x3ce6e6d4	0.02818624
202	0xbc89b4db	-0.016809871
203	0xbd797fa0	-0.06091273
204	0xbc680e62	-0.014163585
205	0xbe9c4490	-0.3052106
206	0xbdcdc113	-0.100465916
207	0xbe3be08b	-0.18347375
208	0x3d2c38ac	0.042046234
209	0x3ca5c889	0.020237224
210	0x3bc930f8	0.0061398707
211	0x3ddcb4c4	0.10776666
212	0x3dfe4996	0.12416379
213	0xbd9b18d1	-0.07573093
214	0xbc429c37	-0.011878065
215	0xbcbe93b2	-0.023263786
216	0x3e68ca11	0.22733332
217	0xbd1d96a0	-0.038473725
218	0x3cb11d3f	0.021620391
219	0xbd1be489	-0.038059745
220	0x3e609c22	0.2193456
221	0x3d94525a	0.0724227
222	0xbad844c5	-0.0016499987
223	0x3d312fc8	0.04325846
224	0xbd9c236c	-0.07623944
225	0x3a020ddc	0.00049611717
226	0x3e049dad	0.12950774
227	0xbdd46ce3	-0.10372331
228	0x3d78a13a	0.060700633
229	0xbe15f0ac	-0.1464259
230	0x3ca11f5a	0.01966827
231	0xbe799f8e	-0.24377272
232	0x3ca4a6c1	0.020099046
233	0x3d66b985	0.05632927
234	0x3e168634	0.14699632
235	0xbdc08cbc	-0.09401843
236	0xbe1b9a5c	-0.15195602
237	0xbdbb3f82	-0.091429725
238	0x3d2eb1a6	0.042649888
239	0x3d0507b3	0.032478046
240	0x3d6fab17	0.058512773
241	0xbe85e24a	-0.26149207
242	0xbe0b02b7	-0.13575254
243	0x3ceb09a8	0.028691128
244	0xbe438ec0	-0.19097424
245	0x3c0f9ecc	0.0087658875
246	0xbdc9f72d	-0.09861598
247	0xbdc80b91	-0.09767831
248	0x3bc0c23b	0.005882529
249	0xbd6dbc86	-0.058041118
250	0x3da14de5	0.07876185
251	0xbe56698a	-0.20938697
252	0x3ce96984	0.028492697
253	0xbd8db718	-0.06919688
254	0xbb25a3af	-0.0025274565
255	0xbe44906a	-0.19195715

lstm.weight_ih_l1 f4 [256, 64]
0	0x3c0e203f	0.00867468
1	0x3cd99c0e	0.02656367
2	0x3dadca32	0.08485831
3	0x3d0c88ad	0.03431003
4	0xbe870820	-0.26373386
5	0x3d4ff101	0.05076695
6	0x3d16865d	0.036749233
7	0xbe0c7bf4	-0.1371916
8	0xbe17b25d	-0.14814134
9	0x3db12063	0.086487554
10	0x3eb91659	0.36149862
11	0xbd16e76f	-0.036841806
12	0x3e315c5a	0.17320386
13	0x3d2d6a3b	0.042337637
14	0xba4f35f5	-0.00079044636
15	0xbd74041e	-0.05957424
16	0xbda71f72	-0.081602946
17	0x3e2d026f	0.1689546
18	0x3d6b64a6	0.057469033
19	0xbd896f5b	-0.067106925
20	0xbdf9639f	-0.12177204
21	0x3d38b68d	0.04509597
22	0xbd46f391	-0.048572127
23	0xbd849855	-0.064743675
24	0x3d4a2923	0.049355637
25	0xbd8b59b3	-0.06804218
26	0xbcd31b03	-0.025769716
27	0x3d97bafa	0.0740871
28	0xbdcabfa1	-0.098998316
29	0x3daaa88a	0.083329275
30	0x3cbf78e4	0.023373075
31	0xbb3674e3	-0.0027840666
32	0x3bc6d752	0.0060681487
33	0xbc4cd40c	-0.012501728
34	0xbe7ee499	-0.2489189
35	0xbdf100ac	-0.11767706
36	0xbe395ca9	-0.18101753
37	0xbd7d882e	-0.06189745
38	0xbce15dcd	-0.027510548
39	0x3d1ddbef	0.038539823
40	0xbe34587e	-0.17611882
41	0xbd0e6940	-0.034768343
42	0x3e4636fe	0.19356915
43	0xbc44d35b	-0.012013282
44	0x3b9fe0de	0.004879101
45	0xbe6114cc	-0.2198059
46	0x3c4e8917	0.012605927
47	0x3d2cba70	0.04216999
48	0xbcb97053	-0.022636568
49	0x3dac8f92	0.08425821
50	0xbdacd025	-0.08438138
51	0x3bd75290	0.0065711215
52	0x3e471767	0.19442521
53	0x3d1b2f54	0.037886932
54	0xbdab6b03	-0.0837002
55	0x3d3b7c32	0.04577274
56	0xbdfa1f7f	-0.12213039
57	0x3e4e5d19	0.20152701
58	0x3e2bbd4e	0.16771433
59	0x3e46a97b	0.19400589
60	0xbc62c79d	-0.013841537
61	0xbcee1c78	-0.02906631
62	0xbdbc28da	-0.09187479
63	0x3e08507a	0.1331195
64	0x3d6b509e	0.05744993
65	0x3e0625ce	0.13100359
66	0x3e4d2a41	0.2003565
67	0xbe7e2eb8	-0.2482251
68	0x3dd94f0d	0.10610781
69	0x3cabb6a6	0.020961117
70	0x3e94c53f	0.29056737
71	0xbe95be04	-0.29246533
72	0xbdc0206e	-0.093811855
73	0x3e1dbfd5	0.1540521
74	0x3e836a30	0.25666952
75	0xbd9fa00a	-0.07794197
76	0xbcd07f13	-0.025451219
77	0x3d576e90	0.052595675
78	0xbe79eb58	-0.24406183
79	0x3bbfa08a	0.005847995
80	0x3e23e5c1	0.16005613
81	0xbce86074	-0.028366305
82	0xbec13cfc	-0.3774184
83	0x3eba8b14	0.36434233
84	0xbea5b979	-0.32368067
85	0x3dc7bcc0	0.09752798
86	0xbe12c35c	-0.14332336
87	0x3d184d3e	0.03718304
88	0xbd4b6cfe	-0.04966449
89	0xbe93fd5d	-0.28904238
90	0x3c5c79bd	0.013456759
91	0xbccda294	-0.025101937
92	0x3d8d552b	0.0690101
93	0x3db07d4c	0.086176485
94	0x3d0893f3	0.03334422
95	0xbd794048	-0.06085232
96	0xbea79bb7	-0.32735988
97	0xbe5a5545	-0.2132159
98	0xbe4ad616	-0.1980823
99	0xbdb099bf	-0.08623075
100	0xbe622f27	-0.220883
101	0xbd9c35f5	-0.07627479
102	0xbe75a572	-0.23988894
103	0xbde3b8dc	-0.111192435
104	0xbd3d0982	-0.046151645
105	0xbd5795f1	-0.05263323
106	0xbda084fc	-0.07837865
107	0xbe448194	-0.19190055
108	0xbe34e7bf	-0.17666529
109	0x3c2f1332	0.010685729
110	0xbe146343	-0.1449099
111	0x3dd71320	0.10501695
112	0xbe2816a4	-0.16414887
113	0x3e34826b	0.17627876
114	0xbe94b0b5	-0.29041067
115	0xbe7388bb	-0.23782627
116	0x3e8a775d	0.27044192
117	0x3dd63ea3	0.10461166
118	0x3e7f60af	0.24939226
119	0xbe0b0ddf	-0.1357951
120	0xbe7ecf92	-0.2488387
121	0x3db058f4	0.086107165
122	0x3de6a76b	0.11262401
123	0x3e94b2f3	0.29042777
124	0xbd1a1e5e	-0.037626617
125	0x3e4ab165	0.19794233
126	0xbe456dec	-0.19280213
127	0x3d1fea24	0.039041653
128	0x3e1eae59	0.15496196
129	0x3d6ca187	0.057771232
130	0x3e5ec9cc	0.21756667
131	0x3d758ddc	0.05994974
132	0xbea22c01	-0.31674197
133	0xbcee69be	-0.029103156
134	0x3e35ab82	0.17741206
135	0xbdd073cf	-0.10178339
136	0xbe4fed16	-0.20305285
137	0x3dd1e94d	0.10249577
138	0x3eb8b0d8	0.3607242
139	0xbe68fa8f	-0.2275183
140	0x3e824b42	0.25448042
141	0xbd30c433	-0.04315586
142	0xbd154b2b	-0.03644864
143	0x3b3739be	0.0027958
144	0x3dd47a71	0.10374916
145	0xbb84c487	-0.004051748
146	0x3b886f7b	0.00416368
147	0x3c909eb4	0.0176538
148	0xbe08eeab	-0.13372295
149	0x3dde7a18	0.10863131
150	0xbe41bedf	-0.18920468
151	0xbe450967	-0.19241868
152	0xbdf08822	-0.11744715
153	0xbe3c1d33	-0.18370514
154	0x3df50eb2	0.119656935
155	0x3c00348e	0.00782503
156	0xbcc786fd	-0.02435636
157	0xbc87f216	-0.016594928
158	0x3e780df5	0.24224074
159	0x3c482233	0.012215185
160	0xbdc791c8	-0.097446024
161	0xbe387cac	-0.18016309
162	0xbe976e10	-0.2957616
163	0x3c40c1e3	0.011764976
164	0xbddf6ee0	-0.109098196
165	0xbcb8b679	-0.022547947
166	0xbe66fc96	-0.22557291
167	0xbde54a7e	-0.11195849
168	0xbe5f90c1	-0.21832563
169	0xb9c134a2	-0.00036851043
170	0x3dcf2e5c	0.10116264
171	0xbd13441b	-0.035953622
172	0xbc8b43d3	-0.017000115
173	0xbe4cc713	-0.19997816
174	0xbcb62a95	-0.022237102
175	0xbd80d659	-0.062908836
176	0xbdd5fca9	-0.10448582
177	0x3c1dc798	0.009630106
178	0x3db43178	0.08798498
179	0xbda33fa2	-0.07971121
180	0x3e125c02	0.1429291
181	0x3e3f30e0	0.18670988
182	0x3d475de4	0.048673525
183	0x3d0e551c	0.034749135
184	0xbc09989e	-0.008398203
185	0x3e538bc0	0.20658779
186	0x3e093be2	0.1340175
187	0x3d103a16	0.035211645
188	0x3d12f134	0.03587456
189	0xbdc85f9e	-0.097838625
190	0xbdf21d85	-0.11822037
191	0x3e88fe62	0.2675658
192	0x3ddc9358	0.10770291
193	0xbc51b558	-0.012799583
194	0x3e49ea3a	0.19718257
195	0xbdd12913	-0.102129124
196	0x3ceb6157	0.028732939
197	0x3df9057f	0.121592514
198	0x3d2eaeb7	0.04264709
199	0xbe7f56c8	-0.24935448
200	0x3b9e749e	0.004835679
201	0x3ccd5ac7	0.0250677
202	0x3d18783e	0.037224047
203	0xbdff1e68	-0.124569714
204	0x3e05902c	0.13043278
205	0x3e2a3b1e	0.16624114
206	0x3d35d2b8	0.04439041
207	0xbcccb287	-0.024987472
208	0x3d16ce34	0.036817744
209	0x3ddb9467	0.10721665
210	0xbd9f3486	-0.0777369
211	0x3c13202b	0.008979837
212	0xbdc14a4a	-0.09437998
213	0x3dfb47dd	0.12269566
214	0x3c7b85fc	0.015351769
215	0xbdef6404	-0.11688998
216	0x3e7b62bb	0.24549381
217	0xbdca8115	-0.09887902
218	0x3dbfb200	0.09360123
219	0xbb1137d1	-0.0022158513
220	0xbde5d0cf	-0.11221468
221	0xbdb0122a	-0.085972145
222	0x3decf865	0.11570815
223	0xbe30ca9c	-0.1726479
224	0xbe9f17ba	-0.3107279
225	0x3b26c2e6	0.0025445758
226	0xbe1feb4a	-0.156171
227	0xbe432aaa	-0.19059244
228	0xbdf7104a	-0.12063654
229	0x3db922ee	0.090398654
230	0xbd97eb4f	-0.074179284
231	0x3cced449	0.02524771
232	0xbea4e62d	-0.3220686
233	0x3dd66ba1	0.10469747
234	0x3d71fb26	0.059077404
235	0xbe4ee59d	-0.20204778
236	0xbdf0d923	-0.117601655
237	0xbdf9a00f	-0.12188732
238	0xbd54bd4a	-0.051938333
239	0x3cba5103	0.022743708
240	0x3d6f7ba3	0.05846752
241	0x3e83a98b	0.2571529
242	0xbce33461	-0.027734937
243	0xbe6a092c	-0.22855061
244	0x3e099d98	0.13439023
245	0x3e4b2090	0.1983664
246	0xbe589390	-0.2115004
247	0xbcfcb6f7	-0.030848963
248	0xbe755283	-0.23957257
249	0x3e4fd03b	0.20294277
250	0x3d879b6b	0.066214405
251	0x3e1f6da9	0.15569176
252	0xbe26b700	-0.16280746
253	0x3e7f7f8a	0.24950996
254	0xbe71a333	-0.23597412
255	0x3d81b802	0.06333925

lstm.weight_hh_l1 f4 [256, 64]
0	0xbd231f84	-0.039824978
1	0x3e101afe	0.14072797
2	0xbdff3755	-0.124617256
3	0x3e24c113	0.16089277
4	0x3daebae0	0.08531737
5	0xbdb1b45f	-0.08676981
6	0xbe3f93c0	-0.18708706
7	0x3d671f73	0.056426477
8	0xbe530292	-0.20606449
9	0x3e5acfb5	0.21368296
10	0xbe35b46a	-0.17744604
11	0xbe017ab3	-0.12644462
12	0xbe29943f	-0.16560458
13	0x3c1f2769	0.009713986
14	0x3dc0c95e	0.09413408
15	0x3e1eac34	0.15495378
16	0xbd394753	-0.045234036
17	0xbe7a3955	-0.24435933
18	0x3e155781	0.14584161
19	0x3c324175	0.010879864
20	0xbdbc388d	-0.09190474
21	0x3e38162c	0.17977208
22	0x3b1610b6	0.0022898144
23	0xbe02e01b	-0.12780802
24	0x3e1fb26b	0.15595405
25	0xbcf8de9a	-0.030379582
26	0x3c867ed5	0.0164179
27	0x3ce04b4c	0.027379654
28	0xb91be320	-0.00014866563
29	0xbbf20d2b	-0.0073868237
30	0x3b85a703	0.0040787472
31	0x3d1dc9a1	0.038522366
32	0xbdd9d5f7	-0.10636514
33	0x3dc830a0	0.097748995
34	0x3d193fd9	0.037414405
35	0x3bf18d80	0.0073716044
36	0xbe3e0fdd	-0.18560739
37	0xbdc197a5	-0.09452752
38	0xbe5224c5	-0.20521839
39	0x3d28ee4d	0.041242886
40	0xbc8332a6	-0.016015362
41	0x3d8845b2	0.06653918
42	0x3ddb7e03	0.10717394
43	0xbd816a2f	-0.06319081
44	0x3d31e0a9	0.043427143
45	0x3c514b39	0.012774282
46	0xbc70075e	-0.014650194
47	0xbe335d61	-0.1751609
48	0x3e059dc8	0.1304847
49	0xbe5287ab	-0.20559566
50	0x3dc9e78b	0.098586164
51	0xbdb46250	-0.08807814
52	0xbd72c521	-0.059270028
53	0x3a60d436	0.0008576544
54	0xbc4ef631	-0.012631939
55	0xbaba3140	-0.0014205351
56	0x3d895782	0.06706144
57	0xbd500ba1	-0.05079234
58	0xbda4e22f	-0.080509536
59	0x3a023f86	0.0004968572
60	0xbd9fbca5	-0.07799653
61	0x3dadfe83	0.0849581
62	0x3dba8d89	0.09109027
63	0x3dc24c8e	0.09487258
64	0x3d90b082	0.07064916
65	0x3e2011e6	0.15631828
66	0x3bd92e7d	0.0066278563
67	0xbd755af2	-0.059901185
68	0xbd99431f	-0.074835055
69	0x3e203414	0.15644866
70	0x3e248976	0.16068062
71	0xbd9a6100	-0.075380325
72	0x3e09d26a	0.13459173
73	0x3ca25f92	0.019820962
74	0x3728cf30	1.006182e-05
75	0x3e589aaf	0.21152757
76	0xbcc4edb4	-0.024039127
77	0xbc913afb	-0.01772832
78	0x3decf66b	0.11570438
79	0xbc0ff3ea	-0.008786181
80	0xbcb42581	-0.02199054
81	0x3cd9e357	0.026597662
82	0xbe166417	-0.14686619
83	0x3dfd6744	0.12373212
84	0x3df44bec	0.119285434
85	0x3d4fbbf2	0.050716348
86	0xbdaa9d3b	-0.083307706
87	0xbde95991	-0.113940366
88	0xbd503444	-0.050831094
89	0x3e0e6756	0.13906607
90	0x3d3b8328	0.045779377
91	0xbe3c7437	-0.18403707
92	0xbd613b8f	-0.05498844
93	0xbc873c97	-0.016508384
94	0xbe02380b	-0.12716691
95	0xbe15d2cd	-0.14631195
96	0x3d06f5fd	0.032949436
97	0xbd1f5e1b	-0.038908105
98	0xbd870606	-0.06592946
99	0x3ca15908	0.019695774
100	0x3e35e20c	0.17762011
101	0x3e0ad88b	0.13559167
102	0x3e44107d	0.19146915
103	0x3e0d435e	0.1379523
104	0xbd345836	-0.044029437
105	0xbe15a5dc	-0.14614052
106	0x3de290a7	0.110627465
107	0x3a871498	0.001030582
108	0xbd61a75e	-0.055091254
109	0x3bae813a	0.0053254636
110	0xbcfff153	-0.031243002
111	0xbe1e921f	-0.15485428
112	0x3e4e99b8	0.20175827
113	0x3de7c9dd	0.11317799
114	0xbe10e975	-0.14151557
115	0x3e4c4e72	0.199518
116	0x3d4cfcd4	0.050045803
117	0xbbbba6d2	-0.0057266736
118	0xbc623b0b	-0.013808022
119	0xbd4a5763	-0.049399745
120	0xbce045f6	-0.02737711
121	0xbd0ae395	-0.033908445
122	0x3db864be	0.0900359
123	0x3e25bc68	0.16185153
124	0xbd566bf0	-0.05234903
125	0xbe10a8cb	-0.1412689
126	0x3ddbb492	0.107278004
127	0xbe53597f	-0.20639609
128	0x3d3f91c5	0.046769876
129	0xbcad8c1b	-0.021184972
130	0x3d4a82c6	0.04944112
131	0x3a00dae4	0.000491543
132	0xb9c8533e	-0.00038208993
133	0xbe4d1f11	-0.20031382
134	0x3a2153e7	0.0006154165
135	0xbc36cd34	-0.011157323
136	0xbe1482f0	-0.14503074
137	0x3d9e4b7e	0.07729243
138	0xbdf52e0d	-0.11971674
139	0x3d1d2817	0.03836831
140	0xbd9bcd2a	-0.07607491
141	0x3dbf4252	0.093388215
142	0x3e3e5c7e	0.1858997
143	0x3e1b2a56	0.15152869
144	0xbe56791c	-0.20944637
145	0xbe04c8c3	-0.1296721
146	0x3d0aef2b	0.033919495
147	0x3cff8e9a	0.031195927
148	0xbda716a5	-0.08158616
149	0x3de56687	0.11201196
150	0xbd7f04f9	-0.0622606
151	0xbe3ddc10	-0.18540978
152	0x3d923162	0.07138325
153	0x3e022e78	0.12713039
154	0x3e16c2ad	0.147227
155	0x3e01359b	0.12618105
156	0x3e0a11f5	0.13483413
157	0x3dca9b5b	0.09892913
158	0xbdc9f70d	-0.09861574
159	0xbd6c6f93	-0.057723593
160	0x3d44fb4d	0.04809122
161	0x3d0d3c23	0.03448118
162	0xbdabe4d2	-0.083932534
163	0xbdd443de	-0.10364507
164	0x3d2fe777	0.04294535
165	0x3bddc0ea	0.006767382
166	0xbe2c3840	-0.16818333
167	0x3dffb159	0.12484998
168	0xbd9536b7	-0.07285827
169	0x3d5ef833	0.05443592
170	0x3d3598c0	0.044335127
171	0x3e1d47df	0.15359448
172	0x3d593f06	0.05303862
173	0x3d46ce88	0.048536807
174	0x3cb19d27	0.021681381
175	0xbe53c90d	-0.20682164
176	0x3df58824	0.119888574
177	0x3d6d8f66	0.057998084
178	0xb9c1bf26	-0.00036954245
179	0xbc2932bd	-0.010327038
180	0x3daaf89e	0.08348201
181	0x3da819f7	0.082080774
182	0x3d9c59dc	0.07634327
183	0x3cd9ae3c	0.02657234
184	0x3d9f9f27	0.07794028
185	0x3bbec4db	0.005821807
186	0x3c957bc5	0.018247494
187	0x3e056737	0.13027655
188	0xbe3e5910	-0.18588662
189	0xbd65d40a	-0.05611042
190	0x3db04546	0.08606963
191	0x3d80b1e2	0.062839285
192	0x3e20417f	0.15649985
193	0x3e080642	0.13283637
194	0x3d9c39fd	0.07628248
195	0xbe4b2cfe	-0.19841382
196	0x3dfe778c	0.124251455
197	0x3d8d3dba	0.06896539
198	0x3e490198	0.19629514
199	0x3d3406aa	0.043951668
200	0x3cac12ee	0.02100512
201	0xbc726539	-0.014794641
202	0xbd75832a	-0.05993954
203	0x3dce2450	0.1006552
204	0x3e11e559	0.14247645
205	0x3dd233b9	0.102637716
206	0x3e6538cd	0.22384949
207	0xbdf4d924	-0.11955479
208	0xbdfd17a8	-0.12358028
209	0xbddd099b	-0.10792848
210	0xbe1b2442	-0.1515055
211	0x3d7b0cc1	0.06129146
212	0xbd769746	-0.06020286
213	0x3ddce9d7	0.10786789
214	0xbc8facce	-0.017538454
215	0xbd906154	-0.07049814
216	0x3cd45c95	0.025923053
217	0x3e0cbeff	0.13744734
218	0x3e0c2604	0.13686377
219	0xbde16517	-0.110056095
220	0xbe2d7c0b	-0.1694185
221	0x3e3c1ea2	0.1837106
222	0xba99a5f8	-0.0011722436
223	0xbe2f1346	-0.17097196
224	0x3ddee9f9	0.108844705
225	0xbc8e42ca	-0.017365832
226	0xbd8997a8	-0.06718379
227	0xbe1e4ac6	-0.15458211
228	0x399a2688	0.00029401877
229	0x3e0e7488	0.1391164
230	0x3d7aa414	0.061191633
231	0x3cfaf9e2	0.030636732
232	0xbe1d17fe	-0.15341184
233	0x3d3ef04e	0.04661589
234	0x3d65c06f	0.056091722
235	0xbd124d7a	-0.03571842
236	0xbdf2c4e7	-0.118539624
237	0xbe2a1356	-0.16608939
238	0x3d18bfe2	0.03729237
239	0xbe00af0c	-0.12566775
240	0x3e47b5af	0.195029
241	0x3d947143	0.072481655
242	0xbd720e4b	-0.059095662
243	0x3c7f0102	0.015564205
244	0x3e9b3ce0	0.3031988
245	0x3e5b1843	0.21395974
246	0xbcbce7e3	-0.023059791
247	0x3ae0cfbd	0.0017151755
248	0xbe18305a	-0.14862195
249	0x3dc8242a	0.09772523
250	0x3d9012d1	0.07034839
251	0x3d142e4b	0.03617696
252	0xbe0ec418	-0.13941991
253	0xb7b11130	-2.1108048e-05
254	0xbd278c61	-0.04090536
255	0xbd49ae21	-0.049238328

lstm.bias_ih_l1 f4 [256]
0	0x3d48b400	0.048999786
1	0xbe6c4a89	-0.23075308
2	0x3e0f50af	0.13995622
3	0x3cc1f08a	0.023674268
4	0xbe754f9f	-0.23956154
5	0xbd867fd2	-0.065673485
6	0x3dfae730	0.12251127
7	0xbcfeeadd	-0.03111785
8	0x3e2e2244	0.17005259
9	0x3e367716	0.17818865
10	0xbd09bc35	-0.033626754
11	0xbe3a5092	-0.18194798
12	0xbd42226b	-0.047396105
13	0x3e7a8a00	0.24466705
14	0xbdb9631b	-0.09052106
15	0xbd5e4125	-0.054261345
16	0xbe002fa4	-0.12518173
17	0xbdb051e8	-0.086093724
18	0xbe15725f	-0.1459441
19	0xbccac7ad	-0.024753416
20	0xbe3577da	-0.17721501
21	0xbdea8c62	-0.11452557
22	0x3d197814	0.03746803
23	0xbe4a4a55	-0.19754918
24	0xbd1d5b66	-0.038417242
25	0xbd3eeecc	-0.046614453
26	0xbe660110	-0.22461343
27	0xbdeeb202	-0.11655046
28	0x3db471d4	0.088107735
29	0x3dd39d28	0.103327096
30	0x3e259aa4	0.16172272
31	0x3d832aa1	0.06404615
32	0xbe306360	-0.17225409
33	0xbdec096d	-0.11525235
34	0xbd78b23f	-0.060716864
35	0xbe4614d5	-0.19343884
36	0x3ba430d6	0.0050107045
37	0xbd679394	-0.056537226
38	0xbe07846e	-0.13234112
39	0xbe162089	-0.14660849
40	0xbea3302d	-0.31872693
41	0xbd309794	-0.043113306
42	0xbde31980	-0.11088848
43	0xbe4c1860	-0.19931173
44	0xbe4a71ea	-0.19770017
45	0xbde3934e	-0.111120805
46	0xbd88f323	-0.06687
47	0xbe5e8d3f	-0.21733569
48	0xbd5f7e9e	-0.05456411
49	0x3e153251	0.14569975
50	0xbc4f6757	-0.0126589155
51	0x3e0a2e27	0.13494168
52	0xbe2c7800	-0.16842651
53	0xbc4d2803	-0.012521747
54	0xbcb44bf2	-0.02200887
55	0xbd917bda	-0.07103701
56	0xbe11c29c	-0.14234394
57	0xbe5b1911	-0.21396281
58	0xbe5f01cd	-0.2177803
59	0x3d53eb93	0.051738333
60	0x3c15e24a	0.00914819
61	0x3d684851	0.05670959
62	0xbd892627	-0.0669673
63	0xbd271caa	-0.04079882
64	0x3e40bf30	0.18822932
65	0xbdb880df	-0.09008955
66	0x3e1f17ac	0.15536374
67	0xbc8922d0	-0.016740233
68	0xbe005688	-0.12533009
69	0x3e077d67	0.13231431
70	0x3e849db3	0.25901565
71	0x3d9a1178	0.07522863
72	0x3e49f9f0	0.1972425
73	0x3e84d014	0.2594
74	0x3e049dda	0.1295084
75	0xbd702887	-0.0586324
76	0x3e237bde	0.1596522
77	0x3eb1bd4a	0.3471473
78	0xbe13d95b	-0.14438383
79	0x3d886e5c	0.066616744
80	0xbd584fd3	-0.0528105
81	0x3e2753ad	0.16340514
82	0x3a7ac682	0.0009566323
83	0xbdf9b13d	-0.12192009
84	0xbd853b48	-0.065054476
85	0xbe2186f9	-0.15774144
86	0x3d7b8733	0.061408233
87	0xbe63189a	-0.22177354
88	0x3cf51886	0.02991892
89	0xbdb4da37	-0.08830684
90	0x3ccee34e	0.025254872
91	0xbd083d30	-0.033261478
92	0x3d9d4b76	0.07680409
93	0x3da39d5a	0.07988997
94	0x3ddb09c7	0.10695224
95	0xbb5c8d98	-0.0033653732
96	0x3e3c00af	0.18359636
97	0x3e2355d1	0.15950705
98	0x3e41df5b	0.1893286
99	0x3c27dbec	0.010245305
100	0xbbd365c5	-0.006451341
101	0x3b7ae173	0.003828135
102	0x3e41487b	0.18875305
103	0xbdad1482	-0.08451177
104	0xbd828bd1	-0.06374324
105	0x3d787459	0.060657833
106	0xbbd9be8b	-0.006645029
107	0xbd8bb39d	-0.06821368
108	0xbdfae4f3	-0.122507
109	0x3b1e0c15	0.0024116088
110	0x3c2dda19	0.010611081
111	0xbda13ac7	-0.07872539
112	0xbde7b92c	-0.113146156
113	0x3e4ab25b	0.197946
114	0x3e571121	0.21002628
115	0x3e1fd81d	0.15609784
116	0xbd3faf44	-0.046798006
117	0x3db78f7a	0.08962913
118	0x3db9f2bb	0.090795
119	0xbd94da74	-0.07268229
120	0xbb528568	-0.0032122973
121	0xbdaefd5c	-0.08544418
122	0x3d9f272b	0.077711426
123	0x3d23ab6a	0.039958395
124	0xbe025a65	-0.12729795
125	0x3d3fa65c	0.046789512
126	0x3e2906ba	0.16506472
127	0xbbdd22d5	-0.006748537
128	0xbdd17ecc	-0.10229263
129	0x3d3a7e73	0.045530748
130	0xbe62fe23	-0.22167258
131	0x3e2d0c63	0.16899256
132	0x3dc9bb6b	0.098502
133	0xbd8090d8	-0.06277627
134	0xbd8e18c6	-0.06938319
135	0x3e0985ef	0.13429998
136	0xbe5d5756	-0.21615347
137	0x3e1f5bff	0.15562437
138	0xbd1664dc	-0.03671728
139	0xbc8d5444	-0.017252095
140	0xbdcc7da8	-0.099849045
141	0xbe75d383	-0.24006467
142	0x3c635138	0.0138743445
143	0x3c8b0d27	0.016974045
144	0xbbdd3f91	-0.0067519625
145	0x3d55add7	0.05216774
146	0x3e5826df	0.21108578
147	0xbdf98018	-0.12182635
148	0x3d16ecf5	0.036847074
149	0xbdb0b0af	-0.0862745
150	0x3db3349c	0.08750269
151	0xbd2803a8	-0.041019112
152	0x3c00360c	0.007825386
153	0x3cbd16ad	0.023082102
154	0x3d4ca824	0.04996504
155	0x3e1cff2e	0.15331718
156	0x3de1551f	0.11002564
157	0xbded1600	-0.11576462
158	0x3d9f226b	0.077702366
159	0x3e4623ec	0.1934964
160	0xbcf5b8cb	-0.029995343
161	0x3df81e23	0.12115123
162	0x3e49e32a	0.19715562
163	0x3bd71cf8	0.0065647326
164	0xbdc8b34b	-0.097998224
165	0xbdd82f13	-0.10555854
166	0xbd2bc5c6	-0.04193666
167	0xbd2a89a1	-0.04163516
168	0x3cf286c7	0.029605282
169	0x3e2ce89d	0.1688561
170	0xbb63a423	-0.0034735284
171	0x3db17aa6	0.086659715
172	0x3cb7693a	0.022389043
173	0x3b4f7a24	0.0031658495
174	0xbe0da5fd	-0.13832851
175	0x3da09df5	0.07842628
176	0x3c10b32e	0.008831782
177	0xbe2846bb	-0.16433232
178	0x3dd04c92	0.10170855
179	0xbdbc1afc	-0.09184834
180	0x3d1666fb	0.036719304
181	0xbd7c5299	-0.06160221
182	0x3d549278	0.051897496
183	0xbe560fce	-0.20904467
184	0x3de09d82	0.10967542
185	0x3d85ad19	0.065271564
186	0xbdbcb94c	-0.0921503
187	0x3d8c1e9e	0.06841777
188	0x3d2cd1a1	0.042192105
189	0x3e38cc56	0.18046698
190	0xbe256857	-0.16153084
191	0x3d918c9e	0.07106899
192	0xbd80c63c	-0.0628781
193	0xbe52307d	-0.2052631
194	0xbcb03984	-0.0215118
195	0xbe3c2917	-0.1837505
196	0xbdd234b0	-0.102639556
197	0x3cd0ae65	0.025473783
198	0x3de82e8f	0.11337005
199	0xbcc62f09	-0.02419235
200	0x3e211e60	0.15734243
201	0xbc9fa38e	-0.019487169
202	0xbd73178a	-0.05934862
203	0x3c0641eb	0.008194427
204	0xbdcddcd0	-0.10051882
205	0xbb575318	-0.0032855924
206	0xbc4c97f1	-0.0124873975
207	0xbd1664fb	-0.036717396
208	0xbe642d31	-0.22282864
209	0x3dfaa0f6	0.12237732
210	0x3b56a5e5	0.003275269
211	0xbc80a1ea	-0.015702207
212	0xbd7d809e	-0.061890237
213	0xbe2021ca	-0.1563789
214	0x3d1a9492	0.037739344
215	0xbe04dbfc	-0.12974542
216	0xbe124726	-0.14284953
217	0xbe60f15d	-0.21967073
218	0xbe397e43	-0.18114571
219	0x3d700ccd	0.058605958
220	0x3ba544d7	0.0050436067
221	0xbc4045f5	-0.011735429
222	0xbd2edea1	-0.042692784
223	0x3db58807	0.08863836
224	0xbd565362	-0.052325614
225	0x3ce38861	0.027774991
226	0xbd9b62ed	-0.07587228
227	0xbc1fb89d	-0.009748605
228	0x3de1afa9	0.11019833
229	0xbdbee3a4	-0.09320763
230	0x3c29dab4	0.010367084
231	0xbaccddba	-0.0015630045
232	0xbeb11423	-0.34585676
233	0xbe125594	-0.14290458
234	0xbe8ff8f7	-0.28119633
235	0xbe5b5067	-0.2141739
236	0xbcf8caac	-0.030370079
237	0xbd5f8ded	-0.05457871
238	0x3df15393	0.11783519
239	0xbd08cfa1	-0.033401135
240	0xbde78f59	-0.11306638
241	0xbc8b9dee	-0.01704308
242	0x3ada23d6	0.001664276
243	0x3ded714f	0.115938775
244	0xbc2c00f3	-0.010498273
245	0xbe1a1ea5	-0.15050752
246	0xbdb98aa4	-0.09059647
247	0xbe414bc4	-0.18876559
248	0xbdcb9804	-0.09941104
249	0xbd9303ca	-0.07178457
250	0xbd7c7b16	-0.06164082
251	0xbd958fc9	-0.073028155
252	0xbe03387f	-0.1281452
253	0x3dcd58a1	0.1002667
254	0x3d9c4812	0.07630934
255	0xbe61b059	-0.22039928
