data_storage/models/lstm_v1.0.0_20251231_150108/assists_model.pt (torch, 217509 bytes, 9 tensors)

lstm.weight_ih_l0 f4 [256, 12]
0	0xbbd3e9f3	-0.006467098
1	0xbdbf2f6e	-0.09335218
2	0xbd2d601f	-0.042327996
3	0xbcf227b2	-0.029559944
4	0x3af6099a	0.0018771172
5	0x3cab20d4	0.020889677
6	0x3b1ddec4	0.0024089077
7	0xbdb0c933	-0.08632126
8	0xbce74197	-0.028229518
9	0xbd52c769	-0.051459704
10	0xbd8c44b6	-0.06849043
11	0x3e2ad75a	0.16683713
12	0x3bd4e976	0.0064975573
13	0x3c1e3df4	0.009658325
14	0x3d0cc1a5	0.03436436
15	0xbc45d5a3	-0.012074861
16	0xbd15cd49	-0.03657273
17	0xbd70be76	-0.058775388
18	0xbc43c978	-0.011949889
19	0x3d4c89dc	0.04993616
20	0xbddb34c0	-0.10703421
21	0x3d8a5edd	0.06756375
22	0x3dddba12	0.10826506
23	0x3cb2b456	0.021814507
24	0x3d51a6ce	0.051184468
25	0xbd5aeab2	-0.05344648
26	0x3e162fb4	0.14666635
27	0x3da751c2	0.08169891
28	0xbd01a195	-0.031648237
29	0x3d7ddd62	0.061978705
30	0x3dfefcf4	0.12450591
31	0x3c105fcc	0.008811902
32	0xbbec2595	-0.0072066286
33	0x3de6439f	0.112433665
34	0x3d4d6b1a	0.050150968
35	0x3d8d53fe	0.06900786
36	0xbd85efd6	-0.06539886
37	0xbd71a816	-0.05899819
38	0xbded59a3	-0.115893625
39	0x3d949da7	0.07256632
40	0x3df6bfeb	0.12048324
41	0xbe0af2ba	-0.13569155
42	0x3cde9d9f	0.027174769
43	0xbbef8aae	-0.007310233
44	0xbd98f6b2	-0.074689284
45	0xbd16691a	-0.036721326
46	0xbe1f3188	-0.15546238
47	0x3db29ce9	0.087213345
48	0xbd512a98	-0.05106601
49	0xbd32bc7f	-0.043636795
50	0xbd908b0b	-0.0705777
51	0x3e0932ef	0.13398336
52	0x3cb60042	0.02221692
53	0x3d89b889	0.067246504
54	0xbd9ddfe4	-0.077087194
55	0x3d3f404f	0.04669219
56	0xbe13e139	-0.14441384
57	0xbd9000ef	-0.07031428
58	0x3ddeaa1b	0.10872289
59	0x3d9cd26f	0.076573245
60	0xbe0e9e47	-0.13927566
61	0x3acb9144	0.0015530963
62	0x3cbe8a20	0.023259223
63	0x3da2d16d	0.07950101
64	0xbd08d913	-0.033410143
65	0xbcbb48fa	-0.022861946
66	0x3bbc31b3	0.0057432293
67	0x3d0615df	0.0327357
68	0xbd860ae0	-0.06545043
69	0x3d10cdea	0.035352625
70	0xbde3d699	-0.11124916
71	0x3dd9df5e	0.10638307
72	0x3d96bb0c	0.07359895
73	0xbd1b2436	-0.03787633
74	0xbdb06d15	-0.08614556
75	0x3db157b7	0.086593084
76	0xbdaa62b1	-0.08319605
77	0x3c8ecbba	0.017431129
78	0xbdf3505d	-0.118805625
79	0xbd22e25a	-0.039766647
80	0xbdd8ac17	-0.105796985
81	0xbdfee119	-0.12445278
82	0x3d79a715	0.060950357
83	0x3dd6b689	0.104840346
84	0xbc441dc9	-0.011969992
85	0x3def2e93	0.11678805
86	0xbd15d8c3	-0.036583673
87	0x3d8e65eb	0.06953033
88	0xbd085b07	-0.033289935
89	0xbda13760	-0.0787189
90	0x3d0db18a	0.034593143
91	0xbdf3726b	-0.11887058
92	0xbdd47cfa	-0.103754
93	0x3e147f34	0.14501649
94	0xbba0eb84	-0.004910888
95	0x3d6bbce3	0.057553183
96	0xbe0150a5	-0.1262842
97	0xbd9eee3d	-0.07760284
98	0xbdc7a774	-0.09748736
99	0x3e02db8f	0.12779067
100	0x3d5f5682	0.05452586
101	0x3d850541	0.06495143
102	0x3ae07858	0.0017125709
103	0xbd42588c	-0.047447726
104	0x3dd42665	0.10358886
105	0x3e0483b7	0.1294087
106	0xbd8d7fa6	-0.06909113
107	0x3d35c549	0.0443776
108	0xbe10a6f7	-0.14126192
109	0xbd705f03	-0.05868436
110	0xbd1d1468	-0.03834954
111	0xbd0e4bd5	-0.034740288
112	0xbc4b50a2	-0.012409361
113	0x3d67f375	0.056628663
114	0x3d32636d	0.04355185
115	0xbd8f3d3c	-0.069941014
116	0x3d3bd3a3	0.04585613
117	0x3da917d5	0.08256499
118	0xbda83475	-0.082131304
119	0x3e10b29d	0.14130636
120	0x3c56c7ae	0.013109131
121	0xbd8e4732	-0.06947173
122	0xbdb8cfd1	-0.09024013
123	0x3ce12451	0.027483137
124	0xbdb851dc	-0.089999884
125	0x3c01e893	0.007928985
126	0x3d96af18	0.07357615
127	0x3d8ce3d8	0.06879395
128	0x3d2fc8ed	0.042916227
129	0xbd7aeca5	-0.061260838
130	0x3dd00949	0.10158021
131	0xbd918ae0	-0.071065664
132	0xba2f1684	-0.00066790753
133	0xbce78c3a	-0.028265107
134	0xbd6a5e08	-0.05721858
135	0x3aec9747	0.0018050455
136	0xbdcdb7a7	-0.100447945
137	0x3dc9ce2b	0.098537765
138	0x3dbe9419	0.09305591
139	0xbd880347	-0.0664125
140	0x3a891c76	0.0010460753
141	0xbc9fc4b7	-0.01950298
142	0xbd991a28	-0.07475692
143	0x3c062faf	0.00819008
144	0xbd6dde53	-0.058073353
145	0x3d86a186	0.06573777
146	0x3d77b951	0.060479466
147	0x3de2e6a5	0.11079148
148	0x3df0ff4f	0.11767446
149	0x3d9f245f	0.07770609
150	0xbcbf6a5b	-0.023366144
151	0x3dd871a4	0.1056855
152	0xbce829c1	-0.028340222
153	0xbc282a7a	-0.010264033
154	0x3d67a405	0.056552906
155	0x3dc0ae14	0.09408203
156	0x3cbc3c7a	0.022978056
157	0xbc504ede	-0.012714116
158	0x3dbcff88	0.09228426
159	0x3e18bfb4	0.14916879
160	0xbd14b19d	-0.036302198
161	0x3dd6295f	0.1045711
162	0x3b58ed94	0.0033100592
163	0x3d77dfb3	0.06051607
164	0x3bbd94c4	0.0057855565
165	0xbe012625	-0.12612207
166	0x3d93db1c	0.07219526
167	0x3d7c77d5	0.06163772
168	0x3cb23beb	0.021757087
169	0xbe1faafc	-0.15592569
170	0x3d9ece47	0.07754188
171	0x3dbd2fbe	0.09237622
172	0x3d2abdde	0.041684978
173	0x3c9afd98	0.018919751
174	0xbd713591	-0.058888976
175	0x3c87f09b	0.016594222
176	0xbd4b1141	-0.049577
177	0x3ccdb822	0.025112215
178	0x3d4695e0	0.048482776
179	0xbcbe6df3	-0.023245787
180	0xbdf82d15	-0.12117974
181	0xbbc16e3b	-0.005903033
182	0xbd80b32a	-0.06284173
183	0xbd7f3e7e	-0.062315457
184	0x3db7c03d	0.089722134
185	0xbd997c69	-0.074944325
186	0x3dd4b308	0.1038571
187	0xbd292a29	-0.041299973
188	0x3d419852	0.047264405
189	0xbdb895e2	-0.09012963
190	0x3acba955	0.0015538136
191	0xbd1bb4c6	-0.038014196
192	0x3b6ed16c	0.0036440743
193	0xbd6ba964	-0.05753459
194	0x3b99aab9	0.004689541
195	0x3e207426	0.15669307
196	0xbe06a7e7	-0.13149987
197	0x3dd8faf5	0.10594741
198	0xbd9ce3dc	-0.07660648
199	0x3dc5817b	0.09643837
200	0x3e0e8ec5	0.1392165
201	0xbceb95ec	-0.028758012
202	0x3dcde6fd	0.10053823
203	0x3e88d239	0.26722887
204	0x3d5e2efb	0.054244023
205	0xbd1961e9	-0.03744689
206	0xbe12714c	-0.14301032
207	0x3d8b11a6	0.067904755
208	0xbdbaef72	-0.09127702
209	0x3de51b84	0.11186889
210	0xbd826091	-0.06366075
211	0xbd88492c	-0.066545814
212	0xbd5e2d23	-0.054242264
213	0x3d12087c	0.035652623
214	0x3d9904ad	0.07471595
215	0xbb595f20	-0.0033168271
216	0xbe0b6ef7	-0.13616548
217	0xbd83d2c3	-0.06436684
218	0x3d8dae01	0.06917954
219	0x3e246a54	0.16056186
220	0xbdab3bd5	-0.083610214
221	0xbda6d174	-0.08145419
222	0xbd214eaf	-0.03938168
223	0xbced4ba5	-0.028966734
224	0x3d86f1e1	0.065891035
225	0x3de12899	0.109940715
226	0x3d8f0b86	0.0698462
227	0xbc57a2a9	-0.01316134
228	0xbd5399e2	-0.051660426
229	0xbe2ad9a6	-0.16684589
230	0x3cbfe117	0.02342276
231	0x3e28c116	0.16479906
232	0xbe22f68c	-0.15914363
233	0xbc930cf6	-0.017950516
234	0xbda83107	-0.08212476
235	0x3bd77287	0.006574932
236	0x3c99ed40	0.018789887
237	0xb985b9d2	-0.00025506184
238	0xbd6d5b5a	-0.057948448
239	0x3a146749	0.00056611426
240	0x3cef1965	0.029186914
241	0xbe073994	-0.13205558
242	0x3dc2d04f	0.09512388
243	0x3cbcc176	0.023041468
244	0xbde0a51b	-0.10968991
245	0xbd412e56	-0.04716333
246	0xbe0f003b	-0.13964932
247	0xbdb79040	-0.089630604
248	0x3c3a1944	0.011358563
249	0x3db004f6	0.08594696
250	0x3e074c26	0.13212642
251	0x3cc9c4dd	0.024630005
252	0xbd903f5c	-0.07043335
253	0x3dc17709	0.09446532
254	0x3d9783e0	0.073982
255	0x3b05545f	0.0020344479

lstm.weight_hh_l0 f4 [256, 64]
0	0x3d77a4a5	0.06045975
1	0x3d25882c	0.040413067
2	0xbd684957	-0.056710567
3	0x3e0db38c	0.13838023
4	0xbdab0c90	-0.083520055
5	0xbd2b1c33	-0.04177494
6	0xbdbeefab	-0.09323057
7	0xbc5c1f31	-0.013435171
8	0x3da0caad	0.07851157
9	0x3c89034a	0.016725201
10	0x3d16edaa	0.036847748
11	0xbd4c0006	-0.04980471
12	0xbd1d3562	-0.038380988
13	0xbdeb34b4	-0.11484662
14	0x3d60b7d0	0.054862797
15	0x3da5d7bf	0.08097791
16	0x3da45bfe	0.080253586
17	0x3d8ece58	0.06972951
18	0x3d04c9bb	0.032418948
19	0x3d47cc09	0.048778567
20	0xbd9474e0	-0.07248855
21	0xbd039556	-0.03212484
22	0x3dc81adf	0.0977075
23	0x3d77307f	0.060348984
24	0x3dc373fb	0.09543606
25	0xbd120064	-0.035644904
26	0x3cf425a5	0.029803107
27	0xbbc43bdb	-0.0059885806
28	0x3dbe1999	0.09282226
29	0xbc30cad7	-0.010790548
30	0x3aae5e96	0.0013303335
31	0x3e1d1c83	0.15342908
32	0xbd2bcb1a	-0.04194174
33	0x3dcff35a	0.101538375
34	0xbdadfd9e	-0.08495639
35	0x3cb0a072	0.021560881
36	0x3d9b93ae	0.07596527
37	0xbde39f0f	-0.111143224
38	0x3daea4ba	0.08527513
39	0x3cc5cb2f	0.024144737
40	0xbd00efd0	-0.031478703
41	0xbd08bcef	-0.033383306
42	0x3dae253d	0.085031964
43	0xbdda8fa5	-0.10671929
44	0x3c79e7ef	0.015253051
45	0x3d61c3f7	0.055118527
46	0x3d14f9d2	0.03637106
47	0x3d33bb6d	0.043879915
48	0x3c4e986a	0.0126095805
49	0xbd864724	-0.06556538
50	0xbd8c9fa9	-0.0686639
51	0x3e255a99	0.16147842
52	0x3bfc68a3	0.0077029034
53	0x3ddb79db	0.107166015
54	0x3dd53185	0.10409836
55	0x3d3ee3bb	0.0466039
56	0xbcd9931d	-0.026559407
57	0x3dbd8635	0.092541136
58	0x3c3c01d0	0.0114750415
59	0xbd7786e1	-0.060431365
60	0x3ce15a27	0.027508808
61	0xbdf9110f	-0.12161457
62	0x3b98db2c	0.004664799
63	0x3db57e15	0.08861939
64	0x3d61d976	0.055139028
65	0xbde670dd	-0.11251996
66	0xbdb67edf	-0.089109175
67	0x3dceb0a4	0.10092285
68	0x3d933d29	0.071894
69	0x3c83c8c9	0.016086953
70	0x3d3ec9b3	0.046579074
71	0x3dedba09	0.11607749
72	0xbd168858	-0.03675112
73	0xbdf11176	-0.117709085
74	0xbd866d03	-0.06563761
75	0x3c37e2b9	0.0112234885
76	0x3d80bc06	0.062858626
77	0x3d8264d1	0.063668855
78	0xbe14f2ae	-0.145457
79	0xbc1d4993	-0.009600061
80	0x3d1f3ae0	0.038874507
81	0x3e1f8cf8	0.15581119
82	0x3b1ccf5d	0.002392731
83	0xbe0283ac	-0.12745541
84	0xbd7b2b87	-0.061320808
85	0x3dd40f9d	0.103545405
86	0x3d280ddc	0.041028842
87	0x3d58ad37	0.052899566
88	0xbe23c0dd	-0.1599154
89	0x3b4b5cdc	0.003103069
90	0xbaad025b	-0.0013199555
91	0x3dae7c3d	0.0851979
92	0xbcf79143	-0.030220633
93	0xbc54288d	-0.012949121
94	0xbddd7be1	-0.10814644
95	0x3d206416	0.03915795
96	0xbdea2b87	-0.114340834
97	0xbd2230c9	-0.039597306
98	0x3d6535c4	0.055959478
99	0x3da1fac3	0.07909157
100	0xbcba41b8	-0.022736415
101	0xbd7f2602	-0.062292106
102	0x3d4bc5fb	0.049749356
103	0xba8d42e2	-0.0010777379
104	0x3d3b49ed	0.045724798
105	0xbdc2cf74	-0.09512225
106	0x3cac9dec	0.021071397
107	0x3d543422	0.05180753
108	0x3c977c3c	0.018491857
109	0xbd8d6b9c	-0.069052905
110	0x3df4eb1f	0.11958908
111	0x3ce24512	0.027620826
112	0x3d795489	0.060871635
113	0xbe0ca177	-0.13733469
114	0xbcb8810d	-0.022522474
115	0xbd52ad62	-0.051434882
116	0xbcf89696	-0.030345242
117	0x3de56df4	0.112026125
118	0xbd8c8c8a	-0.06862743
119	0xbe0d962f	-0.13826822
120	0xbddad93a	-0.10685964
121	0x3c9e1863	0.019298738
122	0x3ca67a6a	0.020322043
123	0x3df9e02e	0.12200962
124	0x3e213bfc	0.15745538
125	0xbd14b4b6	-0.036305152
126	0x3d0ea95b	0.03482948
127	0xbcbdbb5d	-0.02316063
128	0x3dbd311f	0.09237885
129	0xbd76e318	-0.060275167
130	0xbd619367	-0.055072214
131	0xbd16fd2f	-0.03686255
132	0xbccb831d	-0.024842793
133	0xbd169ac8	-0.036768705
134	0xbc9e12ed	-0.019296134
135	0xbd26534f	-0.040606793
136	0xbb81c4a7	-0.0039602104
137	0x3db1b917	0.08677881
138	0xbe27b8cb	-0.16379087
139	0x3dd2423e	0.10266541
140	0x3e020889	0.12698568
141	0xbd55cbca	-0.0521963
142	0xbc0e9dec	-0.008704644
143	0x3dd9a452	0.10627045
144	0xbd58c9fd	-0.052927006
145	0xbd80f76b	-0.06297191
146	0x3d0131df	0.0315417
147	0x38eb1978	0.00011210417
148	0xbd24f61d	-0.040273774
149	0xbd235f9e	-0.03988611
150	0xbd03108c	-0.031998202
151	0x3b30f81d	0.0027003356
152	0xbe14818f	-0.14502548
153	0x3cf421bc	0.029801242
154	0xbd39d0ce	-0.045365147
155	0x3dcbbd5a	0.09948225
156	0xbdc826bd	-0.09773014
157	0x3d48f594	0.049062327
158	0xbdb8eb7d	-0.09029291
159	0x3dc6b5cf	0.09702646
160	0xbd0e30c0	-0.03471446
161	0x3ca642b7	0.020295484
162	0xbcafe713	-0.02147249
163	0xbd8d9cd5	-0.06914679
164	0xbd28ef96	-0.041244112
165	0x3d9f6d78	0.077845514
166	0xbd542d6c	-0.05180113
167	0xbd94be6e	-0.07262884
168	0xbda185e4	-0.07886866
169	0xbdba33c1	-0.090919025
170	0xbda06882	-0.07832433
171	0xbdc746ce	-0.09730302
172	0xbc85e6d8	-0.016345426
173	0x3d1bca40	0.038034678
174	0xbd03ce6d	-0.032179285
175	0x3c118ace	0.008883191
176	0x3da34540	0.07972193
177	0xbdb6f669	-0.08933718
178	0x3d6fc1e7	0.05853453
179	0x3d2b7d57	0.04186758
180	0x3d433352	0.047656365
181	0x3dabb8a8	0.0838483
182	0xbdb9f7a6	-0.09080438
183	0x3dee27a9	0.11628658
184	0x3b15fa89	0.0022884926
185	0x3e06b2c8	0.13154137
186	0x3dcd0225	0.10010175
187	0x3ca47b49	0.020078318
188	0xbdb4d322	-0.08829333
189	0xbd1d5fdb	-0.038421493
190	0xbd8aa0a1	-0.06768919
191	0xbcc0f9cb	-0.02355661
192	0xbd9b677b	-0.07588097
193	0x3dd0491f	0.10170197
194	0x3c9d778d	0.019222045
195	0x3d49b112	0.049241133
196	0xbbf14e14	-0.007364044
197	0x3b825304	0.0039771814
198	0xbe001ac8	-0.12510216
199	0x3d1dab21	0.03849328
200	0x3d9d7255	0.07687823
201	0xbd6ec985	-0.058297653
202	0x3d13f152	0.036118813
203	0x3dd44957	0.10365551
204	0x3dc68248	0.09692818
205	0x3d50a75a	0.05094085
206	0xbd9ed2ad	-0.07755027
207	0xbdeb3134	-0.11483994
208	0x3ca15999	0.019696044
209	0x3ddfe894	0.10933033
210	0x3d0b4f20	0.034011006
211	0xbe076c23	-0.13224845
212	0xbd798b44	-0.06092383
213	0x3d2f4f5e	0.0428003
214	0x3dd2a2f0	0.10284984
215	0xbcc2ccd3	-0.023779308
216	0x3d7c3d7f	0.061582085
217	0xbdbdc342	-0.09265758
218	0xbc9b94f3	-0.018991923
219	0x3daa223c	0.08307311
220	0x3c5d5486	0.0135089215
221	0xbdab9a30	-0.08379018
222	0xbdd5bcf8	-0.104364336
223	0x3ca88553	0.020571386
224	0xbd9869e5	-0.07442073
225	0x3d3d85f0	0.04627031
226	0x3d9e7107	0.07736402
227	0xbcf29767	-0.02961321
228	0x3cff880d	0.031192804
229	0xbd80e309	-0.062933035
230	0xbdb2b3b9	-0.087256856
231	0xbd481d87	-0.048856284
232	0xbcedf351	-0.029046686
233	0x3bdbe7bc	0.0067109745
234	0x3e15202c	0.14563054
235	0x3c04f542	0.008115115
236	0xbddf8c93	-0.10915484
237	0x3d8354c5	0.06412653
238	0xbc81d689	-0.015849369
239	0x3d401be0	0.046901584
240	0x3dee79ac	0.11644301
241	0x3e07ba88	0.1325475
242	0x3d972266	0.07379608
243	0xbca6e25b	-0.020371607
244	0xbded73f3	-0.11594381
245	0xbcf9ef01	-0.030509474
246	0xbd8d53bc	-0.06900737
247	0xbce0c7a1	-0.02743894
248	0xb9dd1d90	-0.0004217443
249	0x3c8efca6	0.017454457
250	0xbdab67f1	-0.083694346
251	0xbd9aaf00	-0.0755291
252	0x3d09c298	0.033632845
253	0x3db13ea7	0.08654528
254	0xbdf6bfdf	-0.12048315
255	0xbd099a90	-0.033594668

lstm.bias_ih_l0 f4 [256]
0	0x3d1fb05d	0.038986553
1	0xbdc1f144	-0.09469846
2	0xbe033832	-0.12814406
3	0xbe046232	-0.12928084
4	0xbdc22fed	-0.09481797
5	0xbdb64fd9	-0.089019485
6	0xbdc244b0	-0.09485757
7	0x3ca4fd39	0.020140277
8	0xbe1c8e8d	-0.15288754
9	0x3d7a861a	0.061163045
10	0x3d9295c4	0.07157472
11	0x3e121036	0.14263996
12	0xbcaf5233	-0.0214015
13	0xbe3ca1ed	-0.18421145
14	0xbc20482a	-0.00978283
15	0x3ce3eb6c	0.027822219
16	0xbdc2d9f1	-0.09514225
17	0xbd758823	-0.059944283
18	0x3dcb0866	0.09913711
19	0xbd802d23	-0.06258609
20	0xbce26d64	-0.027640052
21	0x3da32bf3	0.07967367
22	0xbd21b895	-0.03948267
23	0x3dc45c7e	0.09587954
24	0xbd228b51	-0.039683644
25	0x3daf8ef2	0.085721865
26	0xbd279a5d	-0.040918697
27	0x3c95c777	0.018283589
28	0x3d342606	0.043981574
29	0x3da96366	0.08270912
30	0xbe208fcd	-0.15679856
31	0x3d12fea0	0.03588736
32	0x3d7a8bd1	0.061168496
33	0xbe1caf87	-0.15301333
34	0xbca7ef6e	-0.020499911
35	0xbc1fa07d	-0.009742853
36	0xbdc651ad	-0.09683547
37	0xbdb05330	-0.08609617
38	0xbd987353	-0.07443871
39	0xbd804ec6	-0.06265025
40	0xbdba86eb	-0.09107765
41	0xbdb6b5b5	-0.089213766
42	0x3d6faa9f	0.058512326
43	0xbdbfedc7	-0.09371524
44	0xbd9d6f8c	-0.076872915
45	0xbd0c0e67	-0.034193423
46	0x3d8a95e2	0.06766869
47	0xbc80e093	-0.015732085
48	0x3d9155cd	0.07096443
49	0x3e05284e	0.13003656
50	0x3de2698d	0.110552885
51	0x3daedd19	0.08538265
52	0xbc58027d	-0.013184187
53	0xbc45342d	-0.012036365
54	0xbd954d8e	-0.07290183
55	0xbdad372a	-0.08457787
56	0x3d91c6a1	0.071179636
57	0xbcdfc3ab	-0.027314981
58	0xbe005f09	-0.12536253
59	0x3dc3b0b4	0.09555188
60	0xbdf5c508	-0.12000471
61	0xbcb5dbd9	-0.022199558
62	0xbde12f17	-0.1099531
63	0xbda56947	-0.08076721
64	0x3c023f03	0.0079495935
65	0xbcc113a5	-0.023568938
66	0x3d9a2e0f	0.07528316
67	0xbd84f930	-0.06492841
68	0x3cefc95d	0.029270822
69	0xbc1a3ad9	-0.009413444
70	0x3da65ab2	0.081227675
71	0xbdcbcd15	-0.09951226
72	0x3a1501a4	0.00056841434
73	0x3d99aead	0.0750402
74	0x3dc3d99b	0.09562989
75	0xbe234e78	-0.15947902
76	0x3dd8b831	0.10582007
77	0x3cd4fa46	0.025998246
78	0xbc84f991	-0.016232284
79	0x3d21d393	0.039508414
80	0x3c6bba3c	0.014387663
81	0xbda1a17e	-0.0789213
82	0xbcb4db68	-0.022077277
83	0x3c6cc3f2	0.014451014
84	0x3d561ca0	0.052273393
85	0x3dc6e273	0.097111605
86	0xbdc58d4d	-0.096460916
87	0xbd4ee132	-0.05050773
88	0x3d2c1600	0.04201317
89	0xbbcec7fc	-0.006310461
90	0x3c9903c2	0.01867855
91	0xbd0af20a	-0.033922233
92	0x3d5fe93b	0.054665785
93	0x3cc4d514	0.024027385
94	0xbe138d56	-0.14409384
95	0x3dd9c058	0.1063239
96	0xbdb7c0d5	-0.08972327
97	0x3dad9b8b	0.08476933
98	0x3e0258e0	0.12729216
99	0xbdd29c4c	-0.102837175
100	0xbe17f536	-0.14839634
101	0x3d292a24	0.041299954
102	0xbdb68f09	-0.089140005
103	0x3b8bed42	0.0042702267
104	0xbd4365e0	-0.047704577
105	0x3cf76aff	0.030202387
106	0x3d0bc860	0.03412664
107	0x3c1ac961	0.009447427
108	0xbd870ea1	-0.06594587
109	0xbcbaf665	-0.022822568
110	0x3a18d856	0.00058305764
111	0xbd27faa8	-0.04101053
112	0xbd7b2f16	-0.0613242
113	0xbdc9b7aa	-0.09849484
114	0xbd2055dd	-0.039144386
115	0x3de37d35	0.11107866
116	0x3df386f9	0.11890978
117	0xbdc1ca3e	-0.09462403
118	0x3e098b27	0.13431989
119	0x3d60e9b8	0.05491039
120	0xbda02bcd	-0.07820854
121	0x3c93558f	0.017985133
122	0x3d069604	0.03285791
123	0x3da8287c	0.08210847
124	0xbb318fc8	-0.0027093757
125	0xbdae7191	-0.08517755
126	0xbdf1bfad	-0.118041374
127	0xbe2320f7	-0.15930544
128	0x3d6110b3	0.054947566
129	0x3d08a305	0.033358593
130	0xbda3a7c3	-0.079909824
131	0xbdaf40fc	-0.08557317
132	0x3dc9edaa	0.09859784
133	0x3d9950d8	0.07486123
134	0xbc949675	-0.01813815
135	0x3e03ae5e	0.12859485
136	0x3dd2436a	0.102667645
137	0xbde8a411	-0.11359418
138	0x3d80f3d5	0.06296507
139	0xbd5f8e3f	-0.054579016
140	0xbca145cb	-0.0196866
141	0x3dae11ab	0.08499464
142	0x3df7f7c0	0.121078014
143	0xbda3604c	-0.079773515
144	0xbc602fce	-0.0136832725
145	0x3d8f3ff3	0.06994619
146	0x3dd8fae9	0.10594732
147	0xbdaf26c0	-0.08552313
148	0xbcee03ec	-0.029054604
149	0x3d624000	0.055236816
150	0xbcfdfe02	-0.03100491
151	0x3ae52905	0.0017483538
152	0x3c4c3b89	0.012465366
153	0x3d2e0463	0.042484652
154	0x3c3e38dd	0.011610237
155	0xbb5beb3e	-0.0033556963
156	0x3d80e981	0.06294537
157	0xbc2d0a25	-0.010561501
158	0xbb92ed32	-0.0044838423
159	0x3d28686d	0.041115213
160	0xbcc59c7c	-0.02412247
161	0x3d6cb975	0.057794053
162	0xbd6490e3	-0.055802237
163	0x3cdcc66c	0.026950084
164	0xbbef2991	-0.0072986563
165	0xbd021b85	-0.031764526
166	0x3c98e9b9	0.018666135
167	0xbd885457	-0.066567115
168	0xbd899af7	-0.0671901
169	0x3dbfd4a1	0.093667276
170	0x3da93849	0.08262689
171	0x3d8e4a71	0.06947792
172	0x3d88d1fb	0.066806756
173	0xbd534d70	-0.051587522
174	0x3d873f8d	0.06603918
175	0x3d86c623	0.0658076
176	0xbd8caa46	-0.068684146
177	0xbd603940	-0.054742098
178	0xbd3db72b	-0.04631726
179	0xbdf1bcdc	-0.118036
180	0x3d1b30dc	0.037888393
181	0x3c8c0643	0.01709283
182	0x3da564c4	0.0807586
183	0xbcba529a	-0.022744466
184	0x3e024bcd	0.12724228
185	0xbd9dfb93	-0.077139996
186	0x3dc0cfd6	0.094146416
187	0xbe148045	-0.14502056
188	0x3d0b5119	0.034012888
189	0xbd9f83b4	-0.07788792
190	0xbd97366f	-0.07383429
191	0x3cd3e8e3	0.025867885
192	0x3d28d06f	0.041214403
193	0xbe101d17	-0.14073597
194	0xbe0ca487	-0.13734637
195	0x3c960822	0.018314425
196	0x3df3c927	0.11903601
197	0x3d77ba04	0.060480133
198	0x3dd7b2d3	0.10532155
199	0xbd844197	-0.06457823
200	0xbb7d0aeb	-0.0038611244
201	0xbd62139d	-0.055194486
202	0xbd623eac	-0.05523555
203	0x3d310605	0.04321863
204	0x3de87418	0.11350268
205	0xbe1ef585	-0.15523346
206	0x3aece970	0.0018074941
207	0x3db800d3	0.08984532
208	0xbc2447d5	-0.010026892
209	0xbcabfb51	-0.02099386
210	0xbd219568	-0.039449126
211	0xbdc14bce	-0.09438287
212	0x3db15ea4	0.086606294
213	0x3dd9f4a1	0.106423624
214	0xbd399fa0	-0.045318246
215	0xbda1ed9c	-0.079066485
216	0xbe043ffe	-0.12915036
217	0x3c97937b	0.018502941
218	0x3d44833e	0.047976725
219	0xbca195d5	-0.019724766
220	0xbd4a0a08	-0.049325973
221	0xbdf1e687	-0.11811548
222	0xbc04d3dd	-0.008107153
223	0xbd68b2d6	-0.056811176
224	0xbd794b6a	-0.060862936
225	0x3dd72a5c	0.10506126
226	0x3da76a86	0.081746146
227	0x3dd68a5d	0.104756095
228	0x3d49080c	0.04907994
229	0xbbcb51a3	-0.0062048
230	0x3d83b0bb	0.06430193
231	0x3dfedf7a	0.124449685
232	0xbd076cd4	-0.03306277
233	0x3c9aea16	0.018910449
234	0xbceca8ca	-0.028889079
235	0xbdbedd66	-0.09319572
236	0x3b769764	0.0037626857
237	0xbd40263e	-0.04691147
238	0xb9706ec0	-0.00022929441
239	0x3d5f9d52	0.05459339
240	0xbd4bfb91	-0.04980046
241	0x3c7c27da	0.015390361
242	0xbe035169	-0.12824024
243	0xbc86add3	-0.016440308
244	0xbd7a207c	-0.061066136
245	0xbdb548da	-0.08851786
246	0xbd1816ab	-0.037130993
247	0xbd1e26df	-0.03861129
248	0x3d5bc612	0.05365569
249	0x3d36c2b4	0.044619277
250	0x3c89a2fa	0.016801346
251	0x3e20df0a	0.15710083
252	0x3db5a31e	0.08869003
253	0xbd839924	-0.06425694
254	0xbd7d25b7	-0.061803546
255	0x3da9fa68	0.08299714

lstm.bias_hh_l0 f4 [256]
0	0x3c688b6a	0.014193395
1	0xbc60270f	-0.013681187
2	0xbd19ac7a	-0.037518002
3	0xbd5e0ae7	-0.054209616
4	0x3d284750	0.041083634
5	0x3ab98f40	0.0014157072
6	0xbd854c60	-0.06508708
7	0x3dd4ff9a	0.10400315
8	0x3dc14439	0.094368406
9	0x3d25554c	0.04036455
10	0x3ddf3085	0.10897926
11	0x3ba75225	0.005106228
12	0x3c1b2c1a	0.009470964
13	0xbd8f6594	-0.07001796
14	0xbd54c8bf	-0.05194926
15	0xbd044410	-0.032291472
16	0xbd94ee2d	-0.07271991
17	0xbde7caf4	-0.11318007
18	0xbdac79c8	-0.084216654
19	0xbd15cbb9	-0.03657124
20	0x3dc26cac	0.09493384
21	0x3d646977	0.05576464
22	0x3c949261	0.018136205
23	0xbd1d2c2f	-0.038372215
24	0xbe1d6030	-0.15368724
25	0xbdd5f4d0	-0.10447085
26	0x3da52768	0.08064157
27	0x3b72312a	0.0036955574
28	0xbd0ba872	-0.03409619
29	0xbdf91aae	-0.12163292
30	0xbda830f8	-0.08212465
31	0xbd0ea3ee	-0.034824304
32	0x3d43894e	0.047738366
33	0x3c782e0a	0.015147695
34	0xbd91a413	-0.07111373
35	0xbd485bb0	-0.048915565
36	0x3bc02406	0.0058636693
37	0xbe0958a0	-0.13412714
38	0x3d839f4c	0.06426868
39	0xbd64d7bb	-0.0558698
40	0x3cb52ee3	0.022117084
41	0xbd6a6bc4	-0.05723168
42	0x3d523ba8	0.051326424
43	0xbd4978d9	-0.049187515
44	0x3d6280cc	0.05529861
45	0xbd70847b	-0.058720093
46	0xbd6ce085	-0.057831306
47	0xbd523b75	-0.051326234
48	0x3cd928a0	0.02650863
49	0xbdae943d	-0.08524368
50	0x3d8669be	0.065631375
51	0x3dd2da2c	0.10295519
52	0x3d47371d	0.048636544
53	0xbe1ed9ea	-0.15512815
54	0xbd692310	-0.056918204
55	0xbbbce199	-0.005764198
56	0x3d60e6ae	0.054907493
57	0x3db1ce3b	0.086819135
58	0xbb962d5b	-0.0045830435
59	0x3e0a4177	0.13501535
60	0xbda4e2dc	-0.080510825
61	0xbd8ce497	-0.068795376
62	0xbdf589c4	-0.11989167
63	0x3db8352c	0.08994517
64	0xbd98c0c9	-0.07458646
65	0xbc2c15d2	-0.010503249
66	0xbda4b9af	-0.08043229
67	0x3c1e084a	0.009645531
68	0xbc638a54	-0.01388796
69	0xbe59042d	-0.21192999
70	0xbdc332c5	-0.09531168
71	0x3c4f37db	0.012647594
72	0xbe017be4	-0.12644917
73	0xbdc5c499	-0.09656639
74	0x3d997be8	0.07494336
75	0xbdcbd59c	-0.09952852
76	0x3dacc641	0.084362514
77	0x3b8cc1aa	0.0042955475
78	0xbd0e9ef7	-0.03481957
79	0xbb509d80	-0.0031832159
80	0xbcb057a9	-0.021526175
81	0xbdc09860	-0.09404063
82	0x3d851834	0.06498757
83	0xbe25b29f	-0.1618142
84	0xbd343692	-0.043997355
85	0xbdd487d7	-0.10377472
86	0xbe088323	-0.13331275
87	0x3dacf826	0.08445768
88	0xbe2687a5	-0.16262682
89	0xbd7dfd49	-0.06200913
90	0xbe140360	-0.14454412
91	0xbd327aa8	-0.043574005
92	0xbe1908e6	-0.149448
93	0x3db10b74	0.08644763
94	0xbe37a1f1	-0.1793287
95	0x3d02a2e9	0.031893644
96	0xbdba5214	-0.090976864
97	0x3dbd840b	0.09253701
98	0xbd6a2144	-0.05716063
99	0xbdc10ef9	-0.09426684
100	0xbdb11bb7	-0.08647864
101	0xbcf89bc5	-0.030347714
102	0x3d66ab5b	0.05631576
103	0x3af35b4c	0.0018566637
104	0x3d285b0a	0.041102447
105	0x3d1ef79e	0.038810365
106	0x3d5c3088	0.05375722
107	0x3c963587	0.01833607
108	0xbd5b3be0	-0.053523898
109	0xbdb8cc73	-0.090233706
110	0xbce4a245	-0.027909407
111	0xbce1ed4b	-0.02757897
112	0xbe0d5f0f	-0.13805793
113	0x3dafe894	0.08589283
114	0xbd34e656	-0.044164978
115	0x3c2f1f70	0.010688648
116	0x3e02c1b7	0.12769209
117	0xbd4269cd	-0.04746418
118	0x3beb2ea6	0.007177192
119	0x3d687c15	0.05675896
120	0xbd573fd6	-0.052551113
121	0xbe1e3ba0	-0.15452433
122	0xbd3fa3a9	-0.046786938
123	0xbd2db57a	-0.042409398
124	0x3dd7167a	0.10502334
125	0xbd83bb11	-0.064321645
126	0xbdba65e3	-0.091014646
127	0xbe0980fe	-0.13428113
128	0x3cb4a6d6	0.02205221
129	0xbd121078	-0.035660237
130	0x3dceaf6d	0.100920536
131	0xbcf21811	-0.029552491
132	0x3daf32f3	0.0855464
133	0xbd56d523	-0.052449357
134	0x3d80b79a	0.06285019
135	0xbdab4de8	-0.08364469
136	0xbdb48025	-0.08813504
137	0x3d183efe	0.03716945
138	0x3ddef607	0.1088677
139	0x3e047365	0.12934645
140	0xbab28cf2	-0.0013622327
141	0x3d441ecf	0.047880944
142	0xbc8cd801	-0.017192842
143	0xb8a8ae3a	-8.0433165e-05
144	0xbc8cbcc2	-0.01717985
145	0xbd6dcb56	-0.058055244
146	0xbc2b22dd	-0.010445324
147	0x3d0e64d6	0.034764133
148	0x3d4e7ed4	0.05041392
149	0x3dd7b2af	0.10532128
150	0xbd82262a	-0.063549355
151	0xbdcf94e1	-0.10135818
152	0x3de94a6d	0.11391149
153	0xbde5eb31	-0.112265
154	0xbdc2417f	-0.09485149
155	0xbdd07406	-0.1017838
156	0x3ba48b65	0.0050215
157	0x3d732e14	0.059370115
158	0x3c5d9d2d	0.013526243
159	0xbd03ad3d	-0.032147635
160	0xbd7f6540	-0.06235242
161	0xbd225df9	-0.0396404
162	0x3cf9abc5	0.030477414
163	0xbe0c043e	-0.13673493
164	0xbd21b859	-0.03948245
165	0xbbc2a84f	-0.005940474
166	0x3d77ce19	0.060499284
167	0x3dd3d885	0.10344032
168	0xbcbd3c08	-0.023099914
169	0x3c4d7efc	0.012542482
170	0x3dcd216d	0.10016141
171	0x3d64dddd	0.055875648
172	0xbd7b8cee	-0.061413698
173	0x3dc49582	0.09598829
174	0x3db894a8	0.09012729
175	0xbd8c2ace	-0.06844102
176	0x3da7a4c2	0.08185722
177	0xbc854d0f	-0.016272096
178	0x3d271439	0.04079077
179	0x3dec3501	0.11533547
180	0xbda73f88	-0.081664145
181	0x3d4f6139	0.050629828
182	0xbd445278	-0.04793021
183	0xbd573dc0	-0.052549124
184	0x3d28fd28	0.041257054
185	0xbc8d001d	-0.017211968
186	0xbdb05fba	-0.086120084
187	0x3d7b71ab	0.0613877
188	0x3cbd5566	0.02311201
189	0x3d45a61c	0.048254117
190	0xbd1ca08d	-0.03823905
191	0xbdd78c8e	-0.105248556
192	0xbcd5cde1	-0.026099147
193	0xbb1966ee	-0.0023407298
194	0xbe19763b	-0.14986508
195	0xbd9e9da7	-0.077449135
196	0x3d50323e	0.050829165
197	0xbd3fc866	-0.046821974
198	0x3dffedc2	0.124965206
199	0x3cca32fd	0.024682516
200	0xbd9e33b9	-0.07724709
201	0xbca47595	-0.020075599
202	0x3d6e180e	0.05812841
203	0x3e28c075	0.16479667
204	0xbd818ea3	-0.06326034
205	0xbe2df8fb	-0.1698951
206	0xbe1a4834	-0.15066606
207	0xbd95897c	-0.07301614
208	0x3c20be62	0.009811016
209	0xbde113b1	-0.10990084
210	0xbbbaf7c5	-0.005705806
211	0xbb8ca74e	-0.004292405
212	0x3ca4c1d7	0.020111961
213	0xbde21f36	-0.11041109
214	0x3d851d1e	0.06499694
215	0x3e0c0478	0.1367358
216	0x385040f0	4.9651542e-05
217	0x3c8e66ca	0.017382998
218	0xbd5e8dbc	-0.054334387
219	0x3deabfaf	0.11462342
220	0xbd23c5bf	-0.039983507
221	0x3dafe920	0.08589387
222	0xbe1f0b5e	-0.1553168
223	0xbdcab35d	-0.09897492
224	0x3c671b7e	0.014105676
225	0xbc4f6581	-0.012658478
226	0x3d474648	0.04865101
227	0x3de366ea	0.11103614
228	0x3c70d4c3	0.014699164
229	0x3dc9fc82	0.09862615
230	0x3d9ff82f	0.07811009
231	0xbdc14d2c	-0.094385475
232	0xbd4eb1d1	-0.050462548
233	0xbd4a88c7	-0.049446847
234	0xbe237821	-0.15963794
235	0xbc81b943	-0.01583541
236	0x3d853f8f	0.065062635
237	0xbc90bad4	-0.017667212
238	0x3db4edff	0.08834457
239	0x3d0a9d4c	0.033841416
240	0xbdd43611	-0.10361875
241	0xbd6f4396	-0.058414064
242	0x3d05e236	0.032686435
243	0x3d9811fd	0.07425306
244	0x3d5985ba	0.053106047
245	0xbd6d5fae	-0.057952575
246	0xbde5e3fb	-0.112251244
247	0x3dff0426	0.12451963
248	0x3db81537	0.089884214
249	0x3d0e6792	0.03476674
250	0x3dbd3951	0.09239448
251	0x3b8d6d1a	0.0043159844
252	0xbdba0139	-0.090822645
253	0x3cdc7aa7	0.026913954
254	0xbd84e19b	-0.06488343
255	0xbcfc38eb	-0.03078886

lstm.weight_ih_l1 f4 [256, 64]
0	0x3d3061cd	0.04306202
1	0x3d300059	0.04296908
2	0x3d5a195c	0.05324684
3	0xbc2bd75a	-0.0104883555
4	0xbda1b1da	-0.078952506
5	0xbd68be3c	-0.056822047
6	0x3cc3e1bb	0.023911348
7	0x3e2106c9	0.15725245
8	0xbd7271c4	-0.059190527
9	0x3ce0a83b	0.027423969
10	0xbd58158d	-0.052754927
11	0x3d489994	0.04897459
12	0xbd645fda	-0.055755474
13	0xbd9df0b0	-0.07711923
14	0xbda1e480	-0.07904911
15	0x3d55280a	0.052040137
16	0x3db419cd	0.087939836
17	0xbd5a4dfa	-0.05329702
18	0x3d06764c	0.03282766
19	0x3d408efc	0.04701136
20	0xbd874e79	-0.06606764
21	0xbd89c6f4	-0.067274004
22	0x3d1557c3	0.03646065
23	0x3d0bab41	0.034098867
24	0xbd609594	-0.05483015
25	0xbbcd041b	-0.006256593
26	0x3d7e5172	0.06208939
27	0x3d499a6f	0.049219545
28	0x3e10503d	0.14093108
29	0xbd29a2b2	-0.041414924
30	0xbaa71204	-0.0012746458
31	0x3cbc7b18	0.023007914
32	0xbd9c72d4	-0.07639089
33	0xbc3f536f	-0.011677607
34	0xbdb4ba6c	-0.0882462
35	0xbe0f6bf2	-0.14006022
36	0xbe156a28	-0.14591277
37	0xbde7a2e7	-0.11310368
38	0x3cf9c753	0.030490553
39	0x3d025567	0.031819727
40	0xbd3ec16a	-0.046571173
41	0xbc42cccb	-0.011889647
42	0xbce029a5	-0.027363608
43	0xbdc8f932	-0.09813155
44	0xbe342946	-0.1759387
45	0x3b3da31a	0.0028936327
46	0x3dadd861	0.084885366
47	0x3bd679b7	0.0065452713
48	0xbdbb3953	-0.09141793
49	0xbd4fb44b	-0.05070905
50	0x3c6f8ed7	0.014621458
51	0xbd8a9866	-0.06767349
52	0xbdfdc5aa	-0.12391217
53	0x3e2e361e	0.17012832
54	0x3d8ffa3d	0.07030151
55	0xbe144bff	-0.14482115
56	0x3e007f76	0.12548622
57	0xbdffa981	-0.12483502
58	0x3d8d496a	0.06898768
59	0xbd84585f	-0.06462168
60	0x3e230364	0.15919262
61	0xbcac5768	-0.021037772
62	0xbd85e280	-0.06537342
63	0xbd8779e7	-0.06615048
64	0xbd474ddc	-0.048658237
65	0xbe229199	-0.15875854
66	0xbd91b238	-0.07114071
67	0x3d471270	0.048601568
68	0xbcd1e1be	-0.025620338
69	0xbdcf98de	-0.10136579
70	0xbc4c8e46	-0.0124850925
71	0xbd98f943	-0.07469418
72	0xbd92d722	-0.071699396
73	0xbe00ef7c	-0.12591356
74	0x3de3287d	0.11091707
75	0x3bc9f287	0.0061629447
76	0x3d7ddcb9	0.061978076
77	0xbd7a7a77	-0.061151948
78	0xbe00dc13	-0.12583952
79	0x3dbeaff5	0.09310905
80	0x3e338cbc	0.17534155
81	0x3d94ae7c	0.07259843
82	0x3d2c2f2e	0.04203718
83	0x3cbb8a77	0.022893174
84	0x3dc8c136	0.09802477
85	0x3d493d08	0.04913047
86	0xbe14f189	-0.14545263
87	0xbd8e9c3a	-0.069633916
88	0xbe10a76c	-0.14126366
89	0x3d30ac81	0.043133263
90	0xbd0f3a56	-0.034967743
91	0xbce4608c	-0.027878068
92	0xbd85cb62	-0.06532933
93	0x3d69a767	0.057044413
94	0xbcfce2cd	-0.030869866
95	0x3d2d13fa	0.04225538
96	0x3d255fe6	0.04037466
97	0x3de9dc3c	0.114189595
98	0x3b8732f1	0.0041259457
99	0xbdeac4cc	-0.11463317
100	0x3dc0da5b	0.09416648
101	0xbe13d1ab	-0.1443545
102	0x3c4ea986	0.01261366
103	0x3b82d686	0.0039928583
104	0x3dc0b035	0.09408609
105	0x3d11c1e1	0.035585288
106	0xbdb60a10	-0.08888638
107	0xbdff3562	-0.12461354
108	0x3c9de246	0.019272935
109	0xbd2699d0	-0.04067403
110	0xbd95aebf	-0.07308721
111	0x3d9ec3b5	0.07752172
112	0xbd761e24	-0.060087338
113	0xbd16407d	-0.036682595
114	0x3d4382bd	0.047732104
115	0xbd3c6032	-0.045990176
116	0x3dc826aa	0.097729996
117	0x3dc4d4c1	0.09610892
118	0xbce3787d	-0.027767414
119	0xbd2fd9a7	-0.04293218
120	0xbd657f13	-0.05602939
121	0x3d9c2910	0.076250196
122	0xbcd16821	-0.025562348
123	0x3d058199	0.032594297
124	0x3e3884e8	0.1801945
125	0x3d1ac087	0.037781265
126	0xbc688b1a	-0.014193321
127	0xbc894d5e	-0.016760524
128	0xbc5db762	-0.013532491
129	0xbdd6fd92	-0.104975834
130	0x3dec1707	0.115278296
131	0x3e0c176a	0.13680807
132	0x3b1b8741	0.002373174
133	0x3d21401b	0.039367776
134	0xbe1c3451	-0.15254332
135	0x3dea525d	0.11441491
136	0x3d0dd9fe	0.03463172
137	0xbd76e9dc	-0.06028162
138	0xbdbb9419	-0.09159107
139	0x3e0f7a71	0.14011551
140	0xba702681	-0.0009161011
141	0x3d3c37fb	0.045951825
142	0xbc678c07	-0.014132506
143	0xbde3ea90	-0.111287236
144	0x3d73a4ce	0.059483342
145	0x3e17befa	0.14818946
146	0x3d354462	0.044254668
147	0xbe35aeff	-0.17742537
148	0xbe0d03bc	-0.13770956
149	0xbd9174e2	-0.07102372
150	0x3cfcddf8	0.030867562
151	0xbe02b10f	-0.12762855
152	0xbdae390b	-0.08506974
153	0x3dc09ce9	0.09404928
154	0x3da55ad5	0.080739655
155	0x3d910eab	0.07082876
156	0x3d8c7c3e	0.06859635
157	0xbd56e986	-0.0524688
158	0xbe0a4f27	-0.13506757
159	0x3c20ec4a	0.009821961
160	0x3d9c96c3	0.07645943
161	0x3dc1215c	0.09430191
162	0xbe1fd021	-0.15606739
163	0xbd8559e6	-0.065112874
164	0x3c1a8937	0.009432129
165	0xbe1442f2	-0.14478663
166	0x3deaed2f	0.114710204
167	0x3cdddf8e	0.027084138
168	0xbde08fed	-0.10964952
169	0xbd0fd562	-0.035115607
170	0x3ceb5688	0.028727785
171	0x3c695acd	0.01424284
172	0xbddac367	-0.10681801
173	0x3d728200	0.05920601
174	0xbd567d8e	-0.052365832
175	0xbda00e16	-0.07815187
176	0xbdb12cbf	-0.08651113
177	0xbc5a3114	-0.013317365
178	0xbd763dfd	-0.06011771
179	0x3da9c47b	0.08289429
180	0xbdf2af9c	-0.11849901
181	0x3e1fc97b	0.15604202
182	0x3e2d3e74	0.16918355
183	0xbcb173ee	-0.021661725
184	0xbd86f6c3	-0.06590035
185	0x3d2009a9	0.039071713
186	0xbd58c166	-0.052918814
187	0x3dcb49b8	0.0992617
188	0x3db4cfbe	0.08828686
189	0xbdcaa095	-0.0989391
190	0xbd1cb2c2	-0.038256414
191	0x3dac761f	0.08420967
192	0xbd5a921c	-0.053361997
193	0xba72139a	-0.0009234488
194	0x3c847789	0.01617028
195	0x3e2b5a6e	0.16733715
196	0x3d30b8e6	0.043145083
197	0x3d57e4c2	0.052708395
198	0x3d790b31	0.06080169
199	0x3e0de4de	0.13856837
200	0xbce5cedf	-0.028052745
201	0x3ceb100c	0.028694175
202	0x3df2d95a	0.11857863
203	0xbcfa62ac	-0.030564629
204	0xbd701b56	-0.05861982
205	0xbd209e54	-0.039213493
206	0x3d65fc2a	0.056148686
207	0x3da1a38b	0.078925215
208	0xbd88d24f	-0.06680738
209	0xbd983ed8	-0.074338615
210	0xbcc2bb71	-0.02377102
211	0x3d808438	0.06275219
212	0x3c2e8a5c	0.010653105
213	0x3cc33073	0.023826813
214	0xbe099e97	-0.13439403
215	0xbd800063	-0.06250074
216	0xbdaf005e	-0.08544992
217	0x3b04feb6	0.002029342
218	0xbdbb1b88	-0.091361105
219	0xbdf09540	-0.11747217
220	0x3ddd1ea9	0.107968636
221	0xbe22f884	-0.15915114
222	0xbdbfae48	-0.093594134
223	0x3e0ba2b7	0.1363629
224	0x3d894e22	0.06704356
225	0x3bcc895d	0.006241961
226	0x3d19c7c8	0.037544042
227	0x3dc62cde	0.096765265
228	0x3d54b5de	0.051931255
229	0xbd3d4ddf	-0.04621684
230	0xbdb66b9b	-0.08907243
231	0xbdf4f3a7	-0.119605355
232	0x3d92a742	0.07160808
233	0xbd72b8b8	-0.059258193
234	0xbce196a1	-0.027537646
235	0x3dee311b	0.1163046
236	0xbdc49083	-0.09597876
237	0x3dc9e67b	0.09858414
238	0xbd047ab1	-0.03234357
239	0xbe076d13	-0.13225202
240	0x3d26a2d6	0.040682636
241	0x3c6e3d46	0.014540976
242	0xbd5428c4	-0.05179669
243	0x3bebfb4d	0.0072015882
244	0xbe1de8ba	-0.1542081
245	0x3dcf2aef	0.10115611
246	0x3df6606d	0.120301105
247	0xbcc433a5	-0.023950407
248	0x3ce179f1	0.027523967
249	0xbd08aefc	-0.033370003
250	0x3d43ccf5	0.047802884
251	0x3db87383	0.09006407
252	0x3e21d6e6	0.15804633
253	0xbdb02aa3	-0.08601882
254	0xbdda39dd	-0.10655568
255	0x3b6c11be	0.0036021317

lstm.weight_hh_l1 f4 [256, 64]
0	0x3d0c38af	0.034233745
1	0x3e1516e3	0.14559512
2	0xbddfdcea	-0.10930808
3	0xbd1c5614	-0.038168028
4	0x3dcd9700	0.100385666
5	0x3df59878	0.11991972
6	0xbdadfb4d	-0.084951974
7	0x3df2ae92	0.11849703
8	0x3de3424a	0.11096628
9	0xbc3d25bc	-0.011544641
10	0x3c96e184	0.018418081
11	0x3db4432c	0.088018745
12	0x3d8a7ded	0.067623
13	0x3b139230	0.0022517554
14	0x3d592baa	0.053020157
15	0xbd797f4a	-0.060912408
16	0xbe03b828	-0.12863219
17	0x3db5c795	0.08875958
18	0x3dfb63be	0.12274884
19	0xbde0d6a0	-0.109784365
20	0x3defa54b	0.11701449
21	0xbcb5d483	-0.02219606
22	0x3d81e60c	0.06342706
23	0xbb799d76	-0.0038088239
24	0x3c08492d	0.008318228
25	0xbda29278	-0.07938093
26	0xbe0c5378	-0.13703716
27	0xbddac6b1	-0.10682429
28	0x3cf6ae7d	0.0301125
29	0xbd800d2d	-0.06252513
30	0xbc249f3c	-0.01004773
31	0xbdd0d3f1	-0.101966746
32	0xbd8e2519	-0.069406696
33	0x3d8b1000	0.06790161
34	0xbe05da86	-0.13071641
35	0x3dcdd63d	0.10050628
36	0x3dd1a3de	0.10236333
37	0x3d2a3600	0.041555405
38	0x3d0472d6	0.03233608
39	0xbc2c72ac	-0.010525387
40	0xbd85b13c	-0.065279454
41	0x3de473d3	0.11154904
42	0x3d519f94	0.051177576
43	0x3d95fc79	0.07323546
44	0x3cbef17e	0.023308512
45	0xbce45fc6	-0.0278777
46	0xbd9c760c	-0.07639703
47	0xbd141ccd	-0.03616028
48	0xbd8377cc	-0.06419334
49	0xbd49c8f8	-0.049263924
50	0x3e0de855	0.13858159
51	0x3c2e8949	0.0106528485
52	0x3d3e5a29	0.046472702
53	0x3d2a5d54	0.04159291
54	0x3dfd418f	0.1236602
55	0x3dde35c4	0.10850099
56	0xbd3817f9	-0.044944737
57	0xbcec5583	-0.028849369
58	0x3cbc31c9	0.022972958
59	0x3da98b84	0.082785636
60	0x3dfbf8a7	0.12303286
61	0x3cd56e68	0.026053622
62	0xbccd6ac2	-0.02507532
63	0xbc2b749e	-0.010464815
64	0xbd4da36f	-0.05020469
65	0x3d7f19e4	0.06228055
66	0xbd578301	-0.05261517
67	0x3de82649	0.11335427
68	0x3db7218a	0.08941944
69	0xbdad3dad	-0.08459029
70	0x3d401ea9	0.04690424
71	0xbd7cc4f2	-0.06171126
72	0x3aaab2a3	0.0013023209
73	0xbd4fb55a	-0.05071006
74	0x3d0cf760	0.034415603
75	0xbc3a563f	-0.011373102
76	0xbdaa380e	-0.08311473
77	0x3ca7acee	0.020468201
78	0x3d6f8fe6	0.05848684
79	0xbdc5b114	-0.096529156
80	0x3d1b4f60	0.037917495
81	0x3cf83e4c	0.030303143
82	0xbde8a533	-0.11359634
83	0xbd1a4d45	-0.037671346
84	0xbdf3a91f	-0.11897492
85	0x3d9892f2	0.074499026
86	0x3d9ed4b0	0.07755411
87	0xbdabf819	-0.0839693
88	0x3ce45f6c	0.027877532
89	0x3d96cc27	0.07363158
90	0xbd5c3805	-0.053764362
91	0xbddfe81b	-0.109329425
92	0xbe153c94	-0.1457389
93	0x3e0539bd	0.13010307
94	0x3d7604be	0.060063116
95	0xbdaed3b5	-0.08536474
96	0x3dc46145	0.09588865
97	0xbd920ba5	-0.07131127
98	0xbdd55514	-0.10416618
99	0xbe0468c0	-0.12930584
100	0xbe056351	-0.13026167
101	0x3d183a44	0.03716494
102	0xbdc0d430	-0.094154716
103	0x3d769be8	0.060207278
104	0x3cb10f2e	0.021613684
105	0x3dd781c9	0.105228014
106	0xbd887555	-0.06663004
107	0x3d299481	0.04140139
108	0xbddc0449	-0.10743005
109	0x3dc86eb9	0.09786744
110	0xbe10f6a3	-0.14156584
111	0xbd13be56	-0.03607019
112	0x3d657fba	0.056030013
113	0x3d821896	0.06352346
114	0xbd737068	-0.05943337
115	0x3cab5b49	0.020917552
116	0x3d90ffb8	0.070800245
117	0x3d02f4ab	0.031971615
118	0xbdfe5e57	-0.12420338
119	0xbde84c42	-0.1134267
120	0xbc432d3b	-0.011912639
121	0x3d951c82	0.07280828
122	0x3dc11863	0.094284795
123	0x3dcbe13e	0.09955071
124	0xbd6eef91	-0.058333937
125	0x3dcd2d92	0.100184575
126	0x3c264302	0.010147812
127	0xbca44e74	-0.02005694
128	0x3d275f2a	0.04086224
129	0xbd67a074	-0.056549504
130	0x3d9f39cb	0.07774695
131	0xbd96660d	-0.073436834
132	0xbdb794d3	-0.08963933
133	0xbdbfc3b1	-0.09363497
134	0x3e05d7ad	0.13070555
135	0x3c57c496	0.013169428
136	0xbdc0537b	-0.09390923
137	0xbd8d70a1	-0.06906248
138	0xbdbd989b	-0.09257623
139	0x3e116c11	0.1420138
140	0x3da335e7	0.079692654
141	0xbd7fa07f	-0.06240892
142	0xbd4db868	-0.05022469
143	0xbe356879	-0.17715634
144	0xbc7fcdda	-0.015613044
145	0x3d2893d9	0.041156624
146	0x3d1cd97d	0.03829335
147	0x3d8d9577	0.06913274
148	0xbcc20305	-0.02368308
149	0xbd07a011	-0.033111636
150	0x3dc0b428	0.09409362
151	0x3ddc42be	0.107549176
152	0xbd9b1c08	-0.07573706
153	0xbc4cdb38	-0.012503438
154	0x3db9e7b8	0.090774
155	0xbdf6159f	-0.12015843
156	0xbd89e9b7	-0.06734031
157	0xbd398515	-0.045292933
158	0xbdbaf85c	-0.09129402
159	0xbe12d25a	-0.14338055
160	0x3cb4cd7b	0.022070637
161	0xbdce2da4	-0.10067299
162	0xbd01185e	-0.03151738
163	0x3dacfa43	0.08446171
164	0x3ddbb3fa	0.10727687
165	0xbc8307b8	-0.015994892
166	0xbd097376	-0.033557378
167	0xbd322615	-0.04349335
168	0x3cc9edf5	0.0246496
169	0x3cde7479	0.027155148
170	0x3bc9e517	0.006161343
171	0x3d2ec322	0.042666562
172	0x3e1418d8	0.14462602
173	0xbc996a46	-0.018727433
174	0x3ddc0e69	0.10744936
175	0x3d301d56	0.042996727
176	0xbdb3d675	-0.08781139
177	0xbc84cdc3	-0.016211396
178	0x3bb9b4d1	0.005667307
179	0x3d22ff0a	0.039794005
180	0x3cb52e70	0.02211687
181	0x3d84f9d7	0.06492966
182	0xbd9edf15	-0.07757393
183	0xbdb853a6	-0.0900033
184	0xbd60b973	-0.05486436
185	0xbdb42f62	-0.087981
186	0x3c955f96	0.018234055
187	0x3df7bd07	0.12096601
188	0xbd4ea147	-0.050446775
189	0xbcf5a29e	-0.029984768
190	0x3dd10d36	0.10207598
191	0x3ce7e498	0.028307244
192	0x3d025825	0.031822342
193	0x3d3e5b26	0.046473645
194	0x3e02d303	0.12775807
195	0x3d89731b	0.06711408
196	0xbda79ad7	-0.0818383
197	0x3df38e59	0.11892385
198	0xbddfd82d	-0.10929904
199	0x3dc20fed	0.09475694
200	0xbdec8664	-0.115490705
201	0xbdf5f27f	-0.12009143
202	0xbd027991	-0.031854216
203	0xbda679ce	-0.08128701
204	0xbce0ac05	-0.027425775
205	0xbdb078bb	-0.086167775
206	0xbafa099b	-0.0019076349
207	0xbdc57261	-0.09640957
208	0xbdba5498	-0.09098166
209	0x3dc4909e	0.09597896
210	0x3dfc5f6c	0.12322888
211	0x3b7cb455	0.0038559635
212	0xbdb8078e	-0.08985816
213	0x3d3e7bf9	0.04650495
214	0xbd94891c	-0.07252714
215	0xbdd81ce6	-0.10552387
216	0xbd565733	-0.052329253
217	0x3d21e76e	0.03952735
218	0x3de8df09	0.113706656
219	0x3ca772d8	0.020440504
220	0x3ddad032	0.10684241
221	0xbc822e20	-0.015891135
222	0x3b9e56ad	0.00483211
223	0xbcad682f	-0.021167843
224	0xbda16ba8	-0.07881862
225	0x3dc8c0fe	0.09802435
226	0xbcefcc5a	-0.029272247
227	0x3d0adb7b	0.03390072
228	0x3cc76577	0.024340374
229	0xbcd14a85	-0.025548229
230	0xbe09a81e	-0.13443038
231	0xbd9f9df1	-0.07793797
232	0xbdb1df47	-0.08685165
233	0xbcc83d08	-0.024443164
234	0x3dc83dd0	0.09777415
235	0x3d20a14c	0.039216325
236	0xbd6228b4	-0.0552146
237	0xbcd6f07b	-0.026237717
238	0x3d585266	0.052812956
239	0xbda4000b	-0.08007821
240	0xbd843d6b	-0.06457027
241	0xbdf118ff	-0.11772346
242	0x3dd4efe5	0.10397319
243	0x3d9a2236	0.075260565
244	0xbdbfc976	-0.093645975
245	0xbd73ab33	-0.05948944
246	0xbd6d158f	-0.057881888
247	0x3d114460	0.035465598
248	0x3dabcf49	0.08389146
249	0xbdd76961	-0.10518146
250	0x3df1eadc	0.11812374
251	0xbdd8c9ec	-0.105853885
252	0x3d8d58d5	0.06901709
253	0xbce87d2a	-0.028379995
254	0xbddee40c	-0.1088334
255	0xbd63ac15	-0.055584032

lstm.bias_ih_l1 f4 [256]
0	0x3de98bea	0.114036396
1	0x3d4d68fb	0.050148945
2	0xbd41c091	-0.047302786
3	0xbd131850	-0.035911858
4	0xbdc35749	-0.09538133
5	0xbd05faa7	-0.032709744
6	0xbe07fe9b	-0.13280718
7	0xbd9aca34	-0.075580984
8	0xbd884991	-0.06654657
9	0x3e0f380f	0.13986228
10	0xbda5d987	-0.08098131
11	0x3cf0c4a0	0.029390633
12	0xbc9a7894	-0.018856324
13	0xbd9e4da3	-0.07729652
14	0x3cdca6a8	0.026934937
15	0x3e31df9f	0.17370461
16	0xbd95bd7a	-0.073115304
17	0xbc58eadb	-0.013239588
18	0x3da4474b	0.080214106
19	0xbd20f0dc	-0.0392922
20	0xbe001d99	-0.1251129
21	0x3dd5f22e	0.10446583
22	0xbc69c08f	-0.014267101
23	0x3d02b0c3	0.031906854
24	0xbd8fa4f1	-0.07013882
25	0x3dbf98b2	0.09355296
26	0xbd436e78	-0.047712773
27	0x3dc23eb1	0.09484614
28	0x3c1349a9	0.00898973
29	0x3dfcacfd	0.123376824
30	0x3d947e53	0.07250657
31	0xbe11a150	-0.14221692
32	0x3d6aa1d1	0.057283226
33	0x3d6c49d4	0.057687595
34	0x3d67581a	0.056480505
35	0xbbe27c86	-0.006911817
36	0x3e07e2da	0.13270131
37	0xbd116c79	-0.03550384
38	0x3d07d002	0.033157356
39	0xbcd69f5e	-0.02619904
40	0xbc516853	-0.0127812205
41	0xbdd92831	-0.10603369
42	0xbd001536	-0.03127023
43	0xbbf5c180	-0.0074998736
44	0x3d5aa134	0.05337639
45	0xbda179e8	-0.0788458
46	0x3d23132d	0.03981321
47	0x3e05555d	0.13020845
48	0xbdf9e16f	-0.12201201
49	0x3da75009	0.08169562
50	0xbb3d4072	-0.0028877524
51	0xbdff3db0	-0.12462938
52	0x3d915f99	0.07098312
53	0x3dfcb397	0.123389415
54	0x3d999b92	0.07500376
55	0x3d8f6610	0.07001889
56	0xbbfea296	-0.0077708466
57	0xbc099b95	-0.00839891
58	0xbda9086f	-0.08253562
59	0xbdac4769	-0.08412058
60	0xbdd3b6fa	-0.103376344
61	0x3c9155e2	0.017741147
62	0xbd0c0cd7	-0.034191933
63	0x3c9c5084	0.019081362
64	0xbdbfc346	-0.09363417
65	0x3cc80e6f	0.024420945
66	0x3d9ddb05	0.0770779
67	0x3d1502b0	0.036379516
68	0x3dac129c	0.08401987
69	0xbcf563f5	-0.02995489
70	0xbd1b34cc	-0.037892148
71	0xbddd8b16	-0.10817544
72	0xbd838411	-0.06421674
73	0xbd98f055	-0.07467715
74	0x3d465fdd	0.048431266
75	0xbe007d4d	-0.12547798
76	0x3bb3df23	0.0054892465
77	0xbd241a90	-0.040064394
78	0xbda705e8	-0.081554234
79	0x3bd237ba	0.0064153345
80	0x3d4604d2	0.04834444
81	0x3e04b081	0.12957956
82	0xbd1cff35	-0.038329322
83	0x3adac355	0.0016690294
84	0xbd7205c9	-0.05908755
85	0xbc17079c	-0.009218123
86	0xbd8baff5	-0.068206705
87	0xbcc46323	-0.023973053
88	0x3c20e3e0	0.009819955
89	0x3dbd2001	0.0923462
90	0x3e049250	0.12946439
91	0x3dbf2324	0.093328744
92	0xbc89b875	-0.016811589
93	0x3d87f8ab	0.066392265
94	0x3c343419	0.010998749
95	0xbe2ed182	-0.17072108
96	0xbda77095	-0.0817577
97	0x3d213b31	0.03936309
98	0x3cda42bf	0.026643155
99	0x3dc83e97	0.09777563
100	0xbd9888fd	-0.074480034
101	0x3d5a626c	0.05331652
102	0xbdea35b3	-0.114360236
103	0x3d1be77f	0.03806257
104	0xbc42925b	-0.011875714
105	0xbe0e2765	-0.13882215
106	0x3d6ac184	0.057313457
107	0x3d3cc302	0.04608441
108	0xbe22cf7e	-0.15899464
109	0xbe08ebe8	-0.13371241
110	0x3dd5ef4b	0.10446032
111	0x3d1b2c67	0.037884142
112	0x3cbb905b	0.022895982
113	0xbd02ac7b	-0.03190277
114	0x3ccc3d6f	0.024931638
115	0xbe26edef	-0.16301702
116	0x3d99a784	0.07502654
117	0xbd375307	-0.044756915
118	0x3dd94ede	0.10610746
119	0x3d76ce19	0.060255144
120	0x3d116526	0.035496853
121	0x3d7869cf	0.060647782
122	0x3e0501cb	0.12988965
123	0xb9de9f22	-0.00042461703
124	0xbd6af6b0	-0.057364166
125	0x3be80086	0.0070801405
126	0xbe07c2da	-0.13257924
127	0x3a5532f9	0.00081329007
128	0x3da9a0c0	0.08282614
129	0x3db1e368	0.086859524
130	0xbdccb351	-0.099951394
131	0xbd2f1388	-0.042743236
132	0x3c5ee22c	0.013603728
133	0x3dd35ba2	0.10320212
134	0xbd7e65db	-0.062108856
135	0xbdacca2f	-0.08437001
136	0xbdb98b6b	-0.09059795
137	0xbd123cce	-0.03570252
138	0xbd958029	-0.07299835
139	0x3c4ccc2a	0.012499848
140	0xbe03fd92	-0.12889698
141	0x3e1e5464	0.1546188
142	0xbc5c622c	-0.01345114
143	0x3d5fc7f8	0.054634064
144	0xbdbf8303	-0.093511604
145	0xbde9ba9a	-0.114125445
146	0xbe1697b5	-0.14706309
147	0xbcc34a38	-0.023839101
148	0x3d472549	0.048619542
149	0x3e0736ca	0.13204494
150	0x3df7a010	0.120910764
151	0xbbf1c8be	-0.0073786667
152	0xbd4f06ca	-0.050543584
153	0xbdc2b0b0	-0.09506357
154	0xbc7c2c3e	-0.015391408
155	0x3ca2ecd0	0.019888312
156	0x3ded070d	0.115736105
157	0xbe02b3de	-0.12763926
158	0xbe159117	-0.14606129
159	0x3da4a84b	0.08039912
160	0x3ca35129	0.019936161
161	0x3e1db0a4	0.15399414
162	0x3ba41cce	0.0050083166
163	0x3df6d338	0.120520055
164	0xbcc76bbe	-0.024343368
165	0x3d9299fc	0.071582764
166	0x3bde42ec	0.00678288
167	0xbdb32647	-0.08747535
168	0xbe0dfe35	-0.13866504
169	0xbd119f7c	-0.035552487
170	0x3ae3c13f	0.0017376317
171	0x3e1645fb	0.14675133
172	0x3db2d35f	0.08731722
173	0x3d346841	0.044044737
174	0x3e1c49c5	0.15262516
175	0x3de13da1	0.10998083
176	0x3d772bc7	0.060344484
177	0x3db1cb5f	0.08681368
178	0x3d311a7a	0.04323814
179	0xbd8327e3	-0.06404092
180	0xbd915584	-0.07096389
181	0xbdd8f4dd	-0.10593579
182	0x3e002f9b	0.1251816
183	0x3d9a3be2	0.07530953
184	0x3db8bbce	0.09020196
185	0x3e099dd1	0.13439108
186	0x3da316f9	0.07963366
187	0xbd4dfc33	-0.050289344
188	0x3e04e974	0.1297968
189	0x3cb354b1	0.02189097
190	0xbc1d984f	-0.009618833
191	0x3c44d758	0.012014233
192	0x3ca71ad4	0.020398535
193	0xbd5dfb99	-0.05419502
194	0x3db9007b	0.09033295
195	0xbd95bff2	-0.07312001
196	0x3cb6b9d9	0.022305416
197	0x3dc3bca1	0.095574625
198	0xbdebf2e5	-0.11520938
199	0x3da984da	0.082772925
200	0x3ac332fd	0.0014892515
201	0xbd06576e	-0.032798223
202	0x3d9679f1	0.07347477
203	0x3e1b785a	0.15182629
204	0x3dac8627	0.08424025
205	0x3e088fbf	0.13336085
206	0xbdbffcc5	-0.09374384
207	0x3e4119dd	0.18857522
208	0x394f2e10	0.00019758218
209	0xbdb4840d	-0.08814249
210	0xbc817766	-0.015804004
211	0xbc1b8f18	-0.009494565
212	0xbad6b8d0	-0.0016381983
213	0x3dae44d1	0.085092194
214	0xbd02eac5	-0.031962175
215	0x3bda23d4	0.006657103
216	0x3db153a2	0.0865853
217	0x3dcfbfc6	0.10144
218	0x3d30d665	0.043173213
219	0xbdd8552e	-0.10563122
220	0xbcd250e0	-0.02567333
221	0xbcf71780	-0.030162573
222	0xbbee19b7	-0.007266249
223	0x3dec1fee	0.115295276
224	0xbd9ca72b	-0.07649072
225	0x3dcf6344	0.10126355
226	0x3e0d989e	0.1382775
227	0x3dcdc9eb	0.100482784
228	0x3e0be1c0	0.13660336
229	0xbd29385f	-0.041313525
230	0xbc050640	-0.008119166
231	0xbc09c0f3	-0.008407819
232	0x3bad6df4	0.0052926484
233	0xbd59e2be	-0.053194754
234	0x3d5fc9f1	0.054635946
235	0x3d1f663d	0.03891586
236	0x3c70ca78	0.01469671
237	0x3da61dbc	0.0811114
238	0x3d09117b	0.033463936
239	0xbc699075	-0.014255633
240	0xbdbef5c9	-0.093242235
241	0x3d08b814	0.033378676
242	0xbd7a168a	-0.06105665
243	0xbd4188ad	-0.047249485
244	0x3e11908f	0.14215301
245	0xbc8db778	-0.017299399
246	0xbd16c99f	-0.036813375
247	0x3d88d219	0.06680698
248	0xbc02d7cc	-0.00798602
249	0xbdbe2a53	-0.092854165
250	0xbdbf2404	-0.09333041
251	0xbd289fe3	-0.041168105
252	0xbd262b6d	-0.040568758
253	0xbc34b0de	-0.011028497
254	0xbcbd48ff	-0.023106096
255	0xbdd5750d	-0.10422716
