data_storage/models/lstm_v1.0.0_20251231_150108/points_model.pt (torch, 217493 bytes, 9 tensors)

lstm.weight_ih_l0 f4 [256, 12]
0	0xbd178817	-0.03699502
1	0x3df0a665	0.11750487
2	0xbe56669b	-0.20937578
3	0xbdf35694	-0.11881748
4	0xbe4c3cf9	-0.19945134
5	0xbcbe4a74	-0.023228861
6	0x3d674952	0.056466408
7	0xbd9bf0f8	-0.076143205
8	0xbda0f1fd	-0.078586556
9	0xbddf7d4a	-0.10912569
10	0x3d54c2ca	0.051943578
11	0x3e6e52f5	0.23273833
12	0xbd3798ae	-0.04482334
13	0x3dcb8441	0.09937335
14	0xbd3b0c45	-0.045665998
15	0xbcc11853	-0.023571169
16	0x3cafb002	0.021446232
17	0xbd7cc916	-0.061715208
18	0x3da58a91	0.0808307
19	0x3d755f6a	0.059905447
20	0xbe2a5c0c	-0.16636676
21	0x3dfcb7c3	0.12339737
22	0xbc040417	-0.008057616
23	0x3e4971c3	0.19672303
24	0xbe0edf5a	-0.1395239
25	0x3e789ebb	0.24279301
26	0xbce2cbc0	-0.027685046
27	0xbd1a8f49	-0.037734304
28	0x3d7c8959	0.061654422
29	0x3d0ddf1c	0.0346366
30	0xbd052d33	-0.03251381
31	0xbe0f7ad4	-0.14011699
32	0x3cf1950b	0.029490015
33	0xbd63db3c	-0.055629
34	0xbdd26a52	-0.10274185
35	0xbcabfe0f	-0.020995168
36	0x3d98cc41	0.07460833
37	0x3e48ccd5	0.19609387
38	0xbdbfed71	-0.0937146
39	0xbc80cf6d	-0.015723908
40	0xbd537100	-0.051621437
41	0xbc4dc355	-0.012558778
42	0xbd8170f0	-0.06320369
43	0xbddc5fae	-0.10760437
44	0xbe4090c1	-0.18805219
45	0xbd340e6d	-0.04395907
46	0xbd17c1eb	-0.03705017
47	0x3ca14369	0.019685464
48	0xbdac7179	-0.08420081
49	0x3c6d6482	0.014489295
50	0xbc84088d	-0.016117359
51	0xbd375207	-0.04475596
52	0xbd122a16	-0.035684668
53	0x3ca7c20d	0.020478273
54	0xbcd3e625	-0.025866577
55	0xbc68bf79	-0.014205807
56	0xbd8a4668	-0.0675171
57	0x3dae34b0	0.08506143
58	0xbd8e4142	-0.06946041
59	0xbda54c1e	-0.08071159
60	0xbd0d73a9	-0.03453413
61	0xbd2d24a1	-0.04227126
62	0xbded0126	-0.11572485
63	0xbda9fc17	-0.083000354
64	0x3db263ec	0.08710465
65	0xbe0ecab9	-0.1394452
66	0x3e029626	0.1275259
67	0x3e0bf5a7	0.13667928
68	0xbda13718	-0.078718364
69	0xbd0d84bf	-0.034550425
70	0x3e3692a7	0.17829381
71	0xbcb536de	-0.02212089
72	0xbdeabc78	-0.11461729
73	0x3dacf489	0.08445079
74	0xbd789e91	-0.060698096
75	0x3db6cc32	0.08925666
76	0x3cb2db7e	0.021833178
77	0xbe0387ea	-0.12844816
78	0xbda84ea6	-0.08218126
79	0xbe0610d5	-0.13092358
80	0x3d836ad4	0.0641686
81	0x3cc39428	0.023874357
82	0xbc8be99c	-0.017079167
83	0xbcd183e1	-0.02557558
84	0x3d238035	0.03991719
85	0x3dc7be94	0.09753147
86	0xbc8bfded	-0.017088855
87	0x3c9025c7	0.017596139
88	0xbdddad3a	-0.10824056
89	0xbd1cc2eb	-0.038271826
90	0xbdddd197	-0.10830992
91	0xbd88520c	-0.06656274
92	0xbe0183e3	-0.12647967
93	0xbe0b5d13	-0.13609724
94	0xbd0583a1	-0.032596234
95	0xbd7e7baf	-0.062129673
96	0xbe188952	-0.14896134
97	0x3e7d66e9	0.24746288
98	0xbe01f2d1	-0.12690283
99	0x3dfb08a8	0.122575104
100	0x3d9977b2	0.07493533
101	0x3d77aac4	0.06046559
102	0xbd536ee0	-0.05161941
103	0xbdfb7821	-0.12278772
104	0xbdc375e8	-0.09543973
105	0xbcba093a	-0.022709478
106	0x3daa5635	0.08317224
107	0x3da848fe	0.08217047
108	0xbd496a28	-0.049173504
109	0x3e10fb9c	0.14158481
110	0xbd3a34c4	-0.045460477
111	0x3d90e0ca	0.07074125
112	0x3e011b67	0.1260811
113	0x3d8ce5ed	0.06879792
114	0xbc8d1dfd	-0.017226214
115	0x3e1399c2	0.14414123
116	0xbd0daef2	-0.03459067
117	0xbd95e92b	-0.07319864
118	0x3dce0775	0.10060016
119	0xbdbcc266	-0.09216766
120	0xbcf261ed	-0.02958771
121	0x3daa0472	0.08301629
122	0x3dad2413	0.08454146
123	0xbe02222e	-0.12708351
124	0x3dcc1290	0.09964478
125	0x3d601e0e	0.054716162
126	0xbc56f324	-0.013119493
127	0xbd24763c	-0.04015182
128	0xbcd55a9f	-0.026044188
129	0x3d0db520	0.034596562
130	0x3a04149c	0.00050384714
131	0x3e34916e	0.17633602
132	0xbdb030be	-0.08603047
133	0xbdc460cc	-0.09588775
134	0xbde03204	-0.1094704
135	0xbde670dd	-0.11251996
136	0xbd46258e	-0.04837566
137	0xbdc70308	-0.09717375
138	0xbd2310c6	-0.03981092
139	0xbd958e64	-0.073025495
140	0x3d8d9774	0.06913653
141	0xbd57176e	-0.05251258
142	0xbd53e7c2	-0.051734693
143	0x3c178990	0.009249106
144	0x3d7ce054	0.061737373
145	0x3e095b70	0.13413787
146	0xbc8ce351	-0.017198237
147	0x3d9ace11	0.07558835
148	0xbdc7c34f	-0.09754049
149	0x3cd276e0	0.02569145
150	0x3cd2244f	0.025652079
151	0xbdbae07b	-0.091248475
152	0xbe0ec0ce	-0.13940737
153	0xbdbca14f	-0.09210455
154	0xbe287686	-0.16451463
155	0xbdb5a319	-0.08868999
156	0xbdd67e13	-0.104732655
157	0x3d9edc1e	0.07756828
158	0xbd266146	-0.04062011
159	0xbbf9788b	-0.007613247
160	0x3c9dfc0f	0.01928523
161	0xbd59935a	-0.05311904
162	0x3de8ee24	0.11373547
163	0x3d9b8743	0.075941585
164	0xbc83a43d	-0.016069526
165	0x3d4addad	0.049527813
166	0x3c936ee5	0.017997215
167	0x3e242d00	0.16032791
168	0xbda50e84	-0.08059409
169	0x3d3ff967	0.046868708
170	0x3d202665	0.039099116
171	0xbc015dca	-0.007895896
172	0x3d22bc6a	0.039730467
173	0x3c9f3026	0.019432139
174	0xbd604f11	-0.054762904
175	0x3cc949a2	0.024571244
176	0xbd6c2fc6	-0.057662748
177	0x3dbe2df8	0.092861116
178	0xbdac6104	-0.08416942
179	0x3e43b666	0.19112548
180	0x3d9d6531	0.07685316
181	0x3e2cf2f0	0.16889548
182	0xbc91cecf	-0.01779881
183	0xbb1897cc	-0.0023283837
184	0x3d88321d	0.06650183
185	0xbd990ae1	-0.07472778
186	0xbd9d96a2	-0.076947466
187	0x3d7374c3	0.059437525
188	0xbe32ff29	-0.17480148
189	0xbd6e4773	-0.058173608
190	0x3cfcd2a4	0.03086216
191	0x3deae0d2	0.11468662
192	0x3d68b5f9	0.056814168
193	0x3dfba468	0.122872174
194	0xbc8953b3	-0.016763544
195	0xbd068acd	-0.032847214
196	0xbdf58cd3	-0.11989751
197	0xbe082142	-0.13293937
198	0xbe0f381c	-0.13986248
199	0xbd97dd6d	-0.074152805
200	0x3d382cd4	0.044964626
201	0xbd5adf6a	-0.05343572
202	0x3bd60a1e	0.006531968
203	0x3cb680ed	0.022278273
204	0x3dce6393	0.10077586
205	0x3cf04ac6	0.02933253
206	0x3e09964f	0.13436244
207	0xbd9b39ee	-0.075794086
208	0xbe0f2af9	-0.13981237
209	0xbd4189f8	-0.047250718
210	0x3cac7b73	0.021054959
211	0x3d2f671d	0.042822946
212	0xbd42052e	-0.04736822
213	0xbbf560ac	-0.007488331
214	0xbcad905b	-0.021186998
215	0xbcbd93c0	-0.023141742
216	0xbda88a44	-0.08229497
217	0x3d9c3a8a	0.07628353
218	0xbcbc1706	-0.022960197
219	0x3bad9898	0.0052977316
220	0xbcd83f62	-0.02639741
221	0xbe064cf4	-0.13115293
222	0xbdc4a0ff	-0.0960102
223	0x3d47a8d7	0.048745003
224	0xbc4ae747	-0.012384242
225	0x3db46bd3	0.08809628
226	0x3e40a582	0.18813136
227	0x3d88e58b	0.06684407
228	0x3d9e97a9	0.07743771
229	0xbe44bf13	-0.19213514
230	0xbe008f81	-0.12554742
231	0x3e0ce5cb	0.13759534
232	0x3dc5deb5	0.096616186
233	0x3dc503be	0.096198544
234	0x3d68914c	0.05677919
235	0x3db246d9	0.08704919
236	0xbe0bdda0	-0.13658762
237	0x3cdae5bc	0.026720874
238	0x3d13a3c2	0.036044843
239	0xbc2be39e	-0.01049128
240	0xbdf54cf8	-0.11977571
241	0x3da92794	0.08259502
242	0xbdcdfdf8	-0.10058206
243	0xbcfbae8c	-0.030722879
244	0x3dc91062	0.09817578
245	0xbdc302e3	-0.09522035
246	0x3b497dc3	0.0030745126
247	0xbe2389ad	-0.15970488
248	0x3c7d7a85	0.015471105
249	0xbc65e227	-0.01403097
250	0xbd1537ed	-0.036430288
251	0x3e883148	0.266001
252	0xbd9ecc75	-0.07753841
253	0x3d93971e	0.07206558
254	0xbda89ec7	-0.082334094
255	0xbd4262ec	-0.04745762

lstm.weight_hh_l0 f4 [256, 64]
0	0xbcf4539a	-0.02982502
1	0x3dfbb1b4	0.122897536
2	0x3d513576	0.051076375
3	0x3d153871	0.03643078
4	0xbdc5374b	-0.09629687
5	0xbd36f9ba	-0.04467175
6	0x3daeb3e5	0.08530406
7	0xbdc10d3e	-0.09426354
8	0xbd95fccf	-0.0732361
9	0x3e0ecfba	0.13946429
10	0xbda769cd	-0.08174477
11	0xbd800416	-0.06250779
12	0x3d31c9ce	0.043405347
13	0x3d9f3798	0.077742755
14	0x3c9ddbc9	0.01926984
15	0xbd3ba1aa	-0.04580847
16	0x3b906e2b	0.0044076643
17	0x3d91f126	0.071260735
18	0xbd673a25	-0.056451935
19	0xbd803f6f	-0.06262099
20	0x3cd30e9b	0.0257638
21	0xbd8c7ecd	-0.06860123
22	0x3d7cfb00	0.06176281
23	0xbdd983f8	-0.10620874
24	0xbd9cbf64	-0.07653692
25	0xbdc55d7b	-0.096369706
26	0x3c66038a	0.01403893
27	0xbdb4d078	-0.08828825
28	0xbdb64315	-0.08899514
29	0xbc43d83e	-0.011953412
30	0xbd26525e	-0.040605895
31	0x3da35c23	0.07976558
32	0xbd956417	-0.07294481
33	0x3d89c4c3	0.067269824
34	0xbd8712e2	-0.065953985
35	0xbd30e4ba	-0.04318688
36	0xbdd6917f	-0.1047697
37	0x3ce7b8a8	0.028286293
38	0x3e2541de	0.16138408
39	0xbdc5b61b	-0.096538745
40	0xbcf9d432	-0.03049669
41	0x3da9d959	0.08293409
42	0x3d062db1	0.03275842
43	0xbe036d19	-0.12834586
44	0x3df50f69	0.1196583
45	0x3daea113	0.08526816
46	0xba3499b2	-0.00068893575
47	0xbdc76808	-0.09736639
48	0x3ccf4459	0.025301145
49	0x3cd47da3	0.025938815
50	0x3d0a55fa	0.0337734
51	0xbc2bff88	-0.010497935
52	0xbd13ba64	-0.036066428
53	0x3df451cd	0.11929665
54	0x3d420d79	0.04737613
55	0xbd248bba	-0.040172316
56	0x3dab977c	0.08378503
57	0x3d09dc68	0.03365746
58	0xbd86aa84	-0.06575492
59	0x3da2747b	0.07932373
60	0x3d227ffa	0.03967283
61	0xbc22ab2c	-0.009928506
62	0x3be8e9b0	0.007107936
63	0x3cb84d3f	0.022497771
64	0x3d47be51	0.048765484
65	0x3e30585c	0.17221206
66	0xbdfaadf5	-0.12240211
67	0xbdd9eb82	-0.10640623
68	0xbdfbda61	-0.12297512
69	0xbdc21122	-0.09475924
70	0xbd4d4f17	-0.050124254
71	0x3d93ae06	0.07210927
72	0x3de6a124	0.11261204
73	0xbd3f54bd	-0.046711672
74	0x3d566af2	0.052348085
75	0xbd7fe1bd	-0.06247114
76	0x3da1fcbc	0.079095334
77	0xbadf703b	-0.0017046997
78	0x3e0a0eab	0.13482158
79	0x3d138f97	0.03602561
80	0xbdc59690	-0.09647858
81	0xbd574f18	-0.052565664
82	0xbda2815b	-0.07934829
83	0x3d9e29a8	0.07722789
84	0xbe05197a	-0.12998
85	0xbd963d01	-0.07335854
86	0xbd4caccf	-0.04996949
87	0xbaa393c3	-0.001247995
88	0x3dc615b6	0.0967211
89	0xbe525d4f	-0.20543407
90	0x3aa0fc0b	0.0012282146
91	0x3c9c3de0	0.019072473
92	0xbd4638fc	-0.04839419
93	0x3cb096eb	0.021556338
94	0xbdcf04fa	-0.10108371
95	0xbe133122	-0.14374211
96	0xbd6557f5	-0.055992085
97	0xbd26bb05	-0.0407057
98	0xbdc97cc9	-0.09838254
99	0x3ddb8587	0.10718828
100	0x3b34d34b	0.002759176
101	0xbd58e6fa	-0.05295465
102	0x3e144aa2	0.14481595
103	0xbb3077d4	-0.0026926892
104	0x3dce19c6	0.1006351
105	0x3cedb258	0.029015705
106	0xbcdf6c50	-0.027273327
107	0xbd0aea92	-0.03391511
108	0xbd87517c	-0.06607339
109	0xbd1d6df3	-0.038434934
110	0xbdbed1ce	-0.09317361
111	0x3dc0e67e	0.09418963
112	0xbdff8f96	-0.12478559
113	0xbd915819	-0.070968814
114	0x3c6bf507	0.014401681
115	0xbd868b8d	-0.06569586
116	0x3e005d1d	0.1253552
117	0x3e11198b	0.141699
118	0xbd82bd0f	-0.06383716
119	0xbdabea24	-0.08394268
120	0x3dd393ad	0.10330901
121	0xbd758251	-0.059938733
122	0x3ddea757	0.10871761
123	0xbd7cc138	-0.061707705
124	0xbd887afd	-0.06664083
125	0xbcc8dbfb	-0.024518957
126	0xbdd93403	-0.106056236
127	0x3d16acce	0.036785893
128	0xbb9c795b	-0.004775209
129	0xbd96e436	-0.073677465
130	0xbdc04f8b	-0.093901716
131	0x3d356d83	0.04429389
132	0x3d39b411	0.04533774
133	0x3dd183c7	0.10230213
134	0xbcd1106e	-0.02552053
135	0x3de54923	0.1119559
136	0xbd0d4f43	-0.034499418
137	0x3dd4fb37	0.10399478
138	0x3d886716	0.06660287
139	0x3da5bc33	0.08092537
140	0xbd2035eb	-0.03911392
141	0xbd8608a2	-0.06544615
142	0x3e02bf86	0.12768373
143	0x3d525764	0.051352873
144	0x3dcf25fc	0.10114667
145	0x3d90fba6	0.07079248
146	0xbc05fd97	-0.008178136
147	0x3c277cda	0.010222638
148	0xbd93b8eb	-0.07213005
149	0x3d416cf5	0.04722305
150	0xbe22471f	-0.15847443
151	0x3d2bac1e	0.04191219
152	0x3d3297fd	0.04360198
153	0xbe2aec6d	-0.16691752
154	0x3daee323	0.08539417
155	0xbbe3d9e4	-0.006953465
156	0xbe0123bd	-0.1261129
157	0x3d1b96f2	0.03798575
158	0x3d2eed46	0.04270675
159	0x3d8527ee	0.065017566
160	0x3d244449	0.040104184
161	0x3dcecaaf	0.100972526
162	0xbda7f6b9	-0.082013555
163	0xbc9e6861	-0.019336881
164	0x3d75df98	0.06002769
165	0x3d6fd307	0.05855086
166	0x3e178525	0.14796884
167	0xbb81e9e8	-0.0039646514
168	0x3dad3d06	0.08458905
169	0xbd6535cc	-0.055959508
170	0xbdee0267	-0.11621552
171	0xbc554b95	-0.013018508
172	0xbd309a03	-0.043115627
173	0xbd145af6	-0.03621956
174	0x3d7c2195	0.061555464
175	0x3d479e79	0.048735116
176	0x3d9a4289	0.07532222
177	0x3cd42663	0.02589721
178	0xbda58e73	-0.08083811
179	0x3d9898b1	0.074509986
180	0x3d3abfa5	0.045592923
181	0x3dd57585	0.10422806
182	0xbd9dfd85	-0.07714371
183	0xbd577f70	-0.05261177
184	0xbe0324e3	-0.1280704
185	0xbdcbca2a	-0.09950669
186	0xbbb6d354	-0.0055793915
187	0xbcbc63f4	-0.02299688
188	0x3d8e3af8	0.06944841
189	0xbd6e6a00	-0.05820656
190	0xbe2739bc	-0.16330618
191	0x3d230187	0.03979638
192	0x3e03153f	0.12801073
193	0x3b15dd52	0.0022867513
194	0xbe00bf89	-0.12573065
195	0x3d54a5af	0.05191582
196	0xbd11b789	-0.035575423
197	0x3dc58a24	0.09645489
198	0x3dbdabdf	0.092612974
199	0xbd852c3c	-0.06502578
200	0xbdc213f8	-0.09476465
201	0x3d4d17b7	0.050071444
202	0xbd405600	-0.046957016
203	0x3e262ae4	0.16227299
204	0xbdd10c66	-0.10207443
205	0xbd432aaf	-0.047648128
206	0x3e03c774	0.12869054
207	0x3dc8a990	0.097979665
208	0xbcc2d3d0	-0.02378264
209	0x3dad6562	0.08466603
210	0x3db16dfd	0.08663557
211	0xbb610ec8	-0.0034341086
212	0xbd9a0102	-0.075197235
213	0xbbce9413	-0.006304273
214	0xbe249561	-0.16072609
215	0xbd760363	-0.060061824
216	0xbdd5da8e	-0.104420766
217	0xbe1005fe	-0.14064786
218	0x3c07c413	0.008286494
219	0x3d72a76b	0.059241693
220	0xbd87a668	-0.06623536
221	0xbd0dba80	-0.03460169
222	0x3d68d98f	0.056848105
223	0x3d45f76a	0.048331656
224	0xbd7a2abb	-0.061075907
225	0xbce344ef	-0.027742831
226	0xbdce51ec	-0.10074219
227	0xbda0a2c4	-0.07843545
228	0x3d3de665	0.0463623
229	0x3cbc3a72	0.022977088
230	0x3dd8cb73	0.1058568
231	0x3d8d5101	0.06900216
232	0xbd5d2bb2	-0.05399675
233	0x3da85630	0.08219564
234	0xbdab7e1f	-0.08373665
235	0x3cb50eda	0.022101808
236	0x3df6974f	0.120405786
237	0x3dd14f6b	0.10220226
238	0x3c4d06ba	0.012513811
239	0x3e04f298	0.12983167
240	0x3d72d114	0.059281424
241	0xbb6ec946	-0.0036435886
242	0xbdf73638	-0.12070888
243	0x3dbf9c55	0.0935599
244	0x3cc0ea17	0.023549123
245	0x3df784dc	0.12085888
246	0x3dead357	0.11466091
247	0xbc858e33	-0.016303157
248	0x3c7731b3	0.015087533
249	0xbcd53d53	-0.026030218
250	0x3dde5e25	0.108578004
251	0xbdad0785	-0.084487
252	0xbdb2f21f	-0.08737587
253	0x3c647b4e	0.013945414
254	0xbe27a9b3	-0.16373329
255	0x3d326025	0.04354872

lstm.bias_ih_l0 f4 [256]
0	0xbe1722ce	-0.1475937
1	0x3dccb4b6	0.099954054
2	0x3d341f21	0.043975
3	0x3c3245af	0.010880872
4	0xbe01fd66	-0.1269432
5	0xbd0c2277	-0.034212556
6	0xbd9ebc4b	-0.07750758
7	0x3d945343	0.072424434
8	0xbd119f32	-0.03555221
9	0x3c95337c	0.018213026
10	0x3daa9ff0	0.08331287
11	0xbd66e25e	-0.056368224
12	0xbd65e044	-0.05612208
13	0x3d34eab0	0.044169128
14	0x3db0b2b0	0.08627832
15	0xbd9db97e	-0.077013955
16	0x3d6bda04	0.057580963
17	0xbd84ad4a	-0.06478365
18	0xbce0fba6	-0.027463745
19	0x3a11e897	0.00055659696
20	0x3d8db4f0	0.06919277
21	0x3dd05864	0.10173109
22	0x3cc87e13	0.02447418
23	0xbdca50c2	-0.098786846
24	0xbcc1cb3f	-0.023656486
25	0x3dda9493	0.106728695
26	0xbe018ae8	-0.12650645
27	0x3d93a7a4	0.07209709
28	0xbd3aeb82	-0.045634754
29	0xbe0d1be6	-0.13780174
30	0xbde1e801	-0.11030579
31	0x3d60db0d	0.054896403
32	0xbd5156b1	-0.051108066
33	0xbd243120	-0.04008591
34	0x3d665062	0.056229003
35	0xbe1b6d90	-0.15178514
36	0x3d6d37fb	0.057914715
37	0x3d495918	0.049157232
38	0x3d7ebea9	0.062193546
39	0xbd6147dd	-0.055000175
40	0x3c8415df	0.01612371
41	0x3b806492	0.003918239
42	0xbe332f53	-0.17498522
43	0x3b7b2d9b	0.0038326744
44	0xbdefc54b	-0.117075525
45	0x3dd06052	0.10174622
46	0x3d90e653	0.07075181
47	0x3dad33a6	0.08457117
48	0xbde0e0c6	-0.10980372
49	0xbdd1728a	-0.10226925
50	0x3c38d0d1	0.011280254
51	0x3d8f25af	0.069896095
52	0x3d3e6d7c	0.04649113
53	0x3dede341	0.11615611
54	0xbcaef3a3	-0.02135641
55	0xbe1022a6	-0.14075717
56	0x3dc57439	0.09641308
57	0x3e0c3de1	0.1369548
58	0x3e113292	0.14179447
59	0xbdecf5a0	-0.11570287
60	0x3db58e96	0.08865087
61	0x3ca17dca	0.019713301
62	0x3dd91016	0.10598771
63	0xbd70aec3	-0.058760416
64	0xbd5d851d	-0.054082025
65	0xbdc61cda	-0.09673472
66	0xbddaf5aa	-0.10691388
67	0x3cef507c	0.029213183
68	0xbca2cae1	-0.01987213
69	0x395f8fbf	0.00021320487
70	0xbc91fc49	-0.017820494
71	0x3d4d2d59	0.050092075
72	0xbdfa0250	-0.12207472
73	0x3ddb8633	0.10718956
74	0xbdba5822	-0.09098841
75	0x3d89285d	0.06697152
76	0xbd99863b	-0.074963056
77	0xbceb8e76	-0.028754454
78	0x3d747be0	0.05968845
79	0x3e25c707	0.16189204
80	0x3caeb43b	0.021326175
81	0xbdcae2f0	-0.09906566
82	0xbcb28978	-0.021794066
83	0x3d35a931	0.044350807
84	0x3dd335d1	0.10312999
85	0x3ab4c9f1	0.0013793093
86	0x3a739ec4	0.0009293372
87	0xbd1197e0	-0.03554523
88	0x3d15e0da	0.03659139
89	0x3e003f98	0.12524259
90	0x3cd6537e	0.026162859
91	0x3d389b21	0.045069817
92	0xbdb12177	-0.08648961
93	0x3d8512ed	0.064977504
94	0xbdd0d026	-0.10195951
95	0x3de1f460	0.11032939
96	0x3c92747f	0.017877815
97	0xbe1c809c	-0.15283436
98	0x3c38a0e4	0.011268828
99	0x3da73acc	0.081655115
100	0x3d1bd449	0.038044248
101	0xbda32c0b	-0.07967385
102	0xbb018ec4	-0.0019768933
103	0xbd96c838	-0.073624074
104	0xbde9fb83	-0.11424925
105	0x3daf815f	0.085695975
106	0x3b86aad0	0.004109718
107	0x3e21d0bb	0.1580228
108	0xbd9fbbc5	-0.07799486
109	0xb84fe5bc	-4.9566603e-05
110	0xbc37256c	-0.011178356
111	0xbd9db634	-0.07700768
112	0xbd939b88	-0.072073996
113	0x3d092ca1	0.033489827
114	0xbdf8870f	-0.121351354
115	0x3e224661	0.1584716
116	0x3d37c469	0.044865046
117	0xbda382ea	-0.07983954
118	0xbd340f51	-0.04395992
119	0x3de07140	0.10959101
120	0x3d41ea5d	0.047342647
121	0xbcd1e81b	-0.025623372
122	0xbda4cef5	-0.080472864
123	0x3d91ed68	0.0712536
124	0xbdd53008	-0.10409552
125	0xbda03908	-0.07823378
126	0xbdb9c74f	-0.09071218
127	0x3e05483c	0.13015836
128	0x3d682357	0.056674328
129	0xbd00c59b	-0.03143845
130	0x3e0778c5	0.13229664
131	0xbd95fa83	-0.07323172
132	0xbdf1efc8	-0.11813313
133	0xbd110a27	-0.035410073
134	0x3be10792	0.0068673575
135	0x3ddd002a	0.10791047
136	0x3e0017a6	0.12509021
137	0x3e009919	0.12558402
138	0x3da2ff73	0.07958879
139	0x3d6e111b	0.05812178
140	0xbd834a87	-0.06410699
141	0xbc5d66b8	-0.01351326
142	0x3d8733bc	0.066016644
143	0x3d999f70	0.075011134
144	0x3dbb8d76	0.09157841
145	0xbdcdd4fa	-0.10050388
146	0x3d028d15	0.031872828
147	0x3d66cce3	0.05634774
148	0xbdf4662b	-0.119335495
149	0xbdb3becb	-0.08776625
150	0x3d284cfc	0.041089043
151	0xbbe459bd	-0.0069687054
152	0xbdfb9795	-0.12284771
153	0xbd8c92c2	-0.06863929
154	0x3c9f8f78	0.01947759
155	0x3c1022cd	0.00879736
156	0x3ddce97e	0.107867226
157	0x3d6701ef	0.05639833
158	0xbaa6c0c7	-0.0012722247
159	0xbcf28ad1	-0.029607208
160	0x3cee01b9	0.029053556
161	0xbda32a0f	-0.079670064
162	0x3d0b8a13	0.034067225
163	0x3dc5a864	0.096512586
164	0xbe0182d0	-0.12647557
165	0x3d6b68f5	0.05747314
166	0xbdc34ea1	-0.09536482
167	0x3d871b49	0.06597001
168	0x3d4f2723	0.050574433
169	0xbdf98f23	-0.12185504
170	0x3d860fbe	0.06545971
171	0xbcbc2156	-0.022965115
172	0x3dbc13f9	0.09183497
173	0x3dda5e35	0.106625
174	0x3d4a7a0c	0.0494328
175	0x3d06641b	0.03281031
176	0x3dbd5901	0.09245492
177	0xbdbc2211	-0.09186185
178	0x3d127b28	0.035761982
179	0x3dfaa60b	0.122387014
180	0x3c3c4104	0.01149011
181	0xbdb90fdb	-0.09036227
182	0xbd2dbb7c	-0.042415127
183	0xbd9e3e16	-0.07726686
184	0xbdf1740d	-0.11789713
185	0xbdacee1f	-0.084438555
186	0x3e1f2e17	0.15544926
187	0xbd2de889	-0.04245809
188	0x3db6d971	0.089281924
189	0x3dcc7f73	0.099852465
190	0x3dfaa850	0.12239134
191	0x3c9d97a8	0.019237354
192	0xbd96c3d6	-0.073615715
193	0xbc9a43a0	-0.018831074
194	0x3c76d1d7	0.015064678
195	0x3d5761af	0.052583393
196	0xbccd0f5c	-0.025031738
197	0xbc50e38c	-0.012749564
198	0x3ce22093	0.027603423
199	0xbe0caa1f	-0.13736771
200	0x3c2be334	0.010491181
201	0xbddcc562	-0.10779835
202	0x3d0585c9	0.03259829
203	0x3d3b70da	0.04576192
204	0x396ff940	0.00022885669
205	0xbce67e6e	-0.028136458
206	0xbd0a24f5	-0.03372665
207	0x3dbd8ebe	0.092557415
208	0x3c79469a	0.015214587
209	0xbd891fbd	-0.06695507
210	0xbd621278	-0.055193394
211	0xbda447c8	-0.08021504
212	0x3db48ad8	0.08815545
213	0x3e0fc758	0.14040887
214	0x3d30486b	0.043037813
215	0xbd73f3d1	-0.059558693
216	0x3ba8df67	0.0051535848
217	0xbd39dd41	-0.04537702
218	0x3d787ca1	0.06066573
219	0x3d9fef89	0.078093596
220	0x3b50dc53	0.0031869605
221	0x3d91893a	0.07106252
222	0xbd07448b	-0.033024352
223	0xbd1472f8	-0.036242455
224	0xbe23ee5d	-0.16008897
225	0xbca73f62	-0.020415965
226	0x3da83ca3	0.082146905
227	0xbdb9b074	-0.09066859
228	0xbd61a036	-0.05508443
229	0x3b9f8111	0.004867681
230	0xbddb4eb3	-0.1070837
231	0xbd8f1fef	-0.06988513
232	0xbdc8a10d	-0.09796343
233	0x3d8be2d8	0.068303764
234	0xbd885736	-0.06657259
235	0x3da7609c	0.08172724
236	0x3cdf6e64	0.027274318
237	0x3db8155c	0.08988449
238	0xbcad7407	-0.02117349
239	0x3e172a10	0.1476214
240	0xbb2520bd	-0.0025196515
241	0xbd05d644	-0.032675043
242	0x3d9bd8c9	0.07609708
243	0xbdca6b60	-0.098837614
244	0x3d9fbd67	0.077997975
245	0x3c3b8821	0.01144603
246	0x3d9ade20	0.07561898
247	0xbdeed1a3	-0.11661079
248	0x3ddb5ec5	0.10711435
249	0x3de2e850	0.11079466
250	0x3e08580c	0.13314837
251	0x3dac002c	0.0839847
252	0xbd68b9df	-0.056817885
253	0xbdd8831d	-0.10571883
254	0xbd09c7b5	-0.03363772
255	0x3e1f0a53	0.15531282

lstm.bias_hh_l0 f4 [256]
0	0xbdcd83ee	-0.10034929
1	0xbc940433	-0.018068409
2	0x3dac65cd	0.084178545
3	0xbb869f95	-0.004108379
4	0x3c3d53c5	0.011555617
5	0x3d314652	0.043279953
6	0xbcf62307	-0.030046
7	0xbdf8b430	-0.12143743
8	0xbe0953cc	-0.13410872
9	0xbdde0e30	-0.1084255
10	0x3da3927e	0.079869255
11	0x3d28c24b	0.041200917
12	0xbcd2f251	-0.025750311
13	0xbd1f22f0	-0.03885168
14	0x3d4948f0	0.049141824
15	0xbd98eaa2	-0.07466628
16	0xbdbe8e79	-0.09304518
17	0x3d299588	0.04140237
18	0xbd92022a	-0.07129319
19	0xbda36870	-0.07978904
20	0xbbf9ceab	-0.0076235137
21	0x3c9086d3	0.017642414
22	0x3db747c9	0.08949239
23	0xbe07091a	-0.13187066
24	0xbcd72975	-0.026264885
25	0xbcfa29be	-0.030537482
26	0xbc12e4da	-0.008965695
27	0x3c99b5e5	0.018763492
28	0xbe162aa0	-0.14664698
29	0x3a5d69c0	0.0008446239
30	0xbd3a24be	-0.045445196
31	0xbca4318e	-0.02004316
32	0x3d3f9146	0.046769403
33	0x3d562749	0.05228356
34	0x3d8127c1	0.063064106
35	0x3d554c58	0.05207476
36	0x3dabd6e2	0.08390595
37	0xbe03e97c	-0.12882036
38	0x3ccfe4fc	0.025377743
39	0x3dd80c07	0.10549169
40	0xbe0fcc9e	-0.14042899
41	0xbe0a6983	-0.13516812
42	0xbe27b579	-0.1637782
43	0x3de2fa6f	0.11082923
44	0xbd91a1ca	-0.07110937
45	0x3a9ef57c	0.0012127603
46	0x3d89645e	0.06708597
47	0x3db01b1a	0.08598919
48	0xbdef564c	-0.11686382
49	0x3dcd66d0	0.100293756
50	0xbdc29834	-0.09501687
51	0xbd3c5d16	-0.04598721
52	0xbdf61dfc	-0.12017438
53	0x3d0cebc9	0.03440455
54	0x3d331e16	0.043729864
55	0xba655dfb	-0.0008749661
56	0xbdbc167f	-0.09183978
57	0x3cf20217	0.029542012
58	0x3de54efd	0.111967064
59	0x3dc20648	0.09473854
60	0x3dc5ad6d	0.09652219
61	0xbab6d007	-0.0013947495
62	0x3e0eeb29	0.13956894
63	0x3d266675	0.040625054
64	0x3dbe058d	0.092784025
65	0xbdabfaa8	-0.08397418
66	0x3daaa3e4	0.08332041
67	0xbc108dc5	-0.008822863
68	0xbd2dca21	-0.042429093
69	0xbcc9e0a6	-0.024643254
70	0xbcc9a663	-0.024615472
71	0x3d7d262d	0.061803985
72	0xbd96ff25	-0.07372884
73	0xbd6f5b8b	-0.05843691
74	0xbe2be390	-0.16786027
75	0x3dd7ff98	0.105467975
76	0xbc630ba6	-0.013857758
77	0x3da1f43a	0.07907911
78	0xbd0a8acf	-0.033823784
79	0x3dd47259	0.103733726
80	0xbd896cdb	-0.06710216
81	0x3e0eb8ce	0.13937685
82	0xbe3d0972	-0.18460634
83	0x3cf37464	0.029718585
84	0xbd5ab49d	-0.053394902
85	0xbceb5069	-0.028724866
86	0x3dab3734	0.083601385
87	0x3d85e436	0.065376684
88	0xbcc39ce0	-0.023878515
89	0xbd376cec	-0.04478161
90	0xbd3a17e7	-0.04543295
91	0x3ce7351d	0.028223569
92	0x3d9521eb	0.0728186
93	0x3d39160e	0.04518705
94	0x3c70495a	0.014665926
95	0xbd931ace	-0.07182847
96	0x3d3809db	0.044931274
97	0xbe150f1f	-0.1455655
98	0xbd9dd91a	-0.077074245
99	0x3da94347	0.08264785
100	0xbbd8c2e7	-0.006615031
101	0x3d9d0be8	0.076682866
102	0x3d984066	0.07434158
103	0xbd219a53	-0.039453816
104	0xbd87bc98	-0.06627768
105	0xbdabf543	-0.08396389
106	0xbcf781ee	-0.030213322
107	0x3bd02cd8	0.006353002
108	0x3dd59b04	0.104299575
109	0xbc4fe391	-0.012688533
110	0xbdd0f907	-0.10203748
111	0xbd3609dc	-0.044442996
112	0xbdae1646	-0.08500342
113	0xbc36a066	-0.01114664
114	0x3cbd443c	0.023103826
115	0x3da8df13	0.08245673
116	0xbe1293af	-0.1431415
117	0xbca0c297	-0.019624038
118	0x3c1bd8f5	0.009512176
119	0x3d9b40bb	0.07580706
120	0x3db85cd2	0.09002079
121	0xbdb66e6c	-0.0890778
122	0x3d0bb5c8	0.034108907
123	0x3d38a945	0.045083303
124	0x3db70bd8	0.08937806
125	0xbc62fdf3	-0.0138544915
126	0x3d951649	0.07279641
127	0x3c225cca	0.009909818
128	0xbde1489b	-0.110001765
129	0xbcb53aa1	-0.022122683
130	0x3df732d3	0.12070241
131	0xbe0ae442	-0.13563636
132	0xbcc5a3c6	-0.024125945
133	0xbd6493e7	-0.055805113
134	0x3dd2bfe7	0.10290509
135	0x3d5bc619	0.053655718
136	0x3dcb39ad	0.0992311
137	0xbcac37e2	-0.02102274
138	0xbd2f1564	-0.04274501
139	0xbd7bc343	-0.061465513
140	0xbe0a5c9a	-0.13511887
141	0x3cc76fc9	0.024345296
142	0xbe287874	-0.16452199
143	0xbccd8201	-0.025086405
144	0x3e07e25e	0.13269946
145	0x3aa0b6f6	0.0012261558
146	0xbb0add2d	-0.002118896
147	0x3d34381f	0.043998834
148	0xbd0d2ca7	-0.034466412
149	0xbd897d2f	-0.0671333
150	0xbde68b86	-0.11257081
151	0xbdce3481	-0.10068608
152	0x3db90b4b	0.09035357
153	0xb993008b	-0.0002803843
154	0xbdae39bc	-0.08507106
155	0xbd9109d6	-0.07081954
156	0x3df319de	0.11870168
157	0xbd7705b8	-0.06030819
158	0xbdfacbe1	-0.12245918
159	0xbb82dcab	-0.003993591
160	0x3d2f4fe2	0.04280079
161	0xbdc942ab	-0.09827169
162	0xbde7f73c	-0.11326453
163	0xbd4b1b7f	-0.04958677
164	0x3d896850	0.06709349
165	0xbdb0ea6a	-0.08638461
166	0xbda76385	-0.08173279
167	0x3d22bf28	0.039733082
168	0xbc013e62	-0.007888408
169	0xbd76b9da	-0.060235836
170	0x3dba643a	0.09101148
171	0xbcfbb835	-0.030727485
172	0xbd70e11e	-0.05880844
173	0xbd1803b0	-0.03711289
174	0xbd54d821	-0.05196393
175	0xbdc8beb0	-0.09801996
176	0xbd91f54c	-0.07126865
177	0xbd33dd66	-0.043912314
178	0x3dddedb4	0.10836354
179	0xbbf33516	-0.0074221
180	0xbcbf1c46	-0.023328912
181	0x3c62aa3a	0.0138345305
182	0x3de466ef	0.111524455
183	0x3c1e8097	0.009674213
184	0xbdbf32af	-0.09335839
185	0x3daeb477	0.08530515
186	0x3b2d23fb	0.002641915
187	0xbc948c23	-0.018133229
188	0x3c84a765	0.016193101
189	0x3d4e80fb	0.050415974
190	0xbc52b7b1	-0.012861178
191	0x3d937da6	0.072017
192	0x3da2ec99	0.07955284
193	0xbdd2a3e0	-0.10285163
194	0xbdc56eb6	-0.09640257
195	0x3b334afd	0.002735793
196	0x3d013bbe	0.031551115
197	0x3cdc108b	0.026863357
198	0xbd4cc4f4	-0.049992517
199	0xbe0151c5	-0.12628849
200	0x3da03443	0.07822468
201	0xbd90419c	-0.07043764
202	0xbb1f347b	-0.0024292755
203	0xbe129c3c	-0.14317411
204	0xbc86ac3c	-0.01643955
205	0xbd455530	-0.048176944
206	0x3df638eb	0.12022575
207	0x3da26848	0.07930046
208	0xbd73fce8	-0.059567362
209	0xbddb4aeb	-0.10707649
210	0x3dd54c93	0.10414996
211	0x3d630d94	0.05543287
212	0xbd806020	-0.062683344
213	0x3d7cc692	0.06171281
214	0x3db8f99f	0.090319864
215	0x3d6b6512	0.057469435
216	0xbe1b1bae	-0.15147278
217	0x3e056ee2	0.1303058
218	0x3dadc2b4	0.08484402
219	0xbc4abbcf	-0.012373879
220	0xbd28cad6	-0.041209064
221	0x3cf907f7	0.030399306
222	0xbd41f131	-0.04734916
223	0xbc80886e	-0.015690055
224	0xbdf67ab1	-0.1203512
225	0xbde02da9	-0.10946209
226	0x3d74bdf0	0.05975145
227	0xbe053da4	-0.13011795
228	0x3cfd81c5	0.030945668
229	0xbdb1dc52	-0.08684601
230	0x3df153d3	0.11783566
231	0xbd21bff9	-0.03948972
232	0xbe009665	-0.12557371
233	0xbdb4f520	-0.088358164
234	0xbd446267	-0.047945406
235	0xbcedf2d4	-0.029046454
236	0x3e0ccc18	0.1374973
237	0x3d378116	0.04480084
238	0xbba1b504	-0.004934909
239	0x3be66a9f	0.007031753
240	0xbc8a78d3	-0.016903317
241	0xbc0185ab	-0.007905404
242	0xbd99551d	-0.07486937
243	0xbceddf4e	-0.029037144
244	0xbdf752a5	-0.1207631
245	0xbd17ceaf	-0.037062343
246	0x3ca60ca6	0.020269703
247	0xbd57f7e3	-0.052726638
248	0x3d6dd5ea	0.058065332
249	0x3e02f156	0.12787375
250	0xbd61528d	-0.055010367
251	0xbd32ee1e	-0.043684117
252	0x3d7d6a15	0.061868746
253	0xbc3e610c	-0.011619817
254	0x3d0c5d70	0.034268796
255	0x3db74566	0.089487836

lstm.weight_ih_l1 f4 [256, 64]
0	0xbcbe9fbb	-0.023269525
1	0xbdbcad61	-0.09212757
2	0xbcbd7c73	-0.023130631
3	0xbdd9c4af	-0.106332175
4	0x3dc2ab05	0.09505276
5	0xbd68f72a	-0.05687634
6	0xbc08b60e	-0.0083441865
7	0x3dbff696	0.093732044
8	0x3cb212e8	0.02173753
9	0xbcba934f	-0.02277532
10	0x3d60541e	0.05476772
11	0xbdb7fe3c	-0.08984038
12	0xbbf11bff	-0.0073580737
13	0x3cbb0536	0.022829633
14	0xbbad96bc	-0.00529751
15	0x3d25db1d	0.040492166
16	0xbce5af24	-0.028037615
17	0xbd68edff	-0.056867596
18	0xbdb15c46	-0.08660178
19	0x3c1349d7	0.008989773
20	0x3cd9180d	0.026500726
21	0xbdf99dfb	-0.121883355
22	0x3d7ba64a	0.061437882
23	0xbcc91b56	-0.024549168
24	0x3dc826c0	0.09773016
25	0x3d66508b	0.056229156
26	0x3da64192	0.08117975
27	0xbdbc682d	-0.091995575
28	0x3b8e29e5	0.0043384903
29	0xbcdbfd3b	-0.026854148
30	0xbd656458	-0.0560039
31	0x3bd33b63	0.0064462884
32	0xbd8524f0	-0.06501186
33	0xbd64157d	-0.055684555
34	0xbdd77b5e	-0.10521577
35	0xbd25db6a	-0.040492453
36	0xbdbc1b9e	-0.09184955
37	0xbbaf651e	-0.0053526303
38	0xbd2ef501	-0.042714123
39	0xbc0b011d	-0.008484152
40	0x3e148eed	0.14507647
41	0x3be19b92	0.0068850005
42	0x3df17901	0.11790658
43	0xbd6edd5a	-0.058316566
44	0x3e22a701	0.1588402
45	0xbd43f86b	-0.04784433
46	0x3d872926	0.06599645
47	0x3db0c2fa	0.08630939
48	0x3c2a50d5	0.010395248
49	0xbd145444	-0.036213174
50	0x3daf8658	0.08570546
51	0x3d9a96a8	0.07548267
52	0xbc9a975e	-0.018871006
53	0x3e095af9	0.1341361
54	0x3db2365e	0.08701776
55	0x3dafb66c	0.08579716
56	0xbdde6dfe	-0.10860823
57	0xbd2b8a5c	-0.041879997
58	0x3de675ee	0.11252962
59	0x3dcc4a11	0.099750645
60	0xbd029c48	-0.031887323
61	0x3e010d8e	0.12602827
62	0xbd8805de	-0.06641744
63	0x3c6ab94b	0.014326404
64	0x3c4e23c2	0.0125817675
65	0xbd66c683	-0.05634166
66	0x3de7a409	0.11310584
67	0x3d88e52c	0.06684336
68	0x3c2c70ae	0.010524912
69	0xbe0caf6d	-0.13738795
70	0x3b54898c	0.0032430617
71	0xbdaef884	-0.08543494
72	0xbd08d5b9	-0.033406947
73	0x3de45885	0.11149696
74	0x3da446c0	0.08021307
75	0xbdc216df	-0.094770186
76	0xbd19b524	-0.037526265
77	0x3dfb10ed	0.12259088
78	0x3da08e11	0.07839597
79	0x3c91d14b	0.017799994
80	0x3cfa16e5	0.030528495
81	0xbd165606	-0.036703132
82	0x3e0e45a9	0.1389376
83	0xbd9611a3	-0.07327583
84	0x3c5ee392	0.013604062
85	0xbd95f98f	-0.0732299
86	0x3d622598	0.055211633
87	0x3d5efa30	0.054437816
88	0xbe12baac	-0.14329022
89	0x3d297103	0.041367542
90	0x3c16db3c	0.009207543
91	0x3da24ecc	0.079251856
92	0xbd7bf31a	-0.061511137
93	0x3d1351cf	0.03596669
94	0xbe199db4	-0.15001565
95	0x3c3c6d58	0.011500679
96	0xbc8a0ab3	-0.016850805
97	0x3c539436	0.012913754
98	0xbd03a4df	-0.032139655
99	0x3dc71d42	0.09722377
100	0xbdcafbe0	-0.099113226
101	0xbaccf921	-0.0015638211
102	0xbb2ab991	-0.0026050548
103	0x3d992780	0.07478237
104	0x3cd32667	0.025775148
105	0xbca388d0	-0.019962698
106	0xbd1a6512	-0.037694044
107	0xbc38d8ea	-0.011282185
108	0xbc030f12	-0.0079991985
109	0xbc73d946	-0.014883345
110	0xbcfa4695	-0.030551234
111	0xbd35b515	-0.044362146
112	0xbdab628d	-0.083684064
113	0x3d9c4e19	0.076320834
114	0x3d71fb8a	0.059077777
115	0xbd48d0d9	-0.049027298
116	0xbd9c1ac1	-0.076222904
117	0xbd855f59	-0.06512327
118	0x3d906c7a	0.0705194
119	0xbd8e2191	-0.06939996
120	0x3d57773c	0.052603945
121	0x3db81beb	0.089897
122	0x3d0ebe0a	0.034849204
123	0x3d3a30cb	0.04545669
124	0xbd9f9426	-0.07791929
125	0x3e021c52	0.12706116
126	0x3d6d4a14	0.057931975
127	0xbd9416f2	-0.07230939
128	0xbc69100a	-0.014225015
129	0xbd736112	-0.059418745
130	0x3dc7de57	0.09759205
131	0xbe2c8c7e	-0.16850469
132	0xbe11d47c	-0.14241213
133	0xbc145b8a	-0.009055028
134	0x3e425980	0.18979454
135	0x3e0220b6	0.1270779
136	0x3e1498b9	0.14511384
137	0x3c854a8a	0.016270895
138	0x3d6d4d5c	0.057935104
139	0x3d970919	0.07374782
140	0x3d27201b	0.040802103
141	0x3d971be5	0.07378367
142	0x3c8525df	0.01625341
143	0xbd8165c3	-0.06318238
144	0x3dc36270	0.0954026
145	0xbca8e751	-0.020618113
146	0xbc090bd5	-0.008364637
147	0xbd40214d	-0.046906758
148	0xbce3dbfa	-0.027814854
149	0xbe29f223	-0.16596274
150	0xbe28d148	-0.16486084
151	0xbdfeab40	-0.12435007
152	0xbbeb254c	-0.007176077
153	0xbe088046	-0.13330182
154	0xbe339c38	-0.17540061
155	0xbc8a3145	-0.016869197
156	0xbcc06a68	-0.023488238
157	0xbe0c4781	-0.13699152
158	0xbdc3b68a	-0.09556301
159	0xbe311898	-0.17294538
160	0x3c7a6b0b	0.01528431
161	0xbda8619e	-0.08221744
162	0x3d37536f	0.044757303
163	0xbd38ab19	-0.045085046
164	0xbdf4fca8	-0.11962253
165	0x3c30612b	0.010765354
166	0xbdcc3a4b	-0.09972056
167	0x39475ec6	0.00019013425
168	0x3e4d4c28	0.20048583
169	0xbda63413	-0.08115401
170	0x3e05250e	0.13002416
171	0xbe5ca4fc	-0.21547312
172	0x3d33b896	0.043877207
173	0x3d829475	0.06375972
174	0xbe243d4c	-0.16039008
175	0xbc98c7aa	-0.018649895
176	0xbd7d82e4	-0.061892405
177	0x3d5a1ed8	0.05325207
178	0x3e34c9f2	0.17655161
179	0x3e103e83	0.14086346
180	0x3e0bd4c5	0.13655384
181	0x3de24545	0.11048368
182	0xbd30794a	-0.04308442
183	0xbdcc7d8d	-0.099848844
184	0xbdf72de9	-0.120693035
185	0x3c8686b2	0.01642165
186	0x3db93eab	0.09045156
187	0xbcf66565	-0.030077646
188	0x3e1b82f5	0.15186675
189	0xbc6b39e5	-0.014357065
190	0xbca2a773	-0.019855237
191	0x3e0fe016	0.14050326
192	0xbd80ae35	-0.06283227
193	0x3dda750a	0.10666855
194	0xbc3bcef4	-0.011462916
195	0x3b99edb6	0.004697527
196	0xbd8b96c9	-0.06815869
197	0xbb15a41e	-0.0022833417
198	0x3d90ac54	0.07064119
199	0x3cb796be	0.022410747
200	0x3e0aac67	0.13542329
201	0xbd9dff05	-0.07714657
202	0x3de660a6	0.11248903
203	0x3ddf42e5	0.10901431
204	0xbddbc31a	-0.10730572
205	0x3d9fee5e	0.07809137
206	0x3c12ec89	0.008967527
207	0xbcc04080	-0.023468256
208	0xbd8eb97d	-0.06968973
209	0xbde91120	-0.113802195
210	0x3d7095c6	0.058736585
211	0x3dfef301	0.12448693
212	0xbd8d7df3	-0.069087885
213	0xbd5c0b74	-0.05372186
214	0xbd68d89d	-0.056847204
215	0xbd29e6e7	-0.04147997
216	0xbd87777f	-0.06614589
217	0xbd8a40c7	-0.067506365
218	0xbde551ed	-0.11197267
219	0x3ca06207	0.019577993
220	0xbd5e5a3f	-0.054285284
221	0xbc673287	-0.014111168
222	0xbcff2171	-0.031143876
223	0x3da37c73	0.07982721
224	0x3e063415	0.13105805
225	0xbc1548e4	-0.009111617
226	0x3d6780ca	0.056519307
227	0xbcc30975	-0.02380822
228	0xbdf5bd65	-0.11999015
229	0xbd9140ec	-0.07092461
230	0xbc94ce02	-0.018164638
231	0x3d5156e8	0.05110827
232	0x3dde3e65	0.108517446
233	0xbdca57b0	-0.09880006
234	0xba034f4f	-0.00050090713
235	0xbd221c94	-0.039578035
236	0x3e02a0a7	0.12756597
237	0x3e0170f4	0.12640744
238	0xbd033c9f	-0.032040235
239	0x3c6cdbc9	0.014456698
240	0xbdc7b4d9	-0.09751291
241	0x3d3c26c0	0.045935392
242	0xbc77626f	-0.015099152
243	0x3dfa58b6	0.122239515
244	0x3d38dc37	0.04513189
245	0x3cbe9c47	0.023267878
246	0xbd3bd5b7	-0.04585811
247	0xbc7a93c9	-0.015294024
248	0x3d1b2206	0.037874244
249	0x3c258907	0.010103471
250	0x3df904f4	0.12159148
251	0xbde64063	-0.112427495
252	0x3daa015f	0.08301043
253	0xbc35845b	-0.011078919
254	0xbae064fe	-0.0017119942
255	0x3e016591	0.12636401

lstm.weight_hh_l1 f4 [256, 64]
0	0xbb2e5ed4	-0.0026606815
1	0xbc045ea2	-0.008079203
2	0x3d8bc507	0.06824689
3	0xbd240857	-0.040047016
4	0xbd55aece	-0.05216866
5	0xbe32d229	-0.17462982
6	0x3c0c0322	0.008545669
7	0x3d9de1e3	0.077091
8	0x3cffe7b7	0.03123842
9	0x3e08ae72	0.13347796
10	0x3ccd035a	0.025026012
11	0xbe3bc965	-0.18338545
12	0xbe12376a	-0.14278951
13	0x3da90554	0.082529694
14	0x3da7cc17	0.08193224
15	0xbd2aeeee	-0.041731767
16	0xbd1de62a	-0.03854958
17	0x3d481293	0.04884584
18	0xbcf94f02	-0.030433182
19	0xbde00533	-0.10938492
20	0x3d667a1b	0.056268793
21	0x3d90367f	0.07041644
22	0xbdb1ddfb	-0.086849175
23	0xbdbb3620	-0.09141183
24	0xbcfe3550	-0.03103128
25	0xbcb1c66d	-0.021701062
26	0xbccb8546	-0.024843823
27	0x3d34cbfd	0.04413985
28	0xbde1ee12	-0.110317364
29	0xbccbdcff	-0.024885653
30	0x3bc5d768	0.0060376413
31	0x3d1a6873	0.037697267
32	0x3d899409	0.067176886
33	0x3d24e8ae	0.040260963
34	0x3d829e57	0.06377857
35	0x3d982286	0.0742846
36	0x3d93b98b	0.07213124
37	0xbdc589d9	-0.09645433
38	0xbd1cee20	-0.03831303
39	0x3d897a36	0.06712763
40	0x3dbfc964	0.09364584
41	0xbd56b2b4	-0.05241652
42	0xbde22579	-0.110423036
43	0x3de133dc	0.109962195
44	0x3e071ac1	0.131938
45	0xbc87511e	-0.016518172
46	0xbca6850a	-0.02032711
47	0x3dbaffac	0.09130797
48	0xbd57d0c7	-0.05268934
49	0xbcd23b06	-0.02566291
50	0x3d7f3614	0.062307432
51	0xbc90e5fe	-0.017687794
52	0x3dca99f7	0.09892648
53	0xbdbca89f	-0.092118494
54	0xbc47f4b2	-0.012204336
55	0xbc6a123c	-0.014286574
56	0xbded1c38	-0.11577648
57	0x3d6f13bb	0.058368426
58	0xbe188e70	-0.14898086
59	0x3dca527b	0.09879013
60	0xbe2300ed	-0.15918322
61	0x3b3af426	0.0028526871
62	0xbdb9d907	-0.09074598
63	0x3e2a6d3d	0.16643234
64	0xbdd89c19	-0.10576648
65	0xbc5249bd	-0.012834963
66	0x3b02a642	0.0019935523
67	0x3c09a494	0.008401055
68	0xbdbe404c	-0.092896074
69	0xbdd089d0	-0.10182536
70	0xbd208bbf	-0.039195772
71	0x3cc9860c	0.024600051
72	0x3dec168b	0.11527737
73	0xbd9369bf	-0.07197904
74	0x3e090aa1	0.13382961
75	0xbd4d337b	-0.050097924
76	0xbdfa4756	-0.122206375
77	0xbd70568e	-0.058676295
78	0x3d8436d9	0.06455774
79	0xbc9e77c4	-0.019344218
80	0x3c144742	0.009050192
81	0x3e2b532a	0.16730943
82	0x3cf88ba1	0.030340018
83	0x3c0d732f	0.008633419
84	0xbdffcd96	-0.12490384
85	0xbe2431a6	-0.16034564
86	0x3d4c0e9e	0.049818628
87	0xbdba998c	-0.09111318
88	0x3d71a345	0.058993597
89	0x3d6d18e1	0.057885054
90	0x3d5a709d	0.053330053
91	0x3bb442db	0.005501134
92	0xbe19a3b2	-0.15003851
93	0xbd115c75	-0.035488565
94	0xbe13ac72	-0.14421251
95	0x3e0ea353	0.13929491
96	0xbd9dd215	-0.077060856
97	0x3d8fe754	0.07026544
98	0x3d66e92e	0.05637472
99	0x3b5e6fea	0.0033941218
100	0xbd33b26f	-0.04387134
101	0xbcd8324a	-0.026391167
102	0x3d1aad90	0.03776318
103	0x3d9d80d2	0.07690586
104	0x3dc32c09	0.095298834
105	0xbdb2af08	-0.08724791
106	0x3de8ba14	0.113636166
107	0x3dd0fb0a	0.10204132
108	0x3e0992f5	0.13434966
109	0xbdce643c	-0.10077712
110	0x3dabdfa8	0.083922684
111	0xbd7964eb	-0.06088726
112	0xbd84f2e5	-0.06491641
113	0x3d1e823a	0.038698412
114	0x3dff5982	0.12468244
115	0xbd90a239	-0.070621915
116	0xbc103935	-0.008802702
117	0xbd20daf8	-0.039271325
118	0x3a71ad66	0.0009219259
119	0x3d9a4ad9	0.07533807
120	0xbb7b6603	-0.0038360364
121	0xbdece574	-0.11567202
122	0xbde4502c	-0.11148104
123	0x3e1df73d	0.15426345
124	0xbd34c3e0	-0.044132113
125	0x3d0359a5	0.032067914
126	0xbe0abe69	-0.13549198
127	0x3d7a22c9	0.06106833
128	0xbd005dca	-0.031339444
129	0xbce0220e	-0.027359989
130	0x3df02295	0.11725346
131	0x3d73309b	0.059372526
132	0xbd9b10b0	-0.07571542
133	0x3c07e480	0.008294225
134	0x3dd18796	0.10230939
135	0xbd2c07ae	-0.04199951
136	0x3d309c86	0.043118022
137	0x3de4a818	0.11164874
138	0xbdba6bd3	-0.09102597
139	0xbdc6937d	-0.096961
140	0xbdde4430	-0.108528495
141	0x3bf11d71	0.007358246
142	0xbdfd6ed4	-0.123746544
143	0xbd8878ec	-0.06663689
144	0x3de390f1	0.1111163
145	0x3d004b35	0.031321723
146	0xbda1f204	-0.07907489
147	0x3c6ee39f	0.014580636
148	0xbdc9e95e	-0.098589644
149	0x3da37377	0.079810075
150	0x3dc0652d	0.09394298
151	0xbe08c31c	-0.13355678
152	0x3dd77dd3	0.10522046
153	0x3cad058e	0.021120813
154	0x3c1a3b66	0.009413576
155	0xbdbd51d3	-0.09244122
156	0xbdf5a93f	-0.11995172
157	0xbd3b1ad7	-0.045679893
158	0xbcda4e93	-0.026648795
159	0x3d2ae85d	0.041725505
160	0x3da9c792	0.08290018
161	0xbde50889	-0.111832686
162	0xbd9e85a4	-0.07740334
163	0x3c63052d	0.0138562145
164	0x3d1a85aa	0.03772513
165	0x3dde74ae	0.10862099
166	0xbe0322ac	-0.12806195
167	0xbdb87584	-0.09006789
168	0xbbd1ab49	-0.0063985926
169	0x3de98741	0.11402751
170	0x3c310835	0.010805179
171	0x3d413f4a	0.047179498
172	0x3df5b8dd	0.119981505
173	0xbca5dcd8	-0.020246908
174	0xbd2a25ab	-0.04153983
175	0x3c137209	0.008999356
176	0x3d040b47	0.032237317
177	0xbdb9b736	-0.09068148
178	0x3da1d9ea	0.07902892
179	0xbd6e0a97	-0.058115568
180	0x3d957fe6	0.07299785
181	0xbdc08dbf	-0.09402036
182	0x3da4aa02	0.08040239
183	0xbc959cf9	-0.018263327
184	0xbdfb3717	-0.12266367
185	0xbdd97647	-0.10618263
186	0xbcc9a6ab	-0.024615606
187	0xbc86d722	-0.016460005
188	0x3d87bfc9	0.06628377
189	0x3e0ea2b0	0.13929248
190	0xbddcee3b	-0.10787626
191	0x3dbb4edf	0.09145903
192	0xbd57658d	-0.05258708
193	0xbd02197e	-0.031762592
194	0xbda8b19b	-0.082370006
195	0xbc968639	-0.01837455
196	0x3d984685	0.074353255
197	0xbde8cd5b	-0.113672934
198	0x3d18f2ff	0.037341114
199	0xbda10ae0	-0.07863402
200	0xbd7d6620	-0.061864972
201	0x3dc516e3	0.09623506
202	0x3e1539b2	0.1457279
203	0xbd3b985c	-0.045799598
204	0xbdc0619e	-0.09393619
205	0x3ddc004d	0.10742245
206	0xbdd33bf6	-0.10314171
207	0xbdb2afe8	-0.08724958
208	0x3e017155	0.12640889
209	0xbce0c1d6	-0.027436178
210	0xbd9a8960	-0.075457335
211	0xbe1b36a1	-0.15157558
212	0xbc82aabb	-0.015950551
213	0x3c541b44	0.012945954
214	0x3d34888c	0.044075534
215	0xbe0c44c9	-0.13698114
216	0xbdc7ee4f	-0.09762251
217	0xbc8a2476	-0.016863089
218	0xbc076cfa	-0.008265728
219	0x3d91de16	0.07122438
220	0xbd491a04	-0.049097076
221	0x3e1d4f1f	0.15362214
222	0x3cbcd4d8	0.02305071
223	0xbb063efe	-0.0020484324
224	0xbcf6b01d	-0.030113274
225	0xbc950e32	-0.018195245
226	0x3c8e9fc3	0.017410165
227	0xbd847582	-0.06467725
228	0xbd990902	-0.07472421
229	0x3e1c190a	0.15243927
230	0xbcb73806	-0.022365581
231	0x3c41fad0	0.0118395835
232	0xb95cc0b6	-0.00021052625
233	0xbe10d9c5	-0.14145572
234	0xbd26cced	-0.040722776
235	0x3d28ba92	0.041193552
236	0x3d8c87bc	0.06861827
237	0x3b838e50	0.0040147677
238	0x3dd8adc8	0.10580021
239	0x3dcabc3a	0.098991826
240	0x3d8df1f3	0.06930914
241	0x3ddc31d3	0.10751691
242	0x3cdda546	0.027056348
243	0x3d74602d	0.059662033
244	0x3d9c8d44	0.07644132
245	0xbca14908	-0.019688144
246	0x3e0a1c79	0.13487424
247	0xbd2e3060	-0.042526603
248	0xbdffe188	-0.124941885
249	0x3d963bf3	0.07335653
250	0x3d9c4878	0.0763101
251	0x3d7801cf	0.0605486
252	0xbe0eb3f8	-0.1393584
253	0xbda6fade	-0.08153318
254	0x3d842420	0.06452203
255	0x3e02f0e5	0.12787206

lstm.bias_ih_l1 f4 [256]
0	0x3e13dec5	0.14440449
1	0xbd2dc403	-0.04242326
2	0xbda66f5b	-0.08126708
3	0x3e09dcf5	0.13463195
4	0xbd1d372b	-0.03838269
5	0x3df6ef1f	0.120573275
6	0xbdba3d20	-0.0909369
7	0xbd58b0aa	-0.052902855
8	0x3d5e56f1	0.054282133
9	0x3bec80dd	0.00721751
10	0xbce91ace	-0.028455164
11	0x3d9b7429	0.07590515
12	0xbc8130dd	-0.01577037
13	0x3d1c77dc	0.038200244
14	0x3ddd2277	0.10797589
15	0xbd8cf234	-0.06882134
16	0x3bf32b19	0.007420909
17	0x3e0cdc39	0.13755883
18	0x3e097391	0.13422991
19	0x3d11fbed	0.035640646
20	0xbd4b3ce4	-0.049618617
21	0x3d9b2047	0.07574516
22	0xbd04a647	-0.032385137
23	0x3de57eef	0.11205851
24	0xbdf692f2	-0.12039746
25	0x3e061949	0.13095583
26	0x3d04e1e3	0.032441985
27	0xbd2558b3	-0.040367793
28	0x3db2fb64	0.08739355
29	0x3dc87a06	0.09788899
30	0x3d80de64	0.06292418
31	0x3da5408d	0.08068953
32	0x3e055ac6	0.13022909
33	0x3cf00bc4	0.029302485
34	0x3e1b51f8	0.15167987
35	0x3da2ebde	0.07955144
36	0x3e15e46b	0.14637916
37	0xbd94ce25	-0.072658814
38	0x3d9dce4d	0.077053644
39	0xbd0e0bd0	-0.034679234
40	0x3df3907d	0.11892793
41	0x3b83d7e6	0.00402354
42	0xbc9c873e	-0.019107457
43	0xbcc7a552	-0.024370823
44	0xbb4287af	-0.0029682925
45	0x3d5e119e	0.05421602
46	0xbc905df0	-0.017622918
47	0xbdbb085a	-0.09132452
48	0xbc3a56ac	-0.011373203
49	0xbd74dd8b	-0.059781592
50	0x3e020c47	0.12699996
51	0x3e15a6c2	0.14614394
52	0x3dac10ce	0.08401643
53	0x3d85ce3d	0.065334775
54	0x3e013184	0.12616545
55	0x3d85f4aa	0.065408066
56	0x3c21fbdd	0.009886709
57	0xbdc8d183	-0.09805586
58	0x3d821e01	0.06353379
59	0x3e073736	0.13204655
60	0xbdc6baeb	-0.097036205
61	0x3d089931	0.03334922
62	0x3d104a37	0.035227027
63	0x3da40fc4	0.080108196
64	0x3b6d8236	0.0036240942
65	0x3e14a178	0.1451472
66	0x3dd0546c	0.10172352
67	0x3d1c7626	0.038198613
68	0x3d770bbd	0.06031393
69	0x3dd1cede	0.10244535
70	0xbe146920	-0.14493227
71	0xbde90246	-0.11377387
72	0x3d2b8f9d	0.041885007
73	0xbdb0b57a	-0.08628364
74	0xbd651b56	-0.055934273
75	0xbd5f7e16	-0.054563604
76	0xbcdfe3e4	-0.027330346
77	0x3da5167a	0.08060928
78	0x3d0ce523	0.03439821
79	0x3d3a86a4	0.04553856
80	0x3d9bb7d8	0.07603425
81	0xbcdd513d	-0.027016276
82	0xbd3e4174	-0.04644914
83	0x3d0e046f	0.034672197
84	0x3d244b13	0.04011066
85	0xbd0d67a3	-0.034522664
86	0x3d5fa1b9	0.05459759
87	0x3cbbff63	0.022948926
88	0xbc081d50	-0.00830777
89	0x3deabda8	0.11461955
90	0x3d242b19	0.040080164
91	0xbdfa1df6	-0.12212746
92	0x3d88518a	0.06656177
93	0x3c2901e3	0.010315391
94	0xbdc26140	-0.09491205
95	0x3d4faeec	0.050703928
96	0xbd084331	-0.033267204
97	0x3dd03458	0.10166234
98	0xbaaf3e66	-0.0013370037
99	0x3e02891c	0.12747616
100	0xbb9c293c	-0.0047656577
101	0xbd4b55f1	-0.049642507
102	0xbdeb81e6	-0.114993855
103	0x3e096604	0.13417822
104	0xbd0a804d	-0.033813763
105	0x3d913298	0.07089728
106	0x3c472843	0.012155595
107	0xbd92658a	-0.07148273
108	0x3e032733	0.12807922
109	0xbddfd1bf	-0.10928678
110	0xbd611e27	-0.054960396
111	0xbde03912	-0.10948385
112	0x3d6006f4	0.05469413
113	0xbcd5d1b7	-0.026100976
114	0x3e097dcd	0.13426895
115	0xbce2b206	-0.027672779
116	0xbdf8d025	-0.121490754
117	0x3c13200d	0.0089798095
118	0x3d18d758	0.037314743
119	0xbde6ffe6	-0.112792775
120	0xbe03b623	-0.12862448
121	0x3da361f0	0.079776645
122	0x3dc7f407	0.097633414
123	0x3dc28e11	0.09499753
124	0x3d2e3716	0.042533003
125	0x3e33aea5	0.1754709
126	0x3da6d758	0.08146542
127	0x3de0e311	0.109808095
128	0xbd55595d	-0.052087177
129	0x3e38cbc7	0.18046485
130	0x3e18f272	0.14936236
131	0x3d5222ca	0.05130271
132	0xbda7b233	-0.08188286
133	0x3d0f6e6d	0.03501742
134	0x3ca5edc1	0.020254971
135	0xbd88d30b	-0.06680878
136	0x3b88d12d	0.0041753263
137	0x3b511ea9	0.0031909144
138	0x3d3a2547	0.045445707
139	0xbdfa9a52	-0.122364655
140	0xbbd94675	-0.0066307136
141	0x3ab8c3f9	0.001409649
142	0xbdabd380	-0.0838995
143	0x3d6c287e	0.057655804
144	0x3d681c63	0.056667697
145	0x3e13542f	0.14387582
146	0xbd2a1118	-0.041520208
147	0xbaa89758	-0.0012862487
148	0x3ba41e6a	0.0050085085
149	0xbdf8b64a	-0.12144144
150	0xbd156a97	-0.036478605
151	0xbe35cf76	-0.17754921
152	0xbcbec2e5	-0.023286292
153	0x3df52318	0.11969584
154	0xbd8b0e12	-0.06789793
155	0xbc8cf676	-0.017207365
156	0xbd617adc	-0.05504881
157	0x3e074e76	0.13213524
158	0xbdb79e1e	-0.08965705
159	0x3c1a9429	0.009434738
160	0xbd28f0e0	-0.04124534
161	0xbd982d65	-0.07430533
162	0xbe3458c0	-0.1761198
163	0xbda41534	-0.08011857
164	0xbe242adb	-0.16031973
165	0x3c89502d	0.016761864
166	0x3d6aa370	0.057284772
167	0x3cfb0ac5	0.030644784
168	0x3e053d46	0.13011655
169	0xbe0f8db6	-0.14018902
170	0x3db6a51b	0.0891821
171	0xbd0c9ced	-0.034329344
172	0x3c93fbff	0.018064497
173	0x3b3930f4	0.0028257938
174	0x3c0ca5c4	0.0085844435
175	0xbdcdbf07	-0.10046201
176	0x3d19fb96	0.037593447
177	0x3df58d1f	0.11989807
178	0x3df3bdee	0.119014606
179	0x3e192a27	0.14957486
180	0x3e04aa78	0.12955654
181	0x3cc67664	0.024226375
182	0x3e397665	0.1811157
183	0xbc683e51	-0.014175014
184	0x3cbde1f1	0.023179026
185	0xbe0cb11d	-0.13739438
186	0x3d4483b2	0.047977157
187	0x3de1e031	0.11029089
188	0x3cc5f3e2	0.024164144
189	0x3de9ce73	0.1141633
190	0xbe1eb777	-0.15499674
191	0x3dfab14e	0.122408494
192	0x3dc15080	0.09439182
193	0x3deeb81b	0.11656209
194	0x3d4f4410	0.05060202
195	0x3e26cc97	0.16288982
196	0x3d941480	0.072304726
197	0xbd85792d	-0.06517253
198	0xbd8733c7	-0.066016726
199	0xbd9b06c4	-0.0756965
200	0x3d7a1029	0.061050568
201	0x3ceabb4f	0.028653769
202	0x3df8d667	0.12150269
203	0xbbdbd93e	-0.006709247
204	0x3dfc6b9d	0.12325213
205	0x3dbed1df	0.093173735
206	0xbd76ff37	-0.060301986
207	0xbda1b77e	-0.078963265
208	0x3e1b3160	0.15155554
209	0x3e354d23	0.17705207
210	0x3d862edd	0.06551907
211	0x3d6801d6	0.056642376
212	0xbda9b1fe	-0.082859024
213	0xbd09219f	-0.03347933
214	0x3d65ef67	0.056136515
215	0xbd1fdefb	-0.03903101
216	0x3e069e09	0.13146223
217	0xbb69d921	-0.0035682397
218	0xbd072811	-0.032997195
219	0x3b6c9032	0.003609669
220	0xbd9c471d	-0.07630751
221	0xbca7e4c5	-0.020494828
222	0x3da4c44e	0.08045255
223	0x3c424727	0.011857784
224	0xbcfbe11e	-0.030746993
225	0x3d1a49cc	0.037668034
226	0x3d445b2c	0.04793851
227	0x3d8b8d0e	0.068140134
228	0x3c54af69	0.012981274
229	0x3dcc1510	0.09964955
230	0x3d3495ae	0.04408806
231	0x3e0b5d79	0.13609876
232	0x3e256010	0.16149926
233	0x3d8d52f1	0.069005854
234	0x3dfe367d	0.124127366
235	0x3e0493f6	0.12947068
236	0xbd868f96	-0.065703556
237	0x3c0e5d72	0.008689271
238	0x3de04145	0.10949949
239	0xbd65aa72	-0.056070752
240	0x3d8caf75	0.06869403
241	0xbd05e0ab	-0.032684963
242	0xbda612ff	-0.08109092
243	0xbcf53088	-0.029930368
244	0x3c56689c	0.013086464
245	0x3d8461d2	0.0646397
246	0x3e1b68d0	0.15176702
247	0x3d9944e1	0.07483841
248	0xbd586b11	-0.05283648
249	0xbc91ecca	-0.017813105
250	0xbd10e6cf	-0.035376366
251	0xbce1bde8	-0.027556375
252	0x3de5657e	0.11200999
253	0x3d84597d	0.06462381
254	0x3d128a43	0.035776388
255	0xbc9ea697	-0.019366546
