data_storage/models/lstm_v1.0.0_20251231_150108/rebounds_model.pt (torch, 217525 bytes, 9 tensors)

lstm.weight_ih_l0 f4 [256, 12]
00000000: 05bb 893c d74c 943d f807 023e 147b 47bd
00000010: 1171 51bd fe69 123e 14f3 d53d 9882 b93a
00000020: 77f3 b7bd 286b 1ebe c903 213e 744e 85bc
00000030: 84c0 a5bb dc70 153e 2cea 1d3e e170 1a3e
00000040: 458a 28bd ed30 0abe 0036 73b7 4674 7bbc
00000050: 03ed ccbd bb8c 1f3d 8b06 7abd 13ce c2bb
00000060: 0f45 1fbd f5b8 023e 397c 953d 1a42 45bd
00000070: 4312 863d 6ab8 99bd 46a2 b9bc 74f0 c1bd
00000080: 2771 9e3d bc3a e63c e96a 06be 98b4 bbbd
00000090: 5ec4 983d 23fc bebd a546 403e d0ce 8fbd
000000a0: dee7 9f3d 906c e63d 927a e43d b11b 213d
000000b0: 7571 b63d 2c6e 82bd fdaa 2d3c 0f34 0bbd
000000c0: d2ef 283d 403f 643c 23be 893d c799 b93d
000000d0: 667f 8f3d 3eb5 0abe ddb9 87bd 64a1 9fbd
000000e0: e97b f4bd 8881 383d 6878 6dbd 7db5 023e
000000f0: b77a a83d d58e 443c 36ae c03d 1ef9 55bd
00000100: 66d9 c13d 8f56 babd b6df ae3d 9961 8a3d
00000110: 875c 12be 5a72 293d 8f33 e53d 871f cebc
00000120: ed06 28bd 171c 8dbc 1c5b b93d dfc1 bdbd
00000130: 7ffa 803d ffeb b83d 41d4 fa3c 3ded 44bd
00000140: 2e92 8c3d cf72 413d 2ef1 df3c bdde 1abe
00000150: df63 0c3d 4d5b 8c3d 48e5 3f3e be94 e0bc
00000160: fbec 28bd 3797 9fbd fa7f ef3d 3f52 debd
00000170: ad94 063d 88c1 1d3d bd92 b0bd a52c 033c
00000180: 0d36 b23c 9979 f9bd 2110 6f3c cc06 3d3d
00000190: a705 d83d 127c 08be f8eb b73d 6008 edbd
000001a0: a444 5cbd 8616 bbbd e185 453d 04c4 93bc
000001b0: fcbb fa3d 7bb8 ffbd 0363 b53d f4a1 0e3e
000001c0: 43d0 783c 38ac b53d 78b4 a3bd bd17 e0bd
000001d0: aebb 87bd 2f53 8a3d e674 e73d c8be 883d
000001e0: 6768 63bd 617d b43a 326b 403d 546a 7dbd
000001f0: 4a31 a53d 6e17 cfbd 1e16 293b 3958 3c3d
00000200: abe7 a4bd 2b55 debd e0a1 f03b f768 a0bd
00000210: f80a cebd 324c 833d c04c 77bd 1fec d4bd
00000220: 999d 25be 9777 c33d d5fe d53c 068d a43d
00000230: d38d a0bd 0198 923b 868a 923d cc7c 11bd
00000240: 3311 02bd f74b 013d 92a2 9e3d 0361 c53d
00000250: 71bb 08be acfd 29be 0a3c d63d 403f 423c
00000260: f74a debd c7fb f1bd 979a 9abc 70d5 583e
00000270: ae47 29be 94a9 743d 3b41 f33d c422 cc3d
00000280: c22f adbd aa15 9d3c 665d 023d e859 36bd
00000290: 303e bfbc 716b 07be 470a 3ebd 38ac ab3d
000002a0: f43d 38bd f36d 20bd 7c61 333e bc46 c7bd
000002b0: c2d5 8abd 4891 f23d e465 3f3a 5c97 8abc
000002c0: c7b8 a2bd 8dc2 e03d fbe0 913d f04f 0dbc
000002d0: 89f4 cebd c2a2 b03c e6bd 743d 88bb 7c3d
000002e0: 6103 17bc 3418 a43d dd85 69bd 57f3 78bd
000002f0: 9e04 d03c 3f04 96ba 035a d73d de55 623e
00000300: a25e b5bb eafa 9d3d b612 d2bc db55 acbc
00000310: 3007 b8bd e78d 923d 5b57 04be d383 fa3d
00000320: e6c8 01be 92b9 1e3d 4beb 8a3c 98c6 e6bc
00000330: 0e4e cebc 2097 6dbd 1742 703e d4cc db3c
00000340: 3b21 8d3d 58ce b03d 6f0e 233c c20a d83d
00000350: 64b0 8bbd 3b84 313d 22fc 683c ce73 dabd
00000360: 6493 10bd 670d fbbc 3be7 3b3d a9f9 143d
00000370: aaf9 9ebd 062c adbd 043d a33d 4279 06be
00000380: 8059 8a3d c052 c9bd 37b6 b2bb f02d 213e
00000390: f0a4 0dbe 835a be3d 22bc 2b3e 3060 fd3c
000003a0: 9665 16be ef34 fcbc 275a 0abe 93b3 793d
000003b0: e99b 9c3d 2d08 9fbd 716c 9dbd 4154 323d
000003c0: 81ad bdbd 2de0 fcbd 538b 1e3e 1ce7 09be
000003d0: abe5 fa3c 4ee1 913d 71e5 c0bd 42e0 48bd
000003e0: 6da7 b53d 60c6 243d cb00 d93d 1dec bd3d
000003f0: 89a5 31be d1eb cbbc a506 d53d ec61 a6bd
0.01681281 0.072412185 0.12698352 -0.04870136 -0.05113322 0.14298245 0.10446754 0.00141533
-0.08981984 -0.15470564 0.157241 -0.01627276 -0.00505835 0.14593834 0.1542136 0.15082122
-0.04114749 -0.13495226 -1.44965015e-05 -0.015347546 -0.10006144 0.03895257 -0.061041396 -0.005944976
-0.03888422 0.12765868 0.07299084 -0.048158742 0.06546452 -0.07505877 -0.022660386 -0.09469691
0.07736426 0.028104179 -0.1312672 -0.09165305 0.07459329 -0.09325435 0.18776949 -0.07021868
0.07807897 0.112511754 0.11156191 0.03933305 0.08908359 -0.0636867 0.010599849 -0.033985194
0.041244335 0.013931096 0.06725719 0.09062534 0.07006721 -0.13545701 -0.066272475 -0.07794455
-0.119376965 0.045045406 -0.057976156 0.12764545 0.08226531 0.011996944 0.09408228 -0.05223953
0.094652936 -0.09098541 0.08538763 0.067568965 -0.14293109 0.04136882 0.11191475 -0.025161518
-0.04102223 -0.017225308 0.09050581 -0.092654936 0.06297778 0.09029388 0.030618789 -0.04807781
0.06863819 0.04722863 0.027336683 -0.1512403 0.034274932 0.06853352 0.18739808 -0.027414676
-0.041241627 -0.07792514 0.116943315 -0.10855531 0.032856632 0.038514644 -0.08621738 0.00800625
0.021754289 -0.12181396 0.014591248 0.04614906 0.10547953 -0.13328579 0.08980554 -0.11573863
-0.0537764 -0.091351554 0.04822338 -0.018037803 0.122428864 -0.12486359 0.088567756 0.13928968
0.015186372 0.08870739 -0.07993406 -0.10942028 -0.06627594 0.06754147 0.113015935 0.06677014
-0.055519488 0.0013770276 0.04697723 -0.06186898 0.08066042 -0.10111891 0.0025800536 0.045982573
-0.08052 -0.10856088 0.0073435158 -0.078325205 -0.10060686 0.064110175 -0.06037593 -0.10396599
-0.161734 0.09544294 0.02612249 0.080347106 -0.07839551 0.0044736867 0.071553275 -0.035519406
-0.031754684 0.031566586 0.077458516 0.09637644 -0.13352753 -0.16600674 0.1046067 0.0118559
-0.10854142 -0.11815601 -0.018872542 0.2117517 -0.1653125 0.059732035 0.11877676 0.099675685
-0.08456375 0.01917537 0.031827353 -0.044519335 -0.023345083 -0.1322458 -0.04639652 0.083824575
-0.044980958 -0.039167356 0.17517656 -0.097302884 -0.06779052 0.118441164 0.00073012547 -0.016917877
-0.079454 0.109746076 0.0712299 -0.008625016 -0.10105235 0.021561984 0.059751414 0.06170228
-0.009217114 0.08012429 -0.057012428 -0.060778942 0.025392827 -0.0011445357 0.10515215 0.22103068
-0.0055349628 0.07713874 -0.025643688 -0.021037033 -0.08985746 0.07155972 -0.12923948 0.12232175
-0.12674293 0.038751192 0.0169579 -0.028170869 -0.025183704 -0.058005452 0.23462711 0.026831068
0.06891104 0.08633107 0.009952172 0.10548927 -0.06820753 0.043338995 0.014220269 -0.10666619
-0.035296813 -0.03064604 0.045874815 0.036370907 -0.077624634 -0.084556624 0.07970622 -0.13132194
0.06755352 -0.098302364 -0.0054538506 0.1574018 -0.1383245 0.092946075 0.16770986 0.030929655
-0.1468719 -0.03078696 -0.13510953 0.06096227 0.07646925 -0.07765231 -0.07686699 0.043537382
-0.09261609 -0.12347446 0.15482835 -0.13467067 0.030627092 0.071230516 -0.094187625 -0.049041994
0.088698246 0.040228248 0.10595854 0.09273551 -0.17348303 -0.02489272 0.10401658 -0.08124146

lstm.weight_hh_l0 f4 [256, 64]
00000000: e059 4e3d 4c28 01be 443e 763d d4e4 573d
00000010: 64af 91bd 62a9 93bd fec9 67bd 6d16 c3bd
00000020: 59b3 e53d a7be 943b b2cb 06bb 6b03 2f3d
00000030: 1352 a4bc 6f4a 763d 0e8b d13c b433 7c3d
00000040: 9800 f63c 0da6 d3bd 5214 cdbd 4db7 793c
00000050: be28 043e 717a b23d cdf9 af3d 357f 413d
00000060: b81f 983b 30dd 7f3d 5920 94bc 0d94 0cbe
00000070: 6fc2 dbbc 6d3e 93bd 8fcb 7a3c bef6 3ebc
00000080: a859 1fbe a801 10bd 11a2 d83d 4919 90bc
00000090: b039 91bd 8de2 5c3c 9862 2fbd e4e0 03bd
000000a0: 93aa 75bd c208 fc3d 18c5 d23d b26a 9a3c
000000b0: e3d6 143e ac5f 2ebd 0d51 963c 95f1 b3bd
000000c0: 0ce9 85bd 735e 49bd 60b1 62bd 07d2 ccbc
000000d0: 241d 88bd 0ede c13d 268a c63d 2898 803d
000000e0: 926f 663d 144a 0bbe bf8f ee3d 7630 e7bd
000000f0: cce5 b0bc be72 e43d 31f8 f0bd 1c10 103d
00000100: b118 213d d0b6 673d bd93 6c3d 101f 21bd
00000110: b746 77bd b1d1 3bbd f144 15bc 68f8 8f3c
00000120: 30d3 c5bd 475d 683c 0e38 2abd fde6 ae3c
00000130: 8b2b 023e a711 7f3c fc98 68bc 4e4a c3bd
00000140: 7a60 433d 2689 b53d 6d50 69bd e425 6dbd
00000150: 2add 0a3e 2770 2dbd 8e39 83bd fb99 10be
00000160: e78f 523c 99dc 1fbd 79c5 afbc 9099 e93d
00000170: 73e1 a9bd a250 debd 4223 06be 5111 e03d
00000180: 2d9d 823c 56f6 02bd f503 123d f5d4 a83d
00000190: 1079 e83d 3d46 f9bc 95ed 13bd a5a8 e7bb
000001a0: 6532 50bd e470 a039 5d4b 6f3c 2bc3 8b3d
000001b0: 62f2 cfbd e9f4 b6bd bd87 de3d 1435 84bc
000001c0: 453e 53bd d95c 153d 5739 163e 320d 173e
000001d0: ad3f cd3d deba cd3c ae1a 423d 0f11 c23d
000001e0: 1230 db3c 82df bf3d 8d08 f8bd 7e0e 9e3d
000001f0: 0c30 89bc b4af 753d a095 17bd a1fe 85bc
00000200: 21f2 a7bc de7b 723d 3ec4 693d c8d7 b9bd
00000210: 666c f7bb 30da 00be d6e3 823d 530b 493d
00000220: e4e3 47bd 037f 14bd 25a8 ff3b 750f e9bc
00000230: 7f26 34bd 5427 b03d 1dec 5f3d 221c acbd
00000240: 1009 f73d 6e81 d43d 9233 043d 3521 51bc
00000250: 0beb 69ba dcd0 9f3c a096 203d 8648 0d3e
00000260: 82a8 54bd dd26 5d3d 0079 813d 1e26 22bd
00000270: 0616 08bd 0c2c 49bc 04d2 b6bd 269e a0bd
00000280: cbda a93d ff2b d7bd d9c0 163e 9cb0 c3bd
00000290: c47c 52bd 0148 0abe 55a1 ecbd e7ad ad3c
000002a0: 9f23 b8bb 50e4 2dbd f537 113d e90b bb3d
000002b0: 737c 1cbd a37f bbbd 966e dc3d 9dcf 6ebd
000002c0: 73a5 b0bd c0e5 3dbd 281e 8cbd 5213 e43d
000002d0: 9224 bbbd 74f2 abbd c381 16bd d6a3 0f3e
000002e0: e0a5 093e 2560 f0bd 4c2e 433d eddb a5bd
000002f0: c5ba fbbc ec2c f93d f60b d23d b98c ac3d
00000300: b1b5 6e3d e68e 41bd 1554 79bd 4228 cd3d
00000310: 7656 09be 0451 bbbd 428b 163d 0073 c53d
00000320: af24 ddbc b11e e1bd 34ad d93d 430d ee3d
00000330: 5dc5 80bd 46b2 67bd 3b22 69bd 5724 e43d
00000340: 338a 7a3d b562 f9bc ae2b 3dbd 613f 22bd
00000350: 9b0c b03c a54f 8abd 2528 ba3c a991 a6bd
00000360: d4e0 de3d c904 ff3d 1cc5 d63d 4a0b 123c
00000370: 9877 153c 20ce 713d d2fa 0fbe 6323 0c3e
00000380: ea31 1bbe f241 803d 5abc 03be e4d6 e33d
00000390: b8ef 5b3c a388 bb3d 4643 e2bd 108f dbbd
000003a0: 80f9 9fbd e48f e03d 0afc 1dbd 2774 aebd
000003b0: 00a8 243e 34d4 f73d c057 05bd 06a1 203d
000003c0: d386 4a3c 56ab 2f3d e964 413d 6af7 8c3c
000003d0: b17a 85bd 8f8d b33d 53d2 07be 086f 0d3d
000003e0: 2636 90bb 0573 59bd c367 77bd 0df0 c3bc
000003f0: bcfb 07be 969d b33d 48ed 4e3d e589 f7bd
0.05037868 -0.12613028 0.060117975 0.052708462 -0.07113531 -0.072100416 -0.05658912 -0.09525762
0.112158485 0.004539329 -0.002056819 0.04272787 -0.020058667 0.06012958 0.025579002 0.061572745
0.03002958 -0.10334406 -0.100136414 0.015241456 0.12906167 0.0871476 0.085925676 0.047240455
0.004642453 0.0624668 -0.01808183 -0.13728352 -0.026826112 -0.07189641 0.015307321 -0.011655508
-0.15561545 -0.03515783 0.10577787 -0.017590182 -0.07091081 0.013481748 -0.042818636 -0.032196894
-0.059977125 0.12306358 0.10291499 0.018849704 0.14535098 -0.04257171 0.018349195 -0.087863125
-0.06538591 -0.04916234 -0.05534494 -0.025002493 -0.06646183 0.09466182 0.096943185 0.062790215
0.056258745 -0.13602477 0.11648511 -0.1128854 -0.02159395 0.11154698 -0.11766089 0.035171613
0.03933019 0.056570828 0.05775808 -0.039336264 -0.060370173 -0.045854274 -0.009110675 0.017574504
-0.096594214 0.014182395 -0.041557364 0.021350378 0.12711923 0.0155681735 -0.014196631 -0.09535657
0.04769943 0.088640496 -0.056961466 -0.057897463 0.1356093 -0.042343285 -0.06407462 -0.14121239
0.012851692 -0.039028738 -0.021456467 0.11406243 -0.08294954 -0.10855223 -0.13099387 0.10940803
0.015944088 -0.031973206 0.035648305 0.08243743 0.11351216 -0.030429 -0.036115248 -0.0070696645
-0.05082931 0.00030601688 0.01460537 0.06824335 -0.10153653 -0.08933432 0.10865734 -0.01613859
-0.051573057 0.0364655 0.14670311 0.14751127 0.10021911 0.02511352 0.047388725 0.0947591
0.02675632 0.093688026 -0.12111006 0.07717608 -0.016746543 0.059982017 -0.037007928 -0.016356768
-0.020501198 0.05920016 0.057071917 -0.0907436 -0.007550764 -0.12583232 0.063911125 0.049083065
-0.048801318 -0.03625394 0.007802027 -0.028449753 -0.043982025 0.08601251 0.054668535 -0.084038034
0.120622754 0.10376249 0.032275744 -0.012764265 -0.0008923269 0.019508772 0.039206147 0.13797197
-0.051918514 0.05399214 0.06321907 -0.039587133 -0.03322413 -0.012278568 -0.08926776 -0.078426644
0.082936846 -0.105064385 0.14722003 -0.0955517 -0.051388517 -0.1350403 -0.11554209 0.021201087
-0.0056194807 -0.042454064 0.035453755 0.09133131 -0.03820462 -0.09155204 0.1076328 -0.058303464
-0.08625307 -0.046361685 -0.06841689 0.111364976 -0.091378346 -0.08395854 -0.036744844 0.14027342
0.13442183 -0.11737088 0.047651574 -0.08098588 -0.030728707 0.12166771 0.102561876 0.08425278
0.058278743 -0.04725542 -0.060871202 0.10017444 -0.13411888 -0.09146312 0.0367539 0.09641075
-0.026995031 -0.10992182 0.10628739 0.11623623 -0.06287644 -0.0565665 -0.05691741 0.11139744
0.061166953 -0.030442575 -0.046184234 -0.039611224 0.021490386 -0.06753472 0.02272422 -0.08133251
0.10882726 0.124520846 0.104868144 0.008913824 0.009122752 0.059034467 -0.14060524 0.13685374
-0.1515576 0.06262578 -0.12864819 0.111249715 0.013423853 0.09156921 -0.11047988 -0.107206464
-0.0781126 0.10964945 -0.03857044 -0.08518248 0.16079712 0.121010214 -0.032554388 0.039216064
0.012361246 0.042888008 0.047215376 0.01720782 -0.06517542 0.087672345 -0.13263826 0.034529716
-0.0044009862 -0.053088207 -0.06040169 -0.023918176 -0.13279623 0.087702915 0.050519258 -0.12086848

lstm.bias_ih_l0 f4 [256]
00000000: 6a01 2739 09b9 663c 25bd ccbd 0a86 893c
00000010: 1d00 da3d ba94 d33d ca0b 173d 7957 613d
00000020: 6630 be3d e71f 01be b402 d5bd 6a92 b6bc
00000030: 592b 07b9 d9de 89bd 3143 1bbd 3875 bebd
00000040: a30e 413d 64a9 223c 082a 563d b4a2 81bd
00000050: a473 f8bd 6acd 463d cc31 273e 3abd 5d3d
00000060: 6927 97bd 2896 65bd 6b67 89bd 9170 fb3d
00000070: e752 88bd 4d97 6d3d f501 a43d 1ee2 203d
00000080: a4d0 873d 0929 57bc 68ec 68bd 165e 9dbc
00000090: b243 19bd d28b 213d 350e e23d 205b 00be
000000a0: 7494 b2bb d8aa 9f3c a730 edbd d644 063e
000000b0: d375 9dbd 8495 2cba aade 84bd 869f 25bd
000000c0: b590 cdbd 6413 f63c 5896 d63d 6ddb d8bd
000000d0: f0c8 04be 8ff4 b1bd 5ff6 1b3d 0cd9 1e3d
000000e0: 1b02 d33c 6ec1 8d3d 284d 00be 157f babb
000000f0: f8aa 44bd 7b53 953c 36a0 c7bd 6a5e bfbd
00000100: 6031 de3d af9f 573c ce22 98bd a99b 013e
00000110: e81e b8bd dc88 6abb df77 91bd 5c06 10bb
00000120: 387f 053e 1fa8 2fbc ef6b e4bd 94da bc3b
00000130: 5eef 7ebd 35fb a03d 6b48 293d 94a6 883a
00000140: 7e7f ad3d 8841 a1bd b66d 4dbe 889d 0abe
00000150: 66f9 10bd 96b7 5f3c d2d3 75bd 41d9 89bd
00000160: d075 42bc d66c b1bd 34aa 823d b61a 983d
00000170: 0926 873c ee2e f2bd 272c 073e 4a99 503c
00000180: 983d c5bd b55f 1f3d 6b1f 94bc 1db1 0d3e
00000190: 8437 61bd 1b63 1ebd d65d 89bd 7b5d 3dbd
000001a0: ad1c 743d 8673 ed3c e214 ee3d f814 0ebd
000001b0: ac52 c73d a375 5dbd 1361 d1bc 3ac6 16bd
000001c0: f0d0 0ebd b234 e8bd b747 83bd ba4e 0a3d
000001d0: 63b3 dcbd 1df5 193e c114 24be 111b ca3d
000001e0: 107a 93bd 1ba5 9c3d ba43 acbd 4d43 43bc
000001f0: 39fb fb3c fba0 16bd 4c6a 0e3c 5119 8cbc
00000200: 2abe f2bd b64f 0a3e fc4d 77bd a342 b5bd
00000210: 26b4 7c3d 2a87 d73c 9b51 573b 164b 39bc
00000220: e88b 4cbd a65a 7fbd b650 ffbd 3018 003d
00000230: 80b5 c9bc f2a4 773d 72f6 d7bd 8526 04bc
00000240: 9a70 ebbd b3e0 0f3e 35d4 a53d d978 06be
00000250: d843 583d ad50 a3bc 4148 d2bd 8bc0 503d
00000260: 11d2 27bd 7a8e 8f3d c573 e6bd 5db4 d7bb
00000270: 425f 753d 461a a23d 3ec9 123d 64ee 98bd
00000280: caeb bb3d 881d 21be b2b7 213c 7bc1 3bbd
00000290: 3bec 223d 4786 ddbd afcb b63d 7331 a6bd
000002a0: f924 c53d 88af 13be 0b73 cabd 36cd 0dbe
000002b0: 8e24 693c 45c5 883d 0647 443d 4b20 053e
000002c0: f37f d0bd 9541 5c3d 4bf7 0d3e b0c8 82bd
000002d0: 5a84 10bc ebed 423d 137d 72bd d205 cd3d
000002e0: a942 cd3b c672 013e b639 d0bd e618 22bc
000002f0: dec0 e9bc 3d57 b0bb 23f4 a33c b447 a53d
00000300: 62f8 f2bd 0846 d1bd 2668 11bd 3f05 65bd
00000310: 22b5 c0bd 4841 a4bd 26de d2bc c0a3 94bc
00000320: 29b5 a3bd 7d7b 0abe 8bec 63bd 8026 39bd
00000330: bca6 8c3c 32f7 96bd 1e3e 59bb 3805 b93d
00000340: 8ea2 d13c 9b20 77bd 0a48 b83c 952e ad3d
00000350: fd50 85ba f1a2 4c3d f274 0b3e 37e8 c9bc
00000360: cc68 a1bd 110a 093e ce55 3fbd ecc0 85bd
00000370: 410a d43d f000 893d 4939 483d b60f c93d
00000380: 6a4b 33be 4a4e d6bd d38a aa3c 2db0 01be
00000390: a68c 9b3d 7059 a1bd bd41 a93c 5b37 8abd
000003a0: 2b5c 093d 2d25 df3d 1d78 d03d 2ea0 75bc
000003b0: d5f3 3c3c 8366 a2bd e535 d1bd 2bf5 81bd
000003c0: 9063 fdbd ac4e 9d3c 0d4b 08be 626d 0a3a
000003d0: d818 7bbd e89a e2b8 8e0b 233d 2862 a6bd
000003e0: b9b9 e7bd c778 c8bd 1116 163d ac63 87bd
000003f0: 7dfb 64bc a5a7 f03a 1a3d ddbd cd9d 8f3d
0.00015926888 0.014082202 -0.09997014 0.016787548 0.10644553 0.10331102 0.036876477 0.05501506
0.09286575 -0.12609826 -0.10400906 -0.022286613 -0.00012890752 -0.06731958 -0.037905876 -0.092997015
0.0471331 0.009928081 0.052286178 -0.06329861 -0.12131432 0.048535742 0.1632759 0.05413554
-0.07380564 -0.056051403 -0.067091785 0.1227733 -0.06656437 0.05800562 0.08008186 0.039278142
0.06631592 -0.013132342 -0.05686608 -0.019209903 -0.037418075 0.039439984 0.11037866 -0.12534761
-0.005449826 0.019490644 -0.11581545 0.13112196 -0.07688489 -0.0006583559 -0.06487782 -0.040435337
-0.10037366 0.030038543 0.104778945 -0.10588727 -0.12967277 -0.08689224 0.038076755 0.03878121
0.02575784 0.069216594 -0.12529433 -0.005691419 -0.04801461 0.018228283 -0.09747355 -0.0934418
0.10849261 0.01316063 -0.074285135 0.12657036 -0.0899027 -0.003578714 -0.07102942 -0.0021976447
0.13036811 -0.010721236 -0.11153399 0.005763361 -0.062239997 0.07860414 0.04132883 0.0010425621
0.08471583 -0.07873827 -0.20061383 -0.13536656 -0.035394095 0.01365461 -0.06001646 -0.06730891
-0.011868909 -0.08663337 0.0638012 0.0742697 0.016497629 -0.118253574 0.13200437 0.012731859
-0.09630889 0.038909633 -0.018081388 0.13837095 -0.054984584 -0.038668733 -0.06707351 -0.046231728
0.05959766 0.02898575 0.11625077 -0.034687966 0.09732565 -0.054067265 -0.025558984 -0.036810137
-0.034867227 -0.11338176 -0.06410163 0.033766486 -0.10776403 0.1503491 -0.16023542 0.09868444
-0.07201016 0.07648679 -0.08411355 -0.011917901 0.03075944 -0.036774617 0.008692335 -0.017101916
-0.11852677 0.1350697 -0.060377106 -0.088506006 0.06169524 0.026309568 0.0032855037 -0.011309406
-0.049938112 -0.06234231 -0.12466566 0.031273067 -0.024622679 0.06046004 -0.105450526 -0.008065824
-0.114960864 0.1405056 0.08097116 -0.13132037 0.052799076 -0.01993593 -0.102676876 0.050964873
-0.04097182 0.07009597 -0.1125255 -0.0065827803 0.059905298 0.079151675 0.03583645 -0.074673444
0.091758326 -0.15733922 0.0098704565 -0.045838814 0.03977607 -0.10816627 0.08925568 -0.081149004
0.096261926 -0.14422429 -0.09885224 -0.13847813 0.014229907 0.06678251 0.047919296 0.130006
-0.101806544 0.05377348 0.13863866 -0.06385934 -0.008820618 0.047590178 -0.05920131 0.10010876
0.00626405 0.12641439 -0.101672575 -0.009893632 -0.028534349 -0.0053814934 0.020013874 0.08070317
-0.118637815 -0.102184355 -0.035499714 -0.055913206 -0.09409548 -0.08020264 -0.025740694 -0.018144488
-0.07993538 -0.1352367 -0.055645507 -0.045202732 0.017169349 -0.073713675 -0.0033148597 0.090341985
0.025590207 -0.06033383 0.022495288 0.084561504 -0.0010171231 0.04996008 0.1361883 -0.024646861
-0.078813165 0.13382746 -0.04671269 -0.065309376 0.10353518 0.06689632 0.048882756 0.0981745
-0.17509237 -0.10464151 0.02081815 -0.12664862 0.07595186 -0.07878387 0.02066123 -0.067488395
0.033535164 0.108957626 0.1017916 -0.014991803 0.011532743 -0.07929709 -0.10215358 -0.0634559
-0.12372506 0.019202553 -0.1330988 0.00052805815 -0.06130299 -0.00010805373 0.03980594 -0.081241906
-0.11314721 -0.097886615 0.036642138 -0.06610808 -0.013975975 0.0018360509 -0.1080267 0.0701252

lstm.bias_hh_l0 f4 [256]
00000000: 0eae 723d ada9 e6bc b6c2 903d 658f d33d
00000010: 14e0 a13b 4ab8 6bbd c696 9fbc a1b6 c4bd
00000020: d39c f9bd debb 5ebd d97f b9bd bcc5 1dbd
00000030: 4636 f9bd fb33 d0bd c3b9 c03d 0077 093e
00000040: 585c 1ebd 8e0b 24bd 1431 8ebd 5685 903d
00000050: a747 b13c 63c1 bfbc dfc1 b9bc e321 79bd
00000060: 48b2 08be 9a74 cbbd 62fa c23c 7344 8abd
00000070: 03ac 61bd 59ff ac3d 89a4 edbc 3403 adbd
00000080: 2d71 c73c 0910 023d 2d53 a23d 5dae 3bbd
00000090: 62a4 cb3d 3ed3 4abd 582d 383c b37f 8d3d
000000a0: b5e4 ce3d ccd9 c43c 4f0d 273d b48f e3bd
000000b0: eeb3 d03d 5e17 9bbd b26c d0bc 22b5 c63d
000000c0: 50da 96bd 8ccf 8e3a 3d64 c53b e370 5fbd
000000d0: 9cc7 283d 86df 763d 0f45 5bbd 5cd7 0d3d
000000e0: bca1 b63d c07c b63d 251f 69bc 4496 6bb8
000000f0: 321b 553d d0a8 533d 5af0 1cbd 3f0a b73d
00000100: b7f7 b1bd f329 893d eaf5 c5bd a9eb bb3d
00000110: acdd 803d b502 08bc 1961 96bd 53a8 803d
00000120: 784e e6bd c4f1 e03b e3c6 d63d 1b87 a33d
00000130: 501e f0bd 513a 023d c955 c5b9 a90a e8bb
00000140: 773c 14bd 34dd 8c3d 46ff 2dbe acc7 1ebe
00000150: 2eb1 773d 40ae e43c c76f a4bd 53b2 ed3d
00000160: dec8 5cbc e4f4 cb3a 2fb5 2fbd c617 c5bd
00000170: 7241 03bd 83a2 0c3d cfa6 4b3d a8b2 14bd
00000180: 310c 8f3c f34c ecbd 467f 2bbe 9385 cc3d
00000190: 2159 083e 87e9 03be 86d9 083e d128 883d
000001a0: 877e 6fbd 82a5 413d 8fad 943d 698e a73c
000001b0: 5262 a43d f2a7 b5bc b90f 2bbe 44aa 41bd
000001c0: 11fe adbd d69c b53d 6741 be3d 190b f93d
000001d0: b35d 3d3d 476f 073e dc82 2bbe ee16 ee3b
000001e0: 696d 3fbe ef24 77bc 64c1 633d ff07 693d
000001f0: 7603 70bd 24c7 87bb b46b 9d3a 1b94 be3d
00000200: 8e04 293d 6087 053d 2fe7 1b3d b0ae 523c
00000210: 5587 0e3e d5f0 e3bc 2d41 d7bc cb0f b83d
00000220: cee8 393d 7662 ba3d d3d0 94bb 2e36 6abd
00000230: 36bf 61bd b20b 59bc 7ade 59bd 8825 29bd
00000240: 3560 5ebd c68f 1b3b 3baf 153d 9dc9 07be
00000250: c299 68bd 33dd ecbd 9ad7 0fbe a174 083e
00000260: 8f9a ea3d c754 ac3d 5b23 d93d 9d77 cdbb
00000270: d940 2d3d 3a2b 823d 4709 063e c0f8 ebbd
00000280: d296 c43d c1dd 4e3d 0888 b43d 1e40 f73c
00000290: 0e89 933d e4a9 173d c0f5 d1bd 73c1 cf3d
000002a0: fe52 ad3c f0bc 36bc a989 b9bd 50a9 c5bd
000002b0: d76b 92bd 156e f53c bf9c dd3c 0099 d43d
000002c0: 437f 423c 52b2 9b3d 192c 893d 7053 0cbc
000002d0: b13e b73d 9d3d 833d 5e34 bc3d 6d1a 7abc
000002e0: 53aa ec3d c639 d63b a20f ae3d bdf2 95bc
000002f0: 7ef1 a93d 7a5f 93bd 5ca6 4c3d ad25 123e
00000300: d236 b83d 15db cd3d 77bc e73c 90d0 c3bd
00000310: b139 f7bd 2bfd a43d 0e96 7e3d 1b7b ad3d
00000320: 3853 29bc 3543 f9bd c077 20bc ae71 82bd
00000330: ce43 833b 26ad 953d eb4c 20be 1b7c d13d
00000340: e87e 023d 0cda b4bd aa7a c8bd 9a30 d63d
00000350: 7a77 abbd fef5 153e a928 e23d f8b8 953c
00000360: 338c a83d 901a a93d 37f5 b6bc 05aa 7bbc
00000370: 8727 c83c a182 0dbd f1e8 a2bd 4438 97bc
00000380: 7ad3 a7bd 363a c7bd 8c7b 8e3d 539c 04be
00000390: 3324 f6bd e690 3cbd 4a02 a2bc 816b a53d
000003a0: ed5c 3a3d 67f0 ca3d ff16 9f3d 913a 5bbc
000003b0: b80e 34bd df77 763d 9d28 603d a832 06be
000003c0: d6c4 80bc ea3e 853d 03f6 a23b 2c37 963b
000003d0: ac78 e0bd f0e6 b3bc de53 cbbc 1b60 093e
000003e0: 83fa 323d d2b7 babd 3fee 99bc 3d7d 20be
000003f0: 06fb 72bd fd4c c03d e45a 01be c056 efbd
0.059248023 -0.02815708 0.07068388 0.10330085 0.0049400423 -0.0575488 -0.019481074 -0.09605146
-0.12188115 -0.054378383 -0.09057588 -0.038518652 -0.12168555 -0.101661645 0.09410431 0.13424301
-0.038662285 -0.040050082 -0.06942955 0.07056682 0.021640612 -0.023407644 -0.022675453 -0.060823333
-0.13349259 -0.09934349 0.023801032 -0.06751337 -0.055095684 0.08447141 -0.02900912 -0.084478766
0.024345959 0.031753574 0.07926021 -0.045820583 0.09943463 -0.049517862 0.01124128 0.06909122
0.10102216 0.024029635 0.040784176 -0.111113936 0.10190569 -0.07572816 -0.025442455 0.09702517
-0.073658586 0.0010895594 0.006023912 -0.054551017 0.041205987 0.060271762 -0.053532656 0.03462921
0.08917567 0.08910513 -0.014228617 -5.6168312e-05 0.05202789 0.051674664 -0.038315155 0.08937501
-0.08689826 0.06697454 -0.09666045 0.09175808 0.062922806 -0.008301427 -0.07342739 0.06282105
-0.112454355 0.006864758 0.104871534 0.07984754 -0.11724532 0.031793896 -0.00037638683 -0.007081349
-0.036190476 0.06878129 -0.1699191 -0.15505856 0.060471706 0.02791512 -0.08029132 0.11606278
-0.013475625 0.0015560654 -0.0428974 -0.09623675 -0.032044835 0.03433467 0.049719628 -0.036303192
0.017461868 -0.115381144 -0.1674777 0.09986415 0.1331525 -0.12882052 0.13364229 0.0664841
-0.058470275 0.04727698 0.07259666 0.020453649 0.080265656 -0.02217481 -0.16705216 -0.04728152
-0.08495725 0.08867805 0.09289818 0.1216032 0.046231937 0.13226043 -0.16749138 0.007265917
-0.1869408 -0.015084489 0.055604354 0.05689239 -0.05859705 -0.0041436125 0.0012010247 0.093055926
0.04126411 0.032599807 0.03806227 0.012859032 0.13918813 -0.027824799 -0.026276195 0.08987387
0.045388035 0.09100811 -0.0045414953 -0.057180576 -0.055113994 -0.013247417 -0.053190686 -0.04129556
-0.05429097 0.0023736819 0.036544066 -0.13260503 -0.05678726 -0.11565628 -0.14047089 0.1332574
0.11455261 0.084146075 0.10602447 -0.0062703625 0.04229817 0.06355901 0.13089477 -0.11522055
0.09599079 0.05050445 0.088150084 0.03018194 0.072038755 0.037027255 -0.10251951 0.101443194
0.021157738 -0.011153445 -0.0905946 -0.096514344 -0.07149475 0.029959718 0.027052281 0.10380745
0.011871162 0.07602371 0.06697864 -0.008564815 0.08947504 0.06408236 0.09189676 -0.015265089
0.11555924 0.006537649 0.084990755 -0.018304223 0.08298014 -0.07195945 0.04996334 0.14272185
0.08994831 0.10051552 0.02828811 -0.095612645 -0.12071551 0.080561005 0.062154822 0.08470746
-0.010334782 -0.12171022 -0.009794176 -0.06369339 0.0040058857 0.07308416 -0.15654342 0.10228749
0.03185931 -0.08830652 -0.09789021 0.10458489 -0.08372398 0.1464462 0.110429116 0.018276677
0.08229866 0.082570195 -0.022333724 -0.01536036 0.02443291 -0.034548406 -0.07954586 -0.018459447
-0.08194633 -0.097279 0.069571584 -0.12950258 -0.12018623 -0.046036623 -0.019776482 0.08077145
0.045498777 0.09909134 0.07768058 -0.013380663 -0.04395935 0.06017291 0.05472623 -0.13105261
-0.015718859 0.065061405 0.0049731745 0.0045842137 -0.10960516 -0.021960706 -0.024820264 0.13415568
0.043695938 -0.09117092 -0.018790362 -0.15672775 -0.059321426 0.09389684 -0.12632328 -0.11686468

lstm.weight_ih_l1 f4 [256, 64]
00000000: 82ab 28bd e8da 1c3b 3509 29bd b193 2cbe
00000010: 155b 123e 1f36 7b3c caf6 ad3d b77b ab3d
00000020: 1062 c03d f383 f93c 8fb1 12be 79ea a63d
00000030: 1e6b 98bd c9ab 133e 084e 1fbe 8e00 b6bc
00000040: 1517 483d 4842 13bd 09ea acbd e72c 1abe
00000050: b1aa 3dbe f98a 2cbe 14df 39be 7cb6 063e
00000060: 0bd7 aebc e245 183d d560 c5bd c00f 3cbe
00000070: e5b3 013d 9568 013e 8c82 693d 8ad0 053d
00000080: 7010 d93d 49c1 3a3a dd44 33bd 7653 993d
00000090: d5cc 66bd 084f ecbd 8d29 973d 6ba3 083d
000000a0: c654 643d 7263 17be f7b2 a5bd 7923 673d
000000b0: 1f2f 73bd d910 7f3d 2402 123e 3936 1bbc
000000c0: 461c b7bc 0549 1bbc 6b42 df3c 5e20 39be
000000d0: 8e52 21bd 254b 313e f096 d2bc 546f 6a3e
000000e0: 5bff 2f3e be3b a63d f53f 00be 71e3 10bd
000000f0: 5a84 703d 5c9c 633c 9e24 35bd 45ff 6b3b
00000100: 296a 04be afa3 54bd 0145 08be 9ea9 ac3d
00000110: 2c3c da3d 87f5 a83c 1f10 82bb 6374 02be
00000120: cae6 813c 8d35 053e 34be 18bd 107c 343e
00000130: 089d e43d 8fb1 623d a4b7 7fbc 466c 88bd
00000140: e8d5 b0bd d241 043e 2ad1 2c3e bca6 a73c
00000150: 6639 24bd efb8 e9bd 9d8f c0bc 0815 b3bd
00000160: 8ebc c73c ad18 babc d23b bfbd de5b d0bd
00000170: b0e3 be3d 6b9a dabd 24e6 9ebd 67d9 013e
00000180: 7c52 47be c352 5dbd 272d 93bc e19e 7abd
00000190: 702c 2c3d af4d f5bd 9cde 27bd 36e0 753c
000001a0: 1627 4c3d 62a0 9cbd a167 f33b 4ed8 13be
000001b0: 5baf 1d3e 7d92 fb3d d0b8 d93c e9f7 9e3d
000001c0: 3119 f23d 2adc e93d 46ea 043e 34af a6bd
000001d0: de95 f4bc ff62 52bc 7b24 09be 7bd7 b2bd
000001e0: 2739 01be a9a4 1bbe ce78 4a3d 5b1f e43b
000001f0: 659d 8b3c 16b8 c83d d043 f13c a873 73bc
00000200: d2ab 0abe 825e b63d caa8 b8bd d06b e0bd
00000210: bfa3 073e 2ebf dd3d e1a8 b5bd 77ea 35bd
00000220: c56d e6bc 2a99 dc3b 87c0 b5bc 1042 e9bc
00000230: 43ae a73d daf3 1e3e 7ec9 71bd 6969 82bd
00000240: b67f b13d e259 303e 7dea 413d 80de 11be
00000250: ddf4 a6bd 138a a4bb 7a10 2bbe ace4 37bd
00000260: ac7e d03d fc40 173e 7e31 0cbd 4e56 643b
00000270: a505 0d3c 2320 493d e12c b7bd 4fe8 b83c
00000280: 5c39 013e 78d0 0fbe 0678 7c3d 1ea3 a3bd
00000290: c768 3abc 3a02 893d fd9b 8e3c e6db fbbd
000002a0: f3bb 183d 2bc7 87bc fa82 473d a05a 0fbe
000002b0: 0b72 3bbd 9bbf 1e3e bb75 303c ffd0 b23d
000002c0: f156 1ebd 698d e23d c3db f83d f449 e3ba
000002d0: e988 d83d 7bde 603e be52 98bc 07d1 2f3e
000002e0: da92 9a3d e1de f73d 4965 a7bd 40e4 f4bd
000002f0: b7bb 34bd f336 af3d a3e1 963d 56d1 d93d
00000300: 5de3 acbd c0a2 f4bd f57f 0bbe 9287 eebd
00000310: 2e4b 6ebd ee01 cf3c 39fa ba3c 14f4 1c3b
00000320: c2c8 1c3d fbda dbba b3d0 3cbc e4e5 4abd
00000330: 7bde 483c 5df0 0e3e 98c0 edbd c3de a7bd
00000340: 2c6c e7bc 12a5 a4bd 5b08 763d 4968 3bbd
00000350: 362f a9bb e967 7d3d 1839 c9bd 92a1 6abd
00000360: 0c00 03bd b529 2abd 6e01 5d3d a0d8 93bd
00000370: b68a b23d a309 173d 2df2 cf3d de80 0a3d
00000380: bec2 3cbe e9b2 a23d cf02 e93d 73c5 67bd
00000390: c480 c33d 3d0d e6bd 2368 16be 8586 ecbd
000003a0: da2d ee3d d25d b53d 31e6 9b3c 421f b6bd
000003b0: c80a 9a3d f05c 233e d7c8 223d 8f5b 7cbd
000003c0: 9d40 1dbe efbd 9abd 8203 fd3d 5433 bdbb
000003d0: d5a7 3e3c 112a 0b3e bc7a 65bd d0d7 8bbc
000003e0: fbd0 913d b508 163d cb4a 20bc b356 5a3d
000003f0: 2c17 863d 48cc d53d f1f5 66bd 8dac 83bd
-0.041179188 0.002393419 -0.041268546 -0.16853215 0.14292558 0.015332728 0.08494337 0.08373206
0.09393704 0.030458426 -0.14325546 0.08150191 -0.07442306 0.14421 -0.1555711 -0.022217061
0.048850138 -0.035951883 -0.08443076 -0.15056191 -0.18522145 -0.16849889 -0.18151504 0.1315555
-0.021342775 0.03717602 -0.0963761 -0.18365383 0.0316657 0.12637551 0.057009265 0.03266958
0.10598838 0.00071241386 -0.043766845 0.07486622 -0.056347687 -0.115385115 0.07380972 0.033358973
0.05574491 -0.14784029 -0.080907755 0.056430314 -0.05937111 0.062271927 0.14258629 -0.009473377
-0.022352349 -0.009477858 0.02725335 -0.18078753 -0.03938537 0.17313822 -0.025706738 0.22894031
0.17187254 0.08116864 -0.12524398 -0.035373155 0.05871997 0.013892259 -0.044224374 0.0036010307
-0.12931122 -0.051913913 -0.13307573 0.084307894 0.10656008 0.020624889 -0.003969207 -0.1273971
0.01585712 0.13008709 -0.037290767 0.17625451 0.11162764 0.055345114 -0.015607748 -0.066612765
-0.086345494 0.12915733 0.16876665 0.020465247 -0.040093802 -0.114122264 -0.02350598 -0.08744246
0.024381902 -0.022716844 -0.09337582 -0.10173772 0.09320772 -0.10673984 -0.077587396 0.12680589
-0.19465059 -0.054034006 -0.017965866 -0.061186675 0.042034566 -0.119777076 -0.04098378 0.015007069
0.049841963 -0.07647778 0.007428125 -0.14437982 0.15398924 0.122838 0.026577383 0.07762129
0.11821211 0.11418946 0.12979993 -0.08138886 -0.029856618 -0.012840985 -0.13392822 -0.08732506
-0.12619458 -0.15199532 0.049431615 0.0069617457 0.017042825 0.098007366 0.02945128 -0.014859118
-0.13542107 0.08904745 -0.09016569 -0.109580636 0.13246058 0.1082748 -0.08870102 -0.044413056
-0.028128514 0.0067321258 -0.02218653 -0.028473884 0.08187535 0.1552271 -0.05903005 -0.06367762
0.08666937 0.17221788 0.047342766 -0.14245033 -0.08152173 -0.0050213425 -0.16705504 -0.044895813
0.10180411 0.14770883 -0.034226887 0.003484148 0.008607303 0.049102914 -0.08944107 0.02257171
0.12619537 -0.14044368 0.0616379 -0.079900965 -0.01137752 0.06689878 0.017408365 -0.12297802
0.037288617 -0.016574463 0.048708893 -0.13999414 -0.045763057 0.15502779 0.010770257 0.08731269
-0.038657133 0.11062128 0.12151291 -0.0017340765 0.105729885 0.2195987 -0.018594142 0.17169581
0.07547541 0.12103058 -0.081736155 -0.11957598 -0.04412433 0.085554026 0.073672555 0.10635631
-0.084418036 -0.119451046 -0.1362303 -0.11646952 -0.058177166 0.025269475 0.022824394 0.0023949193
0.038277395 -0.0016773635 -0.011524367 -0.049535647 0.012260075 0.13958879 -0.11609 -0.08196785
-0.028249823 -0.08039297 0.060066562 -0.04575375 -0.0051630987 0.061866675 -0.09825343 -0.05728299
-0.031982467 -0.04154368 0.05395644 -0.07219052 0.08717863 0.036874425 0.10153613 0.033814304
-0.18433663 0.07944281 0.11377489 -0.056584787 0.095460445 -0.11232994 -0.14688163 -0.11549095
0.11629839 0.088557854 0.019030662 -0.08892681 0.075215876 0.15953422 0.039742317 -0.061610755
-0.1535668 -0.07555758 0.12354185 -0.005773941 0.011636694 0.13590266 -0.05602525 -0.01707068
0.07119938 0.036629397 -0.009783457 0.05330534 0.065473884 0.10439354 -0.05638689 -0.06429396

lstm.weight_hh_l1 f4 [256, 64]
00000000: 4c41 1bbb 3e6a a6bd d447 013c 2bd5 a6bd
00000010: 8790 06bd 064e 9abd 764d 08be 05e8 d53d
00000020: 112c 4d3d 42b6 40bd a88f c93c 1203 5cbc
00000030: fb6b bfbd 4088 02be 5c35 4bbd 46b5 6dbc
00000040: e612 1fbd 8442 ea3b b9ad 0f3e a0d4 8b3d
00000050: ee83 8cbd 08e9 25bd e253 bc3c 3a9e 983d
00000060: 7d87 f4bd c7b3 763d d4d3 cebd 5f14 0d3d
00000070: dcab 5a3d 2de6 e53c 6f7c b03d 023e 90bd
00000080: d97e c23d b040 e43d aba8 543d e5e7 b7bd
00000090: 574a 423d 61a0 953d ec3d 0d3e 9c79 2ebd
000000a0: f592 b1bd 2cac ad3d eeea 35bd 03f3 373d
000000b0: a2df f2bd 4551 a3bc c7f6 193d 78a8 c03b
000000c0: 0bb2 823d c187 94bd 34fd cd3d dbbb c2bd
000000d0: bed6 493c ad5c 58bd eb17 2f3d 80c2 6b3d
000000e0: 9fab 25bd 795b 2b3d 9f65 083e 9097 463b
000000f0: d4f1 99bd 03b8 0dbd 0c31 99bd b5de 5bbd
00000100: 3bf0 933d 7464 43bc ff01 523d 5882 283d
00000110: d89a ea3d 2573 033c f842 f8bd e564 d73d
00000120: 66f6 1fbe 012e 963d 5784 9dbd d1be b13c
00000130: c3f2 b1bd e99a 82bc 91d1 62bc a2f3 e13d
00000140: 979f e2bd 0903 4bbd cdb3 053d d750 af3d
00000150: b7be ddbc b2e4 05bd 3593 9b3d 8fe5 c5bd
00000160: ebdf ca3d eb39 ea3d 0216 e03d d4ae b5bd
00000170: f344 343d 4960 f8bd 59dd 023e 7f76 173d
00000180: def7 47bc 96ec 07bd a8e1 92bd 9a3b 61bb
00000190: 8f8c 0dbe 3868 a03d 25d5 a63d 9cdd d9bd
000001a0: ad24 d7bc 2741 e13c fb4d 113e 182f c03d
000001b0: b252 bebd 669e 0b3d 291b aabd 495f 0fbe
000001c0: 3647 1f3d 69bd d7bd 5e31 bb3d 8e85 04bb
000001d0: df51 ba3c ccdf 86bd fe93 2ebd aa71 b3bc
000001e0: ad2b cf3c 3a5d 39bc 6386 d1bd 2890 f5bc
000001f0: 56d3 023d 9c6a 0c3e 2349 dabd 92bc 93bd
00000200: 13c7 b63d 1916 e3bc c032 5ebd 05ac 0b3e
00000210: 938c 5e3d 300f bbbc 40d8 ddbd 9203 003e
00000220: f3ae 0dbd 6839 bb3d 1884 6b3c 8866 8bbd
00000230: 6265 97bc 1480 98bc d430 c23d f2c2 0dbd
00000240: b74a de3c 6505 89bc d3e5 a2bb 7575 b13d
00000250: dff7 a8bd 53e5 e03d c07c 353d cc9a e73c
00000260: de51 a93d eff5 7ebc 7f3d 773c 77a9 2cbd
00000270: 85fe 143d f5bc a13d ed98 4cb9 107d a03d
00000280: 195b b83d d5f1 fcbc 6176 1fbd 59e2 973d
00000290: 1be5 bf3d dcfc ba3d c56a ba3d 2fbf ffbc
000002a0: 1ae0 9bba 50c8 923d 7af0 cdbd d3cb e6bc
000002b0: 4002 cdba a07e e7bc 1563 913d fe22 0abe
000002c0: 25ad 36bd 81c3 02bc 032e f73d 7b03 a73c
000002d0: 3f96 d43d 5573 37bd add8 2ebc d956 0c3d
000002e0: e4f2 da3d 0099 e0bc 9c18 073d ff18 46bc
000002f0: 119d b83d 1268 753d 906d 673d 92d9 3d3d
00000300: ef22 fcbd 224e 2fbd dffa c33d fbc9 54bd
00000310: 939e 523d c1da 0abe 49e1 073e c740 debd
00000320: 2984 88bd fe88 fd3c be3b 813d 09f9 f2bc
00000330: 68c4 6d3c db26 e63d 26da cbbd 55cc 003d
00000340: 2338 343d 5d7a a6bb cd23 edbc b03f e5bc
00000350: f578 5a3d 8033 0d3e 1b32 a33d 1c35 e4bb
00000360: cbc3 2bbd bde6 8abd f92d 5cbc 5480 5bbd
00000370: f502 0ebd 677d aebd 52eb 78bd 217f 3cbd
00000380: 5094 f33d dadf 0fbe 22d5 fcbd a4ff 93bd
00000390: f875 21bb e14d a83c 1f65 fb3c 7c48 09be
000003a0: fa8b 163d 4893 e63d 5903 d9bd 28c0 a13d
000003b0: b354 85bd e834 803d 0194 3fbd 12aa 103e
000003c0: b8d3 9a3d e25c 463c 1604 19be ee26 48bd
000003d0: 77b7 ebbc 9121 85bc 0994 36bc b201 c0bd
000003e0: adc6 153c e398 debd 995d bb3c 586a 12be
000003f0: 61c3 133d bdca 2c3d e33c eb3d c25b 00bd
-0.0023690043 -0.08125733 0.00789066 -0.08146127 -0.032852676 -0.07534413 -0.13310799 0.10444645
0.050090853 -0.047048815 0.024604633 -0.013428466 -0.093467675 -0.12747288 -0.049611434 -0.014508551
-0.038836382 0.0071490426 0.14031114 0.068276644 -0.06861101 -0.04050544 0.022989217 0.07452054
-0.11939905 0.060230043 -0.10098997 0.034443256 0.053386554 0.028063858 0.08617484 -0.07043077
0.094968505 0.11145151 0.051918667 -0.08979777 0.047434177 0.073059805 0.13793153 -0.042596444
-0.08670608 0.08480105 -0.0444135 0.04490949 -0.11859061 -0.019936213 0.03758886 0.005879458
0.06381615 -0.072524555 0.1005806 -0.09508487 0.012319265 -0.052822758 0.04274742 0.057558537
-0.040446874 0.041835282 0.13320015 0.003030274 -0.07516828 -0.034599315 -0.07480058 -0.053679187
0.07223555 -0.011925805 0.051271435 0.04113993 0.11455315 0.008023058 -0.12122148 0.10517291
-0.15621337 0.07332993 -0.076912574 0.021697434 -0.08688881 -0.015943008 -0.01384391 0.110327974
-0.110655956 -0.04956344 0.032642175 0.08560341 -0.027068479 -0.032688804 0.07596437 -0.096629255
0.0990599 0.11436828 0.10941698 -0.088712364 0.044011068 -0.1212774 0.1277975 0.03697824
-0.012205092 -0.03318461 -0.07171947 -0.00343678 -0.1382315 0.07832378 0.08146123 -0.10637972
-0.026262606 0.027496887 0.14189903 0.093839824 -0.09293117 0.034086607 -0.08305962 -0.14001192
0.03888627 -0.10534174 0.091402754 -0.0020221206 0.022744117 -0.065856546 -0.042621605 -0.021904785
0.02528938 -0.011313731 -0.1023071 -0.029975966 0.031939827 0.13712543 -0.10658481 -0.07213701
0.08924689 -0.027720498 -0.054247618 0.13639839 0.05433328 -0.02283439 -0.10832262 0.12501362
-0.034590673 0.09141809 0.014374755 -0.06806666 -0.01848096 -0.01861576 0.094819695 -0.034609742
0.027135236 -0.016726205 -0.004971245 0.08664981 -0.08250403 0.1098124 0.044308424 0.028272055
0.08267568 -0.015561565 0.015090345 -0.0421538 0.03637554 0.07897369 -0.00019511925 0.07836354
0.090017505 -0.030877033 -0.038931254 0.07416219 0.0936987 0.0913026 0.09102396 -0.031219093
-0.0011892349 0.07167113 -0.10055633 -0.028173363 -0.0015640929 -0.028258622 0.070989765 -0.13489911
-0.044598717 -0.007981182 0.12069323 0.020387402 0.1038022 -0.044787724 -0.010671777 0.034262512
0.10690859 -0.027416706 0.032982454 -0.0120909205 0.09014333 0.059913702 0.05650097 0.04635007
-0.123113506 -0.042799123 0.09569334 -0.051950436 0.05142076 -0.1356001 0.13269533 -0.10852199
-0.066658325 0.030949112 0.06310223 -0.029659765 0.014512159 0.1123788 -0.09953718 0.031444866
0.04399885 -0.005080505 -0.028947735 -0.02798447 0.05333801 0.13789177 0.07968541 -0.006964339
-0.04193477 -0.06782291 -0.013438695 -0.05358918 -0.03467079 -0.08520012 -0.060771294 -0.046019677
0.11893523 -0.14050236 -0.12345339 -0.07226494 -0.0024636965 0.020544948 0.030687867 -0.13406557
0.036754586 0.112585604 -0.10596342 0.07897979 -0.06510296 0.06260091 -0.046772007 0.14127377
0.075599134 0.012107106 -0.14942965 -0.04886525 -0.028774006 -0.016251357 -0.011143693 -0.09375323
0.009141606 -0.108690046 0.02287178 -0.1429838 0.036075 0.042185534 0.114862226 -0.031337507

lstm.bias_ih_l1 f4 [256]
00000000: 5f2c da3d d970 5abd 703e 043d 9dc8 283c
00000010: 4e7d ea3d b580 8a3c 0fb7 273d be38 e03d
00000020: f0b0 0bbe 6b0b 07bd 2a73 1b3e 4b13 673d
00000030: cae2 d93b 16a8 0dbe c6b5 083d aba5 27bc
00000040: 4894 dcbd 6340 36bd 1001 d6bc 85b4 b6bd
00000050: 4aa8 db3d 2d0b 963d edf6 453d 64d3 183e
00000060: cc08 fe3d 142d 333b 4c9d d33d 3360 b0bd
00000070: c750 9f3d a9dd f83c 1b4f 973c 6017 213d
00000080: 7bce 1ebe 8e81 e6bc 6fb0 0c3c 878e 483d
00000090: 8f47 9e3d cc4a f33d e39a cc3c 76bb f23d
000000a0: d7fa 883d 7ec1 77bc e8c6 c63d b33a 843d
000000b0: 7870 d9bc 9806 c5bd df1d c13c d793 993d
000000c0: 7dd8 eabd 36f6 b9bd 0a9a 073e f93b 40bd
000000d0: 2c70 c93d e31a 11be 425e d33d a3c7 d53d
000000e0: 1cd1 8ebd 13fc 1cbe ae5d b43c d5f8 1b3e
000000f0: 1f18 8bbd 9977 20bd 920a dcbd ed4f b0bd
00000100: aae7 203e 0b90 0c3c 827e 10bd 1248 013d
00000110: 759a 713d 44ed 9dbd 270f 02bd 007a c03d
00000120: ac90 e0bc 90ae 0b3e ae6f 57bd 3471 293e
00000130: 1ad5 ae3d 990d 0ebe 6662 b03d e0ba a0bd
00000140: b545 ac3c ad8d 3ebc 05bc 583d 1e74 e239
00000150: d39f d43d 13b3 06be db87 8cbd a762 babc
00000160: 216b 54bb 335e b1bd 63c6 153e 916b 95bd
00000170: ffe2 0e3e fbd0 023e 2983 9f3b 9723 bbbc
00000180: fd7f 363d 2246 243e 14d6 5d3d 3cd5 0c3e
00000190: 5bcc ce3d b582 8ebc 3046 1b3e 8700 b03d
000001a0: ec79 f3bd 8b69 88bc 7552 88bc 3bd8 403c
000001b0: 99f0 92bb 2c39 263c 0a1e 29bd f842 f63c
000001c0: e36c 35bd 93a6 01be ca13 243e bc95 31bd
000001d0: 1460 93bd c65a d5bd 831b dc3d e9c7 98bd
000001e0: a359 8ebc a307 163d 4d33 59bd bb74 ac3a
000001f0: 5954 a13d c5b1 363d 7c90 533d 8579 283e
00000200: 7d19 043e db58 f2bd 16e6 13be 29bb 553c
00000210: 2b6c 033e dcb3 c93d 42d5 15be 4030 97bd
00000220: bae0 d23c 554b 553d d53a 17be e0b7 2dbe
00000230: a747 403d 2b3c 4fbb e1b4 cebc 3287 293e
00000240: 9a60 943d 7ba5 0abd 5366 1a3e f7f8 61bc
00000250: 5af6 0bbe 9fbd a1bd adf9 f7bd 5f12 113e
00000260: 955c 2abe 511b 8b3c 6611 7ebd c4b6 b9bc
00000270: 14bc bdbc efe9 08be ccbb 4abd d08f 903d
00000280: 9c2b 23bd 12bc 2a3e 5e9d 88bd e3bb 763c
00000290: 0238 f4bd 6e23 273d c573 173e 749d 043d
000002a0: c5f3 5c3c c771 efbd e3b9 b23d c500 393d
000002b0: 9018 13be a673 fa3d 8ec0 06be 4476 1ebd
000002c0: 38d3 bb3d bd3e 27bc 4a62 2f3e 3e65 d8bd
000002d0: 06a0 a13d b365 533d 9b5c 56bc 62aa b6bd
000002e0: 6af7 06bd 6d8e 133d 6adf a8bb 6c25 a43d
000002f0: e0f8 e9bd b7bf 82bd bebd 12be ed1e b13d
00000300: 7cdd 80bd 0a6a 1a3e 8584 9cbc 1ce6 52bd
00000310: 4d54 a5bc 15b8 59bd dcdc c0bc dd1a ea3d
00000320: 790a ef3d 4b03 383d 0f47 743d eedb 56bd
00000330: 2a8f 8fbb f9b1 b4bd 7ceb 1ebd b719 583d
00000340: 3fe7 003e bf69 c83d 7383 aabd f1f5 283d
00000350: 8414 9ebd 3808 823d 8aaa 11bd 9a69 07bd
00000360: 505d 0d3e acfe c0bd 8503 cb3c 857e 553d
00000370: ede3 e53d 14aa 0c3d c3d1 09be 2581 643a
00000380: 3175 cf3d a12d df3d 4650 8f3b 8f9c 49bd
00000390: c58f 81bd e343 cabd 2396 793c bf56 97bc
000003a0: 9296 113e ca8a dabc 7fef 5a3d 1afa e23c
000003b0: d430 0a3c ea1a c53d 6317 2c3d e73c f8bc
000003c0: 36bf 403d 74b2 14bd f712 063e 3092 df3a
000003d0: 0f83 11bd 3655 95bd 0a30 ac3d 99f2 7ebd
000003e0: bbeb 30be 8d2b b83c 12e2 c5bd 9413 2a3d
000003f0: 977f 98bd a0ff 53bc aa3e 0dbd 012d 303d
0.10652994 -0.053330276 0.032286108 0.010301736 0.11449681 0.016907075 0.040946063 0.10948323
-0.13641715 -0.032969873 0.1518065 0.056414884 0.00664935 -0.13833651 0.033376478 -0.010232369
-0.1077047 -0.044494998 -0.026123554 -0.0892115 0.10725458 0.0732635 0.04833119 0.14924389
0.124040216 0.00273401 0.103327364 -0.086120985 0.07779079 0.030379133 0.018470338 0.039328933
-0.15508454 -0.028137948 0.008586987 0.04896405 0.077284925 0.11879501 0.0249762 0.118521616
0.06688469 -0.015121816 0.09705907 0.064565085 -0.026542887 -0.09620398 0.023573814 0.07498901
-0.11467073 -0.09080164 0.13242355 -0.046932194 0.09835848 -0.14170413 0.103207126 0.10438468
-0.06973478 -0.15330534 0.022017326 0.1523164 -0.0679171 -0.039176557 -0.107442036 -0.08608995
0.15713373 0.008579264 -0.035276897 0.031562872 0.058985192 -0.077112705 -0.03175273 0.0939827
-0.027412735 0.13640809 -0.05259674 0.1654709 0.0853674 -0.13872375 0.08612518 -0.078481436
0.021029333 -0.011630458 0.052913684 0.00043192593 0.103820466 -0.13154249 -0.0686185 -0.02275212
-0.0032412487 -0.08660545 0.1462646 -0.07295907 0.1395378 0.12775032 0.0048679304 -0.022844119
0.044555653 0.16042379 0.05415924 0.13753217 0.100975715 -0.01739631 0.15163493 0.085938506
-0.11888489 -0.01665189 -0.016640881 0.011770303 -0.004484248 0.010145467 -0.041288413 0.03006123
-0.044293296 -0.126612 0.16023174 -0.04335569 -0.0719606 -0.10417704 0.10747435 -0.07460005
-0.017376726 0.036628377 -0.05302744 0.0013157347 0.07877416 0.044603128 0.051651463 0.16452606
0.12900348 -0.11833354 -0.1444324 0.013045111 0.12834232 0.098487586 -0.14632133 -0.0738225
0.025741924 0.052073795 -0.14768536 -0.16964674 0.046943333 -0.0031621556 -0.025232734 0.16555479
0.07244988 -0.03384922 0.15078096 -0.013792268 -0.13668194 -0.078974955 -0.12108169 0.14167164
-0.1663688 0.016980799 -0.06202831 -0.022670157 -0.023160972 -0.13370489 -0.049495503 0.0705868
-0.03983651 0.16673306 -0.066706404 0.015059444 -0.11924745 0.040805273 0.14790256 0.03237672
0.013485854 -0.11691623 0.08726861 0.04516675 -0.14364839 0.122290894 -0.13159391 -0.038687006
0.09171146 -0.010207829 0.17127338 -0.105661854 0.0789185 0.05161066 -0.013083602 -0.08919217
-0.032950796 0.0360245 -0.005153586 0.0801495 -0.11424422 -0.06384223 -0.14330193 0.08648477
-0.06292245 0.15079513 -0.019106159 -0.05148898 -0.0201818 -0.05315407 -0.023542814 0.11430905
0.116719194 0.044925015 0.05963808 -0.052455835 -0.00438108 -0.08823008 -0.038798794 0.0527589
0.12588213 0.097857945 -0.08325853 0.041250173 -0.07718757 0.06349224 -0.03556303 -0.033059694
0.13805127 -0.09423575 0.024781952 0.05212261 0.11225114 0.034341887 -0.13458924 0.0008716754
0.10129774 0.10897375 0.004373583 -0.04922157 -0.0632625 -0.098762296 0.015233549 -0.018473981
0.14217594 -0.026677508 0.053451058 0.027707148 0.008434493 0.09624274 0.04201449 -0.030302478
0.047057353 -0.036303 0.13093172 0.0017057117 -0.035525378 -0.07291643 0.084076 -0.062243078
-0.17277424 0.022481704 -0.0966226 0.041522577 -0.07446211 -0.012939364 -0.03448359 0.04301167
