data_storage/models/lstm_v1.0.0_20251231_114618/assists_model.pt (torch, 217509 bytes, 9 tensors)

lstm.weight_ih_l0 f4 [256, 12]
-0.23279075 0.21006483 -0.16168675 -0.32286683 0.14513771 -0.0023557723 0.026970876 -0.12753344
-0.121295884 0.25317964 -0.14093404 0.040827326 -0.23945902 0.030631509 0.406397 -0.20840356
0.3443557 -0.2697578 -0.14274088 0.24259645 -0.10724745 -0.39506492 0.22396705 0.30441302
0.0039054747 0.2623841 0.6017096 0.667345 -0.18559024 0.6045293 0.13336837 0.30753797
0.26247096 0.10808506 0.19179909 -0.0375403 0.1314071 -0.37882936 -0.35082075 0.11515499
0.06703204 -0.14729324 -0.18352938 -0.29789042 -0.34700596 -0.49018702 -0.5311322 0.38195664
-0.114072375 -0.21083517 0.01916001 -0.13636532 -0.020923585 0.21017013 -0.16011347 0.15303808
0.007509485 -0.20558311 0.00095413707 0.6784301 0.23606502 -0.06926956 0.14475253 0.064378776
0.22529192 0.34980518 0.126523 -0.2636264 0.031061947 -0.1546076 0.0013273188 0.25127816
-0.12522951 0.28063673 -0.10006514 0.18743686 -0.0014494432 0.043303452 -0.25657088 0.0065304046
-0.0004086655 -0.07224217 -0.430614 0.5673561 0.49143058 0.033953693 -0.3222007 0.1653983
0.112094834 -0.85300106 -0.6101911 0.034879185 -0.22038706 -0.32888767 -0.36350682 0.29547942
0.18369305 0.016707757 -0.045207594 0.2788189 0.11902763 0.03347034 0.53239805 -0.2951801
-0.48656356 -0.04507828 -0.034641806 -0.1864471 0.11178123 -0.0042988146 0.18434343 0.08521787
0.21413815 0.19468796 0.076935746 -0.38143107 0.042335887 -0.16433914 0.13364358 0.23036306
0.11721477 -0.12889573 -0.09264801 0.5629308 -0.1974417 -0.16776867 -0.19508941 0.14091377
0.034042623 0.16217397 -0.009302982 0.50386137 0.21812181 0.013154115 -0.31172565 0.28263408
-0.15559316 -0.23859334 -0.16585575 -0.5131908 0.08854753 0.2772979 -0.2927661 -0.16916035
0.13676435 0.274111 -0.3572385 0.55330914 0.31579947 0.18451595 0.33997127 -0.1023999
-0.040916566 0.087172255 0.14981486 0.6664776 -0.13169588 0.0831978 -0.19336118 0.068410136
0.519275 0.2661069 -0.08955629 0.23659413 0.07366087 0.13910002 -0.15047629 0.064379685
-0.3440696 -0.42428347 -0.13715865 0.033286497 -0.2792334 -0.075209945 0.08586046 0.20561595
0.30070072 0.04579786 -0.21297352 0.058576655 0.384166 0.10905342 0.072922066 -0.022608891
0.18273163 0.08035029 0.25305676 0.04489875 -0.069762096 -0.20534177 -0.6043547 0.09331515
-0.21658474 0.120696425 0.06627332 -0.14229679 -0.10263166 -0.046337325 0.38208798 0.03434181
0.29981723 -0.25793293 0.08206195 0.009921457 -0.36960706 0.024260746 -0.14107296 -0.38296193
-0.26008314 -0.03342679 -0.019028157 0.31465194 0.17869504 -0.32982144 -0.14512657 -0.16742589
-0.38060865 -0.23041968 -0.14875291 0.116830096 0.091014884 -0.078722894 -0.18046924 -0.35252738
0.06320596 -0.39832437 0.06340025 0.26484165 -0.1469121 -0.571874 -0.26693624 0.12420737
-0.7899793 -0.07310266 -0.17059597 0.110727586 0.22101481 -0.2684049 0.32016796 0.21023616
-0.32026535 -0.076289736 0.12809424 0.22281434 0.097574644 -0.118257925 0.07805974 -0.057834286
-0.05608308 0.24673688 0.3219714 -0.61348367 -0.39173245 -0.16834643 0.03455565 -0.20065771
00000000: b360 6ebe 3c1b 573e 3691 25be cd4e a5be
00000010: fb9e 143e 4d63 1abb 07f2 dc3c 2098 02be
00000020: fa69 f8bd c3a0 813e 0351 10be 8e3a 273d
00000030: bf34 75be eeee fa3c 4513 d03e be67 55be
00000040: 644f b03e b21d 8abe aa2a 12be 346b 783e
00000050: 8da4 dbbd f345 cabe 9e57 653e 06dc 9b3e
00000060: fef2 7f3b 3557 863e a409 1a3f 1fd7 2a3f
00000070: 5e0b 3ebe 6fc2 1a3f b891 083e 9e75 9d3e
00000080: 9862 863e b35b dd3d fb66 443e dcc3 19bd
00000090: 958f 063e ecf5 c1be c79e b3be 61d6 eb3d
000000a0: 1848 893d 0ad4 16be 20ef 3bbe 1885 98be
000000b0: c4aa b1be cbf9 fabe 48f8 07bf d28f c33e
000000c0: c79e e9bd 2de5 57be 74f5 9c3c 5aa3 0bbe
000000d0: f067 abbc d736 573e c9f4 23be 04b6 1c3e
000000e0: 2012 f63b 6184 52be 0e1f 7a3a 98ad 2d3f
000000f0: 07bb 713e 33dd 8dbd 023a 143e 05d9 833d
00000100: edb2 663e aa19 b33e 3f8f 013e 0afa 86be
00000110: a075 fe3c 7451 1ebe 6ef9 ad3a 88a7 803e
00000120: 2a3c 00be 9eaf 8f3e f4ee ccbd 73ef 3f3e
00000130: 3efb bdba f65e 313d 425d 83be 01fd d53b
00000140: 2842 d6b9 b4f3 93bd 7079 dcbe 403e 113f
00000150: ca9c fb3e 0713 0b3d 7df7 a4be 2c5e 293e
00000160: fa91 e53d 475e 5abf 7c35 1cbf 7add 0e3d
00000170: 25ad 61be f763 a8be 911d babe 1449 973e
00000180: 081a 3c3e b5de 883c 992b 39bd 5ac1 8e3e
00000190: c2c4 f33d 3218 093d 3d4b 083f d921 97be
000001a0: dc1e f9be 01a4 38bd 91e4 0dbd fdeb 3ebe
000001b0: 8fed e43d 12dd 8cbb 86c4 3c3e b586 ae3d
000001c0: 0847 5b3e 485c 473e 7d90 9d3d ef4a c3be
000001d0: 6568 2d3d 8548 28be ddd9 083e 4be4 6b3e
000001e0: 4c0e f03d 3efd 03be 3dbe bdbd 3c1c 103f
000001f0: 282e 4abe 8dcb 2bbe 85c5 47be b34b 103e
00000200: 4770 0b3d ef10 263e 896b 18bc 0ffd 003f
00000210: 535b 5f3e 5b84 573c 819a 9fbe 6ab5 903e
00000220: d053 1fbe d051 74be 17d6 29be 7960 03bf
00000230: 6858 b53d fef9 8d3e 70e5 95be 5f38 2dbe
00000240: f40b 0c3e 4758 8c3e f7e7 b6be aba5 0d3f
00000250: 78b0 a13e c0f1 3c3e b710 ae3e 0ab7 d1bd
00000260: 2198 27bd 5e87 b23d 1169 193e 479e 2a3f
00000270: 49db 06be 9c63 aa3d 7900 46be 9d1a 8c3d
00000280: 35ef 043f 2a3f 883e 4a69 b7bd bb45 723e
00000290: 83db 963d 3c70 0e3e 7516 1abe 7fd9 833d
000002a0: e429 b0be af3b d9be 5173 0cbe 6c57 083d
000002b0: aef7 8ebe ac07 9abd 9cd7 af3d fd8c 523e
000002c0: 72f5 993e 8996 3b3d bb15 5abe 13ee 6f3d
000002d0: 68b1 c43e 6657 df3d 2a58 953d 4836 b9bc
000002e0: 001e 3b3e b18e a43d a890 813e c0e7 373d
000002f0: 6edf 8ebd 1d45 52be fdb6 1abf 031c bf3d
00000300: 64c8 5dbe b02f f73d 4eba 873d 40b6 11be
00000310: 8c30 d2bd 35cc 3dbd 09a1 c33e ffa9 0c3d
00000320: a581 993e c90f 84be 1810 a83d 9b8d 223c
00000330: 233d bdbe 79be c63c 6e75 10be 9613 c4be
00000340: 9e29 85be 88ea 08bd f0e0 9bbc 0f1a a13e
00000350: d5fb 363e 5bde a8be 0f9c 14be b171 2bbe
00000360: 23df c2be 23f3 6bbe af52 18be 9e44 ef3d
00000370: 0366 ba3d 7839 a1bd eecc 38be 787e b4be
00000380: 2072 813d 2cf1 cbbe fed7 813d 5399 873e
00000390: 2070 16be 5666 12bf deab 88be 6f60 fe3d
000003a0: 153c 4abf d9b6 95bd b6b0 2ebe 25c5 e23d
000003b0: b551 623e 5e6c 89be 0eed a33e 2648 573e
000003c0: d2f9 a3be cb3d 9cbd 232b 033e 7129 643e
000003d0: 37d5 c73d 3631 f2bd c9dd 9f3d a5e3 6cbd
000003e0: 5fb7 65bd 98a8 7c3e 6fd9 a43e 440d 1dbf
000003f0: 2891 c8be 0263 2cbe 3a8a 0d3d 3779 4dbe

lstm.weight_hh_l0 f4 [256, 64]
-0.05968564 -0.5485958 -0.22674446 -0.003192299 -0.5231008 0.44441575 -0.4797777 0.26345766
0.027109502 0.37125653 -0.1668244 -0.10132578 0.34552142 0.53619415 0.43405625 0.105874635
-0.42371935 -0.84540206 0.26202884 -0.42985773 -0.5158001 0.28605434 0.17199647 0.33736163
0.3182941 -0.15598132 -0.15285929 0.11554723 -0.073941894 -0.17188504 0.003949039 0.46734473
-0.4736922 -0.37890366 0.19866483 -0.048438463 -0.2799986 -0.19445147 0.8434818 0.29021135
-0.33441046 0.3821764 -0.032095946 -0.059838425 0.23934244 -0.24232195 -0.329409 0.4477999
0.18486059 0.32846025 0.53309613 -0.026559768 -0.21127726 0.31203803 0.062158976 0.43481335
0.2649937 0.36859623 -0.23745596 -0.11971147 -0.17436779 -0.5448392 -0.3127346 0.34020114
-0.27267125 0.25346544 0.21054406 -0.1323794 0.4646399 -0.15903388 0.3040128 -0.7578469
0.054245044 0.326397 -0.29091567 0.03923914 0.11615313 -0.54763955 -0.18749167 0.066673934
0.102083735 -0.29748908 -0.14065075 0.5003335 0.7841412 -0.32290348 0.010234092 0.21840517
-0.13750692 0.42599896 -0.24151984 0.23466608 0.50599056 -0.31405398 -0.1832998 0.22690281
0.34931907 0.485588 -0.24004789 -0.21593982 0.17487738 0.23225142 -0.00082526234 -0.3745082
0.1125635 -0.43531722 -0.067684606 0.22343947 -0.37459227 0.38481733 -0.14897613 0.34584576
-0.5205208 -0.15638864 0.19102958 -0.16683154 0.50334007 -0.575362 0.104458265 -0.059333757
-0.28692022 -0.1026462 0.13502784 -0.2925315 -0.34161386 0.14791451 -0.042486556 -0.33788705
-0.14043933 0.30692497 -0.014622594 -0.3656594 -0.2075749 -0.04868939 0.20397957 -0.22927174
0.306218 -0.16038503 -0.1112367 -0.07529051 -0.04115083 -0.20112264 0.021863516 0.0080235135
-0.10204349 0.028163364 -0.03975689 -0.1883174 -0.27992812 -0.1731193 0.37735078 0.12645324
0.17039987 0.1850178 -0.10590442 -0.009098346 -0.14692941 0.07384525 -0.25796947 0.027956998
-0.7108765 -0.17705345 -0.003682599 -0.41483098 0.13232344 -0.19097047 0.048508562 0.036238626
-0.16160727 0.6024937 -0.24674232 -0.09697243 -0.6156834 -0.09319625 -0.15304571 0.13108782
0.24690557 -0.4587702 0.23796618 0.070824705 0.4140508 -0.16553561 0.37471402 -0.19637936
0.0073911254 0.04950985 0.0342 -0.15049855 -0.92004174 -0.081634775 0.4707705 0.23021252
0.4505375 -0.3864129 -0.4078786 0.3178862 0.20420985 0.013381484 -0.25498304 0.2036775
0.2882103 0.28731954 0.45398942 0.3562849 -0.33112755 0.059657615 0.22282392 -0.2753435
-0.16468816 -0.29303753 0.08618413 -0.046287265 0.1826425 -0.19955464 0.0014689622 -0.6202709
0.17740384 -0.86013824 0.5085603 -0.89854383 -0.2521574 -0.1721275 -0.13237268 0.46409768
-0.52314687 0.27584755 0.53816617 0.24989994 0.42277312 0.14555894 -0.19225098 0.21143377
-0.17551243 0.6803635 -0.32015133 -0.23771793 0.3915425 -0.46500713 -0.30032438 0.17532255
-0.15700231 0.24780731 -0.026572624 -0.3168226 -0.5106153 -0.18494956 0.47590947 -0.035373494
0.50031954 -0.30655858 0.027581692 0.27836692 -0.16863221 0.17881826 0.19564287 -0.21716823
00000000: ee78 74bd c670 0cbf b32f 68be e435 51bb
00000010: efe9 05bf 768a e33e 6ca5 f5be ece3 863e
00000020: bf14 de3c 5615 be3e 04d4 2abe e483 cfbd
00000030: 2fe8 b03e 0544 093f 9f3c de3e cdd4 d83d
00000040: bef1 d8be 456c 58bf a528 863e 5016 dcbe
00000050: 7a0b 04bf b775 923e d81f 303e aaba ac3e
00000060: 72f7 a23e 91b9 1fbe 2587 1cbe 07a4 ec3d
00000070: d96e 97bd a202 30be f166 813b cf47 ef3e
00000080: c987 f2be a9ff c1be cb6e 4b3e 6967 46bd
00000090: fa5b 8fbe 491e 47be 6cee 573f 9596 943e
000000a0: d937 abbe a0ac c33e 0a77 03bd 2319 75bd
000000b0: 2f16 753e 3f23 78be 4ca8 a8be 0746 e53e
000000c0: 184c 3d3e f12b a83e fd78 083f df93 d9bc
000000d0: 1159 58be 73c3 9f3e 699a 7e3d db9f de3e
000000e0: 41ad 873e a5b8 bc3e a827 73be 4a2b f5bd
000000f0: 788d 32be 957a 0bbf c01e a0be d82e ae3e
00000100: 919b 8bbe 39c6 813e dd98 573e 778e 07be
00000110: 48e5 ed3e c7d9 22be 91a7 9b3e 4102 42bf
00000120: 0d30 5e3d 821d a73e e6f2 94be 38b9 203d
00000130: b1e1 ed3d 1b32 0cbf d1fd 3fbe 588c 883d
00000140: 4711 d13d 7d50 98be c006 10be db15 003f
00000150: 7abd 483f 9b53 a5be e5ac 273c 9ba5 5f3e
00000160: 9dce 0cbe 891c da3e fa50 77be 4e4c 703e
00000170: 9988 013f afcb a0be f1b2 3bbe 3659 683e
00000180: f3d9 b23e fe9e f83e 1dcf 75be 541f 5dbe
00000190: 0e13 333e 51d3 6d3e 6b56 58ba 8abf bfbe
000001a0: b187 e63d e6e1 debe 3a9e 8abd 51cd 643e
000001b0: 8fca bfbe c706 c53e 338d 18be b212 b13e
000001c0: da40 05bf 5824 20be 429d 433e e3d5 2abe
000001d0: e5da 003f ed4a 13bf 37ee d53d f407 73bd
000001e0: 35e7 92be 2c38 d2bd bd44 0a3e b0c6 95be
000001f0: 03e8 aebe e776 173e 6206 2ebd 88ff acbe
00000200: 54cf 0fbe 4525 9d3e 9b93 6fbc b537 bbbe
00000210: 848e 54be 876e 47bd 05e0 503e 36c6 6abe
00000220: 9bc8 9c3e f93b 24be 11d0 e3bd e931 9abd
00000230: c68d 28bd 18f3 4dbe 1e1b b33c 0e75 033c
00000240: 2dfc d0bd dbb6 e63c 1fd8 22bd 47d6 40be
00000250: bd52 8fbe 3046 31be 1f34 c13e f57c 013e
00000260: 4e7d 2e3e 4e75 3d3e 6be4 d8bd 3b11 15bc
00000270: aa74 16be 2e3c 973d 9314 84be 1306 e53c
00000280: 01fc 35bf 804d 35be c257 71bb ba64 d4be
00000290: cc7f 073e c38d 43be eab0 463d f46e 143d
000002a0: 607c 25be 073d 1a3f 05aa 7cbe 7b99 c6bd
000002b0: 6d9d 1dbf addd bebd 04b8 1cbe e33b 063e
000002c0: d0d4 7c3e ede3 eabe 68ad 733e 8b0c 913d
000002d0: 77fe d33e 2b82 29be 84da bf3e ac17 49be
000002e0: 4131 f23b d7ca 4a3d 4d15 0c3d 4b1c 1abe
000002f0: db87 6bbf 2230 a7bd d508 f13e d5bc 6b3e
00000300: daac e63e e9d7 c5be 77d5 d0be fbc1 a23e
00000310: 631c 513e 033e 5b3c 238d 82be d690 503e
00000320: 4d90 933e 8c1b 933e 4d71 e83e f96a b63e
00000330: 8d89 a9be 8b5b 743d f42b 643e d3f9 8cbe
00000340: 03a4 28be 0409 96be 4e81 b03d b797 3dbd
00000350: a306 3b3e 0d58 4cbe 318a c03a 13ca 1ebf
00000360: 5aa9 353e 0532 5cbf 0231 023f f806 66bf
00000370: c61a 81be 3142 30be b48c 07be 369e ed3e
00000380: f4ec 05bf e43b 8d3e 42c5 093f c5e5 7f3e
00000390: b875 d83e 670d 153e 71dd 44be 1882 583e
000003a0: 88b9 33be 4d2c 2e3f e0ea a3be 546c 73be
000003b0: 4278 c83e 6a15 eebe 1ec4 99be c187 333e
000003c0: 37c5 20be 33c1 7d3e d5ae d9bc 9236 a2be
000003d0: afb7 02bf 6b63 3dbe 68aa f33e cce3 10bd
000003e0: f114 003f 3ff5 9cbe 00f3 e13c 1c86 8e3e
000003f0: ecad 2cbe 221c 373e 9b56 483e 5961 5ebe

lstm.bias_ih_l0 f4 [256]
-0.22494896 0.11193319 0.19125855 0.1164285 -0.15030217 0.004466748 -0.22184758 0.30608332
-0.108265035 -0.20731401 0.07669848 -0.07196146 0.11177636 0.080455124 -0.08948186 -0.1142486
-0.047160033 0.2517831 0.038578324 0.07490274 -0.027056428 0.14641818 -0.052212596 -0.10150065
-0.047742195 -0.13545428 0.04611958 0.10978364 -0.1320629 0.07815848 -0.21467395 -0.03277828
0.23330766 -0.030824939 0.059956357 -0.106626585 0.013166121 -0.08023888 -0.07428271 0.055945653
-0.07722881 0.045404386 0.040105287 0.012003625 -0.14399384 -0.021147616 0.068707906 0.19950534
0.052115317 0.026017258 -0.044946235 -0.06641068 0.07863722 -0.02563109 -0.19741678 0.074793376
-0.18871129 -0.08230467 -0.03158812 -0.09951311 0.03950814 0.01744755 -0.1619328 -0.12274581
0.027599035 0.10904066 -0.1361303 0.14484549 0.036444213 0.2781474 0.09962749 -0.092545636
-0.110050924 0.043879315 0.23601225 -0.1582587 0.08352281 0.01689457 0.20211124 0.1961081
0.20821655 0.12538685 0.007288108 0.025359917 0.19487171 -0.102150425 -0.1367387 0.12803313
-0.25776973 -0.15154442 0.19608977 -0.03676572 -0.027258137 0.0783382 0.13345881 0.072262876
-0.04805239 -0.15857668 -0.09780472 0.067188405 0.36729807 0.26868394 0.11220576 0.089349076
-0.016044367 0.03966022 -0.10812359 0.15605633 -0.10901642 0.0625263 0.08714776 -0.17431362
-0.10855316 -0.0420036 0.15114473 -0.08893002 0.013234551 0.07308192 -0.086674236 -0.3697349
0.05509648 0.012063261 0.077904634 -0.089688435 -0.06530995 0.07102776 -0.10368337 -0.1580716
0.06540037 0.1307417 -0.0190508 0.0507809 0.13230366 -0.17272973 0.11540598 0.080801845
0.20633022 -0.10950621 -0.066254705 -0.02466065 0.09670541 0.017388845 -0.017544346 -0.06866785
-0.062515356 0.002598331 0.07137387 0.08994124 0.037360724 0.0686282 -0.13120219 -0.06989146
0.09984289 0.18891706 -0.007935511 -0.13404883 0.1536999 -0.10157952 -0.03666999 -0.00056874263
0.01786264 -0.06893725 -0.10209873 0.035535853 0.11174075 0.062576644 -0.20227356 0.03575311
-0.13846557 -0.03686194 0.057551917 0.00019440925 0.025483575 0.08720744 0.060890228 -0.04121838
-0.082398735 0.08810585 0.053363312 0.04171962 0.08980567 -0.21449882 0.17261103 -0.027275104
0.040009998 -0.006462239 -0.05288423 0.061270416 -0.0405465 -0.07842842 0.009093342 -0.05101777
-0.04028365 0.15729076 0.08096875 0.24843298 0.04750394 0.026757065 -0.20267332 0.09715034
-0.010435814 -0.040734567 -0.041145146 -0.122737676 0.124198236 -0.027025796 0.061757915 -0.016791798
0.030373473 0.17020775 0.053941343 0.038745295 0.052316744 0.06868072 0.03335769 0.11763839
-0.03989061 0.045970935 0.03658843 0.10238558 -0.12379473 -0.001108725 -0.061947893 0.0018511022
0.17034625 0.12592481 -0.05670928 -0.13714628 -0.10185026 0.09057862 -0.04628152 0.11751492
-0.055423714 0.015389042 0.17081262 0.019292273 -0.1562846 -0.051381297 0.025027702 0.041750934
0.22939917 0.03232999 0.19739434 -0.102416314 -0.025073258 -0.029687153 -0.0018162378 0.24615704
-0.22349831 0.022631438 -0.012297497 0.07566246 -0.023381168 0.10036081 -0.19958784 -0.0376896
00000000: 0559 66be 3a3d e53d 48d9 433e 1172 ee3d
00000010: d0e8 19be cc5d 923b 032c 63be f4b6 9c3e
00000020: 0fba ddbd 204a 54be 1814 9d3d 8860 93bd
00000030: 01eb e43d a8c5 a43d 4442 b7bd 2cfb e9bd
00000040: e12a 41bd b7e9 803e 4e04 1e3d 9c66 993d
00000050: 71a5 ddbc a6ee 153e e0dc 55bd 93df cfbd
00000060: 528d 43bd 87b4 0abe e2e7 3c3d 3fd6 e03d
00000070: 7f3b 07be 8e11 a03d 7dd3 5bbe 8542 06bd
00000080: 34e8 6e3e 9584 fcbc cc94 753d 0a5f dabd
00000090: b7b6 573c 4854 a4bd 8921 98bd 4527 653d
000000a0: 232a 9ebd f3f9 393d 7145 243d daaa 443c
000000b0: 1f73 13be c43d adbc bbb6 8c3d 214b 4c3e
000000c0: df76 553d 2522 d53c 8b19 38bd 5302 88bd
000000d0: 8d0c a13d 4bf8 d1bc a027 4abe 452d 993d
000000e0: 883d 41be 5a8f a8bd 8b62 01bd 88cd cbbd
000000f0: 4ad3 213d 2aee 8e3c b6d1 25be 2862 fbbd
00000100: 5f17 e23c b650 df3d be65 0bbe 6052 143e
00000110: 8746 153d 5669 8e3e 7f09 cc3d 9188 bdbd
00000120: 6162 e1bd ccba 333d 32ad 713e 920e 22be
00000130: 020e ab3d 7b66 8a3c 40f6 4e3e 90d0 483e
00000140: b836 553e 6965 003e 15d1 ee3b 9abf cf3c
00000150: 738c 473e 3e34 d1bd 3b05 0cbe 1e1b 033e
00000160: 65fa 83be 762e 1bbe c2cb 483e a797 16bd
00000170: 754c dfbc c76f a03d 6da9 083e 8ffe 933d
00000180: 95d2 44bd ed61 22be d74d c8bd 139a 893d
00000190: 7e0e bc3e f190 893e 22cc e53d a6fc b63d
000001a0: 7a6f 83bc c172 223d e76f ddbd 3bcd 1f3e
000001b0: 0044 dfbd ca0d 803d 867a b23d 457f 32be
000001c0: 1f51 debd f80b 2cbd afc5 1a3e f120 b6bd
000001d0: bbd5 583c f9ab 953d 4382 b1bd e54d bdbe
000001e0: d9ac 613d fca4 453c 778c 9f3d 92ae b7bd
000001f0: 39c1 85bd 0177 913d f257 d4bd 86dd 21be
00000200: a1f0 853d 27e1 053e 6c10 9cbc a2ff 4f3d
00000210: 9c7a 073e 10e0 30be f859 ec3d 707b a53d
00000220: 3b48 533e cb44 e0bd 8cb0 87bd 2205 cabc
00000230: 7c0d c63d 0d73 8e3c 29b9 8fbc bba1 8cbd
00000240: 0d08 80bd c348 2a3b 772c 923d 1d33 b83d
00000250: 8f07 193d f18c 8c3d de59 06be 4123 8fbd
00000260: 6e7a cc3d 7973 413e f203 02bc 1944 09be
00000270: 8263 1d3e ec08 d0bd 4533 16bd ac17 15ba
00000280: ac54 923c f92e 8dbd 2419 d1bd 0b8e 113d
00000290: 56d8 e43d 2f28 803d cd20 4fbe da71 123d
000002a0: ebc9 0dbe 8cfc 16bd 8fbb 6b3d 56da 4b39
000002b0: eec2 d03c d099 b23d 0868 793d 9bd4 28bd
000002c0: abc0 a8bd d770 b43d 7d93 5a3d 31e2 2a3d
000002d0: 09ec b73d 94a5 5bbe f2c0 303e 0a70 dfbc
000002e0: 86e1 233d 31c1 d3bb 229d 58bd b0f6 7a3d
000002f0: 1614 26bd 149f a0bd 3efc 143c 02f8 50bd
00000300: 7800 25bd d410 213e f2d2 a53d 3765 7e3e
00000310: 7e93 423d a231 db3c 9889 4fbe c2f6 c63d
00000320: fafa 2abc 4ad9 26bd d087 28bd e45d fbbd
00000330: a55b fe3d 3465 ddbc def5 7c3d f48e 89bc
00000340: cad1 f83c f14a 2e3e 99f1 5c3d 63b3 1e3d
00000350: 154a 563d 7aa8 8c3d 13a2 083d 65ec f03d
00000360: 5664 23bd 054c 3c3d c0dd 153d 88af d13d
00000370: 1788 fdbd a352 91ba 13bd 7dbd afa0 f23a
00000380: 3f6f 2e3e 6ff2 003e fd47 68bd 1370 0cbe
00000390: de96 d0bd 4981 b93d b191 3dbd aaab f03d
000003a0: fa03 63bd 5222 7c3c 81e9 2e3e d40a 9e3c
000003b0: 1209 20be 3275 52bd e506 cd3c 0703 2b3d
000003c0: 9ee7 6a3e 746c 043d be21 4a3e a5bf d1bd
000003d0: 6f66 cdbc 7932 f3bc d40e eeba 9710 7c3e
000003e0: bedc 64be 9165 b93c 717b 49bc ebf4 9a3d
000003f0: dd89 bfbc f889 cd3d c160 4cbe 6960 1abd

lstm.bias_hh_l0 f4 [256]
-0.039203648 0.025017198 0.1018689 -0.053035364 0.055213396 -0.06488102 -0.20464428 0.076056324
-0.2482234 -0.2631657 0.13326871 0.09181197 0.16455565 0.051116303 -0.12222867 -0.11509635
0.035990383 0.25605932 -0.12066664 0.008529858 -0.15987246 0.1295762 -0.15944332 -0.15642409
0.10895305 -0.039659582 0.094995454 -0.04354614 -0.11630828 0.116009645 -0.13506293 0.0068350025
0.17242803 0.12471502 0.0052454644 -0.07305736 0.07139482 0.06731444 -0.007469513 -0.12677768
-0.1568723 0.21027921 0.16247179 0.004337315 -0.16680983 -0.07033963 -0.016121436 0.22603142
0.06263582 0.08118905 -0.1337285 -0.120341636 -0.019162914 -0.13834418 -0.05010029 0.025857702
-0.060241092 -0.08307517 -0.017362675 -0.056959603 0.039105672 0.113517135 -0.25096813 -0.0509179
-0.047993388 0.08400013 -0.07839861 -0.07374441 0.08243154 0.17686315 0.10371393 0.112604365
-0.14223786 0.0622252 0.21874756 -0.054919507 0.1075525 0.16295025 0.0215497 0.10740668
0.09843757 0.15357283 0.13589725 0.1045668 0.2246897 -0.21050847 -0.14784287 0.15847625
-0.26812598 -0.11128113 0.13452277 0.015410494 0.0018138713 -0.01602813 0.18252453 -4.251911e-05
-0.10566173 0.06645065 0.067224175 0.10301305 0.38749078 0.17960833 0.16326724 0.03356535
0.12896764 0.030911408 -0.028711045 0.014836831 -0.1446059 0.05847436 0.0009063451 -0.07470437
0.1295757 -0.019622702 0.23855202 -0.009247008 -0.10659004 0.016955478 0.122976504 -0.26030326
-0.06629238 -0.0060564284 0.09317677 -0.016577866 0.14504161 -0.13127777 -0.22312245 0.037293848
0.2175808 0.06913881 0.0040765316 0.04186648 -0.03337348 -0.07495865 0.13213664 -0.042504583
0.03614503 -0.12553053 -0.02538506 -0.07318319 -0.105616435 -0.007563616 -0.053464144 -0.064963266
0.15262204 -0.02631843 0.037566066 0.06626179 0.050309647 -0.09477608 -0.1896093 0.012912201
0.123992495 0.0050623757 0.05628633 -0.1513941 0.07629662 -0.024615075 -0.09170343 -0.0529558
-0.023419062 -0.085645944 0.047204416 0.0889267 0.10863425 -0.06796319 -0.01230977 -0.14542048
-0.15892473 -0.04328998 0.09885085 -0.07133422 0.004204299 -0.13197686 -0.10635658 0.12588088
-0.033685658 -0.033626236 -0.040173084 0.12169556 -0.021028088 -0.11008031 0.06310133 0.073525906
-0.11758429 -0.0021074987 0.029623961 0.059281588 0.052082464 0.081915095 -0.13827871 -0.11424608
-0.029629424 0.02992659 0.090313755 0.09823109 -0.061671115 0.077422835 -0.034826506 0.2074727
-0.15343197 -0.11796336 0.0805158 -0.18559125 -0.09887235 0.09779785 -0.090015136 0.053675443
0.014830276 0.09534725 -0.043290477 0.002526431 -0.035542987 0.02801192 -0.11402916 -0.04565385
0.11366761 0.051454566 0.013589338 0.03786595 -0.018880505 0.08899353 0.0358081 -0.06844193
0.096401915 0.21198754 0.08797194 -0.16697584 -0.015223401 0.043463223 0.08806005 -0.024880202
-0.15941112 0.00554334 0.13885427 -0.03624156 -0.10160596 0.09305114 -0.11788361 0.0019721468
0.1583784 0.023046536 0.026579864 -0.13580494 0.0010450688 0.034086946 0.064523116 0.08841947
-0.25700942 0.08425519 0.1143478 -0.07022389 0.21838558 0.026720993 -0.043421052 -0.1421933
00000000: 0194 20bd def0 cc3c a4a0 d03d 9c3b 59bd
00000010: 7127 623d 57e0 84bd 458e 51be 6bc3 9b3d
00000020: 462e 7ebe a8bd 86be 9877 083e ea07 bc3d
00000030: 4781 283e 545f 513d 0653 fabd a3b7 ebbd
00000040: a76a 133d 351a 833e 1220 f7bd d1c0 0b3c
00000050: 9bb5 23be a0af 043e 1c45 23be a32d 20be
00000060: c722 df3d 1672 22bd fa8c c23d 705d 32bd
00000070: 0933 eebd 7796 ed3d f04d 0abe 28f8 df3b
00000080: f990 303e 976a ff3d 25e2 ab3b 199f 95bd
00000090: 7337 923d 27dc 893d d1c2 f4bb 02d2 01be
000000a0: 22a3 20be 6f53 573e 015f 263e 0920 8e3b
000000b0: 32d0 2abe 390e 90bd 1a11 84bc c874 673e
000000c0: 3547 803d 7246 a63d 20f0 08be ad75 f6bd
000000d0: 8bfb 9cbc 19aa 0dbe f635 4dbd 88d3 d33c
000000e0: 5dbf 76bd 5123 aabd 2b3c 8ebc 794e 69bd
000000f0: 452d 203d ac7b e83d e57e 80be 4a8f 50bd
00000100: b794 44bd 4308 ac3d 738f a0bd 4f07 97bd
00000110: ded1 a83d 9d1b 353e f867 d43d 1e9d e63d
00000120: cda6 11be dadf 7e3d 5cff 5f3e 47f3 60bd
00000130: 7c44 dc3d 6edc 263e ff88 b03c 09f8 db3d
00000140: a399 c93d 3242 1d3e a628 0b3e 1e27 d63d
00000150: 0f15 663e 888f 57be 1f64 17be 9947 223e
00000160: cf47 89be 5ce7 e3bd 56c0 093e 4c7c 7c3c
00000170: 6cbf ed3a 6d4d 83bc b6e7 3a3e 8c56 32b8
00000180: 2d65 d8bd 4717 883d d4ac 893d 82f8 d23d
00000190: 3165 c63e 3feb 373e 872f 273e d27b 093d
000001a0: 1810 043e ec39 fd3c 6d33 ebbc 2e16 733c
000001b0: 9213 14be cf82 6f3d ca97 6d3a 9bfe 98bd
000001c0: 7eaf 043e cabf a0bc fb46 743e c380 17bc
000001d0: e14b dabd 37e6 8a3c 1bdb fb3d 7846 85be
000001e0: 4dc4 87bd 0175 c6bb 76d3 be3d 4ece 87bc
000001f0: ca85 143e ae6d 06be 367a 64be 6fc1 183d
00000200: 80cd 5e3e a698 8d3d 6d94 853b 307c 2b3d
00000210: a1b2 08bd ec83 99bd d44e 073e 4919 2ebd
00000220: d00c 143d 138b 00be 54f4 cfbc 11e1 95bd
00000230: 6e4d d8bd 36d8 f7bb 38fd 5abd 760b 85bd
00000240: f448 1c3e c099 d7bc e0de 193d 43b4 873d
00000250: 7d11 4e3d f619 c2bd f128 42be b28d 533c
00000260: c7ef fd3d 49e2 a53b 7f8c 663d 0e07 1bbe
00000270: 6741 9c3d 8ea5 c9bc 02cf bbbd 2ee8 58bd
00000280: 55d9 bfbc 2467 afbd 6b59 413d 341f b63d
00000290: a27b de3d 4930 8bbd ebae 49bc 1be9 14be
000002a0: 2abd 22be d650 31bd 5072 ca3d ad17 92bd
000002b0: 37c4 893b f124 07be 7bd1 d9bd ebe6 003e
000002c0: f9f9 09bd aabb 09bd 888c 24bd 863b f93d
000002d0: 1943 acbc c971 e1bd 453b 813d c094 963d
000002e0: 08d0 f0bd f61d 0abb f3ad f23c 40d1 723d
000002f0: 6c54 553d 1ac3 a73d ef98 0dbe d9f9 e9bd
00000300: 68b9 f2bc 9c28 f53c 6bf6 b83d 622d c93d
00000310: da9a 7cbd dd8f 9e3d 3da6 0ebd b973 543e
00000320: 451d 1dbe c696 f1bd 78e5 a43d a20b 3ebe
00000330: 967d cabd 3d4a c83d db59 b8bd c8da 5b3d
00000340: b0fa 723c 6b45 c33d 5b51 31bd 7b92 253b
00000350: 8695 11bd 4179 e53c 1f88 e9bd 88ff 3abd
00000360: 90ca e83d 06c2 523d d1a5 5e3c 5419 1b3d
00000370: 4aab 9abc 3d42 b63d 84ab 123d 482b 8cbd
00000380: 5e6e c53d 4313 593e a22a b43d b7fb 2abe
00000390: 926b 79bc 7e06 323d d458 b43d 91d1 cbbc
000003a0: ab3c 23be e8a4 b53b d02f 0e3e 0872 14bd
000003b0: c916 d0bd 9991 be3d f66c f1bd 223f 013b
000003c0: f32d 223e 17cc bc3c 04be d93c 7310 0bbe
000003d0: b1fa 883a c19e 0b3d b224 843d 4415 b53d
000003e0: bd96 83be fc8d ac3d 2e2f ea3d 8bd1 8fbd
000003f0: 78a0 5f3e fce5 da3c 46da 31bd 1f9b 11be

lstm.weight_ih_l1 f4 [256, 64]
-0.0051936996 -0.13082446 -0.0033857191 0.004889369 0.37930125 0.12841308 -0.03847155 -0.086008914
0.05465965 0.061779942 -0.105381794 -0.15614568 0.055149462 -0.03349929 0.28789875 -0.009205387
-0.21917005 0.20498708 0.19987647 -0.14787084 -0.082082726 0.09400636 0.03264376 -0.16131997
-0.03581586 -0.0408969 0.056257203 -0.06323433 -0.017168114 0.15972798 -0.0640484 0.18660422
-0.044338036 0.010301483 -0.03386141 0.23922662 -0.12402723 -0.1481225 0.037871443 0.14947864
-0.06097547 0.21968488 0.17625254 -0.16218027 0.023669377 -0.06260489 -0.31433162 0.2006468
-0.1506008 -0.2547362 -0.123708345 -0.2931073 0.109461546 0.10464354 0.04211652 0.10880615
0.08892948 -0.10454134 -0.26755822 0.043691024 -0.15652223 0.21243785 0.084102824 0.10874494
0.2588822 0.008827832 -0.11521817 -0.06614441 0.33667707 -0.008738344 -0.28525263 0.056333445
0.0028817358 0.004292797 -0.25457934 0.016288633 -0.123000905 -0.20708081 0.41145688 0.10821979
-0.45997104 0.09475303 0.33863947 -0.078120485 0.09909228 -0.051955402 -0.12228313 -0.53013754
0.29254878 -0.21550241 0.47239202 -0.06942191 0.011081757 0.22744578 -0.19407266 0.2832331
0.2530672 0.008042599 0.21833904 0.32612062 -0.0184524 -0.2630569 0.23009606 0.25706035
-0.054411862 0.1585386 0.12754694 -0.18769884 0.11742242 -0.39328703 -0.28388348 0.026986668
0.09865678 -0.14850271 -0.39860412 -0.20982501 -0.2710632 0.24385676 0.18035536 0.07008351
0.37115332 -0.021633932 -0.33966297 0.16137862 -0.4590324 0.10858376 -0.033376314 0.21784727
-0.31547752 -0.0028371874 -0.017760096 0.587998 0.0664636 0.1206256 0.11760427 -0.1920329
-0.06810771 0.022136603 -0.38802877 0.14640541 0.012814386 0.018138146 0.056014236 -0.027205536
-0.20149854 -0.22992846 0.20332158 0.053580225 -0.32256058 -0.20835674 -0.029022463 -0.23975709
0.17203936 0.25547507 0.08945715 -0.26873603 -0.0421789 0.11975079 -0.089455195 -0.22308813
0.31019354 -0.1705206 0.03697639 0.05680664 -0.178216 -0.49778908 0.36163533 0.013035003
0.11026105 0.1783537 0.3466334 -0.09412875 -0.06410166 -0.17950252 -0.008124393 0.16104367
0.5510004 -0.69233453 0.1005862 -0.10480207 0.42735454 0.13035512 0.020621255 -0.001978832
0.010091489 0.00017883137 -0.12041055 -0.24383202 -0.40498376 0.009011313 0.025981886 0.5148937
0.27924797 -0.2022367 0.23398894 -0.09441839 0.36892772 0.18957582 -0.18332778 0.06485786
-0.37150288 0.26938495 -0.18306725 -0.18466236 0.0017279978 -0.0526408 0.38597876 0.06636376
-0.31985337 0.021029139 0.21800184 -0.087474346 -0.23526695 0.1304629 0.06340317 -0.10455693
0.27137315 0.0650952 0.1125199 -0.119024806 -0.08422308 0.32136044 -0.08651421 0.34919864
0.048292965 -0.08071092 0.20100068 0.2754037 -0.28914776 -0.33511052 0.40161145 0.31372586
0.0052352296 0.20154335 0.07325881 -0.09067721 0.17864597 -0.05526199 -0.14443456 0.3249222
-0.29284272 -0.104976475 -0.41421607 -0.16203879 -0.040914558 0.48900747 0.09145238 0.32219744
0.19727825 0.008038207 -0.08392844 0.063390635 -0.035934296 0.32376686 0.16200484 0.0426821
00000000: e92f aabb d9f6 05be f1e2 5dbb 0037 a03b
00000010: c633 c23e b87e 033e 5894 1dbd 7125 b0bd
00000020: cce2 5f3d f70c 7d3d 69d2 d7bd a7e4 1fbe
00000030: 67e4 613d 8d36 09bd 7767 933e 31d2 16bc
00000040: 1d6e 60be 22e8 513e 6bac 4c3e 746b 17be
00000050: fd1a a8bd 6886 c03d 77b5 053d 1031 25be
00000060: a7b3 12bd 8283 27bd f46d 663d 0081 81bd
00000070: 25a4 8cbc bb8f 233e cf2b 83bd 2d15 3f3e
00000080: cd9b 35bd 8dc7 283c 43b2 0abd d3f7 743e
00000090: fd01 febd 6dad 17be 161f 1b3d ee10 193e
000000a0: 6ac1 79bd 13f5 603e 8c7b 343e 9612 26be
000000b0: 48e6 c13c fe36 80bd 13f0 a0be 5b76 4d3e
000000c0: 1937 1abe c96c 82be cd5a fdbd 2912 96be
000000d0: 602d e03d 5a4f d63d 5f82 2c3d c2d5 de3d
000000e0: a920 b63d c519 d6bd 64fd 88be 5cf5 323d
000000f0: 5d47 20be 4f89 593e 1a3e ac3d abb5 de3d
00000100: 358c 843e 9ca2 103c 81f7 ebbd b876 87bd
00000110: f060 ac3e 452b 0fbc a20c 92be e6bd 663d
00000120: 81db 3c3b 97aa 8c3b 3958 82be bd6f 853c
00000130: e6e7 fbbd fe0c 54be 7aaa d23e 56a2 dd3d
00000140: 5381 ebbe e00d c23d 2762 ad3e a2fd 9fbd
00000150: e5f0 ca3d 30cf 54bd 946f fabd 18b7 07bf
00000160: f4c8 953e aaac 5cbe 5edd f13e 132d 8ebd
00000170: 4290 353c 8ce7 683e fcba 46be ee03 913e
00000180: 0692 813e 1bc5 033c 4594 5f3e 48f9 a63e
00000190: 7d29 97bc 65af 86be 4d9e 6b3e 6a9d 833e
000001a0: f9de 5ebd f157 223e aa9b 023e 2034 40be
000001b0: 2a7b f03d eb5c c9be 2d59 91be 2513 dd3c
000001c0: 910c ca3d 1811 18be d715 ccbe 5edc 56be
000001d0: ccc8 8abe 96b5 793e 13af 383e f187 8f3d
000001e0: cf07 be3e a539 b1bc 4ee8 adbe 7040 253e
000001f0: 4b06 ebbe 2a61 de3d 9ab5 08bd 5b13 5f3e
00000200: 4586 a1be 1bf0 39bb 9f7d 91bc 0987 163f
00000210: 111e 883d 8e0a f73d 82da f03d 46a4 44be
00000220: 0e7c 8bbd d257 b53c b5ab c6be 4deb 153e
00000230: 6ef3 513c 7396 943c 2f6f 653d 25de debc
00000240: a255 4ebe 5e72 6bbe 8833 503e f076 5b3d
00000250: a926 a5be 785b 55be 84c0 edbc e282 75be
00000260: 162b 303e a1cd 823e 4f35 b73d c597 89be
00000270: c8c3 2cbd e73f f53d 4934 b7bd 3771 64be
00000280: b0d1 9e3e f49c 2ebe 8e74 173d 14ae 683d
00000290: 417e 36be 36de febe 4428 b93e c490 553c
000002a0: 8cd0 e13d 5aa2 363e ef79 b13e 93c6 c0bd
000002b0: bb47 83bd 82cf 37be 2d1c 05bc a2e8 243e
000002c0: 5d0e 0d3f d63c 31bf 2300 ce3d 78a2 d6bd
000002d0: 37ce da3e d07b 053e e8ed a83c 4baf 01bb
000002e0: c656 253c ae84 3b39 ce99 f6bd 1aaf 79be
000002f0: 085a cfbe 30a4 133c f7d7 d43c 13d0 033f
00000300: 97f9 8e3e 2317 4fbe cc9a 6f3e 6e5e c1bd
00000310: 18e4 bc3e 2a20 423e 47ba 3bbe 33d4 843d
00000320: a035 bebe d3ec 893e fb75 3bbe 2118 3dbe
00000330: fc7d e23a e19d 57bd 029f c53e b9e9 873d
00000340: d2c3 a3be 4d45 ac3c e03b 5f3e c025 b3bd
00000350: d2e9 70be 1198 053e 85d9 813d f221 d6bd
00000360: 6cf1 8a3e a250 853d d570 e63d 47c3 f3bd
00000370: 267d acbd 5b89 a43e 5d2e b1bd 2aca b23e
00000380: d8ce 453d c44b a5bd 1fd3 4d3e b701 8d3e
00000390: 2d0b 94be 9b93 abbe 04a0 cd3e ada0 a03e
000003a0: 4a8c ab3b 6161 4e3e b708 963d f9b4 b9bd
000003b0: f8ee 363e 655a 62bd a7e6 13be 345c a63e
000003c0: 7bef 95be e8fd d6bd 2114 d4be 7fed 25be
000003d0: 0696 27bd 305f fa3e 634b bb3d 10f7 a43e
000003e0: 4f03 4a3e afb2 033c ade2 abbd f3d2 813d
000003f0: d72f 13bd c5c4 a53e 99e4 253e 6dd3 2e3d

lstm.weight_hh_l1 f4 [256, 64]
-0.025660673 0.05171866 0.1532901 0.06420683 -0.21285117 -0.105689876 0.19645362 -0.20682414
0.010698421 -0.18285148 0.1443446 -0.037103757 -0.087670736 -0.11940131 0.11501065 0.1561695
-0.038216583 -0.10408662 0.008541461 0.25556138 -0.06713832 0.022408143 -0.1175354 -0.0028219987
-0.06794619 -0.13176051 0.35972667 -0.08212929 0.05844848 -0.14746328 0.041002173 0.1302202
-0.07891689 0.067355804 0.25879973 0.11760742 0.09172132 0.0358019 -0.09277714 0.01808233
0.04428969 0.14754917 -0.07198348 -0.027545048 -0.24139048 -0.005303318 -0.08376734 -0.15069924
-0.03568795 -0.19857648 -0.10075491 0.13255629 -0.11699317 -0.036342908 0.092688724 0.111661635
0.11741341 -0.15053682 -0.033145055 0.17189987 0.12727347 0.11590902 0.0014006164 0.05648979
-0.07374299 -0.0041988995 0.22464363 -0.1480881 -0.2186832 -0.09984741 0.14770232 -0.29345465
0.04907607 -0.08366109 -0.010267838 -0.0061649038 0.013777438 -0.028839491 0.2876423 0.12547587
-0.1086845 -0.16477914 0.03825255 0.09399066 0.005977938 -0.014602467 -0.17058754 0.06719793
0.17532468 -0.15077859 0.12712105 -0.00039413795 0.027141942 -0.13939115 -0.021022374 -0.095187776
0.026039029 0.13817903 0.21325134 0.22079054 -0.05319933 0.009209004 0.119296856 0.013947705
-0.0036009657 -0.06975965 -0.06469757 -0.027034948 -0.21300814 -0.070009165 -0.043398686 -0.11251661
-0.09706632 -0.0151227135 -0.16062377 0.01834894 -0.109302476 0.05527476 0.1294567 0.00064528506
0.039476648 -0.031564575 0.0228642 0.30177993 -0.0034294638 -0.08702477 0.18118276 0.040752467
0.031103926 -0.07375823 0.33470452 0.104526736 -0.50997233 -0.030671502 0.025390899 -0.124298245
0.06812757 -0.15467685 0.28801978 -0.029421702 -0.23974334 -0.03775529 0.35533848 0.05150088
0.18483764 0.039833613 -0.06780588 0.10445149 -0.05305476 0.002233957 -0.23223844 -0.1779808
-0.12016236 0.06207087 0.13945709 0.09662555 0.11867967 -0.067370266 -0.1306127 -0.051438764
-0.1511327 0.16699804 0.16181953 0.04357086 0.15151988 -0.049985696 -0.14187555 0.05539698
-0.013610246 0.073086105 0.004973073 -0.027628742 -0.19194233 -0.0200499 0.18507227 -0.03322321
0.19738033 -0.22591592 0.050891075 0.052742563 -0.087464765 -0.18852395 -0.28321913 -0.07792188
0.07233036 -0.4543 -0.00896261 0.18857588 0.18430088 0.15713763 -0.06368 -0.023293803
-0.095093854 -0.12653737 0.2762421 -0.09834284 -0.30206388 0.08502909 0.08965565 -0.7193868
-0.09988744 -0.19110851 0.02470962 -0.17418416 -0.22171786 0.038637586 0.09548182 0.13261437
0.0010249328 0.018608043 -0.011051811 0.08537039 0.12174746 0.1795182 -0.13976808 -0.062413655
0.10039379 -0.10703526 0.298259 -0.01675693 -0.13656783 -0.17361142 -0.19515389 0.009923144
0.18102835 0.14594091 0.19880933 0.13604972 -0.08980286 0.11397097 0.045731224 0.052283954
0.046538107 -0.066242784 -0.094007194 0.10679073 -0.21912196 0.18377616 0.06706356 -0.006649931
0.055185866 -0.06953676 -0.21512473 -0.12214545 -0.26436934 -0.094437756 0.03699309 0.0995597
0.061658744 -0.19539115 0.15733488 0.31567279 0.009346445 0.033123773 0.03708314 -0.03597492
00000000: 5536 d2bc f2d6 533d 14f8 1c3e df7e 833d
00000010: a8f5 59be ef73 d8bd 232b 493e b5c9 53be
00000020: 6e48 2f3c 6b3d 3bbe 12cf 133e 1cfa 17bd
00000030: b78c b3bd ad88 f4bd b48a eb3d e6ea 1f3e
00000040: fe88 1cbd 5e2b d5bd 7cf1 0b3c f1d8 823e
00000050: d17f 89bd 4891 b73c 66b6 f0bd 48f1 38bb
00000060: 5f27 8bbd 3aec 06be 182e b83e 6733 a8bd
00000070: ac67 6f3d 9d00 17be e5f1 273d 7258 053e
00000080: 2e9f a1bd d7f1 893d 6681 843e 29dc f03d
00000090: 63d8 bb3d 03a5 123d f101 bebd 6521 943c
000000a0: 1b69 353d 2117 173e 136c 93bd 27a6 e1bc
000000b0: 112f 77be 75c7 adbb 368e abbd e750 1abe
000000c0: 872d 12bd a257 4bbe 9758 cebd d6bc 073e
000000d0: 1d9a efbd 4ddc 14bd 96d3 bd3d dbae e43d
000000e0: 7176 f03d 5326 1abe 1cc3 07bd 8506 303e
000000f0: fa53 023e b561 ed3d e394 b73a d761 673d
00000100: 9106 97bd ec96 89bb fb08 663e 68a4 17be
00000110: 7dee 5fbe cd7c ccbd 473f 173e b03f 96be
00000120: fd03 493d 8156 abbd 6f3a 28bc f602 cabb
00000130: c3ba 613c cc40 ecbc da45 933e bf7c 003e
00000140: fb95 debd ddbb 28be b5ae 1c3d 2d7e c03d
00000150: 94e2 c33b 303f 6fbc 80ae 2ebe 119f 893d
00000160: 5088 333e b465 1abe 052c 023e 4da4 ceb9
00000170: c758 de3c 8ebc 0ebe 1d37 acbc cff1 c2bd
00000180: cd4f d53c ce7e 0d3e 8f5e 5a3e ea16 623e
00000190: 8ae7 59bd 5de1 163c e951 f43d ea84 643c
000001a0: 2efe 6bbb 26de 8ebd 2980 84bd 6578 ddbc
000001b0: ce1e 5abe f760 8fbd d2c2 31bd 1c6f e6bd
000001c0: b5ca c6bd 42c5 77bc 8f7a 24be 8450 963c
000001d0: fad9 dfbd c967 623d 4c90 043e 5928 293a
000001e0: 44b2 213d db49 01bd b44d bb3c e682 9a3e
000001f0: dbc0 60bb 0b3a b2bd f987 393e 0fec 263d
00000200: a9cd fe3c 8e0e 97bd 645e ab3e 1d12 d63d
00000210: 8c8d 02bf cd42 fbbc 9300 d03c 1490 febd
00000220: 7886 8b3d 9c63 1ebe 5477 933e c805 f1bc
00000230: 477f 75be 4aa5 1abd edee b53e 96f2 523d
00000240: 1446 3d3e 9228 233d cfdd 8abd aaea d53d
00000250: f34f 59bd 9467 123b eacf 6dbe 9940 36be
00000260: af17 f6bd 063e 7e3d d7cd 0e3e 9ee3 c53d
00000270: 540e f33d 6cf9 89bd 56bf 05be 74b1 52bd
00000280: 88c2 1abe 8901 2b3e 05b4 253e 5c77 323d
00000290: 0728 1b3e cdbd 4cbd d347 11be f2e7 623d
000002a0: 82fd 5ebc 2bae 953d 29f5 a23b ac55 e2bc
000002b0: 888c 44be b03f a4bc 9683 3d3e 1015 08bd
000002c0: 121e 4a3e 8156 67be 2973 503d 9608 583d
000002d0: ba20 b3bd 6c0c 41be 1902 91be 8295 9fbd
000002e0: f121 943d 029a e8be e9d7 12bc 091a 413e
000002f0: 5fb9 3c3e b0e8 203e a96a 82bd a5d2 bebc
00000300: 91c0 c2bd 0393 01be 9b6f 8d3e f967 c9bd
00000310: 1ea8 9abe bb23 ae3d 629d b73d bc29 38bf
00000320: c991 ccbd f3b1 43be d46b ca3c 555d 32be
00000330: 020a 63be 7242 1e3d f98b c33d 10cc 073e
00000340: 0a57 863a e56f 983c a812 35bc acd6 ae3d
00000350: bb56 f93d 9ed3 373e 5d1f 0fbe 76a5 7fbd
00000360: 429b cd3d 4d35 dbbd 67b5 983e d445 89bc
00000370: 70d8 0bbe 31c7 31be 6cd6 47be af94 223c
00000380: 7f5f 393e 8971 153e ac94 4b3e 9e50 0b3e
00000390: 90ea b7bd 9d69 e93d aa50 3b3d b327 563d
000003a0: be9e 3e3d 4caa 87bd d886 c0bd 19b5 da3d
000003b0: 8261 60be d12f 3c3e 9f58 893d aae7 d9bb
000003c0: 930a 623d 4a69 8ebd a849 5cbe 6527 fabd
000003d0: 6b5b 87be 9568 c1bd 1186 173d f5e5 cb3d
000003e0: e18d 7c3d 9e14 48be 651c 213e dd9f a13e
000003f0: d521 193c cbac 073d 7ee4 173d 705a 13bd

lstm.bias_ih_l1 f4 [256]
0.04900081 0.00940992 -0.01889973 -0.14454184 0.14968392 -0.024376644 -0.1564403 0.23990022
0.052260578 0.05634611 0.97399884 -0.064672746 0.0011585049 -0.039201412 0.2999186 -0.2424609
-0.2794868 -0.073468685 -0.07311938 -0.24839105 0.08083914 -0.031460747 -0.020378351 -0.13948187
-0.2251083 0.065439515 -0.05952041 0.015625907 -0.06684923 -0.19135883 -0.33246386 -0.059187572
-0.3147915 -0.10213222 0.09044391 -0.28620377 -0.18021557 -0.17256643 0.01924283 -0.08509632
0.11996318 -0.055769462 -0.0057988213 -0.18770602 0.03037034 0.07189779 -0.2261266 -0.21161564
-0.21767046 -0.20141625 0.08878286 -0.21635483 -0.040938314 -0.32074407 -0.0952268 0.050410282
-0.24741168 -0.19021434 -0.109484464 -0.02237963 -0.17242731 -0.018694928 0.00536048 -0.31668764
-0.104338914 0.19553716 -0.37004486 -0.06519339 -0.17345873 -0.024605704 -0.0056985714 0.02669687
0.0036625855 -0.00090775464 0.30156964 0.17483443 -0.025170777 0.12004503 -0.3564545 -0.04691589
-0.120621614 -0.09816317 0.03789343 -0.2668906 0.003623396 -0.15397175 0.1734425 -0.11773922
-0.0058841626 0.048221506 -0.11806084 -0.042269837 0.21523187 -0.0483999 -0.04842846 -0.09154671
-0.2929996 -0.013003772 -0.20755893 -0.19771652 -0.11828825 0.1177189 0.058753155 -0.036239292
0.0091634 0.004418329 -0.0642131 -0.15027925 0.13793574 0.027315186 -0.07063841 -0.113411285
-0.13605745 -0.046701137 0.12213522 0.08557878 -0.23376766 0.01854924 -0.030269343 0.17345947
-0.12321107 -0.23605391 -0.10209594 -0.14439957 -0.1554408 0.21781051 0.029864147 -0.20575781
0.22647433 0.21668878 -0.25208393 0.16227056 0.020715151 0.029871149 -0.21495181 0.0115133
0.037616424 -0.007188318 -0.2115681 0.14152248 -0.01753495 0.06036621 -0.1750116 -0.20229468
-0.0044033723 0.20777 -0.13331507 0.028098697 -0.2394997 -0.20381086 -0.049575567 -0.15827164
-0.21453953 0.1528988 -0.18196014 0.26001146 0.20542942 0.18971433 0.16743022 -0.22134687
0.04791718 -0.16654833 -0.17051782 -0.034346174 0.2094705 -0.11945377 -0.22309338 0.022839263
0.16181499 0.14799201 0.15249658 -0.12270258 -0.020847067 -0.2279178 0.1439449 0.003875684
0.16381192 0.09917914 0.16120797 0.18608354 0.11724313 -0.15728477 -0.12402358 -0.09971132
-0.072058514 0.021765346 -0.1986013 -0.020606907 -0.18126605 0.2211103 -0.25781748 0.029304123
-0.16757299 0.022299115 -0.096078195 -0.18615995 0.12814441 -0.13437542 -0.08253722 0.21779786
-0.11236969 -0.12757546 0.3543999 0.13439855 -0.2194375 -0.036801897 0.2442146 -0.105530575
-0.29655847 0.051961403 -0.025533887 -0.3783199 0.056468297 -0.009910412 0.072019614 -0.14235054
-0.10004626 0.038779143 -0.059189606 0.07748092 0.0716529 -0.0019853062 -0.2556703 -0.056550577
-0.46608746 -0.13479003 0.03055672 -0.14963697 -0.18429531 -0.15408356 0.023298072 -0.055372454
-0.0018438057 -0.18446869 -0.10766267 -0.06996227 0.057737894 0.040975627 0.017909218 -0.25020888
-0.20048122 -0.1432716 0.14576764 -0.1417514 -0.03391633 -0.17506985 -0.07234729 0.20721501
-0.25697067 -0.21668887 -0.05802034 -0.16143453 -0.13779792 0.05005567 -0.105971634 -0.2091815
00000000: 13b5 483d 112c 1a3c 9bd3 9abc c702 14be
00000010: be46 193e 87b1 c7bc e331 20be 67a8 753e
00000020: 300f 563d 2ecb 663d fd57 793f 2573 84bd
00000030: f9d8 973a a991 20bd ee8e 993e ac47 78be
00000040: e518 8fbe c076 96bd 9dbf 95bd 395a 7ebe
00000050: fe8e a53d fcdc 00bd 80f0 a6bc 56d4 0ebe
00000060: ca82 66be 2705 863d accb 73bd e701 803c
00000070: 40e8 88bd 92f3 43be b438 aabe ab6e 72bd
00000080: 5a2c a1be b32a d1bd a83a b93d 4d89 92be
00000090: 6e8a 38be 41b5 30be 24a3 9d3c fb46 aebd
000000a0: 41af f53d 856e 64bd 0a04 bebb 0236 40be
000000b0: 38cb f83c 263f 933d bb8d 67be c5b1 58be
000000c0: 01e5 5ebe 1040 4ebe cad3 b53d 1f8c 5dbe
000000d0: efae 27bd 9138 a4be 4506 c3bd 037b 4e3d
000000e0: 7d59 7dbe 8cc7 42be 6439 e0bd 7c55 b7bc
000000f0: c990 30be 1b26 99bc f7a6 af3b e224 a2be
00000100: a4af d5bd e53a 483e 8576 bdbe 1d84 85bd
00000110: 2a9f 31be e791 c9bc 15bb babb 65b3 da3c
00000120: fd07 703b 62f6 6dba 5667 9a3e cc07 333e
00000130: f232 cebc 2bda f53d 3481 b6be e02a 40bd
00000140: 7708 f7bd c609 c9bd 2436 1b3d e2a5 88be
00000150: 7f76 6d3b c5aa 1dbe e99a 313e 4321 f1bd
00000160: efcf c0bb ea83 453d e2c9 f1bd 2323 2dbd
00000170: be65 5c3e f93e 46bd ec5c 46bd d77c bbbd
00000180: 0b04 96be c60d 55bc 548a 54be 3376 4abe
00000190: 1c41 f2bd 9b16 f13d 26a7 703d a76f 14bd
000001a0: 1622 163c a1c7 903b 2882 83bd cee2 19be
000001b0: 073f 0d3e 19c4 df3c dfaa 90bd 2d44 e8bd
000001c0: a552 0bbe b149 3fbd 0822 fa3d ed43 af3d
000001d0: ca60 6fbe 93f4 973c 6af7 f7bc 5c9f 313e
000001e0: 1656 fcbd 1eb8 71be ad17 d1bd 7bdd 13be
000001f0: e02b 1fbe b809 5f3e a8a5 f43c 2db2 52be
00000200: e3e8 673e aae3 5d3e 2511 81be 412a 263e
00000210: d2b2 a93c 57b4 f43c 541c 5cbe 48a2 3c3c
00000220: ae13 1a3d fb8b ebbb 4fa5 58be 45eb 103e
00000230: 75a5 8fbc 8f42 773d 3e36 33be 5626 4fbe
00000240: 2a4a 90bb a9c1 543e bf83 08be 3d2f e63c
00000250: 693f 75be cbb3 50be c00f 4bbd f611 22be
00000260: 40b0 5bbe 8191 1c3e c253 3abe 3920 853e
00000270: 175c 523e 7944 423e d472 2b3e c1a8 62be
00000280: ce44 443d a58b 2abe 399c 2ebe 93ae 0cbd
00000290: 6f7f 563e 2ea4 f4bd 9772 64be 6819 bb3c
000002a0: d4b2 253e 388b 173e 1028 1c3e 7e4b fbbd
000002b0: 78c7 aabc 4963 69be 4b66 133e 30ff 7d3b
000002c0: 50be 273e 6f1e cb3d b413 253e af8c 3e3e
000002d0: 2b1d f03d 420f 21be 1300 febd 7335 ccbd
000002e0: 6a93 93bd 3d4d b23c 245e 4bbe d1cf a8bc
000002f0: cf9d 39be bd6a 623e a700 84be 330f f03c
00000300: 4198 2bbe a2ac b63c a5c4 c4bd b7a0 3ebe
00000310: 4a38 033e b699 09be 4609 a9bd 6706 5f3e
00000320: 1422 e6bd 24a3 02be e773 b53e c69f 093e
00000330: 39b4 60be 96bd 16bd 6413 7a3e 6a20 d8bd
00000340: 83d6 97be 7bd5 543d 712c d1bc 25b3 c1be
00000350: 4d4b 673d 485f 22bc 057f 933d 57c4 11be
00000360: 0ee5 ccbd e1d6 1e3d cd70 72bd 51ae 9e3d
00000370: c1be 923d e91b 02bb 38e7 82be 94a1 67bd
00000380: 04a3 eebe 6606 0abe 1652 fa3c 6f3a 19be
00000390: e9b7 3cbe 15c8 1dbe 99db be3c 3ace 62bd
000003a0: daab f1ba 5ce5 3cbe 3f7e dcbd 6148 8fbd
000003b0: 927e 6c3d 0fd6 273d 5ab6 923c 611b 80be
000003c0: f34a 4dbe cab5 12be 1d44 153e 4727 11be
000003d0: daeb 0abd 8345 33be d12a 94bd 2c30 543e
000003e0: a991 83be b0e3 5dbe bca6 6dbd 184f 25be
000003f0: e61a 0dbe 2d07 4d3d a807 d9bd ad33 56be

lstm.bias_hh_l1 f4 [256]
-0.04716743 0.054722764 -0.17259331 -0.11430688 0.14417073 -0.1611626 -0.32326627 0.0005741508
-0.034349237 0.040534586 0.95375496 -0.013013628 0.03657428 -0.14992788 0.18518737 -0.20298526
-0.1734007 0.008804566 -0.1302562 -0.24273172 0.121417634 0.013664718 -0.16435277 -0.14396647
-0.1376653 -0.12999555 -0.07407917 -0.022375178 0.046620257 -0.1766081 -0.23737244 -0.06525877
-0.29135743 0.07440962 0.013473334 -0.12170564 -0.056366175 -0.19630066 -0.110438734 -0.09415966
0.00929256 -0.07439378 -0.0064876876 -0.15562288 -0.106729984 -0.08205036 -0.10323847 -0.18670553
-0.172327 -0.1340293 0.14612813 -0.17811573 -0.15458517 -0.14883964 -0.019413872 0.14843026
-0.12910832 -0.11095355 -0.14491768 0.040285796 -0.09261856 -0.04782711 0.06277298 -0.18816462
0.12948146 0.13203219 -0.25003257 -0.07631298 -0.08766725 0.043296225 -0.041557476 -0.10391186
0.026006531 -0.035569068 0.3101238 0.09237092 -0.16063188 0.05228499 -0.23263098 -0.0088094175
-0.03132246 0.006697647 0.109070644 -0.14826287 0.058640573 -0.053255726 0.06796048 -0.14646469
0.03578108 0.010928577 0.00043744943 0.050732803 0.17097853 0.04891286 -0.21429388 0.059039123
-0.250865 -0.1412112 -0.0616057 -0.12412605 -0.12315743 0.028556451 0.10402331 0.10621678
-0.14772737 -0.03586133 -0.115459085 -0.15828565 0.13845028 0.20351955 -0.10601002 -0.27297816
0.00936923 0.005828723 0.049762934 0.031322517 -0.014876836 -0.16458337 -0.036364965 0.17812224
-0.10143641 -0.15401898 -0.09986629 -0.22928093 -0.12224198 0.16366076 0.14776869 -0.058666673
0.14276743 0.26687217 -0.10839597 0.13942567 -0.13393149 -0.15044954 -0.003847723 0.10037093
0.22296998 -0.20906173 -0.20542882 0.14799161 0.038824786 0.21517436 -0.22991404 -0.010186989
0.0072222557 0.16658886 -0.09705542 0.018569484 -0.1987742 -0.108140886 -0.060166534 -0.071284726
-0.059232883 0.2416068 -0.12974985 0.14027518 0.2149946 0.16851059 0.025984345 -0.07267909
-0.07006413 -0.19245528 -0.23455825 -0.21329454 0.12895809 0.0308975 -0.08874705 0.23148061
0.15267277 0.11180594 0.0593413 -0.17469159 0.14936405 -0.18269537 -0.05351637 0.029381648
0.1362489 -0.08225415 0.0041923323 0.046313774 0.17808166 -0.14021961 -0.1530235 -0.019957855
0.02889181 0.088738345 -0.038296938 -0.028876059 -0.22172658 0.09917434 -0.14350727 -0.06957812
0.03532363 -0.021194799 -0.08123729 -0.19871467 0.04492166 -0.12027386 -0.27257833 0.07644565
-0.00026925994 -0.1290516 0.536242 0.11093465 -0.111980714 -0.13496542 0.27637297 -0.17333208
-0.19752091 -0.11592202 0.08357385 -0.17844594 -0.11406478 -0.083021045 0.027838813 -0.16015507
-0.14460891 -0.12082173 -0.17717561 -0.009612877 0.014150496 -0.1200713 -0.31618392 -0.026244309
-0.32981497 -0.015367459 0.076288976 -0.08911223 -0.22909649 -0.11891158 0.022492116 -0.13411477
0.034873173 -0.16835143 -0.01900738 -0.09417364 -0.059897095 -0.06408376 -0.08741821 -0.2899971
-0.01596412 -0.20049031 0.14955997 -0.18928201 -0.099904366 -0.24514514 -0.013871007 0.28126976
-0.2633365 -0.28404415 -0.010611199 -0.15404141 -0.13084507 0.10910849 -0.050081372 -0.28055257
00000000: a332 41bd fa24 603d 4dbc 30be ba19 eabd
00000010: 7ea1 133e cf07 25be 2883 a5be 9c82 163a
00000020: c9b1 0cbd 9807 263d 4929 743f 1d37 55bc
00000030: eace 153d b286 19be c2a1 3d3e 5edb 4fbe
00000040: f48f 31be 0741 103c e261 05be aa8e 78be
00000050: cfa9 f83d fbe1 5f3c 184c 28be f26b 13be
00000060: 22f8 0cbe 8e1d 05be d2b6 97bd 264c b7bc
00000070: e2f4 3e3d c1d8 34be c311 73be 64a6 85bd
00000080: cd2c 95be 1264 983d 42bf 5c3c ce40 f9bd
00000090: 38e0 66bd 0a03 49be b42d e2bd c8d6 c0bd
000000a0: d23f 183c c45b 98bd ab96 d4bb 9b5b 1fbe
000000b0: 4095 dabd 050a a8bd b16e d3bd bc2f 3fbe
000000c0: 7d76 30be fa3e 09be 9da2 153e f863 36be
000000d0: 934b 1ebe 6b69 18be d709 9fbc 1afe 173e
000000e0: f934 04be 9d3b e3bd 4d65 14be b802 253d
000000f0: cdae bdbd 5ce6 43bd 1f8f 803d 3aae 40be
00000100: ca96 043e 7233 073e 4504 80be fb49 9cbd
00000110: e38a b3bd 6257 313d 2c38 2abd becf d4bd
00000120: a60b d53c dfb0 11bd 8cc8 9e3e f72c bd3d
00000130: af7c 24be c928 563d d136 6ebe 6055 10bc
00000140: fb4b 00bd ef77 db3b 6e60 df3d 39d2 17be
00000150: 1931 703d ad22 5abd dd2e 8b3d d7fa 15be
00000160: 2f8f 123d c60d 333c 7859 e539 33cd 4f3d
00000170: ff14 2f3e da58 483d db6f 5bbe 02d3 713d
00000180: 6171 80be ab99 10be 4256 7cbd cc35 febd
00000190: f639 fcbd 38ef e93c 2c0a d53d 2f88 d93d
000001a0: d845 17be 54e3 12bd d075 ecbd a215 22be
000001b0: e9c5 0d3e 6e67 503e c81b d9bd cbc3 8bbe
000001c0: 6681 193c dffe be3b 38d4 4b3d 0a4c 003d
000001d0: f9bd 73bc 8b88 28be 6ef3 14bd ad65 363e
000001e0: e4bd cfbd 27b7 1dbe b386 ccbd 9fc8 6abe
000001f0: 015a fabd b096 273e ad50 173e 774c 70bd
00000200: a031 123e 78a3 883e b5fe ddbd 9ac5 0e3e
00000210: 5625 09be 720f 1abe 142a 7cbb 468f cd3d
00000220: 3e52 643e 4714 56be ef5b 52be 1d8b 173e
00000230: bd06 1f3d ab56 5c3e 966e 6bbe 54e7 26bc
00000240: aca8 ec3b 4596 2a3e fec4 c6bd 081f 983c
00000250: 778b 4bbe f878 ddbd 2f71 76bd bafd 91bd
00000260: 2e9e 72bd c667 773e 25dd 04be 4ca4 0f3e
00000270: 8b27 5c3e 0a8e 2c3e 1fdd d43c c6d8 94bd
00000280: c87d 8fbd ff12 45be 0a30 70be e269 5abe
00000290: 970d 043e c11c fd3c 03c1 b5bd 4109 6d3e
000002a0: 4056 1c3e 83fa e43d dd0f 733d 5ae2 32be
000002b0: e4f2 183e 7f14 3bbe fb33 5bbd c8b1 f03c
000002c0: d584 0b3e dd74 a8bd d55f 893b 83b3 3d3d
000002d0: 0a5b 363e bb95 0fbe 31b2 1cbe a87e a3bc
000002e0: 84ae ec3c 73bc b53d 40dd 1cbd 7c8d ecbc
000002f0: 4b0c 63be eb1b cb3d 92f3 12be f97e 8ebd
00000300: 83af 103d b7a0 adbc bc5f a6bd dc7b 4bbe
00000310: c6ff 373d 2452 f6bd 638f 8bbe 898f 9c3d
00000320: 752b 8db9 1a26 04be 2847 093f b531 e33d
00000330: 2556 e5bd 6034 0abe c280 8d3e f77d 31be
00000340: ec42 4abe 8668 edbd c428 ab3d 88ba 36be
00000350: cc9a e9bd f006 aabd 390e e43c b1ff 23be
00000360: 5c14 14be 6271 f7bd 866d 35be 547f 1dbc
00000370: 7bd7 673c f1e7 f5bd dce2 a1be 4efe d6bc
00000380: 82dd a8be cbc7 7bbc 653d 9c3d 7980 b6bd
00000390: 4598 6abe ea87 f3bd 6341 b83c 6255 09be
000003a0: 2cd7 0e3d 5164 2cbe 5db5 9bbc 1cde c0bd
000003b0: a856 75bd 593e 83bd 5208 b3bd 807a 94be
000003c0: 30c7 82bc 554d 4dbe 4026 193e 25d3 41be
000003d0: a99a ccbd 5407 7bbe 3843 63bc 9702 903e
000003e0: 0bd4 86be 3c6e 91be 98da 2dbc 08bd 1dbe
000003f0: 40fc 05be 4674 df3d 2022 4dbd 96a4 8fbe
