data_storage/models/lstm_v1.0.0_20251231_114618/points_model.pt (torch, 217493 bytes, 9 tensors)

lstm.weight_ih_l0 f4 [256, 12]
0.015707089 0.27717966 0.14003928 0.20760499 -0.10613268 0.22528832 0.07448289 0.16583586
-0.13687691 0.23232296 -0.31869006 -0.05877279 -0.4356095 -0.06981311 0.0121614 0.078329675
-0.25526923 0.053735346 0.18406308 -0.11900421 -0.03129926 -0.16040882 -0.18385978 0.4516771
-0.056831058 0.18347314 -0.17654985 0.011226454 0.0926184 0.0040818807 0.25085965 -0.2528812
0.08487938 0.017218541 -0.0962704 0.24108773 -0.25271067 -0.036946796 -0.08374276 -0.12010732
-0.17582662 0.09008808 -0.07853731 0.016211297 -0.08794714 0.13732633 -0.13087621 0.23985012
-0.12666376 -0.046690132 -0.05704805 -0.24776392 -0.022869108 -0.06523075 -0.23529848 -0.010037347
0.17670442 0.13865432 0.3170198 0.0871621 -0.2261988 0.03711296 -0.13196687 0.096761785
0.16671234 0.13501003 0.15925333 0.092807 0.12544641 -0.12193907 -0.05356766 0.26058772
0.14597845 0.15219736 0.42927018 0.0874906 0.28916672 -0.16942105 -0.119622 -0.09548942
0.08577113 -0.06991411 0.03432398 -0.07368806 0.055135027 0.16023734 -0.04964073 0.04483657
-0.10406851 -0.24249226 -0.015622049 -0.023703238 -0.10232245 -0.028325412 0.04346558 -0.03962435
0.15823293 0.4538193 0.024645768 0.04986329 0.035066422 -0.009556279 0.1924723 -0.351583
0.10717784 -0.20248468 0.14998093 0.11414225 0.16638508 0.11200955 -0.073518276 -0.20632699
-0.35951322 -0.10321231 0.060193095 0.29287905 -0.23163444 0.037099898 -0.0036640798 -0.007815946
-0.11979616 0.18796577 0.011098335 -0.008501784 -0.17953819 -0.0033671663 -0.2625313 0.05421308
-0.014541564 -0.05396352 -0.20686463 0.037946112 -0.11299385 0.013879168 0.02841603 0.074872464
0.4461093 0.12269311 0.089868024 -0.16406426 -0.19747904 0.1614398 -0.099511385 -0.15413933
-0.157907 -0.014503547 -0.10338449 0.04204982 -0.005151602 0.004542278 -0.00461438 -0.3148727
0.08022171 -0.47738922 0.18257682 0.33786514 0.13295905 0.12113653 0.25357243 -0.14676796
0.10101792 -0.4546018 -0.04345679 0.7622685 0.025937375 -0.2026936 -0.08778425 0.18873642
0.33006337 -0.13937394 -0.36398864 -0.120246425 0.21946457 0.14390096 -0.0150286835 -0.13142404
-0.21515803 0.076002404 -0.224612 0.07306021 -0.04668031 -0.009176393 -0.16889742 -0.31375924
-0.041244075 0.062855795 0.12572953 0.08203397 0.15733007 0.17455201 0.48855138 0.35635105
0.14407246 0.60192955 0.16138525 -0.015115436 0.12071413 0.31312555 -0.11700004 0.30791584
0.22913256 0.33615953 0.39089555 -0.2561049 -0.2173183 -0.042649437 -0.0072759027 -0.15992333
-0.06873652 0.7323092 0.0070668412 -0.2837477 -0.033347968 0.0048099854 -0.1781979 0.27689096
-0.13361846 -0.03933145 -0.16867092 -0.05954842 0.13997693 -0.2025778 -0.17377013 -0.05210758
-0.10235399 0.14745046 0.19605434 0.17837925 0.3046743 -0.06837716 -0.031306263 -0.15457997
0.34208003 -0.49632993 -0.2375587 0.22295748 0.13935094 -0.18431775 -0.29156455 -0.56085676
0.10749958 0.04595528 0.3261464 0.22382641 -0.12282005 0.28487363 -0.012045644 -0.17540896
0.35395247 -0.078491114 -0.005029929 0.0020296853 -0.059638124 -0.062483296 -0.12969112 0.07594944
00000000: 27ac 803c 7eea 8d3e 7566 0f3e 6796 543e
00000010: 175c d9bd fbb1 663e 7c8a 983d e0d0 293e
00000020: 7629 0cbe 12e6 6d3e 582b a3be bdbb 70bd
00000030: 3508 dfbe 2dfa 8ebd 9c40 473c 4f6b a03d
00000040: a6b2 82be 9819 5c3d 087b 3c3e 7bb8 f3bd
00000050: a733 00bd 3642 24be bd45 3cbe 3942 e73e
00000060: afc7 68bd 62e0 3b3e 7cc9 34be 29ef 373c
00000070: b7ae bd3d 4cc1 853b ad70 803e a579 81be
00000080: 3ed5 ad3d e60d 8d3c 6a29 c5bd b4df 763e
00000090: 4b63 81be 8655 17bd 5381 abbd d4fa f5bd
000000a0: e50b 34be 1980 b83d 2bd8 a0bd 8ecd 843c
000000b0: a11d b4bd 469f 0c3e 6a04 06be 459b 753e
000000c0: 25b4 01be 273e 3fbd 37ab 69bd d3b5 7dbe
000000d0: ff57 bbbc b397 85bd 16f2 70be af73 24bc
000000e0: 01f2 343e 66fb 0d3e 6b50 a23e 0b82 b23d
000000f0: a9a0 67be c203 183d 5322 07be 0b2b c63d
00000100: a4b6 2a3e 1240 0a3e 4e13 233e 9911 be3d
00000110: 0675 003e 31bb f9bd c369 5bbd c16b 853e
00000120: 607b 153e a0d9 1b3e 4dc9 db3e 462e b33d
00000130: a90d 943e b67c 2dbe 61fc f4bd f58f c3bd
00000140: c6a8 af3d 212f 8fbd 4d97 0c3d c4e9 96bd
00000150: 44d5 613d 4215 243e 1454 4bbd 8da6 373d
00000160: df21 d5bd e44f 78be 9ff3 7fbc 4b2d c2bc
00000170: 6f8e d1bd b20a e8bc f708 323d 244d 22bd
00000180: d007 223e 015b e83e ece5 c93c 733d 4c3d
00000190: cfa1 0f3d f091 1cbc 7517 453e b002 b4be
000001a0: 0e80 db3d 2558 4fbe 9a94 193e 69c3 e93d
000001b0: da60 2a3e 4365 e53d c090 96bd 6247 53be
000001c0: 1e12 b8be fa60 d3bd 098d 763d 3ef4 953e
000001d0: 9431 6dbe 10f6 173d 0f21 70bb 740e 00bc
000001e0: b057 f5bd 197a 403e cad5 353c 114b 0bbc
000001f0: dcd8 37be adab 5cbb 816a 86be 890e 5e3d
00000200: bd3f 6ebc da08 5dbd 52d4 53be 626d 1b3d
00000210: 5269 e7bd 7365 633c bcc8 e83c bc56 993d
00000220: 7068 e43e 8646 fb3d ba0c b83d 7600 28be
00000230: f237 4abe 7a50 253e a0cc cbbd b3d6 1dbe
00000240: 5fb2 21be 49a0 6dbc 3fbb d3bd 6f3c 2c3d
00000250: c5ce a8bb 64d7 943b 3a34 97bb ff36 a1be
00000260: 484b a43d 5c6c f4be 6bf5 3a3e a9fc ac3e
00000270: 6b26 083e 6e16 f83d 3fd4 813e 574a 16be
00000280: 7ce2 ce3d 91c1 e8be bfff 31bd 0724 433f
00000290: 9e7a d43c e98e 4fbe 3bc8 b3bd 1f44 413e
000002a0: 11fe a83e 0bb8 0ebe b85c babe c243 f6bd
000002b0: 52bb 603e c65a 133e de3a 76bc 0694 06be
000002c0: 6352 5cbe 26a7 9b3d b000 66be 97a0 953d
000002d0: da33 3fbd 9558 16bc 72f3 2cbe 0da5 a0be
000002e0: 8cef 28bd 8aba 803d 3ebf 003e 6d01 a83d
000002f0: 221b 213e c3bd 323e 6823 fa3e a573 b63e
00000300: bb87 133e 0e18 1a3f 2d42 253e bca6 77bc
00000310: f838 f73d fe51 a03e b89d efbd 25a7 9d3e
00000320: baa1 6a3e 1a1d ac3e 7623 c83e 2e20 83be
00000330: b088 5ebe 2db1 2ebd b26a eebb f1c2 23be
00000340: bcc5 8cbd 9e78 3b3f f690 e73b 6147 91be
00000350: e197 08bd 159d 9d3b 8379 36be a7c4 8d3e
00000360: 47d3 08be 041a 21bd 12b8 2cbe 0be9 73bd
00000370: 1d56 0f3e 8e70 4fbe ccf0 31be c26e 55bd
00000380: f89e d1bd 41fd 163e 78c2 483e 0da9 363e
00000390: 45fe 9b3e 5309 8cbd ff3a 00bd 364a 1ebe
000003a0: 1d25 af3e f51e febe 9642 73be f74e 643e
000003b0: 03b2 0e3e cbbd 3cbe f347 95be 4f94 0fbf
000003c0: bd28 dc3d 9b3b 3c3d a9fc a63e c032 653e
000003d0: 1489 fbbd f5da 913e 185b 45bc 689e 33be
000003e0: 4239 b53e f3bf a0bd 1ad2 a4bb 7804 053b
000003f0: 1b47 74bd 7cee 7fbd c0cd 04be 618b 9b3d

lstm.weight_hh_l0 f4 [256, 64]
-0.22929312 -0.13886918 -0.043126345 0.12721471 0.110081315 0.11393285 -0.019929036 -0.022667963
-0.12137937 -0.054521184 0.17909771 -0.05445436 0.08947556 0.1412806 -0.0028151502 -0.17573595
0.22224505 0.35440585 0.13884106 -0.21076474 0.26330808 0.14125781 -0.30286932 -0.26973572
-0.0405489 0.13265392 -0.024318358 -0.36072552 -0.07295852 0.06594094 0.24014361 -0.1526643
0.09989085 0.045329355 -0.0028492105 -0.024344746 0.3251296 -0.22274755 -0.11502807 -0.040931396
-0.12388576 0.20960137 0.4697919 -0.052545823 0.007308573 -0.029148089 0.08327734 0.31545293
-0.012638281 -0.0002491795 0.2539179 0.1700804 0.088879034 -0.14951544 0.09965846 0.41120648
0.4674848 0.1605611 -0.2258684 -0.039448015 -0.2967685 -0.04871206 0.040635973 -0.06445781
0.20758893 -0.056007925 -0.13171515 -0.017514495 0.3776319 -0.5475281 0.10707877 0.083600394
0.5527149 0.12360491 -0.31953374 0.111224726 -0.1853251 0.41607276 0.064267464 0.2240695
-0.14349146 0.7051396 0.26777196 0.0083730165 0.0713826 -0.07593544 0.057997942 -0.09462615
0.27480537 -0.18172766 0.27910018 -0.116726436 0.245252 0.036739103 0.0253203 0.28877336
-0.05456789 -0.3431752 -0.16023606 0.009503667 -0.25804627 -0.23535858 -0.040732596 0.1494856
0.14305316 -0.21880406 0.22518113 0.25855044 0.23032975 -0.08890928 0.11539534 -0.53709507
0.25388044 -0.42478594 -0.36049154 0.29599035 0.0031271093 0.041972864 0.5832031 0.1146315
0.1177038 0.596638 0.006112905 -0.28424597 0.005016668 -0.67593575 -0.037440967 -0.107051775
0.089666694 -0.136702 -0.028747872 0.0685734 -0.26535589 -0.10480875 -0.19467959 -0.058371544
0.31611127 -0.10017965 -0.09562901 0.23672591 -0.13549347 -0.14991818 -0.07375801 0.17512503
-0.18280157 0.1488869 -0.14644286 0.25030255 -0.061217107 -0.04914099 -0.077590086 -0.0615292
-0.08447297 -0.055939127 0.41188717 -0.09377776 0.017411806 0.006622768 0.031668164 0.38197178
-0.119981244 -0.43284076 -0.27379695 0.26680213 -0.031096846 -0.13112022 -0.088882044 -0.13210265
-0.16221194 -0.083416976 0.18231672 -0.025880495 0.09292125 0.13778888 0.1597548 -0.01146239
0.03015412 -0.039719023 -0.016967442 0.1461455 0.05227652 -0.07603922 0.29715618 -0.46063727
0.029407904 0.22893776 -0.04928106 -0.26390123 0.10033698 -0.23047704 0.05313668 -0.104514875
-0.13513722 0.12955442 0.003770913 0.06570501 -0.4120062 -0.10805467 -0.099000625 -0.013311574
0.13790296 -0.037675004 -0.16914763 0.20089674 -0.15428045 0.15776429 -0.23000084 0.18620232
-0.19924603 0.34771568 -0.28459632 -0.0146044055 -0.058448896 0.09997986 -0.1334146 -0.07680793
0.016960667 -0.023488758 0.0065354 0.22941379 0.011621406 0.10589991 -0.01906579 0.20584308
-0.15207961 -0.5812621 -0.4515965 0.31791598 -0.28057054 -0.11243497 -0.09536328 -0.20754853
0.081735924 -0.1588029 -0.03687844 0.14422694 -0.06264552 -0.11678355 0.13695693 -0.20645341
0.16566543 -0.100371465 -0.3217455 -0.13149357 -0.12443062 0.007939758 0.40099207 -0.3165854
0.05843061 0.36823803 0.15386596 -0.121465474 0.29249144 -0.26884857 -0.17631713 -0.22861001
00000000: d1cb 6abe b933 0ebe 40a5 30bd 9344 023e
00000010: 5072 e13d a055 e93d 3842 a3bc 2ab2 b9bc
00000020: bf95 f8bd 9b51 5fbd 6465 373e 890b 5fbd
00000030: f63e b73d ddab 103e 627e 38bb 20f4 33be
00000040: 3594 633e af74 b53e 5a2c 0e3e b6d2 57be
00000050: 51d0 863e e3a5 103e b011 9bbe cd1a 8abe
00000060: 9a16 26bd 6ed6 073e 4b37 c7bc 04b1 b8be
00000070: 476b 95bd 0b0c 873d 35e8 753e 0854 1cbe
00000080: 9393 cc3d 46ab 393d d2b9 3abb a26e c7bc
00000090: 6377 a63e ef17 64be d693 ebbd aea7 27bd
000000a0: d1b7 fdbd bea1 563e 9088 f03e 4a3a 57bd
000000b0: c17c ef3b f9c7 eebc 4f8d aa3d 0c83 a13e
000000c0: cb10 4fbc 4ea4 82b9 8701 823e 8e29 2e3e
000000d0: 3606 b63d 931a 19be bc19 cc3d a889 d23e
000000e0: 2b5a ef3e 216a 243e 0c4a 67be 3e94 21bd
000000f0: 0af2 97be 4c86 47bd e871 263d 7502 84bd
00000100: 3192 543e 9168 65bd 56e0 06be 8f7a 8fbc
00000110: f858 c13e cd2a 0cbf 1d4c db3d af36 ab3d
00000120: b97e 0d3f 9224 fd3d ed99 a3be cac9 e33d
00000130: ddc5 3dbe 7d07 d53e a99e 833d 7a72 653e
00000140: 6def 12be 0784 343f 6819 893e fa2e 093c
00000150: 0a31 923d 0a84 9bbd 408f 6d3d 5bcb c1bd
00000160: 4ab3 8c3e d116 3abe 38e6 8e3e 450e efbd
00000170: 5723 7b3e be7b 163d 856c cf3c 1ada 933e
00000180: 9482 5fbd a9b4 afbe ec14 24be 45b5 1b3c
00000190: a41e 84be d701 71be 39d7 26bd c112 193e
000001a0: 877c 123e 2c0e 60be e295 663e b960 843e
000001b0: 90db 6b3e 1216 b6bd 6454 ec3d 107f 09bf
000001c0: 9efc 813e 8b7d d9be 5992 b8be 0c8c 973e
000001d0: 30f0 4c3b bdeb 2b3d cc4c 153f ebc3 ea3d
000001e0: b10e f13d 45bd 183f c44e c83b b088 91be
000001f0: dc62 a43b 200a 2dbf b35b 19bd f63d dbbd
00000200: 2ca3 b73d 9cfb 0bbe a880 ebbc 3670 8c3d
00000210: badc 87be f8a5 d6bd 165a 47be 0017 6fbd
00000220: 56d9 a13e fd2a cdbd 24d9 c3bd 4768 723e
00000230: cdbe 0abe 2784 19be 710e 97bd fa53 333e
00000240: 5630 3bbe cf75 183e 1ef5 15be a827 803e
00000250: cabe 7abd 1048 49bd 8de7 9ebd 0b06 7cbd
00000260: 2a00 adbd 6d20 65bd e0e2 d23e 8e0e c0bd
00000270: 34a3 8e3c ce03 d93b 7ab6 013d ce91 c33e
00000280: bab8 f5bd 4e9d ddbe 1d2f 8cbe 4a9a 883e
00000290: d0be febc 6144 06be ca07 b6bd eb45 07be
000002a0: e31a 26be 85d6 aabd 3cb1 3a3e 5503 d4bc
000002b0: 7f4d be3d 8718 0d3e c396 233e c0cc 3bbc
000002c0: c605 f73c 6ab0 22bd 4eff 8abc 2aa7 153e
000002d0: e71f 563d 73ba 9bbd db24 983e a6d8 ebbe
000002e0: d8e8 f03c a96e 6a3e f0da 49bd 101e 87be
000002f0: 797d cd3d 2c02 6cbe d9a5 593d e50b d6bd
00000300: 6961 0abe eaa9 043e 6c21 773b 5990 863d
00000310: 7af2 d2be c44b ddbd d7c0 cabd ca18 5abc
00000320: 6f36 0d3e 1b51 1abd 0935 2dbe e0b7 4d3e
00000330: b2fb 1dbe f68c 213e 5785 6bbe d2ab 3e3e
00000340: 2707 4cbe ca07 b23e 9cb6 91be 5147 6fbc
00000350: 1c68 6fbd 3ec2 cc3d d69d 08be 7a4d 9dbd
00000360: 19f1 8a3c 7f6b c0bc e926 d63b 73eb 6a3e
00000370: b667 3e3c 0de2 d83d dc2f 9cbc 87c8 523e
00000380: c2ba 1bbe 98cd 14bf a837 e7be e2c5 a23e
00000390: f1a6 8fbe 4e44 e6bd d34d c3bd 9a87 54be
000003a0: 2a65 a73d 3a9d 22be d90d 17bd 3ab0 133e
000003b0: 4b4c 80bd 372c efbd 703e 0c3e 8668 53be
000003c0: 33a4 293e 8e8f cdbd d4bb a4be 40a6 06be
000003d0: 7bd5 febd c215 023c d54e cd3e 7b17 a2be
000003e0: ef54 6f3d b289 bc3e 0a8f 1d3e e4c2 f8bd
000003f0: 70c1 953e 85a6 89be 7a8c 34be be18 6abe

lstm.bias_ih_l0 f4 [256]
-0.09562234 -0.09789555 -0.125109 -0.11774866 -0.13453647 -0.11184451 0.039971687 -0.043458164
-0.002904229 -0.19909899 -0.12160992 -0.15719013 0.04317822 0.061384667 0.012701034 0.008764166
-0.028633142 -0.15146136 -0.09914426 -0.068783276 0.037853707 -0.07059504 -0.15487252 -0.13986355
-0.2002429 -0.30973294 -0.2009205 -0.142952 -0.12082655 -0.06836419 0.13120739 0.08839725
-0.16286802 0.051922187 0.013292022 -0.0778717 -0.048671324 -0.03829543 0.06939351 -0.23438647
0.00628793 -0.24150251 0.13802163 -0.0542273 -0.079038054 -0.19590893 -0.008933122 -0.0068582795
-0.093960136 -0.14060046 -0.16443777 0.10012408 0.094400726 0.04922007 -0.104789436 -0.008867476
0.039351977 0.041984558 0.15704045 -0.12025816 0.01589564 -0.0029653993 -0.17075291 -0.104043886
-0.11151877 -0.024599107 -0.02950724 0.31170115 0.07560837 0.018641917 0.23358667 0.16250375
-0.12141821 -0.19390216 0.0025510038 0.24658176 0.016164817 -0.227008 -0.030987658 -0.04385917
-0.16251305 0.11563448 -0.077085815 0.15550412 0.08014179 -0.027218267 -0.15375835 -0.09307093
0.17252514 -0.1520906 -0.088871606 0.02356114 0.13169467 -0.11865341 -0.2849747 0.10194588
0.041473556 0.045419894 0.10093617 0.19754037 0.03672535 -0.020682411 0.05714048 0.024539309
0.18267491 0.04972901 0.120300956 0.00037922894 -0.078282684 0.11700716 0.009595917 -0.2262896
0.10347845 -0.18639916 -0.10331131 0.04848559 0.113842174 0.23563966 0.1946713 0.25062886
0.26728898 -0.10302728 0.07110698 -0.042990226 -0.079988316 -0.14154163 0.1734142 0.06773489
-0.0030408506 0.086878814 -0.027633406 0.017531177 -0.09162723 0.019781418 -0.00587709 0.07525449
-0.017213814 0.04584101 0.061057735 -0.06847076 0.09923803 0.04669394 0.06880888 -0.049372204
0.06268202 -0.04792087 0.053221215 -0.054229356 0.021022957 0.08702718 -0.025723772 0.031224055
-0.07172271 -0.033389106 -0.102217264 0.060931467 0.07698585 -0.06673349 -0.0012491416 0.04501897
-0.040002972 0.054184392 0.04294787 -0.049100433 0.06288535 -0.08725042 -0.085932106 0.056012645
0.06338818 -0.06788103 -0.027051734 -0.07533466 0.09425278 0.13182473 -0.056713182 -0.04705198
-0.09774905 0.0021415977 -0.07770698 0.0504418 -0.062639765 0.09371434 0.058525052 -0.010094562
-0.05277735 0.04430436 -0.057406764 0.027096637 -0.10971226 0.07028527 0.037191994 -0.050799027
-0.18237326 0.08727349 -0.2472214 0.10511678 -0.060002096 -0.067771375 -0.016864873 0.025589528
-0.11505916 0.04686363 -0.03228258 -0.09778513 0.030709768 0.085864514 0.036530856 -0.06199823
0.094659716 -0.09636473 -0.035056766 -0.04083889 0.07283287 -0.017290978 0.09046287 -0.10538714
0.071966514 -0.1959246 -0.14645408 -0.1096193 0.047998063 0.10590771 -0.09887884 0.0743928
-0.18702558 0.18393348 0.07451312 0.050423548 0.029468518 -0.19759524 -0.15253365 -0.055443347
-0.019676805 0.10007699 0.07506547 -0.03847283 -0.004212426 -0.0779457 -0.12177937 -0.028983515
-0.11586089 0.11881613 -0.021711187 -0.05352567 -0.073747545 0.011065341 0.17131503 -0.03525067
-0.08760152 -0.060028207 -0.1495237 0.020908052 -0.08522231 0.18632637 0.02470018 -0.043727886
00000000: a5d5 c3bd 767d c8bd 931c 00be 3626 f1bd
00000010: eec3 09be bc0e e5bd 5ab9 233d 3001 32bd
00000020: e154 3ebb 9be0 4bbe 9f0e f9bd 73f6 20be
00000030: a5db 303d 7d6e 7b3d ff17 503c 9497 0f3c
00000040: 0d90 eabc b018 1bbe 250c cbbd 3fde 8cbd
00000050: 7d0c 1b3d 2294 90bd e796 1ebe 6438 0fbe
00000060: 7a0c 4dbe 5195 9ebe 1bbe 4dbe 0262 12be
00000070: e973 f7bd 8602 8cbd 3b5b 063e 9e09 b53d
00000080: e0c6 26be 5cac 543d c8c6 593c 337b 9fbd
00000090: 955b 47bd abdb 1cbd 2f1e 8e3d 0203 70be
000000a0: fb0a ce3b 6f4c 77be 8b55 0d3e 721d 5ebd
000000b0: b4de a1bd 5a9c 48be 3b5c 12bc 6bbb e0bb
000000c0: 2c6e c0bd 91f9 0fbe 6062 28be db0d cd3d
000000d0: 2b55 c13d fc9a 493d d89b d6bd e448 11bc
000000e0: 8a2f 213d 00f8 2b3d 36cf 203e e949 f6bd
000000f0: 9337 823c 2557 42bb dad9 2ebe f614 d5bd
00000100: f463 e4bd 1184 c9bc 2bb9 f1bc 4b97 9f3e
00000110: 90d8 9a3d efb6 983c 5831 6f3e 6267 263e
00000120: 1caa f8bd 4a8e 46be be2e 273b ee7f 7c3e
00000130: 146c 843c c974 68be d4d9 fdbc aca5 33bd
00000140: d269 26be c5d1 ec3d 2bdf 9dbd 793c 1f3e
00000150: 6121 a43d d8f8 debc d472 1dbe f99b bebd
00000160: 6eaa 303e a3bd 1bbe 5102 b6bd 4b03 c13c
00000170: f8da 063e 8f00 f3bd 34e8 91be 00c9 d03d
00000180: 2de0 293d 360a 3a3d 9fb7 ce3d 0648 4a3e
00000190: 526d 163d 296e a9bc 230c 6a3d a906 c93c
000001a0: 220f 3b3e a5b0 4b3d 5960 f63d 3fd3 c639
000001b0: ac52 a0bd 73a1 ef3d 3138 1d3c 76b8 67be
000001c0: 82ec d33d 6cdf 3ebe e194 d3bd d398 463d
000001d0: 1626 e93d 864b 713e ea57 473e 6d52 803e
000001e0: 1ada 883e f7ff d2bd 89a0 913d 8516 30bd
000001f0: ead0 a3bd 4af0 10be 7e93 313e 97b8 8a3d
00000200: 0249 47bb 85ed b13d 745f e2bc 8b9d 8f3c
00000210: 0fa7 bbbd a40c a23c 9b94 c0bb 071f 9a3d
00000220: fc03 8dbc c8c3 3b3d ad17 7a3d 663a 8cbd
00000230: 4f3d cb3d 2542 3f3d aceb 8c3d 823a 4abd
00000240: 6e5f 803d ad48 44bd 7dfe 593d 9a1f 5ebd
00000250: 5638 ac3c 4e3b b23d a9ba d2bc 97c9 ff3c
00000260: 5be3 92bd 04c3 08bd 4957 d1bd 4693 793d
00000270: c2aa 9d3d 91ab 88bd 3dba a3ba d065 383d
00000280: 28da 23bd 74f0 5d3d 1bea 2f3d 891d 49bd
00000290: 09ca 803d 59b0 b2bd 2cfd afbd 846d 653d
000002a0: aad1 813d 3605 8bbd 999b ddbc 0f49 9abd
000002b0: 9a07 c13d 10fd 063e 154c 68bd 94b9 40bd
000002c0: a730 c8bd 0c5a 0c3b d624 9fbd 109c 4e3d
000002d0: 4749 80bd 4eed bf3d f7b7 6f3d a963 25bc
000002e0: 102d 58bd 7d78 353d 5b23 6bbd c4f9 dd3c
000002f0: d2b0 e0bd b9f1 8f3d a256 183d a412 50bd
00000300: 0ec0 3abe 72bc b23d 9b27 7dbe 7747 d73d
00000310: c2c4 75bd b8cb 8abd 3428 8abc 21a1 d13c
00000320: 23a4 ebbd 14f4 3f3d bd3a 04bd 9243 c8bd
00000330: 0d93 fb3c bcd9 af3d 61a1 153d dbf1 7dbd
00000340: f4dc c13d df5a c5bd af97 0fbd ae46 27bd
00000350: 6629 953d cfa5 8dbc 9944 b93d 36d5 d7bd
00000360: 2e63 933d 75a0 48be 0ff8 15be 1580 e0bd
00000370: 9e99 443d 24e6 d83d fd80 cabd 415b 983d
00000380: a283 3fbe 0f59 3c3e 569a 983d ec88 4e3d
00000390: f667 f13c 6856 4abe c831 1cbe 9018 63bd
000003a0: 4031 a1bc 2af5 cc3d edbb 993d b095 1dbd
000003b0: 6408 8abb ffa1 9fbd 7667 f9bd d66e edbc
000003c0: 7948 edbd df55 f33d a9db b1bc bc3d 5bbd
000003d0: f408 97bd 674b 353c 356d 2f3e 0263 10bd
000003e0: 6d68 b3bd 23e0 75bd be1c 19be 5d47 ab3c
000003f0: 0989 aebd 57cc 3e3e 0858 ca3c 031c 33bd

lstm.bias_hh_l0 f4 [256]
-0.16868883 -0.11386061 -0.06614077 -0.12643096 -0.15603003 -0.17582053 -0.06073034 -0.044209775
-0.008868667 -0.053473163 -0.14850608 0.01530055 -0.06650074 -0.050236743 -0.19913527 -0.094319746
0.032078728 -0.10244751 -0.03789357 -0.15947962 -0.054560278 -0.07574245 -0.14579521 -0.24013121
-0.096509025 -0.24613585 -0.1574001 0.06641756 -0.031538103 -0.12939993 -0.024115209 -0.020483438
-0.15371487 0.019615207 -0.004382248 -0.15300854 -0.077466734 -0.10318202 -0.10398595 0.0035103862
-0.0043966114 -0.14048606 0.07283072 0.005752489 -0.1251957 0.008894666 -0.24904698 -0.15816765
-0.19786349 -0.02128344 -0.17781389 -0.0076461667 0.08484374 -0.15119918 0.05282589 0.039119504
-0.048588954 0.02358152 0.050136223 -0.19052601 -0.023381371 -0.14004952 -0.12285238 -0.21941936
-0.07734746 -0.07907809 -0.049659718 0.28372797 0.07240608 -0.037951604 0.07297629 -0.030018805
-0.12208073 -0.18736827 0.08573051 0.12545326 -0.091269284 -0.20874268 0.05791985 -0.033101182
-0.19716851 0.13721897 -0.014404184 0.11973143 0.1188742 0.05585085 -0.22418045 0.023468269
-0.023135839 -0.31770167 -0.023254164 0.084153414 0.19306317 0.10376957 -0.21470702 -0.13070528
-0.034733173 -0.024003563 -0.05521087 0.04440864 0.13045196 0.010283001 0.12122493 -0.006116526
-0.01667093 -0.08349291 0.041517302 -0.055303894 -0.09347236 0.13207467 0.00979669 -0.0050496007
0.027788991 -0.050710347 -0.03241596 0.0050107418 -0.023010217 0.09065953 0.2505004 0.20699133
0.2096484 -0.052193325 0.04237206 -0.016066799 -0.09318618 0.07654313 0.066305965 0.13303742
-0.2058146 -0.0651227 0.057268906 -0.03581286 0.11400932 0.076350786 0.15285598 -0.06284238
-0.032580893 -0.022753196 -0.013689493 -0.0706657 0.0133388685 -0.04626163 0.007606146 -0.075676
0.10468795 -0.14524911 -0.12378274 -0.0012621481 0.0003275199 -0.06690693 -0.056593724 0.043409612
0.031980723 -0.09317969 -0.114416935 -0.08958131 -0.012591807 -0.08926736 -0.040540546 0.030327436
-0.090748034 0.029998695 0.110159956 -0.1688025 0.058784477 -0.08530097 0.07050642 -0.15203618
0.12022589 -0.014802518 0.005966167 -0.02635083 -0.049197756 -0.039737992 -0.043565344 -0.00955833
0.08707163 0.1250887 0.11836641 -0.15883064 -0.0010888941 0.079376295 -0.06717443 0.13509513
-0.023423508 0.06801504 0.022988707 0.17715481 -0.029305363 0.00407053 0.035267428 0.08528158
-0.10255145 0.059701636 -0.15269376 0.11771366 -0.072919786 -0.06248109 0.0051978845 0.094890915
-0.025780773 -0.074076064 0.024192376 -0.13072874 -0.021546068 -0.04992274 0.0092110075 0.07439978
0.053010233 -0.039528783 -0.015629012 0.17592122 -0.08588959 -0.07316744 0.09082189 -0.10458299
-0.02542999 -0.21526115 -0.16515733 -0.07816196 -0.10913857 0.082569934 0.03218198 0.076476455
-0.20034276 0.285737 -0.0084769875 -0.07691018 0.032034982 -0.059612013 -0.016965143 -0.076097056
-0.12238897 0.042846832 0.20044805 0.06318131 -0.19494331 -0.028936204 -0.2052105 -0.16991931
-0.08539632 -0.044807326 0.021328587 -0.08589938 0.045098726 0.10070974 0.024937818 0.05572909
-0.041730795 0.16489463 0.015935758 -0.10483958 0.068865016 -0.020598955 0.021411307 0.037991446
00000000: c4bc 2cbe c02f e9bd d074 87bd 1e77 01be
00000010: 56c6 1fbe 4c0a 34be 61c0 78bd 4f15 35bd
00000020: e34d 11bc ad06 5bbd fa11 18be 28af 7a3c
00000030: 8a31 88bd 0bc5 4dbd 1eea 4bbe b62a c1bd
00000040: fc64 033d 00d0 d1bd 4a36 1bbd a04e 23be
00000050: 997a 5fbd dc1e 9bbd 574b 15be f5e4 75be
00000060: 86a6 c5bd 090b 7cbe 7e2d 21be ee05 883d
00000070: 192e 01bd 6a81 04be 428d c5bc e2cc a7bc
00000080: 6e67 1dbe 12b0 a03c f698 8fbb 45ae 1cbe
00000090: e1a6 9ebd 1851 d3bd 96f6 d4bd 820e 663b
000000a0: 7311 90bb 94db 0fbe 4628 953d 607f bc3b
000000b0: 4d33 00be efba 113c 2c06 7fbe b3f6 21be
000000c0: ba9c 4abe 9c5a aebc d814 36be b28c fabb
000000d0: 8ec2 ad3d f5d3 1abe f65f 583d c63b 203d
000000e0: 3605 47bd 082e c13c a45b 4d3d 4019 43be
000000f0: 4a8a bfbc 2469 0fbe 079a fbbd 78af 60be
00000100: 5868 9ebd b2f3 a1bd fd67 4bbd cb44 913e
00000110: a449 943d 2473 1bbd 9874 953d ffe9 f5bc
00000120: 7605 fabd 78dd 3fbe 7a93 af3d d276 003e
00000130: 64eb babd a4c0 55be 5d3d 6d3d 1b95 07bd
00000140: 8be6 49be 2183 0c3e 87ff 6bbc c135 f53d
00000150: 5174 f33d dcc3 643d 8f8f 65be 8740 c03c
00000160: 5f87 bdbc cba9 a2be 847f bebc a058 ac3d
00000170: 5ab2 453e 2485 d43d 28dc 5bbe 9bd7 05be
00000180: 5f44 0ebd 1fa3 c4bc cb24 62bd d6e5 353d
00000190: 3395 053e 087a 283c c744 f83d 246d c8bb
000001a0: 7991 88bc 55fe aabd 0c0e 2a3d 5686 62bd
000001b0: 706e bfbd 953e 073e 4c82 203c 1f77 a5bb
000001c0: bda5 e33c a7b5 4fbd 99c6 04bd 2631 a43b
000001d0: ec7f bcbc b4ab b93d 9741 803e 89f5 533e
000001e0: 12ae 563e abc8 55bd 538e 2d3d 859e 83bc
000001f0: 65d8 bebd a5c2 9c3d 6ccb 873d f63a 083e
00000200: 10c1 52be 0d5f 85bd cd92 6a3d 81b0 12bd
00000210: b87d e93d cd5d 9c3d 4786 1c3e 81b3 80bd
00000220: 8b73 05bd e964 babc e549 60bc 2eb9 90bd
00000230: 458b 5a3c d67c 3dbd fa3c f93b 05fc 9abd
00000240: a366 d63d 2fbc 14be ce81 fdbd aa6e a5ba
00000250: fab6 ab39 8006 89bd d2ce 67bd 47ce 313d
00000260: 38fe 023d fed4 bebd 6d53 eabd 6876 b7bd
00000270: de4d 4ebc ced1 b6bd d80d 26bd 3e71 f83c
00000280: 1bda b9bd d3bf f53c 8b9b e13d 90da 2cbe
00000290: fec7 703d 46b2 aebd ac65 903d 5faf 1bbe
000002a0: fe38 f63d 4386 72bc d67f c33b b2dd d7bc
000002b0: 9683 49bd 4ec4 22bd 9371 32bd 8b9a 1cbc
000002c0: 9c52 b23d 4117 003e 176a f23d 80a4 22be
000002d0: 39b9 8eba 0a90 a23d bf92 89bd 6156 0a3e
000002e0: a8e2 bfbc 784b 8b3d d052 bc3c 1268 353e
000002f0: cd11 f0bc 1562 853b 9474 103d 1ca8 ae3d
00000300: 7f06 d2bd b489 743d c15b 1cbe dc13 f13d
00000310: f856 95bd 2cec 7fbd 0453 aa3b 2b56 c23d
00000320: 3332 d3bc 31b5 97bd 172f c63c c1dd 05be
00000330: 6181 b0bc c97b 4cbd c4e9 163c e95e 983d
00000340: 4221 593d efe8 21bd 6a08 80bc b124 343e
00000350: e2e6 afbd d0d8 95bd d400 ba3d 9b2f d6bd
00000360: 8e52 d0bc 6b6d 5cbe 011f 29be 6113 a0bd
00000370: 0b84 dfbd 6d1a a93d 40d1 033d b09f 9c3d
00000380: a726 4dbe 1f4c 923e 10e3 0abc 1683 9dbd
00000390: 1d37 033d ba2b 74bd 7cfa 8abc c6d8 9bbd
000003a0: 11a7 fabd 2980 2f3d 4142 4d3e 3465 813d
000003b0: 389f 47be 9e0b edbc b422 52be 54ff 2dbe
000003c0: 44e4 aebd e387 37bd 4ab9 ae3c 04ec afbd
000003d0: 71b9 383d e840 ce3d 654a cc3c 3044 643d
000003e0: e9ed 2abd 23da 283e b58b 823c 22b6 d6bd
000003f0: 1a09 8d3d 24bf a8bc c466 af3c eb9c 1b3d

lstm.weight_ih_l1 f4 [256, 64]
0.021884626 -0.10027501 0.12001008 -0.12549894 0.064552896 0.12271745 0.251933 0.24450012
-0.24856079 0.046545725 0.09754695 -0.042432524 -0.061809994 0.23567098 0.32760182 -0.12350364
0.034215458 -0.089329965 -0.05737212 0.2554361 -0.07476036 0.06073855 -0.23317727 0.09511502
0.10597688 -0.12697315 -0.29478493 0.091151275 -0.005824498 -0.17072459 -0.13804682 0.044481855
0.1554268 -0.2213657 -0.1081336 0.13625936 0.06618916 -0.085943386 0.024991876 -0.20584796
0.094272576 0.21087305 0.13999598 -0.055627067 -0.031661883 -0.10493504 0.014372896 0.07322152
0.20768887 0.09194381 0.14028972 0.06523932 0.036405154 0.1053775 0.062383235 0.17353918
-0.10260592 -0.085078925 -0.086303614 -0.020571327 0.025458269 -0.119587705 0.2713973 -0.11413008
0.23070458 -0.0020243921 0.049675915 -0.24523146 -0.21955928 -0.056671847 0.06654528 0.17725217
-0.023954159 -0.06219472 -0.18192594 0.021297839 -0.015604335 0.022607677 0.10791453 -0.12723027
0.009499792 -0.20069523 0.018853165 0.23046577 -0.2319998 -0.06378176 0.013147408 0.041311037
0.27592278 -0.07638152 -0.18127982 0.03275496 0.0898651 -0.24816154 -0.19062606 0.0007259442
-0.08666058 0.19092347 -0.019348737 -0.24305134 -0.123348 -0.043903343 0.1954237 -0.041441083
0.016158566 -0.10192107 -0.044653717 -0.071204714 0.07054014 -0.09996937 -0.043735825 0.02061859
0.039642397 -0.07229897 -0.16836405 0.0110559845 0.0064368937 0.20713101 -0.035075314 0.09547073
-0.18357304 0.2333692 0.032307744 0.046973508 0.1662861 -0.12173872 -0.14950739 -0.040965762
-0.078242734 -0.041690256 0.103083685 0.071327746 0.05210302 -0.049500614 0.0454038 0.2578431
-0.06077601 0.1272844 0.0020865554 -0.10796955 -0.23071085 0.28137973 0.115583 -0.27848202
0.001655201 0.15628801 0.11229303 0.1770056 0.19050287 -0.039835744 -0.20619333 -0.088436164
-0.07431141 0.04595527 -0.18740062 -0.18958308 -0.01798326 -0.18380783 -0.051621698 0.09624179
0.14738917 -0.41670454 0.06494524 0.086964205 0.1765276 0.05365213 0.15164867 -0.19459088
0.025946574 0.1330573 0.20155777 0.10535315 -0.105021 -0.08751262 0.013803866 0.1467318
0.20908247 0.16645469 0.2169936 0.1451516 0.15494494 0.097158074 0.018843956 -0.0046274955
-0.07823929 -0.05966803 0.08814268 0.16268833 -0.011718405 0.010285053 0.13686407 -0.008942504
0.2877294 0.077671655 0.0366953 -0.23421888 0.014009657 -0.35385242 0.0716066 -0.0032593817
0.051474717 0.13424161 -0.20288816 0.1269128 0.21242186 0.34201366 0.09535062 -0.0637039
-0.06131779 0.18394263 -0.063637085 0.121737756 0.021437358 -0.14928828 -0.24041001 0.15161407
0.3537406 -0.25097057 0.22532319 0.1330417 0.27380502 0.1641628 -0.24866502 0.071634285
-0.013577777 0.15730956 0.004641166 -0.31457824 -0.12908523 0.06646184 0.17150977 -0.31897727
0.06280344 -0.12670228 -0.024222743 0.42687103 0.15643668 -0.2523693 0.24661988 -0.17940424
0.24708483 -0.20650707 -0.17552018 0.059641548 0.013922338 -0.080157906 0.089775786 0.04491679
0.003236797 0.276785 0.09260138 -0.38491082 0.03929085 -0.41083553 -0.065426156 -0.21626686
00000000: 6347 b33c fc5c cdbd d8c7 f53d cb82 00be
00000010: 4f34 843d 4953 fb3d 5dfd 803e 3d5e 7a3e
00000020: b886 7ebe bba6 3e3d b2c6 c73d bacd 2dbd
00000030: 7a2c 7dbd bc53 713e 6dbb a73e 7aef fcbd
00000040: 8225 0c3d a1f2 b6bd 07ff 6abd 85c8 823e
00000050: f61b 99bd fcc8 783d 06c6 6ebe aacb c23d
00000060: 680a d93d 4005 02be 0dee 96be 85ad ba3d
00000070: 6edb bebb 6dd2 2ebe 255c 0dbe 9b32 363d
00000080: 3428 1f3e b1ad 62be 2675 ddbd 9387 0b3e
00000090: 2f8e 873d 1603 b0bd c3bb cc3c cfc9 52be
000000a0: fb11 c13d 1bef 573e 1b5b 0f3e 35d9 63bd
000000b0: e4af 01bd 2fe8 d6bd 4c7c 6b3c 2af5 953d
000000c0: 64ac 543e 094d bc3d 1ca8 0f3e 319c 853d
000000d0: 921d 153d 29d0 d73d 9085 7f3d 41b4 313e
000000e0: 0d23 d2bd dc3d aebd f3bf b0bd 3385 a8bc
000000f0: dc8d d03c 66ea f4bd 96f4 8a3e 08bd e9bd
00000100: d23d 6c3e aaab 04bb f978 4b3d f51d 7bbe
00000110: 26d4 60be bd20 68bd e448 883d 9881 353e
00000120: 833b c4bc e4bf 7ebd cb4a 3abe ce78 ae3c
00000130: 53a9 7fbc bc33 b93c 4b02 dd3d a748 02be
00000140: 04a5 1b3c 0d83 4dbe f471 9a3c 38ff 6b3e
00000150: 5b91 6dbe 03a0 82bd 3a68 573c c335 293d
00000160: c045 8d3e ea6d 9cbd 6ba1 39be 112a 063d
00000170: 320b b83d 0f1e 7ebe 7a33 43be 4a4d 3e3a
00000180: 1a7b b1bd 7181 433e 3e81 9ebc 73e2 78be
00000190: e09d fcbd fed3 33bd 271d 483e 20be 29bd
000001a0: f85e 843c febb d0bd d1e6 36bd c7d3 91bd
000001b0: 5977 903d bebc ccbd 5624 33bd 51e8 a83c
000001c0: 1160 223d 7b11 94bd a067 2cbe 2924 353c
000001d0: 94ec d23b 271a 543e 22ab 0fbd 2886 c33d
000001e0: 92fa 3bbe 56f8 6e3e 2055 043d 4b67 403d
000001f0: e746 2a3e 2652 f9bd 7718 19be b7cb 27bd
00000200: ba3d a0bd 67c3 2abd 8a1d d33d 4814 923d
00000210: fa69 553d 28c1 4abd 56f9 393d 0304 843e
00000220: 44f0 78bd d756 023e 97be 083b 241f ddbd
00000230: 773f 6cbe 0111 903e c8b6 ec3d 3295 8ebe
00000240: 54f3 d83a f709 203e e3f9 e53d f540 353e
00000250: 2f13 433e ce2a 23bd 5824 53be 051e b5bd
00000260: 9530 98bd 983b 3c3d f3e5 3fbe 1122 42be
00000270: a151 93bc 1f38 3cbe 4671 53bd 6a1a c53d
00000280: 30ed 163e 4c5a d5be 0302 853d 4a1a b23d
00000290: a7c3 343e 56c2 5b3d ca49 1b3e d542 47be
000002a0: e98d d43c 2c40 083e 2965 4e3e 64c3 d73d
000002b0: 4015 d7bd d139 b3bd 9c29 623c dc40 163e
000002c0: b719 563e 1973 2a3e 9233 5e3e 9fa2 143e
000002d0: e3a9 1e3e d0fa c63d a45e 9a3c 3fa2 97bb
000002e0: ec3b a0bd 7766 74bd 2684 b43d c597 263e
000002f0: 8efe 3fbc a482 283c 1826 0c3e 9583 12bc
00000300: 4551 933e 5112 9f3d d04d 163d 13d7 6fbe
00000310: c388 653c 252c b5be 7ba6 923d 5a9b 55bb
00000320: 27d7 523d a276 093e eac1 4fbe 6ef5 013e
00000330: 1e85 593e 6a1c af3e 3047 c33d 3177 82bd
00000340: 5d28 7bbd 755b 3c3e 2954 82bd a551 f93d
00000350: 669d af3c 07df 18be 0b2e 76be b840 1b3e
00000360: 7d1d b53e 377f 80be 1fbb 663e 153c 083e
00000370: 2c30 8c3e 4b1a 283e 0ba2 7ebe ffb4 923d
00000380: 5375 5ebc c215 213e ec14 983b 6610 a1be
00000390: eb2e 04be 251d 883d 42a0 2f3e fd50 a3be
000003a0: 179f 803d 3ebe 01be c66e c6bc d78e da3e
000003b0: f030 203e 8d36 81be ec89 7c3e bfb5 37be
000003c0: ce03 7d3e 9776 53be 90bb 33be b24a 743d
000003d0: 851a 643c d429 a4bd 5edc b73d abfa 373d
000003e0: 7120 543b c3b6 8d3e cba5 bd3d 0813 c5be
000003f0: 71ef 203d 0959 d2be 26fe 85bd 0f75 5dbe

lstm.weight_hh_l1 f4 [256, 64]
-0.08888005 0.1304669 0.18027376 0.046221394 -0.11283595 -0.054871827 0.02326526 0.09091493
-0.11037696 -0.089741446 0.25158653 -0.047388338 0.24588662 0.08371078 -0.10532424 0.011403766
0.07392487 0.14025466 0.04986127 -0.07025691 -0.058763787 -0.026325872 0.22471817 0.082746916
-0.031298682 0.18126911 0.06253612 0.07359247 0.054089535 -0.021974223 0.021552201 -0.14459147
-0.09098709 -0.004231315 0.11169904 -0.12816869 -0.04425598 -0.028358134 0.13900997 0.24301903
-0.06198409 -0.03847207 -0.014736454 0.11505763 -0.1470543 -0.034681298 -0.06176842 -0.10081596
-0.13690887 -0.029670384 0.0064713364 0.048152044 -0.092425585 -0.076769635 0.18218718 -0.034164228
-0.1474729 -0.25246575 -0.1943371 -0.14836983 -0.20248908 0.03254424 0.24068959 0.09104983
0.12876028 0.0066759116 0.018552367 0.10737601 -0.047599904 0.12187904 -0.099937454 -0.11218258
-0.09271387 -0.014238887 0.055684343 -0.13258825 -0.06659555 -0.020203477 0.10619776 -0.06547146
0.115904264 0.009904397 0.15844774 -0.044999354 0.0022601425 -0.107935786 -0.22138375 0.06205582
0.070863925 -0.046501182 -0.013964254 -0.07699407 -0.009221138 -0.09270284 -0.039252207 0.023115842
0.06331317 -0.14234284 -0.00712547 -0.065072306 -0.0024033072 -0.08321187 0.06713051 0.08662806
-0.12543754 -0.09569908 0.18212326 0.010307038 0.039154112 0.016890844 -0.058002748 0.014752678
-0.10494766 0.07005902 -0.028407961 -9.013142e-05 -0.044093054 -0.0027353382 0.06675979 0.057625186
0.009248405 -0.09010209 -0.19937548 0.079995275 0.09085116 -0.10605855 -0.10250163 -0.049365416
-0.22510587 0.13090494 0.36979067 -0.12869017 -0.12303725 0.07059029 0.10899735 0.2634129
-0.10109916 -0.048681855 0.1656876 0.15257311 0.21092765 -0.05012121 -0.25849184 0.07776031
0.12196035 0.070619054 0.051222257 0.048685476 0.004129946 0.023826297 0.13920331 0.073246635
0.1298586 0.14957085 0.15949662 0.088357374 0.1380338 0.05422639 -0.06887759 -0.13094933
-0.08532052 -0.096757635 0.09585398 -0.13933663 -0.07891883 0.025831413 0.0770496 0.23810634
0.17026322 0.0739742 -0.1461527 0.050718505 -0.1496929 -0.027248574 0.13424923 0.03117713
0.023432694 -0.16713013 -0.09882245 0.20926763 -0.19803973 0.102937385 0.03578639 -0.103829
-0.08573328 -0.045599736 0.0119281635 0.03236549 -0.15894604 -0.029345153 0.24725235 -0.038100943
0.08034201 -0.095330566 -0.0728204 0.16259743 0.18258557 0.11001114 -0.014139428 -0.033160962
-0.079923764 0.033988822 -0.0922151 -0.13888533 -0.092236 -0.12938747 -0.045141745 0.023401732
0.0224425 -0.028951934 -0.011036738 -0.028829971 0.02895744 -0.025022518 -0.08289027 -0.03441802
0.13535826 -0.015006503 0.18107197 -0.04250288 0.003644852 -0.10352943 -0.06117598 0.10226809
-0.085051 -0.11138963 -0.059755996 0.03840587 0.06808873 -0.07251721 -0.018831525 -0.05717005
0.16275015 -0.016533567 0.06983842 0.027064305 0.0475953 -0.116034925 -0.18012452 0.10602315
0.16851722 -0.14457749 0.07592752 -0.06558768 -0.13577798 -0.020747302 0.12329217 0.1600316
0.05544828 -0.12127467 -0.18233697 0.16763012 0.079602085 -0.13521867 -0.015243916 0.17371237
00000000: be06 b6bd 1d99 053e af99 383e a552 3d3d
00000010: 8916 e7bd 48c1 60bd c996 be3c 9b31 ba3d
00000020: 510d e2bd 5dca b7bd f3cf 803e 461a 42bd
00000030: b4c9 7b3e 8f70 ab3d 3cb4 d7bd ddd6 3a3c
00000040: ec65 973d eb9e 0f3e 553b 4c3d dbe2 8fbd
00000050: 4cb2 70bd 5ba9 d7bc 851c 663e 3777 a93d
00000060: 0c33 00bd 9c9e 393e f012 803d a6b7 963d
00000070: fd8c 5d3d 4903 b4bc 3e8e b03c c90f 14be
00000080: 7057 babd d8a6 8abb 77c2 e43d a73e 03be
00000090: c245 35bd 514f e8bc a158 0e3e fbd9 783e
000000a0: 07e3 7dbd e494 1dbd 2b71 71bc 56a3 eb3d
000000b0: 6795 16be fa0d 0ebd e200 7dbd 9978 cebd
000000c0: d731 0cbe 4e0f f3bc 810d d43b 143b 453d
000000d0: a049 bdbd 6639 9dbd 478f 3a3e caef 0bbd
000000e0: 2303 17be 3143 81be 4e00 47be 43ee 17be
000000f0: 4c59 4fbe 1c4d 053d 5577 763e 5578 ba3d
00000100: bcd9 033e 9bc1 da3b 22fb 973c f4e7 db3d
00000110: 1ef8 42bd b89b f93d 02ac ccbd fbbf e5bd
00000120: c5e0 bdbd 384a 69bc 4415 643d 37c5 07be
00000130: 3f63 88bd c381 a5bc 367e d93d e715 86bd
00000140: 375f ed3d 0d46 223c 2040 223e 3e51 38bd
00000150: e61e 143b 700d ddbd 6cb2 62be 3e2e 7e3d
00000160: 1b21 913d 0678 3ebd 54ca 64bc 11af 9dbd
00000170: 4214 17bc fdda bdbd ecc6 20bd 6f5d bd3c
00000180: 56aa 813d 52c2 11be c67c e9bb a144 85bd
00000190: ce80 1dbb fc6a aabd b97b 893d 0d6a b13d
000001a0: b372 00be e1fd c3bd 857e 3a3e dade 283c
000001b0: 1060 203d ab5e 8a3c 4a94 6dbd 37b5 713c
000001c0: ccee d6bd 1a7b 8f3d d0b7 e8bc f004 bdb8
000001d0: eb9a 34bd 5c43 33bb 5bb9 883d 6308 6c3d
000001e0: 9f86 173c 7287 b8bd 1629 4cbe 90d4 a33d
000001f0: 2c10 ba3d 3a35 d9bd 60ec d1bd 6433 4abd
00000200: 2782 66be f20b 063e 3455 bd3e 5bc7 03be
00000210: f4fa fbbd a491 903d 013a df3d 0ede 863e
00000220: 140d cfbd a066 47bd 03aa 293e 203c 1c3e
00000230: 6bfd 573e e64b 4dbd 0b59 84be cc40 9f3d
00000240: 59c6 f93d b9a0 903d 6ece 513d 6c6a 473d
00000250: 8054 873b 5e2f c33c 508b 0e3e 5502 963d
00000260: a7f9 043e 1a29 193e 1553 233e b6f4 b43d
00000270: bc58 0d3e 7e1c 5e3d b20f 8dbd 9517 06be
00000280: 86bc aebd de28 c6bd 174f c43d 43ae 0ebe
00000290: 32a0 a1bd 669c d33c 2ecc 9d3d 26d2 733e
000002a0: 7b59 2e3e c97f 973d 0ea9 15be 35be 4f3d
000002b0: 1849 19be 6738 dfbc a178 093e 2e67 ff3c
000002c0: ecf5 bf3c 2924 2bbe 6d63 cabd 414a 563e
000002d0: edca 4abe d6d0 d23d c094 123d 4ca4 d4bd
000002e0: ee94 afbd cac6 3abd 586e 433c ad91 043d
000002f0: c0c2 22be 3f65 f0bc b82f 7d3e bc0f 1cbd
00000300: 5a8a a43d ac3c c3bd dd22 95bd f17f 263e
00000310: b6f7 3a3e 854d e13d 0fa9 67bc cad3 07bd
00000320: 12af a3bd dd37 0b3d 45db bcbd f537 0ebe
00000330: 3ae6 bcbd 267e 04be 8de6 38bd fdb4 bf3c
00000340: 55d9 b73c 9b2c edbc 6fd3 34bc d52c ecbc
00000350: 2738 ed3c 06fc ccbc 60c2 a9bd e9f9 0cbd
00000360: 5b9b 0a3e d6dd 75bc ee6a 393e 8017 2ebd
00000370: 78de 6e3b 3d07 d4bd aa93 7abd ef71 d13d
00000380: 382f aebd 3f20 e4bd b4c2 74bd 794f 1d3d
00000390: 1b72 8b3d e783 94bd 9244 9abc 242b 6abd
000003a0: faa7 263e 6771 87bc 7207 8f3d f6b5 dd3c
000003b0: 4af3 423d b8a3 edbd 9072 38be aa22 d93d
000003c0: c78f 2c3e 1f0c 14be e37f 9b3d d552 86bd
000003d0: 6209 0bbe 3ff6 a9bc 9b80 fc3d 53df 233e
000003e0: bc1d 633d db5e f8bd 8bb6 3abe 3ba7 2b3e
000003f0: 6b06 a33d c376 0abe 9ec1 79bc a8e1 313e

lstm.bias_ih_l1 f4 [256]
0.02712082 -0.0088667 0.12949765 -0.13321635 0.035097018 0.12848802 -0.09264117 -0.16328959
-0.07883902 -0.13266957 0.18395531 -0.0260145 0.10871025 -0.005561999 0.057058338 0.20597184
-0.1418399 0.021616846 -0.013459002 -0.081482805 -0.0440245 0.06030549 -0.023369415 0.011576516
-0.07970451 -0.012929714 -0.1157735 -0.046598908 -0.059928227 -0.07278158 0.08766924 0.010718143
-0.13897781 0.0072608376 0.07355889 -0.01930467 -0.025653467 0.051134527 -0.016847473 0.002283608
-0.10273819 -0.056758977 -0.043227967 -0.13505816 0.005956339 0.011234784 -0.22663136 -0.1579958
0.077374585 -0.108524516 -0.16664298 -0.21235913 0.004917219 -0.060247857 -0.12362091 0.12061016
0.0541927 -0.14598247 -0.22585586 -0.10344525 0.14760172 -0.027871896 0.12449756 -0.06181435
0.2648146 0.17164686 0.19657715 -0.14973022 0.1884985 0.12379778 -0.06755432 0.081185676
0.043178454 -0.017769905 0.16196151 -0.15155074 0.028007371 0.08092205 0.3229009 0.107110806
0.061965182 0.06514696 -0.08077385 0.16000949 0.14365456 0.08074932 0.00040676165 -0.014849565
-0.08292747 -0.1675739 0.111197144 -0.053148683 0.17329264 -0.15701555 0.013622209 0.20015554
0.058067314 -0.082652256 0.1560589 0.17233191 0.07720265 0.09668887 0.14683913 0.013846409
0.09780519 0.11771423 -0.08971682 -0.071616024 0.059664607 0.1978446 -0.11119079 0.12388053
-0.007853302 0.043268804 0.11347869 -0.05367558 0.09998992 0.082016304 -0.19461843 0.19567488
-0.095215805 -0.1950112 -0.09919979 -0.10461223 0.034369245 0.20377254 0.18607202 0.064610146
-0.1664778 0.013237076 0.03542554 -0.17527771 -0.13364542 -0.23117596 -0.09942126 0.1227722
-0.012311785 0.21017396 0.052772533 0.16604927 0.040153995 0.18624622 0.13677932 0.09316666
0.10300271 0.06033278 -0.15825962 -0.01890007 0.22718978 -0.18217084 -0.003696153 0.1516356
-0.11001002 0.09625911 -0.17545609 0.18759751 0.08748202 0.0064138486 0.195277 -0.06558234
0.013089402 0.16181225 0.13361819 0.16705982 0.06099981 0.12597126 -0.10602493 0.18112029
-0.06442928 -0.21283926 0.02832434 -0.0364145 0.13621785 0.17959061 -0.012326391 0.010319078
-0.1499353 -0.06975499 -0.10601053 -0.05137215 0.03817684 -0.110299185 -0.005446502 -0.13155061
0.14765513 0.034486 0.0651735 -0.18694825 -0.1710672 0.1973366 0.10415241 -0.17624721
-0.010211078 -0.028755374 0.15238206 -0.005119008 0.07414233 -0.04190354 -0.03977253 0.1017488
-0.089711286 0.055996835 -0.054937027 0.001873757 0.11908121 0.023645708 0.09292395 -0.016215589
0.025818236 0.07435602 -0.14258629 0.044996217 0.1606657 0.056889664 0.017038098 -0.025641259
0.15416725 0.06453136 -0.05961671 -0.09833513 -0.049159545 0.021048503 0.102454364 0.20157279
-0.016513126 0.032513216 0.03253401 -0.06606564 0.035078403 -0.09108697 0.070231006 0.05204463
0.030218394 0.14536119 0.17789166 -0.0027014299 -0.10687595 0.1494695 -0.1898477 -0.03748937
0.1082445 -0.17474036 -0.023441818 -0.035646718 -0.0716006 -0.02383812 -0.08386664 0.030103415
-0.093856 -0.19284388 0.09960788 0.030920781 0.15358138 -0.062258877 0.123430625 -0.006310077
00000000: 7b2c de3c a345 11bc 089b 043e de69 08be
00000010: e4c1 0f3d 5d92 033e a7ba bdbd 6335 27be
00000020: 5a76 a1bd 88da 07be c85e 3c3e 5c1c d5bc
00000030: 7ba3 de3d 6e41 b6bb 01b6 693d 48ea 523e
00000040: 7b3e 11be d015 b13c 2583 5cbc 75e0 a6bd
00000050: 0953 34bd e402 773d 3771 bfbc 6dab 3d3c
00000060: 1e3c a3bd 27d7 53bc a81a edbd 7fde 3ebd
00000070: 4d77 75bd 820e 95bd ee8b b33d 269b 2f3c
00000080: 3350 0ebe 52ec ed3b 0ba6 963d d424 9ebc
00000090: 3827 d2bc 7072 513d b603 8abc 96a8 153b
000000a0: 6668 d2bd 1a7c 68bd cf0f 31bd b04c 0abe
000000b0: 652d c33b 1912 383c 0d12 68be a7c9 21be
000000c0: 9176 9e3d 1a42 debd 75a4 2abe ac74 59be
000000d0: 9f20 a13b 75c6 76bd f62c fdbd 7602 f73d
000000e0: 2af9 5d3d 6e7c 15be c246 67be 1adb d3bd
000000f0: e824 173e 9a53 e4bc 94f8 fe3d 0b31 7dbd
00000100: c795 873e 32c4 2f3e 854b 493e e152 19be
00000110: c005 413e b189 fd3d eb59 8abd ad44 a63d
00000120: e4db 303d 3192 91bc 3dd9 253e 1e30 1bbe
00000130: b76f e53c 76ba a53d 4453 a53e e95c db3d
00000140: 34cf 7d3d c56b 853d c36c a5bd 87d9 233e
00000150: 2e1a 133e e65f a53d a042 d539 974b 73bc
00000160: e1d5 a9bd 7e98 2bbe 54bb e33d 6fb2 59bd
00000170: a073 313e afc8 20be b02f 5f3c 93f5 4c3e
00000180: fed7 6d3d 9645 a9bd e7cd 1f3e c777 303e
00000190: 6c1c 9e3d d004 c63d ff5c 163e 0cdc 623c
000001a0: 164e c83d 2914 f13d 74bd b7bd 6cab 92bd
000001b0: e062 743d c697 4a3e ffb7 e3bd 13b5 fd3d
000001c0: 23ab 00bc a13a 313d 8467 e83d edda 5bbd
000001d0: 84c7 cc3d 2af8 a73d 0e4a 47be ff5e 483e
000001e0: 8100 c3bd 04b1 47be 4229 cbbd f03e d6bd
000001f0: c4c6 0c3d c0a9 503e aa89 3e3e 5352 843d
00000200: 2879 2abe 52e0 583c 5f1a 113d 007c 33be
00000210: 58da 08be 64b9 6cbe 609d cbbd fe6f fb3d
00000220: 5eb7 49bc d837 573e 0328 583d d208 2a3e
00000230: 8478 243d 54b7 3e3e e10f 0c3e 29ce be3d
00000240: 16f3 d23d 811f 773d cf0e 22be 52d4 9abc
00000250: 70a4 683e fe8a 3abe 283b 72bb 5d46 1b3e
00000260: ef4c e1bd 7f23 c53d c3aa 33be 9019 403e
00000270: c629 b33d 432b d23b b2f6 473e 0950 86bd
00000280: ee74 563c 1cb2 253e 35d3 083e bb11 2b3e
00000290: f0da 793d 9cfe 003e 9923 d9bd 9977 393e
000002a0: 80f3 83bd 89f2 59be 7208 e83c 5f27 15bd
000002b0: b17c 0b3e 9ae6 373e a2f4 49bc 5a11 293c
000002c0: a488 19be b4db 8ebd 0c1c d9bd 9b6b 52bd
000002d0: 515f 1c3d 8ae4 e1bd 9278 b2bb 34b5 06be
000002e0: e832 173e 3141 0d3d af79 853d 5d6f 3fbe
000002f0: 3d2c 2fbe 9b12 4a3e dc4d d53d 267a 34be
00000300: 5e4c 27bc 6490 ebbc 0b0a 1c3e 5abd a7bb
00000310: efd7 973d 0ca3 2bbd 85e8 22bd ad61 d03d
00000320: 8dba b7bd f05c 653d a605 61bd da98 f53a
00000330: d9e0 f33d a5b4 c13c e94e be3d 8ed6 84bc
00000340: c480 d33c f847 983d 2402 12be f44d 383d
00000350: 8d85 243e 2305 693d 7b93 8b3c 9e0d d2bc
00000360: 05de 1d3e 0529 843d a730 74bd ee63 c9bd
00000370: 855b 49bd e96d ac3c 98d3 d13d 1969 4e3e
00000380: 8946 87bc 942c 053d 6242 053d 6c4d 87bd
00000390: 5fae 0f3d ce8b babd 46d5 8f3d c02c 553d
000003a0: 918c f73c 90d9 143e 3b29 363e 790a 31bb
000003b0: c7e1 dabd 880e 193e 6f67 42be 748e 19bd
000003c0: 4baf dd3d 23ef 32be 0e09 c0bc 4b02 12bd
000003d0: 56a3 92bd 2948 c3bc 46c2 abbd 709b f63c
000003e0: 9337 c0bd de78 45be 37ff cb3d 944d fd3c
000003f0: 7044 1d3e 2a03 7fbd 32c9 fc3d c3c4 cebb

lstm.bias_hh_l1 f4 [256]
-0.038157728 0.022165768 0.1627681 -0.06875657 0.23028705 0.030880036 0.049719956 -0.15758628
-0.003944435 0.05193713 0.16570042 -0.19311237 0.1289784 -0.108383864 -0.08328057 0.018011061
-0.06818275 0.09074328 -0.011746068 -0.15292485 0.104724355 -0.10132784 -0.12033777 -0.014570639
-0.10662002 -0.12575243 0.030329764 -0.13205527 0.14892697 -0.25090173 -0.05772294 0.1612729
-0.075906284 0.034884375 -0.051240783 -0.16526318 -0.12181856 -0.0111034 0.037521556 0.07944633
-0.01072102 0.11469969 0.025972739 0.02831504 -0.053979672 0.028266707 -0.074150555 -0.10939002
0.03550888 -0.21986607 -0.0727187 -0.15933666 0.012423723 0.069797516 -0.13525145 0.044532903
-0.15129757 -0.13847017 -0.1527154 0.033045202 0.1096147 0.14722387 0.14889492 -0.2132368
0.18941338 0.1206786 0.10713531 -0.024851944 0.22001569 0.21602328 -0.017012041 -0.035322044
-0.14195888 0.121190846 0.005167667 -0.06619755 0.10026767 -0.02565906 0.2983672 0.21206726
0.18222459 0.019911507 -0.065875374 -0.009437817 -0.008453913 0.28275198 -0.012301132 -0.028523566
-0.13836268 -0.14686748 0.16642363 0.017919922 0.012522552 -0.16814265 0.003451073 0.16915801
-0.04278198 -0.0063206134 0.14262512 0.012426511 -0.08095385 0.14063573 0.09183345 0.20798703
0.18343212 0.23285703 -0.18197434 -0.052355073 0.060128845 0.24628046 0.016009865 -0.0055309543
0.0349174 0.04720623 0.11668122 0.086984076 0.010687029 0.031862475 0.014889482 0.16482785
-0.1880003 0.007108533 -0.19077285 -0.102171905 0.077651404 0.20801722 0.016642971 -0.028872136
-0.16304302 0.22146429 0.14634591 -0.0088146515 -0.08150106 -0.12034702 -0.19436447 -0.045048017
0.062045626 0.096938476 0.08045343 0.015754139 0.18936695 0.032251578 -0.024435582 0.2268345
-0.061008204 0.0983546 0.088635266 -0.05309378 0.18598698 0.016017132 0.06948799 0.12420107
-0.1257916 0.019501826 0.01903603 -0.020216381 0.16741528 0.045675434 0.14088114 -0.1802675
0.2295331 0.19254741 0.14802538 0.10907732 -0.08173029 0.10246987 -0.15833127 0.018871188
-0.092973664 -0.22818567 -0.16752623 0.053644843 -0.033294883 0.001399361 0.031231139 -0.095326535
-0.16612306 -0.05658956 -0.091399714 0.08378788 -0.0372806 -0.0053953985 -0.1417654 -0.17708778
0.09592523 0.109895386 0.0019267233 -0.12030369 -0.10793628 0.17940442 0.19293728 -0.11606236
0.16667998 -0.116683885 -0.049418278 -0.18798587 -0.022684207 0.14210671 -0.122752644 0.047264747
-0.10449084 -0.13292809 0.041651774 0.011571826 0.16793814 -0.009764223 0.11074111 0.17365403
-0.13515057 0.11000748 -0.010403032 -0.009483057 0.14854147 0.104601555 0.09952794 0.073123336
0.07744079 -0.1381632 0.08421012 -0.07590952 0.08074995 -0.019209651 0.14409482 0.103816934
-0.11841555 -0.119135514 -0.06033065 -0.12553631 -0.021034708 -0.11403872 -0.042729 0.14419533
0.1179875 0.11968568 0.037017517 -0.022890473 -0.00611666 0.13556542 -0.037641715 -0.0598866
0.1032044 -0.18566236 -0.13095072 -0.10868888 0.06348876 0.0028375995 -0.122699864 -0.09272391
0.10334379 -0.17731838 -0.032185074 0.006028277 -0.023698775 0.10057552 -0.10055364 -0.16201657
00000000: 474b 1cbd fc94 b53c aeac 263e 3fd0 8cbd
00000010: 5ed0 6b3e 21f8 fc3c 27a7 4b3d 4c5e 21be
00000020: 5240 81bb 07bc 543d 5fad 293e 40bf 45be
00000030: ea12 043e 5cf8 ddbd 018f aabd ef8b 933c
00000040: 66a3 8bbd 9dd7 b93d 9472 40bc 5598 1cbe
00000050: b979 d63d f884 cfbd a673 f6bd b0b9 6ebc
00000060: 995b dabd 3fc5 00be 2076 f83c 7f39 07be
00000070: 5080 183e 3176 80be e46e 6cbd b924 253e
00000080: c174 9bbd ebe2 0e3d dbe1 51bd c03a 29be
00000090: 027c f9bd 09eb 35bc 34b0 193d c2b4 a23d
000000a0: 38a7 2fbc ace7 ea3d c8c4 d43c f1f4 e73c
000000b0: ca19 5dbd 958f e73c 3fdc 97bd e007 e0bd
000000c0: c271 113d 9224 61be 8bed 94bd 2629 23be
000000d0: df8c 4b3c 00f2 8e3d 5b7f 0abe 2268 363d
000000e0: c0ed 1abe 20cb 0dbe 6d61 1cbe 685a 073d
000000f0: ac7d e03d dbc1 163e e977 183e bf5a 5abe
00000100: 95f5 413e 5826 f73d c269 db3d 4e96 cbbc
00000110: cb4b 613e 3535 5d3e d65c 8bbc d9ad 10bd
00000120: ab5d 11be e832 f83d 8855 a93b 9592 87bd
00000130: 2359 cd3d f332 d2bc 96c3 983e 2928 593e
00000140: 1599 3a3e 751d a33c abe9 86bd 13a1 1abc
00000150: 4882 0abc dec4 903e b08a 49bc 41aa e9bc
00000160: f2ae 0dbe 6e64 16be f56a 2a3e cdcc 923c
00000170: 642b 4d3c 962d 2cbe 662b 623b c237 2d3e
00000180: 283c 2fbd 261d cfbb 520c 123e 9198 4b3c
00000190: 22cb a5bd d002 103e 2d13 bc3d 8dfa 543e
000001a0: a1d5 3b3e 1372 6e3e 7b57 3abe 4672 56bd
000001b0: aa49 763d f230 7c3e 1f27 833c 023d b5bb
000001c0: 8c05 0f3d 525b 413d 90f6 ee3d b524 b23d
000001d0: a618 2f3c 3a82 023d 04f3 733c a2c8 283e
000001e0: 2783 40be b2ee e83b f559 43be 813f d1bd
000001f0: b307 9f3d 7702 553e d756 883c 4285 ecbc
00000200: c0f4 26be 89c7 623e b4db 153e 546b 10bc
00000210: 07ea a6bd 8078 f6bd 7b07 47be 4584 38bd
00000220: 8e23 7e3d ae87 c63d c5c4 a43d d30e 813c
00000230: 69e9 413e 3b1a 043d 212d c8bc 4e47 683e
00000240: bde3 79bd 236e c93d 6886 b53d dd78 59bd
00000250: 5f73 3e3e 5c36 833c b84f 8e3d 215d fe3d
00000260: 83cf 00be 4bc2 9f3c 73f1 9b3c d39c a5bc
00000270: e96e 2b3e 2a16 3b3d 2543 103e 0b98 38be
00000280: ba0a 6b3e 262b 453e f793 173e ee63 df3d
00000290: 3662 a7bd b9db d13d 9821 22be c097 9a3c
000002a0: fa68 bebd 81a9 69be ff8b 2bbe b2ba 5b3d
000002b0: 3760 08bd c36a b73a 72d8 ff3c 8f3a c3bd
000002c0: 2a1c 2abe 74ca 67bd c62f bbbd fb98 ab3d
000002d0: 8bb3 18bd e2cb b0bb f32a 11be 8056 35be
000002e0: 7274 c43d d510 e13d 1b8a fc3a c861 f6bd
000002f0: b20d ddbd cbb5 373e 5a91 453e 1ab2 edbd
00000300: 28ae 2a3e f6f7 eebd d26a 4abd 5e7f 40be
00000310: 3bd4 b9bc 6c84 113e bd65 fbbd ae98 413d
00000320: 4bff d5bd 4d1e 08be 0d9b 2a3d c297 3d3c
00000330: faf7 2b3e 1ffa 1fbc 3ccc e23d 5dd2 313e
00000340: e964 0abe 9a4b e13d 7b71 2abc d35e 1bbc
00000350: 411b 183e 5739 d63d 4ed5 cb3d b0c1 953d
00000360: 4799 9e3d a77a 0dbe 5b76 ac3d 7376 9bbd
00000370: 3b60 a53d 8f5d 9dbc 988d 133e f99d d43d
00000380: da83 f2bd 52fd f3bd 461d 77bd 978c 00be
00000390: fb50 acbc 228d e9bd 9b04 2fbd f1a7 133e
000003a0: 6ea3 f13d c41d f53d ae9f 173d cd84 bbbc
000003b0: 436e c8bb a9d1 0a3e 332e 1abd a74b 75bd
000003c0: d45c d33d 461e 3ebe f217 06be 4798 debd
000003d0: 6506 823d 05f7 393b 114a fbbd 09e6 bdbd
000003e0: e9a5 d33d f392 35be 7fd4 03bd da88 c53b
000003f0: ef23 c2bc 8afa cd3d 11ef cdbd ace7 25be
