data_storage/models/lstm_v1.0.0_20251231_114618/rebounds_model.pt (torch, 217525 bytes, 9 tensors)

lstm.weight_ih_l0 f4 [256, 12]
000000 8f 6e 0c be 95 bc 25 be 47 5d ea 3d 91 4d 09 3b
       -0.1371405 -0.1618522 0.114435725 0.0020950774
000010 62 53 8a bd f0 56 45 3e 41 46 de bd d0 f1 f8 bd
       -0.06754185 0.19271445 -0.108532436 -0.12155497
000020 f8 64 c6 be 3e ae 5d 3c da 14 50 3e 4f 8a 02 3e
       -0.38748908 0.013530312 0.20320454 0.12748073
000030 e3 8e 47 bd ac f6 a2 bd bb 17 23 be 96 26 68 bc
       -0.04872025 -0.07957205 -0.15927021 -0.014169356
000040 b9 3d cb bd 71 5a b0 bd e0 ef f8 bd 99 33 1f 3e
       -0.09923882 -0.08611 -0.121551275 0.15547027
000050 f3 ad 8f be 93 16 b6 bd af 13 8c 3e 4c 26 b9 3e
       -0.280624 -0.088910244 0.27358767 0.3616203
000060 8c f9 71 be 19 a8 f5 bc e4 de 99 bd 84 59 5a 3e
       -0.23630351 -0.029987382 -0.07513216 0.2132321
000070 93 a6 f4 bd 9b bb 25 be 07 15 9f 3c f0 b6 8a bd
       -0.11945834 -0.16184847 0.019419206 -0.06773174
000080 4d e3 9f bd 5a c2 90 3d 07 51 05 be 03 54 5b be
       -0.07807026 0.070683196 -0.1301919 -0.21418767
000090 e3 82 46 be 56 3f c5 be 63 95 57 3e 8b 12 be be
       -0.19385867 -0.38524884 0.2105308 -0.37123522
0000a0 44 80 43 3e eb 2a 04 be 9d 11 fc bd 9c 40 5d 3c
       0.19091898 -0.12906997 -0.12308047 0.013504174
0000b0 b0 83 bf 3d fe 95 ee bd 1e 1b 82 3e b5 8b 21 bf
       0.09351289 -0.116497025 0.25411314 -0.631038
0000c0 a4 b4 44 be 06 07 68 bc f1 af ee 3e ac ce ca bd
       -0.19209534 -0.014161831 0.46618608 -0.09902701
0000d0 d2 93 83 be 85 5a a7 3d 8a c8 ff 3e 4e 1b c4 be
       -0.25698715 0.08171562 0.49957687 -0.38302082
0000e0 86 09 7e be ce c9 d5 bd 0e 4f 05 bd 3d 2f 1a 3e
       -0.2480832 -0.10438882 -0.032546096 0.15057082
0000f0 31 ec 98 be 39 7f 31 be a9 7f 83 3e da 61 3b bd
       -0.298677 -0.17333688 0.25683334 -0.045747615
000100 0f b7 83 3e 7c 53 ce be 8d 60 01 3e f9 f8 18 3d
       0.257256 -0.4029807 0.12634487 0.037346814
000110 f6 e5 cc 3e 29 66 f1 bc f2 74 55 bd d0 cf 31 be
       0.40019196 -0.02946766 -0.05211348 -0.1736443
000120 63 08 32 be 8d 34 00 be e7 20 0c 3d b6 6e 1d be
       -0.17386012 -0.12520047 0.034211066 -0.15374264
000130 b9 60 6d 3e f9 54 3c be b2 9a 5e 3e 96 19 77 bd
       0.23181428 -0.1839179 0.21738699 -0.060327135
000140 96 2f 47 3e 2b 6a 5e 3d 77 36 d0 3c 40 77 05 bc
       0.19451746 0.05430047 0.025416596 -0.008146107
000150 dc b2 0a 3e 97 11 07 be 88 c2 36 3e 4e 40 44 bd
       0.13544792 -0.13190304 0.17847645 -0.04791289
000160 08 26 08 be dd 7d cf 3c 8c c3 97 be db 7f 7b 3e
       -0.13295758 0.025328571 -0.29641378 0.24560492
000170 cc c6 2d 3f 9b 8f 23 bf 48 67 23 3e bc ca bc 3e
       0.67881465 -0.63891 0.15957367 0.36873424
000180 9c 27 cd 3d 11 e9 9f bd 61 9d f6 3e 14 02 55 be
       0.100173205 -0.07808126 0.48166946 -0.20801574
000190 67 bf 9b 3c dc 25 a9 bd da 97 8f be 6a f9 99 be
       0.019012166 -0.08259174 -0.2804554 -0.300731
0001a0 09 76 e3 3e 96 98 22 3e 55 cd 8b bc 97 1b 12 bd
       0.4442599 0.1587852 -0.017065683 -0.035670843
0001b0 c3 83 43 bd 30 61 eb bc 21 ac 20 3e f6 79 6e 3e
       -0.04773308 -0.028732866 0.15690662 0.23288712
0001c0 54 b1 8d be e1 96 11 3d 19 cf 00 3e 63 44 fd bd
       -0.27674353 0.03554428 0.12579001 -0.12366559
0001d0 36 c4 de 3d 1b 9f 6c be 97 ee 00 3e 83 aa 30 3f
       0.10877268 -0.23107569 0.12591015 0.6901018
0001e0 2a bd eb bd cd 23 c7 bd 57 04 57 bd d2 54 1a be
       -0.115106896 -0.09723625 -0.052494373 -0.15071419
0001f0 40 c6 8d 3d c3 4c c2 3c 88 1d 92 be fa 4b 51 bc
       0.06922579 0.023718243 -0.28538156 -0.012774462
000200 56 ee 4b 3d 19 fd 11 3e d5 ae 48 3e 29 f3 a0 3e
       0.04978784 0.14256705 0.19597943 0.31435516
000210 3c 7f 15 3e c9 3e c4 3d f2 7a 88 3e b6 a1 6e 3e
       0.14599317 0.09582288 0.266563 0.23303875
000220 ae 12 7e bd 3e 5f 0d be a7 7c 56 bd 8e 65 f7 bd
       -0.062029533 -0.13805863 -0.05236497 -0.12079917
000230 19 ca 84 3e 19 c6 77 bc 5e a7 73 3e e1 98 bb be
       0.25935438 -0.015122914 0.23794314 -0.36640075
000240 6f 15 e9 bd 26 8c f8 bb 43 b4 2d 3e 67 de 49 3e
       -0.11381041 -0.0075850664 0.16963296 0.19713746
000250 12 2f 16 bd 3c ef 49 be 62 19 0c 3e 84 e0 a0 be
       -0.036665983 -0.19720167 0.13681558 -0.31421292
000260 f5 f1 66 bd 41 84 8f 3e bd bc 33 3e 05 d3 bb 3e
       -0.056383092 0.2803059 0.17552467 0.36684433
000270 ca 9b 07 be d4 cd 01 3e 98 85 86 3e d0 93 96 bd
       -0.13243023 0.12676173 0.262738 -0.07352412
000280 07 65 0c be 8b 61 4b bd a8 46 97 3d a5 2a 92 3d
       -0.13710414 -0.04965357 0.073865235 0.0713704
000290 e9 36 4d 3e 34 4c 8c 3b f9 32 e4 bd c4 cc 22 bd
       0.20040478 0.004281545 -0.11142535 -0.03974606
0002a0 07 b6 0e 3d 4f ab c8 bd 24 76 14 bc 23 38 41 3e
       0.034841564 -0.097982995 -0.00906137 0.1886907
0002b0 51 5a 84 3d 13 bd 46 bd fa 08 11 3e d2 20 ee bd
       0.06462539 -0.04852016 0.1416358 -0.11627354
0002c0 50 eb 8c be 2a 82 23 3e 81 81 25 bd 18 85 c5 3d
       -0.2752328 0.15967622 -0.040406708 0.09644526
0002d0 1a 78 44 be 7e 61 d4 be 1f dd 8b bd 95 24 a8 3d
       -0.1918644 -0.4148063 -0.06829285 0.082101025
0002e0 3b 0a 2e be ad 33 b8 3e d7 10 5a be a1 54 9e be
       -0.1699609 0.35976925 -0.21295486 -0.30923942
0002f0 d4 df 8a be 7d 82 82 be d3 1d 0a 3d d6 96 6a 3e
       -0.27123892 -0.2549018 0.03371985 0.22909102
000300 93 d2 e6 bd dc 45 f9 3c d0 4f 35 3e b6 07 25 be
       -0.112706326 0.03042882 0.17706227 -0.16116223
000310 9c 4a a1 3d 07 2a 0f 3e 40 13 87 3e ab 72 eb 3e
       0.07875559 0.13980876 0.26381874 0.45985922
000320 29 c0 2f bd de 65 63 be 7c 33 8b 3e 49 5a 07 bd
       -0.042907868 -0.22206828 0.27187717 -0.033045087
000330 7c 36 92 be 77 1d 23 be 08 1b 68 3e e8 6a 34 3e
       -0.28557193 -0.15929209 0.22666562 0.17618906
000340 d8 1e 0c bc 22 09 e6 bd a7 09 9a 3e 42 81 30 be
       -0.008552276 -0.11232211 0.3008549 -0.17236808
000350 1b 2f 3f 3e f2 3a 64 be 8e 4b 82 3e fc 3a 30 bd
       0.18670313 -0.22288111 0.2544827 -0.043025002
000360 85 c5 e9 bd 23 25 6f 3c 38 cd 4b 3d b0 f1 b1 be
       -0.11414627 0.014596256 0.04975626 -0.34754705
000370 b1 77 45 be 9c 72 40 3e 31 77 df be 35 cd 67 3d
       -0.1928394 0.1879372 -0.43645623 0.056592185
000380 82 53 de 3d c9 a7 ad bd 55 f5 bb be b1 56 2d 3e
       0.108557716 -0.08479268 -0.3671061 0.16927601
000390 4f 5d a5 bd e4 f5 c9 bd 01 b4 a0 bd 98 67 63 bd
       -0.08074438 -0.09861353 -0.07846833 -0.055518717
0003a0 29 b7 cd bc 1c 4e 6c bc 31 6e cf 3d 49 32 03 3e
       -0.025111752 -0.01442292 0.10128439 0.12812151
0003b0 64 a6 21 3d 3b eb f6 bc 45 fd 9d 3e 0d 79 f5 3e
       0.039465323 -0.030141464 0.30857292 0.47943917
0003c0 53 a4 36 bd 7f 65 6d 3e 31 fb 02 3e bf 01 68 be
       -0.044590306 0.23183249 0.12791134 -0.22656916
0003d0 f7 d3 df bd cf 00 5e be 4e bb ea 3d c8 4d f5 3e
       -0.10929101 -0.21679996 0.11461507 0.47910905
0003e0 c6 a2 4e 3e b5 8f 26 be 84 12 bd 3c 30 03 d7 3d
       0.2017928 -0.16265757 0.023080118 0.10498655
0003f0 e8 77 34 bd 58 6a 81 3c 9d 4f a7 3d 0f 63 43 bd
       -0.044059664 0.015797779 0.08169482 -0.04770189

lstm.weight_hh_l0 f4 [256, 64]
000000 84 34 06 be b9 15 48 3d 31 2f 95 bd 5b 2d a4 3e
       -0.1310597 0.04884884 -0.07284392 0.32065853
000010 d9 5c 7a 3e 22 1a e4 bd d2 3b 6f 3e 36 e7 e0 bc
       0.24449481 -0.11137797 0.23362663 -0.027454
000020 0b 75 bc be cf 76 06 3e 4c 8a 8e bd 08 3a 21 bd
       -0.36808047 0.1313126 -0.06959972 -0.039361984
000030 b8 71 64 3e 88 34 e8 3c 25 e4 65 3e b5 00 1c be
       0.22309005 0.028345361 0.22450311 -0.15234645
000040 49 94 07 be 14 13 16 be 9c d2 d0 3d 3b 9d 55 3e
       -0.1324016 -0.14655715 0.101964206 0.2086076
000050 3d 22 7f be 57 e3 d7 3d a4 35 59 3e 8b 6c c6 bc
       -0.24915405 0.105414085 0.21211869 -0.02422168
000060 fe 44 db bd 0d bd 60 be 14 bf 63 be 10 2c 93 3e
       -0.107065186 -0.21947117 -0.2224086 0.28744555
000070 d9 e7 4b 3e cf a1 86 3e 1a 7f fd bd 6b 24 0c be
       0.19912662 0.26295325 -0.12377758 -0.13685767
000080 21 79 30 3f 3a af 19 be 39 6f 9f be 4b 01 b8 be
       0.6893483 -0.1500825 -0.31139544 -0.35938486
000090 1b 41 6a 3e b4 3b 11 be 91 df 88 bc 59 21 59 3d
       0.22876398 -0.14182931 -0.016708167 0.05301032
0000a0 21 ec 5c 3e 74 d0 8f bd 04 6b ba 3b c6 f8 e3 3d
       0.21574451 -0.07022181 0.005689027 0.11131434
0000b0 22 36 3d 3e 53 a7 2a bd 20 58 d0 bd 43 e2 02 3e
       0.18477681 -0.04166348 -0.101730585 0.12781624
0000c0 fd 0c 71 bd 02 59 0a 3e 06 53 f9 bd 82 20 2d 3e
       -0.058850277 0.13510516 -0.121740386 0.16906932
0000d0 3c d7 c8 be 41 99 39 bd 49 f9 15 be ee d9 d0 3d
       -0.3922671 -0.04531217 -0.14645876 0.10197817
0000e0 91 ee 3e 3e 1a db c3 3d 49 e0 4d be 95 eb 12 be
       0.18645693 0.09563275 -0.20105089 -0.1434768
0000f0 74 a1 14 3e 5c 98 bf bc 61 79 ac 3d c5 d1 26 3e
       0.14514714 -0.02338808 0.08421589 0.16290958
000100 c9 16 38 3e 44 5f 35 be ff a8 50 bd 9e 26 d2 bd
       0.17977442 -0.17712122 -0.050942417 -0.10261272
000110 40 00 1e 3e f7 4b a3 bd 0c 41 81 bb 5c c1 52 bd
       0.15429783 -0.079734735 -0.003944522 -0.051453933
000120 63 a0 c9 be 4b 31 cd 3d 7c 9d 78 bd 02 73 21 3e
       -0.39380178 0.100191675 -0.060697064 0.15766528
000130 81 5a 61 bd 90 5f 2c 3e 5e b4 6f be 68 5f 31 be
       -0.055017952 0.16833329 -0.23408648 -0.17321551
000140 81 64 88 3e c9 5a c7 bd c7 e0 0b 3e 20 f5 b7 be
       0.26639178 -0.09734113 0.13659965 -0.35929203
000150 b6 2b 44 be 32 db 44 be f9 b1 74 be 91 68 9c 3d
       -0.191573 -0.19224241 -0.23896016 0.07637132
000160 b4 92 36 3d 08 d0 ef 3b 3b 07 19 bc 19 81 fa bd
       0.0445735 0.0073185004 -0.009340103 -0.12231655
000170 1d b2 1a bc f1 a6 29 be 1d 17 64 3e 16 d5 80 be
       -0.00944188 -0.1656759 0.22274442 -0.25162572
000180 bd 92 b9 bc c5 dc 6c 3e 9e 76 02 3f 27 74 58 3c
       -0.022652978 0.23131092 0.50962245 0.013211287
000190 9a 32 98 3d 31 34 ed bd a7 64 5a be a8 3f 09 3d
       0.074315265 -0.1158222 -0.21327458 0.033507973
0001a0 e6 3c 37 3c 91 32 b8 be 8e 13 7a bd e3 f0 5d be
       0.011183953 -0.3597608 -0.061053805 -0.21673922
0001b0 fb 83 a6 bd c4 25 0d 3e 7d 44 a2 3e de 91 82 3d
       -0.08130642 0.13783938 0.31692877 0.06375478
0001c0 68 a7 db 3e b7 a6 cc bd e3 79 d5 bd bc 0e 0f 3d
       0.42901158 -0.09992736 -0.10423639 0.03492616
0001d0 89 77 8f be fa 87 b5 3e bf 79 01 be 55 ef 80 3e
       -0.28020886 0.35455304 -0.12644099 0.25182596
0001e0 c4 85 53 3b 54 61 20 3e e7 5b 17 bd b4 fa 63 3e
       0.0032275775 0.15662128 -0.03695288 0.22263604
0001f0 91 0c 49 3d 49 22 bc bd 9b f8 44 be 2f 80 ca 3d
       0.04908425 -0.09186227 -0.1923546 0.0988773
000200 6d 53 08 bd 05 59 34 3e 64 7f 59 3d dc a1 0e bd
       -0.033282686 0.17612083 0.053100005 -0.03482233
000210 66 f2 5c be 3f a3 a4 bb 80 8d 97 3d 8d 31 66 3e
       -0.21576843 -0.0050243433 0.07400036 0.2247984
000220 d7 4d 9b bc 7d 03 28 3e c4 e3 bd bd 7f f0 ba bb
       -0.018958015 0.1640758 -0.092719585 -0.005704939
000230 d2 44 26 3c 13 82 7f bd 5e bb c9 3d 8a 29 52 3c
       0.010148244 -0.062379908 0.098501906 0.0128272865
000240 f4 30 b6 bd f2 7d 15 3e b5 12 ad 3d 76 32 4e 3e
       -0.08896056 0.14598826 0.08450834 0.20136437
000250 00 01 13 3d 93 87 0a be be 81 4a 3e ea c3 36 be
       0.035889626 -0.1352828 0.19776055 -0.17848173
000260 02 3e 63 3e b5 25 90 be f4 d3 a4 3d 67 b6 9f 3c
       0.22191623 -0.28153768 0.08048239 0.019496156
000270 93 69 ba 3d 93 54 41 bd 08 ba 0b bd 86 c1 1d bd
       0.09102168 -0.047199797 -0.03411296 -0.038514636
000280 f1 47 46 3e fd 97 bd 3c 25 6b 0e 3e 78 bc 14 be
       0.19363381 0.023143763 0.1390806 -0.1452502
000290 45 6d ba bd 0a a5 88 bd a0 cb 31 3d fe b7 08 bd
       -0.09102873 -0.06672104 0.043407083 -0.033378594
0002a0 1d 7b 37 3d 71 56 63 be 65 4c 59 3e 20 06 1b 3e
       0.044795144 -0.22200944 0.21220548 0.15139055
0002b0 1b 4a 02 bd 3e c8 60 3d f6 72 94 bc b8 b6 db bd
       -0.031808954 0.054878466 -0.018121224 -0.1072821
0002c0 0b 27 da 3b b6 b9 5b 3e 56 ea 50 3e cf 97 9d 3e
       0.0066574863 0.21457562 0.20401892 0.30779883
0002d0 63 5f ee bd 01 44 3e be 51 0f c9 3d c2 80 83 bd
       -0.11639287 -0.18580629 0.098173745 -0.06421043
0002e0 08 2c 40 3e 44 1b 9b bd 20 bf bd 3d 31 6e 76 3d
       0.18766797 -0.0757356 0.0926497 0.06016368
0002f0 d9 06 60 3e 73 43 56 3d 8d 3e 19 3e b8 7a c3 bd
       0.21877612 0.05231042 0.14965267 -0.09544891
000300 bd d2 00 3e f0 40 a5 bd 7a e5 bf be e3 16 9d 3e
       0.1258039 -0.080690265 -0.37479764 0.30681524
000310 9a 8a 0b be ae ca 42 be c9 44 aa be 29 1b 82 be
       -0.13627091 -0.19022629 -0.33255604 -0.25411347
000320 3a 20 0a 3e e9 1c 08 bd 52 64 7a 3e 3d e5 7c be
       0.13488856 -0.033230696 0.24452332 -0.24696822
000330 bc d3 5f 3e b8 fb 83 3e 4e d1 88 be ec f3 de 3d
       0.21858114 0.25777984 -0.26722187 0.10886368
000340 01 72 d6 3d 70 49 90 be f1 c5 ad be 24 92 53 bd
       0.10470963 -0.28181028 -0.3394008 -0.051653042
000350 83 58 be be 0c b8 b3 be 67 b5 ea 3c 3d 5c 6b 3e
       -0.37176904 -0.35101354 0.028650953 0.22984405
000360 76 08 02 3d 93 ad 85 be 3f 3f 1b be db db 33 be
       0.03174635 -0.2610899 -0.15160845 -0.17564337
000370 80 33 72 3e 32 cd 94 be 4f 64 84 3e e8 c5 4b 3d
       0.23652458 -0.29062802 0.2585778 0.049749285
000380 66 53 c9 3d bb 0b 88 3e ee f7 cb 3e 50 02 d7 3c
       0.0983036 0.2657145 0.39837593 0.02624622
000390 d4 fb 74 3d ec ec 09 bf 7b 6f 69 be c0 c5 d1 3e
       0.059810475 -0.5387714 -0.22796433 0.40971184
0003a0 12 ec c4 3d ed c2 1b be 36 cb 39 3e fa b9 d0 3d
       0.09615339 -0.15211077 0.18143925 0.10191722
0003b0 5b 67 82 be c2 a5 6c 3e b0 f8 5d be 89 8f d4 bc
       -0.2546948 0.23110107 -0.21676898 -0.02594735
0003c0 4a 0b 75 3d 97 1a bc 3d da 8e 1c be 53 40 0a bf
       0.05982522 0.09184759 -0.15288869 -0.540044
0003d0 01 71 c6 bd fd 96 f7 3e f1 3f 18 bf 76 d1 e9 3d
       -0.096895225 0.48357382 -0.59472567 0.11416905
0003e0 71 4a 20 3e 3b d5 88 3e 8e d0 e5 bd 28 e0 a5 bc
       0.15653397 0.26725182 -0.11221419 -0.020248488
0003f0 e4 c9 16 3e bb 1e e0 3d b3 53 02 bf 10 5e 22 3e
       0.14725453 0.10943361 -0.50908965 0.15856194

lstm.bias_ih_l0 f4 [256]
000000 86 54 f4 bd 1d 3e 8d bd aa 1b 3d bd 75 ae 0c 3e
       -0.11930184 -0.06896613 -0.04616896 0.13738425
000010 20 8b 61 bd 5a 16 3c 3d 0e 31 4a bd c1 b4 cd bd
       -0.05506432 0.045919754 -0.04936319 -0.10044242
000020 00 cf 45 3d e4 6a 1e be 95 57 15 be 6a 21 83 be
       0.048293114 -0.15470463 -0.14584191 -0.2561143
000030 e5 8e d1 bd 19 24 86 bd 45 17 d1 bd 19 f1 cb ba
       -0.10232333 -0.06549854 -0.102095164 -0.0015559524
000040 6f de a2 3c 07 88 20 be a8 e3 7e be 3c 91 09 be
       0.019881455 -0.1567689 -0.24891531 -0.13434309
000050 e6 cd 5c be 30 d4 c0 bd c8 52 17 3d 1b 0d be bc
       -0.21562919 -0.094154716 0.03694418 -0.023199609
000060 e9 cb 47 bc 74 a6 bf bd 13 35 76 3d f0 ce 2c bd
       -0.012194612 -0.0935792 0.06010921 -0.04218954
000070 7a 24 0a bd 04 4c 9d 3d 3e 7e 3b be c6 41 49 be
       -0.033726193 0.076805145 -0.18309876 -0.19653997
000080 ad 5d cd 3d 15 31 5c 3d 46 96 78 bd 77 27 36 3e
       0.10027633 0.053757746 -0.060690187 0.17788492
000090 83 d2 3c bd f1 a5 41 3e fb f1 12 be 41 63 2a be
       -0.046099197 0.18910958 -0.1435012 -0.16639425
0000a0 76 49 a6 bd 25 40 34 be e3 e5 13 be 95 28 74 bd
       -0.0811948 -0.17602594 -0.14443164 -0.059609015
0000b0 43 c9 ff bd 9b af e4 bd 06 83 82 bd 1e 7e 8c be
       -0.124895595 -0.111663066 -0.06372647 -0.2743997
0000c0 92 0c 86 be 6a de 11 be 97 47 9c 3d d8 0d 8a bd
       -0.26181465 -0.14245 0.07630842 -0.06740922
0000d0 11 95 14 bd 93 f8 0f be c4 2a 5c bd fc eb 0f be
       -0.036274973 -0.14059667 -0.053751722 -0.14054865
0000e0 94 1c f3 bd b9 55 b4 3d f0 67 f0 bd 6e 95 26 be
       -0.11870685 0.08805413 -0.117385745 -0.1626794
0000f0 cc f8 4c bd 74 dc 71 be 90 cc 8c bd 39 fe 55 3d
       -0.05004196 -0.23619252 -0.06874955 0.0522444
000100 ff e0 7d bc eb df d7 bd 48 82 cb bb 99 d6 45 bd
       -0.015495538 -0.10540756 -0.006210599 -0.04830036
000110 03 47 1a 3d 79 2a ba 3d f1 bb 97 3d 61 8a 5d bd
       0.03766538 0.09090132 0.07408894 -0.054087047
000120 61 91 9f 3d 27 00 f6 3d 0b 29 94 3d b5 30 05 bd
       0.07791401 0.12011748 0.07234391 -0.032517154
000130 d5 95 ec bd 31 6d 05 3d f3 41 b0 3d c8 4f 3b 3a
       -0.11552016 0.032574836 0.08606329 0.0007145372
000140 92 2f fe 3d a7 49 98 3a 30 49 48 be ce 3b 86 bd
       0.12411417 0.001161863 -0.19559169 -0.065543756
000150 c0 3e 5b be 36 6f f1 3c 96 27 03 3b 46 6f a2 3c
       -0.21410656 0.029471975 0.0020012609 0.01982845
000160 d4 ef 07 3d 36 98 07 3e f0 12 9f 3d 58 db e5 3c
       0.033187702 0.13241658 0.07767284 0.028058693
000170 ff 7d 0e 3e ce 62 06 be 55 95 50 be 1b 1c 1b 3b
       0.13915251 -0.13123628 -0.20369466 0.0023667875
000180 28 8f b1 3d 81 4e e6 3d d5 e2 8a bd 16 3b e2 bc
       0.08669883 0.11245442 -0.06781546 -0.027616065
000190 61 7d e9 bd 8b e5 5f 3d f5 93 f0 3d 02 0a 06 3e
       -0.11400867 0.05466227 0.117469706 0.13089755
0001a0 c4 97 66 3e eb f4 31 bd ff b5 76 be 92 a0 53 3e
       0.22518831 -0.043446463 -0.24092864 0.20666721
0001b0 7c 7b 51 3e 11 65 14 3e a5 eb f4 bd 8f fd 8d bd
       0.20457262 0.14491679 -0.11959008 -0.06933128
0001c0 aa 98 8f bd c4 f4 bb bd 0c a3 0a bd 5a a2 aa 3d
       -0.0701154 -0.09177545 -0.0338469 0.08331747
0001d0 39 22 34 be 19 79 bf 3d e6 3e 6a be 64 73 8f bc
       -0.1759118 0.093492694 -0.22875556 -0.017511077
0001e0 d4 e3 6b 3c a7 4a 81 3d 6d da 8c be 46 6b 9e 3d
       0.01439758 0.06313067 -0.27510396 0.077353045
0001f0 f4 c4 4a 3d c0 7d fe 3d dd 5e 0b be a2 0d 14 bd
       0.049504235 0.12426329 -0.13610406 -0.036145814
000200 db f3 48 3e a4 2d 0d be ba 11 4a 3b f2 46 0a 3c
       0.19624273 -0.13786942 0.003083332 0.008439766
000210 0c a5 49 bd e1 7d 71 bc ee aa 86 bc 07 7b 03 be
       -0.049229667 -0.0147394845 -0.016438928 -0.128399
000220 6e 54 85 bd 8c fb ec bd d9 b0 98 bc 0b ae 64 3d
       -0.06510244 -0.11571416 -0.018639015 0.055830043
000230 5d 37 ab bd b5 02 1a 3d 4b 9b 99 bd 9d 63 a8 3d
       -0.08360169 0.037600238 -0.07500323 0.08222125
000240 7b 2f a0 bd a8 99 d2 bb 01 51 ea 3d af a3 3c bd
       -0.07821556 -0.0064270087 0.114412315 -0.04605454
000250 e2 02 0a bd d6 19 5d 3c cf f4 f6 bb 15 b2 1b bc
       -0.033694156 0.013494929 -0.0075365077 -0.009502907
000260 f7 ac fa bc b9 90 e2 3d 9c 7c 52 bd 8e cf 42 3d
       -0.030600054 0.1106276 -0.051388368 0.04756122
000270 62 7b ef 3b 3f 68 85 3d 91 9b 2f bc 92 7a 39 3e
       0.0073084095 0.06514024 -0.010718242 0.18113163
000280 c8 0d fe bd 76 50 31 bd d8 25 b2 b8 09 74 80 bd
       -0.12404972 -0.043289624 -8.49475e-05 -0.06272132
000290 db 9a 1f be 90 3f 4e bd 5d 24 93 bd 05 d2 69 3c
       -0.15586416 -0.050353587 -0.0718467 0.014271264
0002a0 f0 ad 00 be d0 36 17 3d 9f 54 4f bd d5 e3 9e bd
       -0.12566352 0.036917508 -0.05061781 -0.07758299
0002b0 47 29 6a bd 40 03 58 3d 87 58 a0 bc 05 96 aa 3c
       -0.05716827 0.052737474 -0.019573463 0.020823488
0002c0 a1 f2 a9 3d d1 21 3a bd f0 99 c8 3d ba c4 96 bd
       0.08298231 -0.045442406 0.09794986 -0.07361741
0002d0 6c 47 77 bd c6 f0 d1 3d e5 c9 95 bd 4c 31 af bd
       -0.060370848 0.10251002 -0.07313899 -0.085543245
0002e0 48 1d e9 bd 5b 1c 13 3e 95 53 f3 3d 0b 95 77 bd
       -0.11382538 0.14366286 0.118811764 -0.060444873
0002f0 5c 5c a4 bd 27 86 ff 3d c3 ce 1c 3d f8 1f 97 3d
       -0.08025429 0.124767594 0.03828312 0.073791444
000300 82 2f c0 bd 76 1d 35 3e f0 ea 52 be fb 1c 03 3d
       -0.093840614 0.1768702 -0.20597434 0.03201006
000310 46 7b b3 bd 63 1a d9 3d cd fc df 3c c1 63 ad 3d
       -0.08763747 0.10600736 0.027342224 0.08466292
000320 bb a5 13 be ed f1 2f be 41 fb ed bd 60 5f 34 ba
       -0.1441869 -0.17182131 -0.116201885 -0.0006880667
000330 cb 30 23 bd a8 1e 1a be de 9f 83 bd 4a 3d 0f 3d
       -0.039841454 -0.15050757 -0.064269766 0.03497056
000340 85 7b fa bd af 75 4e bd a2 fd 5d bd 2e 33 d8 bd
       -0.12230591 -0.0504052 -0.05419696 -0.10556637
000350 e3 81 85 bd 21 a9 b0 bd 29 74 d8 3d 2a 6c fc bc
       -0.065189146 -0.08626009 0.10569031 -0.030813295
000360 5e 3a a1 3d 43 93 fe 3d 53 b7 1f 3d 54 5a e6 bd
       0.07872461 0.12430432 0.03899319 -0.112476975
000370 20 fc 45 bd a0 c8 13 3e 58 6f 58 bc 64 a6 9d bd
       -0.04833615 0.14432001 -0.01321014 -0.07697752
000380 95 ce 31 3e e7 0c 42 3d 05 e4 6b 3e 4d 31 ad 3d
       0.17363961 0.047375586 0.23036201 0.08456669
000390 34 e6 87 bc e0 64 8f 3e 0b 26 8e bd 1d c4 02 3d
       -0.016589262 0.2800665 -0.0694085 0.03192531
0003a0 be 08 81 3d 51 ec 85 be 8e 2c e6 3b 67 bd bf bc
       0.063004956 -0.26156858 0.0070243543 -0.023405744
0003b0 ad 93 97 3c 4a d7 4d 3b 78 2f 2e 3e ad 1e a5 bd
       0.018503034 0.003140884 0.17010295 -0.080624916
0003c0 6f 3b 70 be 97 ab 32 be f1 d2 61 3e a8 a5 10 3d
       -0.23460172 -0.17448269 0.22053124 0.035314232
0003d0 9f 4b 00 be bf 6b a3 3d b2 0a cd bd 8e 84 7b bc
       -0.12528847 0.07979535 -0.100118056 -0.015351428
0003e0 c1 ea 28 bd dc c5 27 3e 8c 8e 0e bd 03 da ba bd
       -0.041239504 0.16384071 -0.034803912 -0.09123614
0003f0 6f 99 9a 3d 25 a8 2d be 09 d8 2b 3d 8b 1d af bd
       0.075487964 -0.16958673 0.041954074 -0.08550557

lstm.bias_hh_l0 f4 [256]
000000 6e 20 10 be 93 74 9b 3d 01 be 5a bd aa 5b 44 3e
       -0.14074871 0.07590594 -0.053403858 0.19175592
000010 cd a9 03 3e 04 12 c6 3c 8b 8f 49 3d 54 86 43 be
       0.12857743 0.024178512 0.04920916 -0.19094211
000020 00 c7 1f bd b3 eb 0e be f2 3e 1e be d4 0f 95 bd
       -0.03900814 -0.139571 -0.15453699 -0.072784096
000030 2b 64 29 be 5d 99 89 be bb c5 8d 3c 57 26 88 bd
       -0.16542117 -0.2687482 0.0173062 -0.06647938
000040 f3 dc d0 3d 9e aa 24 be 15 7e 81 be 28 fb 68 be
       0.10198393 -0.1608071 -0.25291505 -0.22752059
000050 24 77 b7 be b4 8e 84 be 03 d4 05 3e 92 c4 8b bd
       -0.35833085 -0.25890124 0.13069157 -0.06824602
000060 5f ae 6a bc c9 55 f9 bd 77 56 ba bd 02 a5 d5 bd
       -0.0143238 -0.12174565 -0.09098523 -0.10431863
000070 7c ee 61 be 80 19 8f b8 aa bd 24 be 10 24 ee bd
       -0.22063631 -6.823521e-05 -0.16087976 -0.11627972
000080 a6 24 c9 3d 89 82 cb 3d f0 a7 6b 3d 23 bb eb 3d
       0.09821443 0.09937007 0.057533205 0.11510303
000090 66 a9 8a bd 01 ae 86 3e 26 f8 a9 bc 8c 40 13 be
       -0.067705914 0.2630463 -0.02074821 -0.14380091
0000a0 00 ec ce bb c9 37 48 be 47 05 5b be 39 a5 38 bd
       -0.0063147545 -0.1955253 -0.21388732 -0.045079444
0000b0 ae a2 63 bd 0d cd 82 3d dc d5 27 be aa 62 5f be
       -0.055575065 0.063867666 -0.16390175 -0.21814981
0000c0 fd a3 96 bd 4f 5a fc bd db 16 08 bd c8 db 8d 3b
       -0.07355497 -0.123219125 -0.03322492 0.0043291785
0000d0 2f d0 0b be 2c cc b7 bd b6 0b b0 bd 47 b9 5a be
       -0.13653634 -0.089744896 -0.08595984 -0.2135974
0000e0 6c cb 40 3d 72 ca 13 bd 4e e8 d8 bc 42 e3 fc bd
       0.047069 -0.03608174 -0.026477959 -0.123480335
0000f0 3d 90 c6 bd 9b 3c 22 be de 72 d3 bc f2 00 aa bd
       -0.0969548 -0.15843432 -0.025811609 -0.083009616
000100 f3 42 d4 bd a5 96 1f bd a1 4e 05 bd b2 b4 a1 3d
       -0.10364332 -0.038962025 -0.03254569 0.07895793
000110 ac 51 a6 3d 05 a7 8f 3d dc 34 86 3e 53 83 a2 bc
       0.081210464 0.07014278 0.26212204 -0.01983801
000120 12 a0 a7 3d 46 c4 e5 3d cf 3b 70 3e 58 5e 0f be
       0.08184828 0.11219077 0.23460315 -0.14000833
000130 a5 b4 15 3c c8 43 87 3c 15 4e cb 3d b6 c8 8a bd
       0.009137307 0.016511813 0.09927002 -0.06776564
000140 8c 68 45 3d 99 ed a1 3b b7 dd 04 bb 79 ed 1e be
       0.048195407 0.004941654 -0.0020273754 -0.15520276
000150 e6 a8 df bd 58 85 4e 3d 4c b6 42 3d 35 fa f8 bc
       -0.10920887 0.050420135 0.047537133 -0.030392746
000160 73 81 bb bc c0 ca 8b 3d 16 86 2c 3e b3 ba 20 3e
       -0.022888875 0.06825781 0.16848025 0.1569622
000170 72 11 32 3e f6 ce 98 bc f2 f9 05 be ef 4f 5b 3d
       0.17389467 -0.018653374 -0.13083628 0.053543027
000180 22 ca a0 3d 90 7c a3 3e a6 98 dc bd 2e 3e b3 3d
       0.07851054 0.3193097 -0.10771303 0.08752094
000190 b0 b6 05 bd 77 22 02 bc bc 92 b1 bd e0 1c 2c 3e
       -0.032644928 -0.007942787 -0.086705655 0.1680789
0001a0 f7 9a b7 3e 3b cf 87 bd 86 a1 93 bd 10 11 62 3d
       0.35860416 -0.06631323 -0.072085425 0.055192053
0001b0 46 a8 73 3e 5f 6e d4 3c 68 89 09 be ee cd c8 bd
       0.2379466 0.025931535 -0.13431323 -0.09804903
0001c0 00 6e 8a bd a5 e5 2a be 15 d2 c9 bd 44 41 bf bd
       -0.06759262 -0.16689165 -0.09854523 -0.0933862
0001d0 3a b9 4a be eb 64 54 3d 73 e8 2b be cf bc 64 bd
       -0.19797221 0.051854055 -0.16787891 -0.055844124
0001e0 08 78 90 3d b8 65 b9 bd de 2d ee bd ba 10 0f 3e
       0.07054144 -0.090526044 -0.11629842 0.13971224
0001f0 0c 0a 0c 3e 48 65 d0 bd a6 7e 81 3b e6 29 2a 3e
       0.13675708 -0.10175568 0.0039518652 0.16617545
000200 17 b7 a7 3d 5e fa 1d bd f8 3d d1 bc 25 91 d6 bc
       0.081892185 -0.038568847 -0.025542244 -0.026192257
000210 aa d4 01 3c 93 47 15 3e 79 c2 19 bd 7a 6e 1b 3d
       0.007924238 0.14578085 -0.03753898 0.037947156
000220 9a 26 d1 bc 51 30 f7 bd f9 49 52 3d 07 39 32 bd
       -0.025531102 -0.120697625 0.051340077 -0.043511417
000230 ec ec 06 3e 84 70 a3 3c 22 4f d9 3d f2 d0 3e 3d
       0.13176316 0.019951113 0.106107965 0.046585985
000240 88 70 f7 bd ac 6e 62 bd 9d a4 fb bc df 7c 53 3d
       -0.120820105 -0.055281326 -0.030718142 0.05163276
000250 13 0e 48 3d 60 bd 91 bc 3b 80 15 3d d2 48 49 3c
       0.048841547 -0.017790496 0.036499243 0.012285428
000260 1a c4 2d 3c c0 71 3a 3d ea 78 74 bd f8 2d 3e bd
       0.010605836 0.045518637 -0.059685625 -0.046430558
000270 db 7c 20 be 11 4d eb ba 55 f3 26 bd de 61 5e bb
       -0.15672629 -0.0017952045 -0.040759403 -0.0033932845
000280 a0 5d d1 3d 4a a0 01 3e b0 e1 c3 3d 56 4a b9 bd
       0.10222936 0.12658802 0.09564531 -0.090473816
000290 a2 17 33 be 3e 49 eb 3d 3f 98 40 bc 1b 75 01 bd
       -0.17489484 0.11488579 -0.011755048 -0.03160582
0002a0 c1 55 58 be 4e 49 49 3d 5f e2 d1 3c 5f 18 25 bd
       -0.21126463 0.049142174 0.025620637 -0.040306445
0002b0 96 ea bf bd 1d 30 48 3d d9 b2 99 3d 5b ff aa bb
       -0.093709156 0.04887401 0.075048156 -0.005218429
0002c0 a7 b6 8c bc 18 05 e8 3c c6 58 89 bd 6a 3d 87 bc
       -0.01717694 0.028322741 -0.06706385 -0.016508777
0002d0 b2 f7 98 3d b8 54 de 3d 13 ec 0a 3e 48 31 7a bc
       0.07469119 0.108560026 0.13566618 -0.015270539
0002e0 f9 3e ec bd 6a f0 60 3d e0 84 b1 3d 99 74 b0 bc
       -0.115354486 0.054916777 0.08667922 -0.021539973
0002f0 a8 56 b1 bc 41 9f 7a 3d 3f 66 56 3b a7 e2 51 bd
       -0.021647766 0.061187033 0.0032714752 -0.051241543
000300 7f 91 01 be 83 b3 bf bc 66 8c b7 3c 43 3c 61 3e
       -0.12653159 -0.023401028 0.022405814 0.21995644
000310 65 68 60 be 5e e4 86 3d 02 63 dc bb 8b 15 cb 3b
       -0.21914823 0.06586526 -0.00672567 0.0061976365
000320 3a 99 9d bd 1f 4b c2 3c 34 4b 30 bd a8 d9 65 bd
       -0.07695241 0.023717461 -0.04304047 -0.056115776
000330 50 3a 2b be 11 8b 90 bd 85 1a 04 bd 63 78 a5 3c
       -0.16721463 -0.07057775 -0.032251853 0.020199006
000340 06 2c da 3d ae e3 b4 3d f1 48 37 bd d8 be 1c bc
       0.10652928 0.08832489 -0.044747297 -0.009566985
000350 fa b1 86 be e3 0b ee bd eb 2f 4d 3d a5 b7 21 3d
       -0.2630766 -0.11623361 0.050094526 0.039481778
000360 c3 4c 02 be dd 4c 49 bc 84 65 16 3e fb d1 24 3d
       -0.12724595 -0.012286392 0.14687163 0.040239315
000370 1b 6c 29 bd 94 cf 06 3e 72 ee 2b be 7e 85 d1 bd
       -0.041362863 0.13165122 -0.16790178 -0.1023054
000380 3d 65 a5 3b 56 3a 2b bd 46 92 0f 3d 60 0d e7 3b
       0.005047469 -0.04180368 0.035051607 0.007051155
000390 ee e0 e4 3d e6 71 64 3e 5f 02 31 be 76 6f 69 3d
       0.111757144 0.22309074 -0.17286061 0.056991063
0003a0 8d 2d c2 3d 76 1c 0e be 40 61 fa bd 48 82 4a bd
       0.09481344 -0.13878044 -0.1222558 -0.049440652
0003b0 8e c6 65 3d 9b d0 45 3e 31 13 4b 3c 52 50 0b bd
       0.05609756 0.19317858 0.012394712 -0.034012146
0003c0 a4 f8 26 be e1 bb c5 bd ed b8 13 3e f8 22 2e 3c
       -0.16305786 -0.09654976 0.14426012 0.010628454
0003d0 16 24 bd bd b5 0e c6 3d 9c d5 fb bd 17 2b de bc
       -0.092353985 0.09670774 -0.12296602 -0.027120156
0003e0 e4 e6 17 3a b7 32 16 bc c7 f2 82 bd 35 da 81 bd
       0.0005794598 -0.009167365 -0.06393962 -0.06340448
0003f0 b4 fc 08 3d 6e 8d 19 be 7c 5b 1e 3e eb ff 4b bd
       0.03344412 -0.14995357 0.15464586 -0.04980461

lstm.weight_ih_l1 f4 [256, 64]
000000 85 cb d1 bc e8 5b 09 be 71 4f 00 be bc c4 c6 3e
       -0.025609741 -0.13413966 -0.12530304 0.3882197
000010 17 9f d6 3d 6d 5f f7 bd a9 0e 65 bd 34 c3 35 be
       0.10479563 -0.12078748 -0.055922184 -0.17750245
000020 f7 b5 40 be 93 b9 9e ba 95 0f 8c 3d 09 ad 83 3d
       -0.18819414 -0.0012109749 0.068389095 0.06429488
000030 2a 07 12 3e 2a 07 3c bc 68 43 8f 3c 5e 7d 58 3e
       0.14260545 -0.011476317 0.017488196 0.21141574
000040 53 ae 0b 3e 0b c1 1d bd 64 54 3a be d2 fa f1 bb
       0.13640718 -0.03851418 -0.18196255 -0.0073846364
000050 f6 ec 11 3c 90 b0 1c bd 3b 93 32 bd 98 f3 6d bd
       0.008906594 -0.03825432 -0.04359744 -0.058093637
000060 43 71 ad bd 95 5f 83 bd 48 19 37 3c 12 ae c2 3b
       -0.084688686 -0.06414715 0.011175461 0.005941161
000070 9b 86 13 3e 5e c1 12 be a0 e1 d2 3d 5e ef 18 be
       0.14406817 -0.14331576 0.10296941 -0.14935061
000080 ba 85 2a 3d b7 e5 10 3e d7 c9 98 bd 48 5d cb bd
       0.041631438 0.1415013 -0.07460373 -0.09929901
000090 2e 03 17 bd 75 f4 e2 bd 36 98 81 bd 3b d3 ab 3d
       -0.036868267 -0.11081783 -0.0632786 0.083898984
0000a0 42 03 c9 3b 8e d7 e0 3b 70 86 3e be 0e cd 26 be
       0.0061344216 0.0068616336 -0.18605971 -0.1628916
0000b0 86 dd dd 3c b8 d0 e8 3d 9f ef 73 3c 22 b7 4c 3e
       0.02708317 0.11367935 0.014888673 0.19991735
0000c0 22 71 cc 3d 98 10 cc 3c 71 8f e7 bd de 5b 86 3e
       0.09982516 0.024910256 -0.11306656 0.26241964
0000d0 b8 dc 23 be 6d d0 a0 bd 9f bb 64 be 28 2d 9e 3d
       -0.16002166 -0.07852254 -0.22337197 0.077234566
0000e0 c3 f2 b2 bd f9 dc 1f 3e 94 fd 0d 3e ad 05 b1 3d
       -0.087377094 0.15611638 0.13866264 0.08643661
0000f0 60 68 fe 3d 8a b9 1d 3d 79 50 c3 3d e7 1a fa 3d
       0.12422252 0.038507022 0.09536833 0.122121625
000100 5e 4d 42 be de ba 4b bc 30 64 37 bc 38 ac c7 3d
       -0.18974826 -0.012434689 -0.01119332 0.09749645
000110 1a f0 25 3e 55 e4 8a bd 81 51 aa bd 1e e4 35 bd
       0.16204873 -0.06781832 -0.08316327 -0.044407003
000120 7a d4 23 be 44 f4 be bd fa 5b 8d 3d 8a ad 34 3d
       -0.15999022 -0.09323934 0.06902309 0.044110812
000130 e9 b1 5c 3e e6 cf 69 bd 02 b5 a5 bd 72 9e 1d 3e
       0.21552242 -0.057083033 -0.08091165 0.15392473
000140 0c 72 8a 3b 0a e7 66 be a2 bf 58 be c7 b5 68 be
       0.004225021 -0.22549072 -0.21166852 -0.22725593
000150 e5 95 e9 bd 1e c1 b7 bd b6 d5 71 bd 5b 05 d3 3d
       -0.11405543 -0.08972381 -0.0590417 0.10303756
000160 0a 1a fe bd 19 d7 4a be 48 ca 72 3d 3c a2 02 be
       -0.1240731 -0.19808616 0.05927494 -0.127572
000170 9c 3f c8 3d c2 24 e3 3d 54 2f 7c 3e 99 37 b8 be
       0.097777575 0.11090995 0.24627429 -0.35979918
000180 47 56 1e 3e fb 9c 11 3e eb 08 ab 3d fa e7 d5 bd
       0.154626 0.1422004 0.0835131 -0.10444637
000190 27 ce 7f 3d d8 33 dd 3d 33 d9 ca bd 77 c1 6d 3e
       0.06245246 0.10800904 -0.09904709 0.23218332
0001a0 26 26 8e 3e b1 59 b0 be fc 14 94 be 9f 9d 86 be
       0.2776348 -0.3444343 -0.2892226 -0.2629213
0001b0 1e 4e 24 be c1 f0 34 3e 65 d2 23 3e 54 0d 26 3e
       -0.16045424 0.17669965 0.15998228 0.16216022
0001c0 18 93 20 3e 85 d6 fd bc 0b 4e 63 bd d3 04 f4 3d
       0.15681112 -0.03098608 -0.05549435 0.11914983
0001d0 f8 ee a0 bd 1c 50 95 3d 32 6d 80 bd 3f 92 c7 3d
       -0.0785808 0.0729067 -0.06270827 0.09744691
0001e0 5d c9 83 3d 30 c6 11 3d 87 08 f5 3d cb 1d f5 3d
       0.064348914 0.035589397 0.11964517 0.11968573
0001f0 38 77 93 3e d2 5b 8b be 65 bb d6 bd dd f8 53 3e
       0.28801894 -0.2721849 -0.104849614 0.20700403
000200 70 84 fe bc 98 14 43 be 88 5c 60 be c6 8d e6 bc
       -0.03106901 -0.19050825 -0.21910298 -0.028143775
000210 df 9a 1c 3e ed 29 de bc ac a0 1f be 03 c2 9d bd
       0.15293454 -0.027119601 -0.15588635 -0.077030204
000220 ac 79 15 be ce 60 3a be d4 04 52 3e 5d a1 8f bd
       -0.14597195 -0.1820099 0.20509654 -0.070131995
000230 4a ab 8f 3d bd fa 98 3d a9 ff 32 be b9 91 ea 3c
       0.07015093 0.074696995 -0.17480339 0.02863394
000240 50 af 96 3d ff ff 86 be ef 54 7e bd 13 55 12 3b
       0.07357657 -0.26367185 -0.062092718 0.002232854
000250 bd d4 e5 3d 06 d5 99 bd 54 a0 5c be 17 ee 44 3e
       0.11222217 -0.07511334 -0.21545535 0.19231449
000260 12 89 ef bd a5 a6 39 be 69 2b 6e bd 85 17 09 be
       -0.11696066 -0.18129976 -0.058146868 -0.13387878
000270 89 53 26 3e 19 fa 0f bd 40 78 9e 3c 5a 21 02 be
       0.16242804 -0.03515062 0.019344449 -0.12708035
000280 d9 2a c6 3c d5 f1 58 3e d7 02 aa 3d 90 8d 51 3c
       0.024190353 0.21186002 0.08301323 0.012790099
000290 23 7e 84 bb aa 98 97 bd cf 7c b7 bd 7f f0 b1 3d
       -0.004043357 -0.07402165 -0.08959352 0.08688449
0002a0 a9 5b 76 3c 5b 36 39 be be f2 6b be e0 f6 7c be
       0.015036502 -0.18087141 -0.23041818 -0.2470355
0002b0 35 c9 cc bd 40 98 88 3d 87 68 b2 3c d9 66 9d 3d
       -0.09999315 0.066696644 0.021778358 0.07685632
0002c0 7a 7e b8 bb 09 f1 5c bd 5f 29 24 be 23 e6 db 3d
       -0.0056303116 -0.053940807 -0.16031407 0.107372545
0002d0 ac 24 94 bd 18 4e 52 3d df 51 86 bd c8 76 c0 3d
       -0.07233557 0.051344007 -0.065585844 0.09397656
0002e0 f7 6f 1a be 6a c6 24 3d 8f 58 1c bd ed 1b 64 3d
       -0.15081774 0.040228285 -0.038170394 0.055690695
0002f0 d4 87 3c 3c 95 fc 41 be 17 7b 7a bc a0 95 fb 3d
       0.011506993 -0.18944009 -0.015288136 0.12284398
000300 d2 dd fc bd 02 b9 80 bd 6a 79 82 3c 32 6d 62 3e
       -0.12346996 -0.062852874 0.015927035 0.22111967
000310 37 41 0f 3e 32 43 44 be a9 65 37 bb db fe 38 3c
       0.13989721 -0.19166258 -0.0027984178 0.011291231
000320 2b 15 cb bd a8 e4 90 3d 48 92 22 3e 10 bf 2e 3e
       -0.09916147 0.07074863 0.15876114 0.17065072
000330 fd 02 28 3e 30 de eb 3d bb 11 70 3d b4 45 60 3e
       0.1640739 0.11516988 0.05861066 0.2190159
000340 d7 f4 0b 3c 89 05 60 be 23 ae 93 be a5 78 eb bd
       0.008542261 -0.21877111 -0.28843793 -0.114976205
000350 a0 b4 47 be d5 34 0f 3c ec 4a 69 3d 5f d9 c7 3d
       -0.19502497 0.0087406235 0.056956217 0.09758257
000360 64 46 05 be 29 55 90 3c 8d e5 3c 3d 7d 95 7c bd
       -0.13015133 0.017618733 0.046117354 -0.061666
000370 e3 cf bc 3d 82 e8 46 bd d1 d8 bf 3c 27 66 a4 be
       0.09219339 -0.04856158 0.023418816 -0.32109186
000380 0c ea a8 3e a7 32 db 3d eb 41 71 be 57 4f a0 bd
       0.32991064 0.107030205 -0.23560302 -0.07827633
000390 08 a2 91 3d 5e 68 48 be ba 03 16 be 72 01 7c 3e
       0.07110983 -0.19571063 -0.14649859 0.24609926
0003a0 ee c5 6a 3e 0e 84 72 be b5 3c cf be 1b 36 3d bd
       0.22927067 -0.23683187 -0.40476003 -0.046194177
0003b0 e1 ce 6f 3d 76 20 0d 3e dd 1f 63 3b b8 ee 9f 3d
       0.058546904 0.13781914 0.0034656443 0.07809204
0003c0 80 d4 85 3d 6e 4f 42 be 9c 82 51 be b3 43 67 3e
       0.06534672 -0.18975613 -0.2045998 0.22584419
0003d0 2e 36 a8 bd 66 ea 02 bd d1 6c 6d be 37 f9 68 3d
       -0.08213459 -0.03196182 -0.23186041 0.056878295
0003e0 f4 a9 b8 bd fe f4 d3 bd 7e 72 0a be 54 83 40 3d
       -0.09016791 -0.10349463 -0.13520238 0.047000244
0003f0 23 99 9c 3d dd a3 1b be 13 71 97 bd 0e ee 65 bc
       0.07646396 -0.15199228 -0.07394614 -0.014033807

lstm.weight_hh_l1 f4 [256, 64]
000000 24 0b 40 be e4 53 00 3e fa 9b a0 bc 4c 25 85 bd
       -0.1875425 0.12532002 -0.019605625 -0.065012544
000010 f2 d5 df 3d 30 8c 29 3d 27 ae 6b bd 23 c2 6d 3e
       0.10929479 0.04139346 -0.05753913 0.23218589
000020 d9 92 97 bc d7 b2 67 be 1d 1f e6 3d 8d 6d e2 bd
       -0.01850264 -0.22626816 0.11236403 -0.110560514
000030 b8 58 9d 3d ac 41 4c 3e ae 20 75 3e d4 06 73 3e
       0.076829374 0.19946927 0.23938248 0.23733073
000040 cb 66 2d be 07 be ed 3d 12 cf 32 be 39 50 d6 3d
       -0.16933744 0.116085105 -0.17461804 0.1046452
000050 fc 95 c7 3b 5f 80 9b 3d a8 0d 0f 3d 62 25 af 3c
       0.0060908776 0.07592844 0.034925133 0.02138013
000060 db 7d 30 bd 28 b6 12 3d 4b b6 41 be 7a 57 16 3d
       -0.043088775 0.03581825 -0.18917195 0.036704518
000070 99 99 2a be 88 e1 21 3d a7 c5 52 be 04 3c f1 3d
       -0.16660155 0.039521724 -0.20583211 0.11779025
000080 b9 1e 0d 3e 58 c8 14 be 6a c4 64 be 46 a4 40 3e
       0.13781251 -0.1452955 -0.22340551 0.18812665
000090 72 4f 35 3e 12 ec bc 3d 3f c6 7a 3e 2c 96 f5 bd
       0.17706087 0.09224714 0.24489687 -0.11991534
0000a0 f1 36 91 3d b0 91 94 3d 4e b2 ab 3a eb 81 ac 3d
       0.07090557 0.0725435 0.0013099404 0.084232174
0000b0 d4 b4 28 3e 27 83 cf bd 87 a3 41 3e b3 3c 61 3e
       0.1647523 -0.10132437 0.18910037 0.21995811
0000c0 e7 f8 81 3e a6 91 24 3e 03 b8 b9 bd fa 46 12 be
       0.2538521 0.16071185 -0.090683006 -0.14284888
0000d0 e7 a1 07 bd 9d fd f8 3d 92 c8 d8 3c 74 f2 8a bb
       -0.033113386 0.12157748 0.026462827 -0.0042403284
0000e0 3c 6a 2d be a5 d0 bf 3d 15 da ee 3d 20 3c fb 3c
       -0.16935056 0.09365968 0.116626896 0.030668318
0000f0 aa 48 56 3e 97 0c fd bd 6c 30 27 3c 44 2f b1 3d
       0.20926157 -0.12355917 0.010204416 0.08651593
000100 c5 27 0f be c2 9c 1c 3e 6e 9f ab 3d f9 78 15 be
       -0.13980015 0.15294173 0.08380018 -0.14596929
000110 83 60 04 3e 74 31 f3 3d 90 67 5f 3e 4a 05 b8 3d
       0.12927441 0.11874667 0.2181685 0.08985384
000120 58 89 6f bd c7 ed b1 bc 33 16 37 3e e6 86 8d be
       -0.05848059 -0.021719826 0.17879562 -0.27641982
000130 20 59 7d 3d 29 ee b1 3d da f1 90 3d d2 16 e3 3d
       0.061852574 0.086880036 0.070773795 0.11088337
000140 8e 58 20 be d5 a4 0a 3e 7e 9b 65 bd c3 64 2d 3e
       -0.15658781 0.13539441 -0.056056492 0.16932969
000150 76 73 b8 3d c4 88 5c 3e a9 07 da 3d a7 93 5e 3e
       0.090063974 0.21536547 0.10645992 0.21736012
000160 05 e0 31 be e4 ca 19 3d c3 a3 2e be 1a ad f2 3d
       -0.17370613 0.037547007 -0.17054658 0.11849423
000170 3c 02 47 be e4 06 2f 3e 08 6f ba 3c be 47 01 3d
       -0.19434446 0.17092472 0.022758022 0.03156256
000180 d2 a8 44 3e 13 17 21 bd 1d d6 1c be b8 3a 2b 3e
       0.19205025 -0.039328646 -0.15316053 0.16721618
000190 70 a7 3c 3e 20 fb 3e 3d 54 27 cb 3d f4 a2 bb bd
       0.18423247 0.04662621 0.099196106 -0.0916194
0001a0 dd f3 c7 bb 12 15 af 3d 54 6e 91 3b b7 c5 10 3e
       -0.006102069 0.08548941 0.004438201 0.14137922
0001b0 1a ab 88 3e 0c 1f 6a bd 86 ca ce 3d ad 5f cb 3d
       0.2669304 -0.057158515 0.10097222 0.09930358
0001c0 95 32 5c 3e 4a 1a 15 3e e2 d3 12 3d 00 1b 19 bc
       0.2150367 0.1456081 0.0358466 -0.009344816
0001d0 6c 6a 01 be c8 a7 ff 3d 8b 05 d3 bc 14 4f b2 bb
       -0.12638253 0.124831736 -0.025759479 -0.0054415558
0001e0 04 62 13 be ed 5d 7f bd 11 01 0d 3d 71 10 15 3e
       -0.14392859 -0.062345434 0.034424845 0.14557053
0001f0 49 88 40 3e 14 28 33 be 66 c0 12 39 d1 57 73 3e
       0.18801989 -0.17495757 0.00013995319 0.23763968
000200 ae d5 80 be 9f 62 39 bd ca 87 15 3e 8b 0a 2d be
       -0.25163025 -0.045260068 0.1460258 -0.16898553
000210 c9 93 7e bd 5c 19 93 bd c5 bb eb 3d aa ba 41 bd
       -0.062152658 -0.07182571 0.115104236 -0.047297157
000220 02 63 1a be 66 11 11 be fd 15 c7 3c d5 89 15 be
       -0.15076831 -0.14166793 0.024302477 -0.1460336
000230 44 25 ee 3d bb f8 10 bc 76 5c 92 bd 6d 98 63 3b
       0.116282016 -0.008848364 -0.07146542 0.0034728304
000240 3f a2 af bd 45 5b ad 3d 20 fa 97 bc 90 15 55 3e
       -0.08575868 0.08464674 -0.018551886 0.20809007
000250 96 0e ae 3d 4c c9 28 3e 07 60 43 bd 7c 65 7b 3e
       0.08498876 0.16483039 -0.047699 0.24550432
000260 c2 2a 27 be bb 28 de 3d 6d e4 67 3d e0 13 1a 3e
       -0.16324905 0.108476125 0.05661433 0.15046644
000270 3a 06 3b be 2a 04 dc 3d 20 fb 10 bd f7 c3 06 3d
       -0.18264094 0.10742982 -0.03539574 0.03290173
000280 d5 f0 20 bd 4c 98 37 be 09 e9 8c 3b 31 c9 19 3e
       -0.039292175 -0.1792919 0.004300241 0.15018155
000290 de 95 14 bd 77 f7 6f bd 93 68 15 3d c1 70 be 3c
       -0.036275737 -0.05858561 0.036476683 0.023247125
0002a0 d7 57 3e 3c 93 9b 89 bd df 9a c0 3d d1 4d 0c bd
       0.011617622 -0.067191266 0.09404539 -0.0342539
0002b0 bd ce 88 3e 68 e0 a9 bd 23 69 1a 3e 54 19 37 3d
       0.2672023 -0.08294755 0.15079169 0.04470189
0002c0 75 04 83 3c 35 4a 36 3e 9f d6 ad 3d a5 31 e9 bd
       0.015993336 0.17801745 0.08488201 -0.11386422
0002d0 d3 02 0e be 8d 28 c2 3d 8c f8 c7 3b f4 e7 e4 bd
       -0.13868265 0.09480391 0.006102627 -0.11177054
0002e0 98 cc 99 3c b5 30 21 3d 9e b0 37 3c 76 40 48 3e
       0.018774316 0.03935309 0.011211542 0.1955584
0002f0 52 d1 15 3e b1 12 bc bd d1 9e 0b 3e 2d 6c 8c 3d
       0.1463063 -0.091832526 0.13634802 0.068565704
000300 85 0e 70 bd aa 04 94 bc 0e 7c 01 3e 70 0d 99 3d
       -0.058607597 -0.01806863 0.1264498 0.07473266
000310 09 03 e4 3d a6 2e 8b bd ee 4d 6e 3d 04 9b 4c 3e
       0.111333914 -0.06796007 0.05817979 0.19981009
000320 f8 19 45 be b5 ff 47 bd ee 50 27 3e 05 fa 26 be
       -0.19248188 -0.048827846 0.16339466 -0.16306312
000330 e1 02 f3 3d 33 68 e3 3d 10 32 de 3d 17 56 7f 3e
       0.118657835 0.11103859 0.108493924 0.24935184
000340 5c 36 a5 be 44 50 dd 3c a4 12 30 be 8e 07 66 3d
       -0.32268035 0.027015813 -0.17194611 0.05615955
000350 fd 3f ef 3d e7 97 43 3e 81 89 05 3e 37 63 f8 3d
       0.11682127 0.19100915 0.13040735 0.12128299
000360 75 d9 06 be e6 d2 e5 3d 6c ab 27 be a0 e0 c3 bd
       -0.13168891 0.11221866 -0.16373986 -0.09564328
000370 88 b6 21 be c4 06 64 3e 70 44 d2 bd 77 7b 2d 3e
       -0.15792286 0.22268206 -0.1026696 0.1694163
000380 5c 32 26 3c 42 51 01 3d a6 2b 11 bd e1 c3 23 3e
       0.010143843 0.031571634 -0.035442017 0.1599269
000390 91 7e 3b bd 9d 4c 60 3d 2d 3f 03 3e 21 04 70 be
       -0.045775 0.054760564 0.12817068 -0.23439075
0003a0 98 fd 4f 3d 88 ff 10 3e 17 52 ae bc 88 0f a5 3d
       0.050778955 0.14159977 -0.021279378 0.08059603
0003b0 dd 85 50 3e a9 ed 6d be 33 f9 60 3e 20 24 b4 3d
       0.20363565 -0.23235191 0.21970062 0.08795953
0003c0 c0 cf 7b 3e a4 08 c3 3c 21 65 6d be 03 1b 06 be
       0.24590969 0.023807831 -0.23183109 -0.13096242
0003d0 7e 50 e2 bd cf 9f 42 3e 97 af 96 bb 4e 56 ff bd
       -0.11050509 0.19006275 -0.0045985687 -0.12467633
0003e0 ea 96 0d bd 0a 3b 18 bd 25 ba e7 bc 81 8e 45 3e
       -0.03456775 -0.03716568 -0.028287003 0.19292642
0003f0 ba 08 37 3d 54 d6 da bd c9 f9 e7 3d 5e 80 92 3d
       0.044686057 -0.10685411 0.113269396 0.0715339

lstm.bias_ih_l1 f4 [256]
000000 07 f7 a1 bd 53 2e eb bd 73 69 0d be c7 45 7d be
       -0.07908445 -0.11483445 -0.13809757 -0.24733649
000010 e6 06 a2 bd 7b 2c b5 bd 4b 32 0f bd 9b 02 c7 bd
       -0.07911472 -0.088463746 -0.034960072 -0.09717294
000020 26 a5 34 bb 4c 56 98 bb e7 84 24 bd 91 26 23 3d
       -0.0027564256 -0.0046489593 -0.040165808 0.0398317
000030 3b 80 26 be 6d e8 55 3e 22 47 5e 3e f7 ce c4 3c
       -0.16259854 0.20889445 0.21706823 0.02402447
000040 9e 2c 1b 3e 7e 4a 72 be 01 ce 5e be ef 1e 24 be
       0.15153739 -0.23661229 -0.21758272 -0.16027425
000050 2d 1b 5e 3d f5 31 2b bd 22 a2 13 be 5c dc 55 be
       0.054225136 -0.04179569 -0.14417318 -0.20884842
000060 c7 b4 2d bd 9e 02 10 3d fb d4 32 3e 1a 24 41 be
       -0.04240873 0.035158746 0.17464058 -0.18861428
000070 36 c2 5e bd 81 f5 6a be d5 d1 94 bd 39 47 f6 bd
       -0.054384433 -0.22945215 -0.07266585 -0.120253034
000080 36 45 0b 3e ad e4 2d be 87 0a ca bd b3 b1 8e 3d
       0.1360062 -0.16981764 -0.09865289 0.06967487
000090 91 ed 37 bc eb 51 59 bd a7 be c8 3d dc 6a 14 3e
       -0.011226074 -0.05305664 0.09801989 0.14493889
0000a0 0c 41 8f 3b 83 f1 9a bc 1f c8 17 be 8f 31 21 bd
       0.004371768 -0.01891399 -0.14822434 -0.039353903
0000b0 aa 5c a7 bd 94 7a d1 3d 6c 32 0b 3d 65 e2 16 3c
       -0.08171971 0.10228458 0.033983633 0.00920925
0000c0 f3 c0 fa 3d 6b 06 0e 3e 49 45 17 3c 32 b2 89 bd
       0.122438334 0.13869636 0.009232827 -0.06723441
0000d0 f3 bd d0 bc 55 e1 87 3c 9b 7a 09 be dd 62 83 3d
       -0.0254812 0.016586939 -0.13425677 0.06415341
0000e0 72 9a 0f be 90 c2 2b be 36 02 09 be 11 38 cb bd
       -0.1402376 -0.16773438 -0.1337975 -0.09922803
0000f0 b6 ce 03 be 21 02 b5 3c e1 f1 d6 bd 92 8a c2 bd
       -0.12871823 0.022095742 -0.104953535 -0.094990864
000100 36 f4 86 3d 1d 6d 10 3d ba bb 78 3d bc 24 b0 bc
       0.06589548 0.03526031 0.060725905 -0.021501891
000110 24 2b 04 3e 2d 28 95 3c 3d 44 dc bc da 9c 4d 3d
       0.12907082 0.018207634 -0.026888007 0.050198413
000120 39 be d0 3d 74 a7 a0 3d 84 b5 8a 3e a2 81 ee bd
       0.10192532 0.07844439 0.2709161 -0.11645819
000130 cc 84 80 3d e7 da 90 3e 82 ee b3 3d 81 e7 52 3e
       0.06275329 0.2829201 0.08785726 0.20596124
000140 fb 2f 44 3e b4 f8 6a 3d 8f 78 e4 ba 67 9d 51 be
       0.19158928 0.057366088 -0.0017430949 -0.204702
000150 e7 78 36 3e 7c 0c 32 3d 52 16 2a be 5e 1e 1d be
       0.17819558 0.043468937 -0.16610077 -0.15343615
000160 bd b4 a5 bd 4d 13 58 bd 3b 52 ce 3d 51 83 74 bd
       -0.08091114 -0.05275278 0.10074278 -0.059695546
000170 40 b8 e4 bb e5 66 45 3d 53 9d 43 3e 52 3d d2 bc
       -0.006979972 0.04819383 0.19102983 -0.025664005
000180 47 60 e5 3b c1 5b 2c bd f2 e8 8e 3d 7e 46 4c 3e
       0.0070000025 -0.04207969 0.069780245 0.19948766
000190 d9 3f a7 3d 32 b6 35 3d 33 0d d8 3d 65 37 48 3d
       0.08166475 0.044363208 0.105493926 0.048880953
0001a0 61 ab fd 3d ef 60 30 bd 9b dd 91 bd be ce eb bd
       0.123862036 -0.043061193 -0.07122346 -0.11514042
0001b0 30 59 8c 3d 4d 65 35 bd 88 1a 01 3e 43 8c c4 3c
       0.06852949 -0.04428606 0.12607777 0.023992663
0001c0 dc 92 6d 3e d3 05 c2 3d d9 e5 d5 3d 57 b0 15 be
       0.23200554 0.09473767 0.104442306 -0.1461805
0001d0 70 65 25 bd 8f 14 da 3d 14 40 ac 3c 41 14 a0 3d
       -0.04037994 0.106484525 0.021026649 0.07816363
0001e0 65 8d ad bd 36 10 43 bd 65 1a b1 3d de e4 bf 3c
       -0.084742345 -0.04762288 0.086476125 0.023424562
0001f0 0c 7b 00 be fc 35 8e bd c6 4d 79 bd dc 11 61 3c
       -0.12546939 -0.069438905 -0.060865186 0.013737168
000200 77 9d a2 bd 82 bc 00 be fc 7e 90 bd b4 78 75 3d
       -0.0794019 -0.1257191 -0.0705547 0.059929565
000210 1b e5 e6 3c c1 39 fb bc e3 46 d8 bd 51 f5 30 3d
       0.028185418 -0.030667188 -0.105603956 0.043202702
000220 98 f1 11 3e 52 ab 49 3e f3 9e 19 be c0 5f ed 3d
       0.14252317 0.1969426 -0.1500204 0.115905285
000230 c9 d4 b3 bd 23 a3 25 be f8 49 47 be de ba 08 be
       -0.0878082 -0.16175513 -0.1946181 -0.13352534
000240 68 01 f5 3c 1b 91 75 3d 21 c0 26 3e 11 08 47 bd
       0.029907897 0.059952836 0.16284229 -0.048591677
000250 a1 e1 25 be 29 ed 66 bd 25 ca 25 bc 62 6e 5f 3b
       -0.16199352 -0.056378517 -0.010118996 0.0034092893
000260 87 35 8b 3d 45 6b 2c be 07 42 47 3e 41 9c 73 3d
       0.06797319 -0.16837795 0.19458781 0.059475187
000270 d0 3e e3 3d 80 91 e2 bb 34 09 39 3e ce d9 28 be
       0.11095965 -0.0069143176 0.18069917 -0.16489336
000280 f5 90 10 bd 21 3b e4 3d be 32 d3 bc c5 92 78 bc
       -0.03529449 0.111440904 -0.025781032 -0.015171711
000290 4a c4 31 3d cd 1a 27 be 35 c1 2f be 4a d6 52 3e
       0.043400086 -0.16318817 -0.17163546 0.20589557
0002a0 f8 e2 86 bd 2a dd 0e be 6e 1a b9 bd 45 11 ca bd
       -0.065862596 -0.13951555 -0.09038244 -0.09866575
0002b0 12 a1 08 be a5 b4 9b 3c 0b fe 51 be 4b da 43 be
       -0.13342693 0.019007036 -0.20507066 -0.19126241
0002c0 f2 ab 3e be 6f db ba bd f1 f1 17 3e 44 37 d1 3d
       -0.1862028 -0.09123885 0.14838387 0.10215619
0002d0 7b be dd 3d c4 65 20 bd 8e 66 1d 3d 99 b6 38 3e
       0.10827347 -0.03915955 0.038427882 0.18038405
0002e0 73 cc 91 bd d6 83 8a bd 56 d6 19 3d 1e e7 9c bd
       -0.07119074 -0.06763427 0.037557922 -0.076612696
0002f0 f8 bf 8a bc 89 05 17 3e 12 4a aa bc f1 4c e4 ba
       -0.016937241 0.14748205 -0.020787273 -0.001741795
000300 1b e4 18 3c 54 75 22 3d ba fe da bc f2 fa 38 bd
       0.009331728 0.039662674 -0.026732791 -0.045161195
000310 63 2e f0 bc f9 60 09 be 0a 86 c5 bd df da da 3d
       -0.029318994 -0.13415898 -0.096447065 0.106862776
000320 65 5e bd 3d ee 3f dd bd fe af 9c bd 27 f4 b8 bd
       0.0924652 -0.10803209 -0.07650755 -0.09030943
000330 c5 29 a6 bc 38 8e 98 bc c8 b5 29 3c 39 88 dc 3d
       -0.02028359 -0.018622503 0.010358281 0.1076817
000340 34 bd 47 3e 10 c9 00 be be 93 21 be c8 81 94 3c
       0.19505769 -0.125767 -0.15779015 0.01812829
000350 e6 0f 80 bd 59 3e 0b 3d 56 3d 8b be b5 88 a4 bd
       -0.062530324 0.033995006 -0.27195233 -0.08033887
000360 93 d9 47 bd fd 4b 75 3d 12 dc e4 bb 20 fb 36 be
       -0.04879148 0.05988692 -0.0069842422 -0.17869234
000370 ee bb cc 3d 8c 85 06 be 7c 1f e9 3d ca ad 26 be
       0.09996782 -0.13136882 0.11382958 -0.16277233
000380 59 f9 cb bd 0a 46 22 bd e6 18 01 bd 2a 37 db 3d
       -0.09959669 -0.039617576 -0.031517886 0.10703881
000390 13 42 06 be 92 81 97 bd 59 5f 4b 3d 06 8a 11 3e
       -0.13111143 -0.073977605 0.049651477 0.14212808
0003a0 ea b3 e6 3c 1e 3c aa 3b 93 29 2c bd 4e a0 a6 bc
       0.028161962 0.005195155 -0.042031836 -0.020340111
0003b0 af d8 c8 bc 05 a5 5e 3d d1 f6 ca bc 7f ac 9b 3d
       -0.024517385 0.054356594 -0.024775894 0.076012604
0003c0 2c 34 ea 3d 9c 21 27 bd 7c 45 0b 3e 4d ed 66 bd
       0.11435732 -0.040803537 0.13600725 -0.05637865
0003d0 13 d3 43 bd c7 e1 de bd 1f 2a f8 bd c8 c8 a9 bc
       -0.047808718 -0.10882907 -0.12117409 -0.020725623
0003e0 0a d9 4b 3d 08 8e 21 be 56 7a 5c be 72 83 43 be
       0.04976753 -0.15776837 -0.21531042 -0.19093111
0003f0 5b c8 dc bd 3c 79 e6 bd f0 e1 40 be b9 76 90 3d
       -0.10780402 -0.11253592 -0.18836188 0.070538945
