data_storage/models/lstm_v1.0.0_20251231_110634/assists_model.pt (torch, 217509 bytes, 9 tensors)

lstm.weight_ih_l0 f4 [256, 12]
000000 ea 8a 38 be 47 d7 0b be 1d 61 4b 3e 7c 5a 25 3d
       -0.18021742 -0.1365634 0.19861265 0.040369496
000010 52 e7 f0 bd d2 9a 7d be b9 3d c7 3d 3f f3 2e be
       -0.11762871 -0.2476609 0.097285695 -0.17084979
000020 24 95 9a be c5 6b 9d be 1a ef 81 3b d5 37 64 bd
       -0.3019191 -0.30746284 0.0039652707 -0.055717308
000030 59 7e fd 3d 5a 70 bf bd 03 8c 26 3e 04 1d 7e 3e
       0.123776145 -0.09347601 0.16264348 0.24815756
000040 fd df 9b bc 9c 16 d9 3b 46 c2 cb 3c cf 9e e4 be
       -0.019027704 0.0066250097 0.02487291 -0.4465241
000050 6f 6d e6 be bd 8d f3 3c e2 b7 32 3e 37 0c 9c 3d
       -0.45005366 0.029730672 0.17452958 0.07619517
000060 4d be 44 3e fd ea 69 3e 74 ad d5 bd 04 d2 3e 3e
       0.19213219 0.22843547 -0.10433474 0.18634802
000070 85 5b 21 3b e3 ec 73 bd eb a2 ab be 45 31 22 3d
       0.00246212 -0.059552085 -0.33522734 0.03959777
000080 c5 ae 95 bc 59 c1 a8 3e 94 7a 70 3e db 40 01 be
       -0.018271813 0.32960013 0.2348426 -0.12622397
000090 19 d2 ee bd f1 14 2b be ee 73 92 3d 5f 51 49 3d
       -0.11661167 -0.16707207 0.07151018 0.049149867
0000a0 9e da 51 3d 85 7e ca 3c 94 30 e0 3d c9 ed d0 3d
       0.05123388 0.024718532 0.109467655 0.10201604
0000b0 b4 9c 89 bd 61 0e 58 be d9 65 b3 3d 5a e7 75 bd
       -0.06719342 -0.21099235 0.0875966 -0.060035087
0000c0 36 94 0f 39 49 9d 57 bd b1 f9 26 be 3b 47 8e 3e
       0.00013692756 -0.052640233 -0.16306187 0.2778872
0000d0 6a 10 84 bd 8a 25 47 3e 30 66 d1 3e 14 d9 d6 be
       -0.06448443 0.19447914 0.40898275 -0.41962492
0000e0 32 93 d1 bd 98 62 4c be b3 a9 8b 3e 24 f8 6c 3d
       -0.102331534 -0.19959486 0.27277908 0.057853833
0000f0 a0 2c 9f 3d e6 66 00 3e c8 c9 04 3e a8 6a 0a 3e
       0.077721834 0.12539253 0.12967598 0.13517249
000100 d5 a9 38 3e c4 bc 50 3e 71 19 40 be db 3c 3d 3e
       0.18033536 0.20384508 -0.18759705 0.18480246
000110 7a 6d ad 3d 04 2d c8 3d 06 a1 28 3d b8 53 a9 3d
       0.084681466 0.09774211 0.04116919 0.08267921
000120 e6 46 42 3e 4e 24 77 be 7a d5 13 bf ab 09 3f 3e
       0.18972358 -0.24134943 -0.57747614 0.18656032
000130 38 7f d1 3e 28 19 c0 3e 45 86 98 3d 63 55 b8 3c
       0.40917373 0.37519193 0.07447485 0.022501653
000140 28 48 00 3e 4f 91 f1 be 8f fc 40 be 27 b6 10 bd
       0.12527525 -0.47181174 -0.18846343 -0.035329964
000150 03 94 08 bf 5d 3d 8c be 12 af 07 bb db 85 d8 3d
       -0.5335085 -0.27390566 -0.0020703715 0.10572406
000160 52 57 5b 3d f5 46 f1 3e 49 d1 0e 3e 01 51 6e 3d
       0.053550072 0.47124448 0.13947023 0.05818272
000170 cc c7 d2 be eb aa c2 bd 65 13 e9 3e 52 cd 6a 3e
       -0.41168058 -0.09505256 0.4552261 0.22929886
000180 80 33 d3 3b 57 e4 da 3c 74 da 98 bc 24 98 c0 3d
       0.0064453483 0.026720209 -0.018658854 0.094040185
000190 85 30 03 be ad f8 03 be 4b 39 95 3e 1a b0 00 3f
       -0.12811477 -0.12887831 0.29145274 0.5026871
0001a0 1d 46 7e be 14 7b c1 bd ba 75 9b bd 6f 14 a3 3e
       -0.24831434 -0.094473034 -0.07590814 0.31851527
0001b0 30 47 8e 3e 1d 0b 03 be 92 f2 3a 3c d2 43 d8 be
       0.27788687 -0.12797208 0.011410372 -0.42239243
0001c0 bd 65 15 3e 9a bd 9b be f1 2e f1 3d 69 cb d1 3c
       0.14589591 -0.30418092 0.117765315 0.025609689
0001d0 20 b6 f7 3e cf 09 78 3e 9c 60 86 3d d3 a1 c4 bd
       0.48381138 0.24222492 0.065613955 -0.09601178
0001e0 a2 9f ac 3e 13 cb 96 bd d0 ac a4 3d b5 bd 94 3e
       0.3371554 -0.07362952 0.08040774 0.29050985
0001f0 d0 8a 11 3e dd ce 59 bd e4 70 b5 bc 50 21 a4 3d
       0.14213109 -0.053175796 -0.022148557 0.08014166
000200 f4 01 be 3e be cb 29 b9 ba b8 ba 3e ae 60 ec be
       0.37110865 -0.00016192996 0.3646906 -0.4616751
000210 e4 1d 4b bd a6 ee 75 bd a6 1c 77 bd c3 d8 c7 bd
       -0.049589053 -0.060042046 -0.060330056 -0.09758141
000220 4e 83 6e be f8 1e 40 be a4 46 2f bd ea 72 8a 3d
       -0.23292276 -0.18761814 -0.042791978 0.06760199
000230 7e 6a 5b bd dc 66 24 3d a8 be af 3d b4 ee 12 3d
       -0.053568356 0.040137157 0.08581287 0.035872176
000240 95 5c e9 bd 8c dc 3c bd 5e fb e0 bd ed 04 a2 3d
       -0.11394612 -0.046108767 -0.109854445 0.07911096
000250 2a 4e 55 bd 4e d3 bf 3c dc 36 0c 3e fc 37 6b 3d
       -0.052076496 0.023416188 0.13692802 0.057426438
000260 f6 67 d8 3d 3e 0f 55 bb 7f 00 ba be ed cc 31 3f
       0.10566704 -0.0032510306 -0.36328503 0.69453317
000270 e5 da e2 bd ea 74 d9 bc d7 4a 69 be 25 ac a1 be
       -0.11076907 -0.026545007 -0.22782455 -0.31576648
000280 9a 5c 83 be 84 b9 98 3d 23 32 11 3d 64 65 63 3e
       -0.25656587 0.07457259 0.035448205 0.22206646
000290 2f c3 d8 3d 8e d3 51 3e 63 e6 ef 3e 08 cb 0e 3e
       0.10584103 0.20490858 0.4685546 0.13944638
0002a0 0d 71 26 3e 88 e6 a2 be 51 c6 07 bd ce 9c 05 3f
       0.16254063 -0.31816506 -0.033148114 0.5219239
0002b0 ea 4d c2 bc da 09 0a 3e d8 ed 1e 3e bd ac 8a be
       -0.023718793 0.1348032 0.15520418 -0.27084914
0002c0 48 46 05 3f 6b 19 14 bf 12 c6 6a be 01 f6 dd bd
       0.52060366 -0.57851285 -0.2292712 -0.10837937
0002d0 58 d5 03 be 93 ad d3 3d 17 d4 3d bd f8 25 36 bd
       -0.12874353 0.10335841 -0.046344843 -0.044469804
0002e0 c4 3b 4d be 8d c2 a0 3d 2b 4e e8 bd 7c 78 04 bd
       -0.2004233 0.078496076 -0.11343034 -0.032341465
0002f0 06 4a 0e 3d ca 99 eb bc 79 98 53 3e 93 e8 2c 3e
       0.034738563 -0.028759856 0.20663632 0.16885595
000300 db 90 72 be ee 20 dd 3c d8 51 c5 be 89 4f 1a 3e
       -0.2368807 0.026993241 -0.38539004 0.15069403
000310 bd 3d 49 3e 07 a0 99 3e ea db 09 3e c5 fb e6 be
       0.19652458 0.30004904 0.13462797 -0.4511396
000320 c2 60 90 be e3 d9 16 3d ab a3 cb 3a 4a a7 0b 3f
       -0.2819882 0.036828887 0.0015536448 0.5455214
000330 b2 fd 0c bd e3 c3 eb bd ee 74 1d be 05 6e d6 3e
       -0.03442163 -0.11511972 -0.15376636 0.41880813
000340 a9 95 9e bd 67 1e 85 bc 4e 16 cb bd e2 34 8c be
       -0.07743389 -0.016249849 -0.09916364 -0.27384096
000350 c3 54 c2 3e 9b e9 a9 3d 51 e2 ac be 56 a9 0c 3e
       0.37955293 0.0829651 -0.33766416 0.13736472
000360 97 67 3b 3e 0f 91 1d 3e 9d c5 4c bd 8c 8b a7 3e
       0.18301235 0.15387367 -0.049993146 0.32723653
000370 78 c3 a8 bc 22 21 d3 be 2b 21 9b 3d ba 47 aa bd
       -0.02060102 -0.41236216 0.07574686 -0.08314462
000380 ee ab 84 3d 52 7a 02 3f ed ef c1 3d 21 c4 5c be
       0.064781055 0.50967896 0.0946959 -0.21559192
000390 62 93 03 be a6 cc c2 bd ea 7a bf 3e 89 24 01 3e
       -0.12849191 -0.0951169 0.37398463 0.12611593
0003a0 58 71 36 be ae 65 c2 be 02 da 9e bd 40 e3 23 bd
       -0.17816675 -0.379682 -0.077564254 -0.040011644
0003b0 21 85 0f be 86 0f 0b 3e 35 18 97 3e 48 96 ab 3d
       -0.14015628 0.1358014 0.29510656 0.08378273
0003c0 20 b8 06 be 67 f8 8d be 74 68 3f be c0 2c 2e 3e
       -0.13156176 -0.27728578 -0.1869219 0.17009258
0003d0 bd 4e 0c 3e 5e dd ce 3d 0d f9 71 3e a9 2c d1 be
       0.13701911 0.10100816 0.23630162 -0.40854385
0003e0 d2 91 7a bd e3 79 87 bd b6 6e 32 be 1f de ef 3d
       -0.06117422 -0.06615045 -0.17425045 0.11712288
0003f0 50 4c 35 3e 95 2b 5f 3e 74 c2 a4 3c 3b 47 95 3e
       0.17704892 0.21793969 0.020112254 0.29155907

lstm.weight_hh_l0 f4 [256, 64]
000000 0c 7d a1 3d 99 16 2b bd a3 c3 e3 3d 41 1d fb 3d
       0.07885179 -0.041769598 0.11121299 0.12261439
000010 0c bc 4a 3d 19 33 85 3d 12 6f 09 3e 29 3c 92 bd
       0.04949574 0.06503887 0.13421276 -0.07140381
000020 e4 ea 70 3e 6e 6d 07 bf 68 23 1b be 29 4d 5b bd
       0.23527104 -0.5290135 -0.15150225 -0.053540383
000030 25 ea 1b 3e cf 00 a4 bd 16 5f fb 3d c3 ab 06 be
       0.15226038 -0.08007967 0.122739956 -0.1315146
000040 c1 2f 82 3d f8 77 a7 3d 6a df 32 3e 45 01 b5 3d
       0.063567646 0.08177179 0.17468038 0.08838133
000050 56 7e 68 3d 36 08 10 be 8f 23 44 3d b4 11 19 3e
       0.05676111 -0.14065632 0.047885474 0.1494816
000060 60 ba 9a 3d 10 be 92 bd 4a b5 1a be 3c b5 96 bd
       0.075550795 -0.07165158 -0.15108219 -0.073587865
000070 98 3d bb be ce a4 2c 3e e6 2c 47 be d7 29 b0 bd
       -0.3657043 0.16859743 -0.19450721 -0.0860173
000080 dc 82 88 be fb 8e 91 3e 39 04 81 be 6b c8 03 be
       -0.26662338 0.28429398 -0.25198534 -0.12869422
000090 5a 02 5d be b9 bd f2 bd 05 9c 18 be 02 60 56 3d
       -0.21582928 -0.11852593 -0.14903267 0.052337654
0000a0 cc 67 f5 3c 4b df 33 be 20 3e 57 be 6f 10 42 3e
       0.02995672 -0.17565648 -0.21019793 0.18951581
0000b0 21 cc bc be 40 c3 f9 3d 2f 6f 69 be a2 08 c0 3e
       -0.36874488 0.12195444 -0.2279632 0.37506586
0000c0 f0 8c 4c bd bf 84 5c be ac 9f 04 be 61 52 d8 ba
       -0.049939096 -0.21535014 -0.12951535 -0.0016504043
0000d0 83 98 ab bd 08 f4 0e 3e 1d 47 a0 3d ee 40 19 3e
       -0.08378699 0.13960278 0.07826064 0.14966175
0000e0 59 63 a2 3d fc 1a f8 bd e7 61 df 3d 72 4c 56 bd
       0.07929105 -0.12114522 0.10907345 -0.052318998
0000f0 2a 20 63 be d1 fc 58 be 04 02 1b bd 46 a8 8e 3c
       -0.22180238 -0.21190192 -0.03784372 0.017414223
000100 9f ce 65 3d 9d 07 f6 3c e1 20 0d bd e3 a4 bf 3d
       0.056105252 0.030032927 -0.034455184 0.093576215
000110 19 f4 3d be f5 0e 4b 3e 93 67 6c 3d cb 1b 63 3e
       -0.18550147 0.19829924 0.057715964 0.22178571
000120 3c fd 6f 3e c9 21 c3 bd 93 90 14 be eb 2c 03 bd
       0.23436445 -0.095279284 -0.14508276 -0.03202526
000130 70 2c 87 3e cd 27 83 be 6b 98 1a 3c 20 19 bf bd
       0.2640109 -0.25616303 0.009435753 -0.09330964
000140 6a 43 90 3e ca 5e 16 bc 2a 0a 54 3d d1 07 2a bd
       0.28176433 -0.009177873 0.051767506 -0.04151136
000150 49 86 3a be ad 46 9b be 28 71 42 3b 1c 9d 84 3e
       -0.18215288 -0.3032736 0.0029669497 0.25901115
000160 23 44 07 3e 90 5e f7 3b b0 d9 1e be d9 3d 77 3e
       0.13209586 0.0075491145 -0.15512729 0.24144687
000170 db 95 96 3c 47 0e 9b 3d 65 e8 77 3d 24 ea 95 bd
       0.018382004 0.075710826 0.060524363 -0.073200494
000180 7d 4a 23 3e 3e e7 e9 3d 78 25 05 bd 0a 9d ac bc
       0.15946384 0.11421059 -0.032506436 -0.021070976
000190 be c2 1d be b1 59 e8 3c 65 8c 35 3d 81 88 09 be
       -0.1540632 0.02836308 0.044323344 -0.13430978
0001a0 fc 4f 39 3e 98 85 fc bc df dd 5b bb fd cf 98 3d
       0.18096918 -0.030825421 -0.0033548994 0.074615456
0001b0 94 25 0c be 64 31 96 3d 37 04 21 bd 80 70 05 3e
       -0.1368621 0.07333639 -0.03931066 0.13031197
0001c0 e4 5c aa 3d 44 38 c0 bc a9 ce 9e bb ca 38 92 3e
       0.08318499 -0.02346433 -0.004846413 0.28558952
0001d0 0f b3 93 3d a2 2f b0 3e 20 02 28 bd e4 b7 dd bd
       0.07211887 0.3441134 -0.04101765 -0.1082609
0001e0 3b 29 af 3d b5 c1 08 3e df 76 bf bd 12 53 0c 3e
       0.08552786 0.13355143 -0.09348845 0.13703564
0001f0 ff 84 9e bb c0 f5 00 bd 6f ed e2 3e f4 14 e5 3d
       -0.0048376317 -0.031484365 0.44321772 0.11185637
000200 cf ae fe bd a9 d5 62 3c e5 ac 0a be d7 fa fd bd
       -0.12435686 0.013844886 -0.13542517 -0.124013595
000210 3c 59 9a bc 3f d1 90 3d 20 2d a5 be 88 c4 1e 3c
       -0.018841378 0.070711605 -0.3226099 0.009690411
000220 ac d5 f0 3d d9 93 f7 3d f4 f9 b0 3e d8 86 be bd
       0.11759505 0.120887466 0.345657 -0.09303063
000230 15 ea 82 3d 3c 39 88 be 1b f5 d0 be 61 77 d3 bd
       0.06392304 -0.26606166 -0.40812 -0.10325504
000240 6c cb a4 bd d5 76 85 3d ed 05 54 be c9 e5 0e 3c
       -0.08046612 0.06516806 -0.20705386 0.008721777
000250 4d 55 99 bb a1 82 50 3f 5d 62 8a bd 12 5d a6 bd
       -0.004679358 0.81449324 -0.067570426 -0.081232205
000260 25 8e af bc 44 a7 51 3c 37 df 94 bd 00 75 a0 3d
       -0.021430084 0.012796227 -0.07269137 0.07834816
000270 e8 6f b4 bd 14 85 46 3e ca d8 ba 3d ea 03 30 3e
       -0.08810407 0.19386703 0.091233805 0.17188993
000280 0b 32 e8 3d 69 37 ab 3d cb 79 a7 be 65 6a 21 be
       0.1133767 0.08360178 -0.32710108 -0.15763243
000290 2a 89 8f be 2b 17 2d 3d 70 ed ef 3d c1 fb 46 be
       -0.28034335 0.042258423 0.117152095 -0.19431974
0002a0 55 cf 85 3c ed d1 1d bd c0 5d f9 3d 2b c2 52 3c
       0.016334215 -0.03853028 0.121760845 0.012863676
0002b0 50 ca 54 be 5c c3 7f 3e 38 48 a1 be ac 52 b7 3c
       -0.20780301 0.24976867 -0.3150041 0.022378288
0002c0 d9 49 ea bd 20 92 9b bc a3 e2 2b be c8 fa a2 3d
       -0.114398666 -0.018990576 -0.16785674 0.07957989
0002d0 b2 ce 08 3e 8f 32 9c 3c ba 46 40 3d f7 16 52 3f
       0.13360098 0.019067077 0.04694245 0.8206629
0002e0 53 57 4c be bd b8 a4 3d 70 08 93 bd 23 f3 01 be
       -0.19955187 0.080430485 -0.07179344 -0.12690406
0002f0 1f 83 f1 3d 59 e4 f9 3d e9 e0 f4 bd 41 2e 01 bc
       0.117925875 0.12201757 -0.11956961 -0.007884563
000300 89 41 86 3e 74 1b 82 3d 82 3a bb bd d0 af 1f 3e
       0.26221874 0.063528925 -0.09142019 0.15594411
000310 78 d0 9a be 3b 40 8b 3d 0e b1 72 be d3 96 9a 3d
       -0.30237174 0.0679936 -0.23700354 0.07548299
000320 ff 76 92 bd de 00 5a be f0 13 4a bc b3 0d 0a be
       -0.07151603 -0.21289393 -0.012333855 -0.13481788
000330 92 24 5a be 84 dd 07 bc f7 e6 30 be e7 bb 27 ba
       -0.21303013 -0.0082925595 -0.17275606 -0.0006398544
000340 39 9e 40 3d ff 7e 9e bd a5 ac 9e 3e dc b9 1d be
       0.047025893 -0.07739066 0.30991092 -0.15402931
000350 90 00 de 3d ed 8e 51 3c 7c 8d 17 3e 59 08 33 bd
       0.10839951 0.012790424 0.14800066 -0.043709133
000360 c0 43 35 be c5 51 b8 3c f2 db 34 3e d6 b2 96 3e
       -0.17701626 0.022499928 0.17662027 0.29433316
000370 4e 8f 64 bd be 13 af 3e 48 d3 48 3e e9 9c 49 3d
       -0.05580073 0.3419475 0.19611847 0.049221907
000380 f6 88 b2 3d 32 a6 a0 3d ca 14 1a 3e 93 96 91 be
       0.087175295 0.07844199 0.15046993 -0.28435192
000390 fb 89 b0 be ca 4c d6 bc f0 fa cb bd f8 7d c7 bd
       -0.3448027 -0.026159663 -0.09959972 -0.097408235
0003a0 b5 82 77 3d fe 60 93 3d 78 3b 1b 3e bd 15 67 be
       0.060427386 0.07196234 0.15159404 -0.22566886
0003b0 f2 65 26 3d 8b 68 df 3d b4 df ae bd 4a cb fc bd
       0.040624566 0.10908612 -0.08538762 -0.12343462
0003c0 35 8d 32 be 73 16 06 3e d6 4e db 3c bb e5 7b be
       -0.17436679 0.13094501 0.02677099 -0.24599354
0003d0 4a 97 58 bd ff 5a b2 3d ec 4e 80 3b c1 83 8a 3e
       -0.052878655 0.087087624 0.003915658 0.27053645
0003e0 7f c5 41 3e f4 7e 84 3d a3 07 10 be f9 8c 44 be
       0.18922995 0.06469527 -0.14065413 -0.19194402
0003f0 d3 ce 26 be 96 55 c2 bd 4f c7 b8 3c 13 5d 49 3c
       -0.16289835 -0.094889805 0.022555975 0.012290257

lstm.bias_ih_l0 f4 [256]
000000 b5 f9 db bd aa 32 a7 bd 85 f6 0a 3a 3f 28 d9 3b
       -0.10740987 -0.0816396 0.00053010165 0.006627112
000010 9c b8 d0 bd 27 e8 4e 3c 2e 62 05 3e 8f a1 80 be
       -0.101914614 0.012628592 0.13025734 -0.2512326
000020 aa 74 02 3e db 3b e8 bc 16 b0 2e be 9b 4d 9a 3d
       0.12739816 -0.028348854 -0.17059359 0.07534333
000030 85 e9 1d be 59 24 87 bd 3d 67 8b 3d 11 46 f8 3c
       -0.15421112 -0.0659873 0.068068005 0.030306848
000040 f8 28 91 be b4 eb 11 3d 64 06 94 3d f6 19 19 3d
       -0.2835157 0.035625175 0.072277814 0.037378274
000050 6b b1 4d be db 09 0b 3e 29 47 33 3e ef 94 07 3c
       -0.20087211 0.13577978 0.17507614 0.008275255
000060 73 a0 28 be 18 63 ba bd f3 54 69 bc c3 67 b2 3c
       -0.16467457 -0.09100932 -0.014241445 0.021777993
000070 26 2c cc bd 02 bc 5b bd 82 17 45 bd 75 a7 61 bd
       -0.09969358 -0.053646095 -0.048118122 -0.05509134
000080 11 95 c8 bd 1a 16 5c 3d 2a d2 54 bd b8 95 d2 bd
       -0.09794057 0.053732015 -0.05195824 -0.10282463
000090 6e 81 e0 3d 8b 3f fe bc c7 84 06 3d 2c a6 a0 3c
       0.10962187 -0.031036159 0.03284147 0.019610487
0000a0 ca a1 8d be 47 e0 48 3d f4 f8 f4 bc 91 96 6c be
       -0.27662498 0.049042013 -0.029903866 -0.23104312
0000b0 24 31 28 be 05 ee 0a 3e df a7 c1 3d ca 41 26 3d
       -0.16424996 0.1356736 0.09455847 0.040590085
0000c0 31 b2 db 3d d6 53 b8 bd cc 3a ef 3d 20 b1 8c be
       0.10727347 -0.090003654 0.116811365 -0.27478886
0000d0 a2 d4 11 be 34 9d 81 bd 94 7a 9d 3c 98 82 74 be
       -0.14241269 -0.06328812 0.019223489 -0.23877943
0000e0 e0 9f 0a be 65 fd fd bd 61 8a 42 3e 32 8a 43 be
       -0.1353755 -0.12401847 0.189981 -0.19095686
0000f0 4b 91 54 3d 00 1c e9 3c a3 69 d7 3d 00 7d 68 be
       0.051896375 0.028455734 0.105181955 -0.22703934
000100 5b b5 07 3e 83 7b 97 3e 36 b8 8f be 92 1d 36 3e
       0.13252775 0.2958642 -0.2807023 0.17784718
000110 58 aa 0f be cd 95 93 bc 18 b9 a5 be ee bb 4b be
       -0.14029825 -0.018015767 -0.32367778 -0.19895908
000120 fd 15 2c 3b 5d a6 af 3d 20 1e a4 3d 0e 84 9b 3e
       0.0026258223 0.08576653 0.080135584 0.30374187
000130 67 7f ff bd 9c de f4 3c 7f b7 1b 3d c8 ef 91 3d
       -0.12475472 0.029891305 0.038016792 0.07125813
000140 91 f6 7c bd 0a 40 47 be 96 a0 6f bd d8 12 0c 3d
       -0.06175858 -0.19458023 -0.058502756 0.03419766
000150 f2 b5 bc 3d 17 76 17 3e d2 c8 18 be db b9 9a bd
       0.09214391 0.14791141 -0.14920357 -0.0755498
000160 00 b9 d0 bb bd 7c 16 3e 3d bd 89 3e e8 d6 6c 3e
       -0.00636971 0.14696021 0.2690219 0.23128855
000170 34 3e 45 3e 09 48 a5 bd da 60 c1 3c d6 42 3e bd
       0.1926201 -0.0807038 0.023605753 -0.04645046
000180 e2 06 57 3d 8e 47 f6 bc 12 a9 9c 3d 24 fe 9b bd
       0.0524968 -0.030063417 0.07649435 -0.07616833
000190 5a c0 30 bd 2d 08 88 3d 4c 2d 0f 3c 54 45 13 3d
       -0.04315219 0.066421844 0.008738827 0.03595479
0001a0 1d 2d 9d 3d 62 64 e0 3d 2f 55 9b 3d 4f a5 2f 3c
       0.0767462 0.109566465 0.07584607 0.010720565
0001b0 93 0f a0 bd 8e 40 06 be 64 af 24 be 6e 5e 06 3e
       -0.078154705 -0.13110563 -0.16082531 0.1312196
0001c0 1b 66 80 bd 24 05 a8 3e 8f 30 8c bd a5 50 6e 3d
       -0.06269475 0.32816422 -0.06845199 0.058182377
0001d0 02 26 9b be a6 03 2d be 14 22 86 3d 8e c6 0e bd
       -0.30302435 -0.16895923 0.06549469 -0.034857325
0001e0 41 bc 0e bd 91 a8 3a 3c 3d 05 2d be 62 6c 3d be
       -0.0348475 0.011392728 -0.1689653 -0.18498376
0001f0 ea a0 df 3d ba f8 24 be b6 cd 36 bd ec 8b 9a bc
       0.10919364 -0.16110507 -0.044629775 -0.018865548
000200 59 ee a0 3d 75 cf 62 bd ce 9f 8e bc ac af a2 bd
       0.07857961 -0.055373628 -0.017410185 -0.07943663
000210 f2 07 0f 3e 12 6e 3b bd 29 c5 1a bd b0 9b 02 be
       0.13967875 -0.045759268 -0.037785683 -0.12754703
000220 23 e4 44 be 50 f4 07 3d 82 f5 9e 3d 10 25 ad 3c
       -0.19227652 0.03319198 0.07761671 0.021135837
000230 33 2b 9e bd 7e a9 52 be cd c3 e6 bd 28 77 82 3d
       -0.07723083 -0.20572469 -0.11267815 0.063703835
000240 c6 79 9c bd cc 4a 72 bc 1d 50 c5 3d de 7f 72 b9
       -0.07640414 -0.014788341 0.09634421 -0.00023126553
000250 e6 5f 62 3c 63 e8 98 bb 63 84 46 3b 5a ae 1a bd
       0.013816809 -0.0046663745 0.003029131 -0.03776393
000260 40 7f 51 be 2e f9 8f bd 7f f9 2a bd 16 91 b4 bd
       -0.20458698 -0.07029949 -0.041741844 -0.088167354
000270 35 a0 66 3c a6 3e 18 bd 7e f2 6b 3d 13 de a4 bd
       0.014076282 -0.03716912 0.057604305 -0.0805017
000280 08 51 6d bd 3c 68 70 bd b0 79 3a 3e da b4 99 bd
       -0.057938606 -0.058693156 0.18210483 -0.07505198
000290 a0 02 a5 bd d9 14 c9 3d aa e4 ca bd 58 dc 66 3d
       -0.08057141 0.098184295 -0.099068955 0.05636248
0002a0 d5 a8 1b 3d be dc 80 3d 49 bb b6 3d a9 fe 6e be
       0.038002808 0.06292103 0.089224406 -0.23339333
0002b0 99 22 4d 3e 5d 7d d0 3d 9c f7 9a bc dd 8f 6a be
       0.20032729 0.10180161 -0.018916897 -0.22906442
0002c0 04 a5 8c 38 f0 06 94 3b 10 f3 eb bd 21 1a 86 bd
       6.706457e-05 0.0045174286 -0.1152097 -0.065479524
0002d0 70 f9 b0 bd 59 23 8f 3d a6 a1 02 bd 01 64 cd bd
       -0.086413264 0.06989164 -0.03189244 -0.1002884
0002e0 9a 5e 47 bd cf ad 80 3b bc 3a 36 3c b2 ff 85 bc
       -0.048674203 0.0039269696 0.011122402 -0.016357277
0002f0 7f b5 ae bd 8e b0 ca 3d ac 75 36 bc 92 d7 0e 3e
       -0.085307114 0.098969564 -0.011136454 0.13949421
000300 1f 7e 62 3b f6 63 89 bd 19 67 af 3a 96 53 96 bc
       0.0034560037 -0.06708519 0.0013382166 -0.018350404
000310 f2 c0 fb bc 51 da af bd 75 01 83 bd c7 d1 4f be
       -0.030731652 -0.085865624 -0.06396762 -0.20294867
000320 21 70 ad bd 0c c4 e7 3d 3b 4d c9 bd af cf 8a 3d
       -0.084686525 0.1131669 -0.09829184 0.06777894
000330 66 f0 e2 bd 7b 2d eb 3b 9c 30 3c 3e 54 15 8f 3d
       -0.110810086 0.0071770526 0.18377918 0.0698649
000340 5f 4e 41 be 17 f2 5e 3d 93 39 b7 3d a9 06 e5 bd
       -0.18877552 0.054430094 0.08946528 -0.11182911
000350 5c 5c c3 bd 51 fc 2c 3e c3 57 a7 3d 24 be d6 3d
       -0.095391005 0.16893126 0.08171036 0.10485485
000360 8b 59 b4 bc f6 b0 0e 3d e8 a4 aa bd 61 ff 27 3e
       -0.022015354 0.03483673 -0.083322346 0.16406013
000370 8d 99 f4 3d 20 5d 33 be ce f3 8b bd 3e 6e 9c bc
       0.1194335 -0.17515993 -0.068336114 -0.019095536
000380 32 37 24 3e b6 6f 7c 3d 08 ed cd bc dd 15 57 3d
       0.1603668 0.061629973 -0.02513744 0.052511085
000390 e4 99 c9 3c ee 2d b6 bd d7 01 09 be a9 bb 1e 3d
       0.024609514 -0.08895479 -0.13379608 0.038753185
0003a0 03 59 d2 bc db 66 ba 3d d6 f0 98 3d 9d 34 ce 3d
       -0.02567721 0.091016494 0.07467811 0.10068629
0003b0 8f 86 d5 bd cf 7a fc bc 51 b9 12 be 55 63 28 be
       -0.10426056 -0.030820278 -0.14328505 -0.16444142
0003c0 c0 e5 2f 3d 73 6d 4e 3d cd 63 c0 3c 1c 86 9d 3d
       0.042943716 0.050397348 0.023485089 0.07691595
0003d0 6a 04 86 ba 20 44 01 be 9f 89 b5 3d d6 72 78 be
       -0.0010224704 -0.12623644 0.0886414 -0.24262556
0003e0 a9 80 0a be de 45 16 bd 74 0d dd bb b3 d3 bd bd
       -0.13525642 -0.036687724 -0.0067459885 -0.09268894
0003f0 ac 56 6a 3e df 04 3d 3d 53 d9 27 3e 39 08 eb 3a
       0.22884625 0.046147224 0.16391496 0.0017931528

lstm.bias_hh_l0 f4 [256]
000000 4f e7 f6 bd 6f 5f e8 bd 73 e0 b3 bd 62 08 f9 bc
       -0.12055837 -0.113463275 -0.08783045 -0.030399505
000010 7f de 0a be 48 2a d6 bd b9 2f 29 bd fc 58 46 be
       -0.13561438 -0.10457283 -0.041305277 -0.19369882
000020 9a 71 c9 3d b2 27 07 3d 22 4a 50 be c0 90 8c bd
       0.09836121 0.03299684 -0.2034078 -0.06863546
000030 d5 be 5a be 82 c6 11 be 3b 4b 20 3d 55 5a 69 bd
       -0.21361859 -0.14235881 0.039134245 -0.056970913
000040 33 26 91 be 7d ae 42 3d 77 97 5e 3e 44 0d 76 3d
       -0.28349456 0.047529686 0.21737467 0.060071245
000050 98 a6 43 be 89 fc 73 3c b0 54 9e 3d 11 b5 8e bd
       -0.19106519 0.014891752 0.077309966 -0.069681294
000060 e5 cb b3 bd 93 0d fb bd d0 a9 5a be 0f b3 b9 3c
       -0.08779124 -0.122584485 -0.21353841 0.02266839
000070 54 c9 31 bd 21 ed 25 bd 04 39 7f 3a a2 22 4d be
       -0.043404892 -0.040509347 0.0009735974 -0.20032743
000080 df 1f 38 3d 7f d4 94 bd 55 2d 15 bd 14 f0 c8 bd
       0.04495227 -0.07267093 -0.036420185 -0.09811416
000090 3c a8 01 be 12 fe 95 bc 1e a6 20 bd 66 ea 01 3e
       -0.12661833 -0.018309627 -0.03922092 0.12687072
0000a0 16 0f 0a be 8c 6b 48 bd d2 9d 4a be 72 fd a5 bc
       -0.13482317 -0.04893069 -0.19786766 -0.020262454
0000b0 83 56 03 be d4 bd 36 bd 45 e2 8d 3d a7 af a1 bd
       -0.1282597 -0.044614628 0.06927923 -0.07894831
0000c0 af a5 a9 3d 10 c1 60 3c e6 63 d7 3d 53 8b 11 be
       0.08283555 0.013717905 0.10517101 -0.14213304
0000d0 ff 54 92 bd 09 25 52 be da 2c 59 3e 1e 2c 01 be
       -0.07145118 -0.2052194 0.21208516 -0.12614486
0000e0 ce a9 4b be 79 6b 1f bd 99 ff 9a bc 91 e4 98 be
       -0.19888994 -0.038920853 -0.018920707 -0.29861882
0000f0 b9 2c 23 3e 03 6c a1 bc 49 dd 90 3c 9a 71 81 be
       0.15935029 -0.019704824 0.017683642 -0.25281984
000100 8b 46 c2 3d 8d 5e c5 3d 76 41 7d be fb 10 fa 3c
       0.09486111 0.09637175 -0.24732003 0.030525675
000110 3f 15 16 3d b6 03 94 3d b1 41 8e be c9 28 3e be
       0.036641356 0.0722727 -0.27784494 -0.18570246
000120 50 cb 27 3c 89 b1 d6 3d df 2a c6 3d a4 f1 33 3e
       0.010241345 0.10483081 0.09676146 0.17572647
000130 d5 0f 3f be 2a 86 21 3e 2c 89 a7 bd 03 72 e2 ba
       -0.18658383 0.15773836 -0.0818046 -0.001727641
000140 b7 9c e9 3d d2 fb 5c be 66 96 46 3d b5 19 ac bc
       0.11406844 -0.21580437 0.048483275 -0.021008352
000150 76 8b 26 bc e2 d4 5b 3e 26 36 26 be 8a 36 a7 bd
       -0.010165086 0.21467927 -0.16231593 -0.081646994
000160 50 06 68 3e 29 c2 20 3e 5b d8 00 3e 0b 47 4d 3e
       0.22658658 0.15699066 0.12582533 0.20046632
000170 77 46 0d 3e 57 21 62 bc 38 63 2a 3a 46 07 57 bd
       0.13796411 -0.013801894 0.000649977 -0.05249717
000180 bb 5d 3f 3e e5 1a bb 3d 78 7c df 3d b4 12 97 bd
       0.18688099 0.09135989 0.109124124 -0.07376614
000190 62 a7 15 3b 7e 23 03 be 24 c7 85 bc 36 f0 9e 3d
       0.0022835364 -0.12806508 -0.01633031 0.0776066
0001a0 9e 69 f8 bd 4e bf 5c 3e 6a 50 31 3b bd 83 27 3d
       -0.1212952 0.21557352 0.0027055987 0.04089712
0001b0 ae 58 1b 3e 5f 79 5e bd 22 c4 3d be 8a a2 9c 3d
       0.15170547 -0.054314967 -0.1853185 0.07648189
0001c0 55 9c 7a bc b8 ff 48 3e ce 9b 32 be 7f 78 31 3d
       -0.0152960615 0.19628799 -0.17442247 0.043327805
0001d0 69 3d 34 be f0 0b 06 be c3 66 a5 3d ca 55 f6 bd
       -0.17601551 -0.13090491 0.08076241 -0.12028082
0001e0 50 5e 13 3d 64 0e 92 3b 4d 52 80 be de 74 f6 bd
       0.035978615 0.004457282 -0.2506279 -0.120340094
0001f0 ed 6e 7e 3e 93 2f 3c be 70 1f 34 be 80 34 f3 3d
       0.24847002 -0.18377523 -0.17590117 0.11875248
000200 4e 50 02 bc 3e c6 11 bd a4 e0 96 3d 00 ed 2a bd
       -0.007953716 -0.03558945 0.073670655 -0.041729927
000210 d8 76 bd 3d 41 d2 4f 3a d1 13 ec bc f6 2b 7a bd
       0.09251183 0.00079277536 -0.028818043 -0.06107708
000220 ef a9 6f 3b e5 c7 95 3d 18 cd de 3d 0c 1f 1c bd
       0.0036569794 0.073135175 0.10878962 -0.038115546
000230 f7 2e 40 be 7d a7 17 be c8 ad 97 3c a0 57 15 3d
       -0.18767916 -0.14809985 0.018515483 0.03646052
000240 df 3a 92 bc df bb 99 bc d5 e1 39 3d 79 1f c8 3c
       -0.017850338 -0.018766342 0.045381386 0.02442907
000250 cd f5 3e 3e f8 84 8c bd 29 f5 83 bc 9b 70 e0 3c
       0.18648453 -0.06861299 -0.016108112 0.027397444
000260 23 bc af 3b 4c 96 fb bc 26 96 d6 3d 35 c6 be bc
       0.005363004 -0.030711316 0.10477857 -0.023287872
000270 79 21 de bd 87 62 a7 bc bf 04 c6 bd d3 bf bd 3d
       -0.10846228 -0.020432724 -0.09668874 0.09265103
000280 51 00 44 be ff 5a 0b be 27 65 07 3e e0 5e 1d bd
       -0.19140746 -0.13608931 0.1322218 -0.038420558
000290 03 c0 51 3d bd 47 be 3d 2d 35 84 3d 7c c8 7d 3d
       0.051208507 0.09291027 0.06455455 0.061958775
0002a0 f7 1d 5d bc ac d7 1e bc 3a 8c c8 3d 46 b3 07 be
       -0.013495914 -0.009694975 0.09792371 -0.13251981
0002b0 9c 04 06 3e a3 b9 87 3c 0d 58 dc 3d fc ad 42 be
       0.13087696 0.01656801 0.10758982 -0.19011682
0002c0 86 61 09 3e b7 42 a2 bd fd a7 45 3d 48 4e 0e 3e
       0.13416108 -0.07922881 0.04825591 0.1389705
0002d0 c2 c4 49 bd 0b 7b ce bd 56 3d 1c 3d 8a 3e 71 be
       -0.04925991 -0.10082062 0.038144432 -0.23559013
0002e0 e4 44 61 3d 52 1d bc bc 3e 71 69 3e dd 40 e0 bd
       0.05499734 -0.0229632 0.22797105 -0.10949872
0002f0 a6 7d e7 3d de 70 ec bc 7d cf aa 3d 9a a2 48 3d
       0.113032624 -0.028862413 0.083403565 0.048983194
000300 9d 91 ca bd 3f 3f 22 be 24 88 f7 bd 71 72 d7 3d
       -0.09891055 -0.15844439 -0.12086514 0.10519875
000310 84 ed a4 bd 71 81 ee bd 0a f3 48 3d c5 e6 ca bd
       -0.08053115 -0.11645783 0.049059905 -0.09907297
000320 24 6e 67 bd f7 3a 96 3d 22 1d ca ba 04 3d 7b bd
       -0.056501523 0.073354654 -0.0015420059 -0.061337486
000330 29 0f 15 bd bf 72 54 be 43 bb ab 3d 70 b3 9f bd
       -0.03639141 -0.20746897 0.08385327 -0.07797897
000340 49 d0 12 be 90 d2 f3 3d aa 5f 9a 3c 3a c8 d6 bc
       -0.14337267 0.11905396 0.018844444 -0.026218522
000350 11 03 9f bb 30 4a 68 3e 38 03 82 bb 96 91 4b bd
       -0.0048526605 0.2268455 -0.003967669 -0.04969939
000360 56 89 19 be 82 b2 9c 3d df c3 80 bd 53 3f 68 3d
       -0.14993796 0.07651235 -0.062873594 0.056701016
000370 f3 9e 1e 3c a3 57 bc bd 92 99 95 bd a1 73 d2 bd
       0.009681451 -0.09196403 -0.07304682 -0.10275961
000380 8a cc 01 3e 90 b4 e3 bc 19 7f c9 3d 4d ae 77 3d
       0.12675682 -0.02779606 0.09838695 0.06046896
000390 22 f2 95 bc 39 e3 59 3c 6b e2 36 be ba 04 50 bd
       -0.018303934 0.013298803 -0.17859809 -0.050785758
0003a0 fd 31 f1 bd 52 80 d9 bb 71 37 b5 bd af 96 07 3d
       -0.11777113 -0.0066376114 -0.08848465 0.033102687
0003b0 21 dc 92 bd b6 44 cc 3d 3e 45 a1 bd 90 af 01 bd
       -0.071708925 0.09974043 -0.07874535 -0.03166157
0003c0 37 72 5c 3d 3b 0e b1 39 ae 96 39 3d b3 1d 1c be
       0.05381986 0.00033770673 0.045309715 -0.15245704
0003d0 af 66 94 bc cc 3f 07 be 33 00 be bd 27 90 3b be
       -0.01811537 -0.1320793 -0.09277382 -0.18316709
0003e0 12 72 b6 bd 54 47 42 bd 19 51 ad 3d 97 40 a6 be
       -0.08908476 -0.047431305 0.08462734 -0.32471153
0003f0 98 a9 fb 3c a8 eb 2c 3d 7d f5 1a 3e 4d b4 3f be
       0.030720517 0.042216927 0.15132709 -0.18721123

lstm.weight_ih_l1 f4 [256, 64]
000000 0a d0 e5 bd 19 43 a8 3d 59 34 b6 be c5 dd d5 3d
       -0.11221321 0.08215923 -0.35586813 0.1044269
000010 1c 41 65 bd 39 bb dc 3c e0 37 b6 bd 15 ff 30 be
       -0.055970296 0.026944743 -0.08897376 -0.17284806
000020 e8 60 0c 3d b4 70 25 3e 35 17 17 3e e1 5c b7 3c
       0.034272105 0.16156274 0.14754947 0.022383155
000030 be 71 73 3e 91 14 aa 3b 7d d9 6f bd c3 ca 53 be
       0.23773858 0.00519044 -0.058557022 -0.20682816
000040 ed f1 06 3e f7 89 68 bc ce 35 f2 bc df 97 90 be
       0.13178225 -0.01419305 -0.029566672 -0.28240868
000050 ff 73 9d bd de c3 ca 3d 3d 58 81 3c 84 1f 83 3c
       -0.0768814 0.0990064 0.015789146 0.016006239
000060 7c 20 61 3d 16 1f 85 3e 1d dd 54 be 23 00 54 3c
       0.05496262 0.2600028 -0.20787473 0.012939486
000070 a1 8b dd 3c 7f 4f b1 3d f9 56 64 3c 64 cb 89 3d
       0.02704412 0.08657741 0.0139367515 0.06728247
000080 ea c2 75 3d a0 1f 38 be 42 c2 2f 3e 1a ab 8e be
       0.060000338 -0.17980814 0.17163947 -0.27864915
000090 64 21 e7 3d 21 52 4f 3e 92 c9 4d 3e fe 3f 1c 3d
       0.11285666 0.20246173 0.20096424 0.038146965
0000a0 fd f3 e2 3b 4a 9c cc bd 09 63 50 be 79 b6 a8 3e
       0.0069260583 -0.09990747 -0.20350279 0.32951716
0000b0 3a c1 40 be d5 fc 81 be 45 8f 0a 3d 02 a6 07 bd
       -0.1882371 -0.25388208 0.03382804 -0.0331173
0000c0 57 8b 68 3d 20 9c c7 bc 4b 49 ee 3d f0 39 74 be
       0.05677351 -0.024366438 0.11635073 -0.23850226
0000d0 ff 47 3a be 33 c9 33 3e 08 42 1a 3e e7 ff 31 be
       -0.18191527 0.1755722 0.15064251 -0.17382775
0000e0 e3 5a d1 bd d1 1e 4a bc 66 89 fc 3c d6 fb 3f 3d
       -0.102224134 -0.012336449 0.030827235 0.04687103
0000f0 91 5a 55 3e c9 05 77 3e 88 d1 ed 3d 88 f7 8a bc
       0.2083533 0.241233 0.116122305 -0.016963735
000100 5f 02 bd 3d 72 71 8b 3d 80 3e c6 be 78 5d 34 bc
       0.09228968 0.06808747 -0.3871956 -0.011008613
000110 8c 97 5c be bc 14 c4 bd 39 b6 0f bd 38 a8 7f 3c
       -0.21542186 -0.09574267 -0.03508589 0.015604071
000120 c5 90 4c 3e 59 86 56 3e 23 cc d0 3d 30 9e 26 3e
       0.199771 0.20949687 0.10195186 0.16271281
000130 55 d3 20 3e 47 65 41 be 40 c4 24 bb 35 95 2e be
       0.15705617 -0.1888629 -0.0025141388 -0.17049105
000140 8d 1b 8d 3d 5d 68 cf 3d 80 5d 40 3e ec 20 29 be
       0.068900205 0.101273276 0.18785667 -0.16516465
000150 4c 92 30 be 8c 93 a6 bd 03 30 5e bd cd 95 51 3d
       -0.17243308 -0.08133611 -0.054245006 0.05116825
000160 b8 11 ba 3e 60 c3 0a 3f 9a 7d 78 be 21 94 0d bf
       0.36341643 0.5420437 -0.24266663 -0.5530415
000170 36 6a f3 3d 48 13 e7 3d 7c 4d ab bd a2 fc 95 be
       0.118854925 0.112829745 -0.08364388 -0.29294306
000180 1f 3a 2e be 18 f3 f7 bb b0 9b 1d 3e da b1 4f be
       -0.17014359 -0.007566821 0.15391421 -0.20282689
000190 81 5f 88 3d e3 e3 01 3e 4e 97 18 3e ac 41 0b 3e
       0.06658841 0.12684588 0.14901468 0.1359927
0001a0 90 f1 9b 3d 21 4c 12 3e b2 f3 d5 bd 9b 3d 31 3d
       0.07614434 0.14286853 -0.10446872 0.043271642
0001b0 56 d3 8a be 91 4b 7b be ac 44 d3 3e 06 9c 64 bd
       -0.27114362 -0.24540545 0.4126333 -0.055812858
0001c0 d9 c5 44 3d 3e ba 98 3e 7f 8c 6d 3e a6 b0 bc 3b
       0.048040245 0.29829592 0.23198126 0.005758363
0001d0 36 6e 08 be c5 75 9a 3e 5a 39 6d 3e b1 d9 b6 be
       -0.13323292 0.30167976 0.23166409 -0.3571296
0001e0 f3 34 87 be 26 ed 19 3e 34 76 98 3e e2 d4 6f 3e
       -0.26407585 0.15031871 0.29777682 0.23421052
0001f0 da cf a9 3d 08 b8 a1 3e 66 f0 5e 3e ed 05 43 be
       0.08291598 0.31585717 0.21771392 -0.1904523
000200 ca f7 3e bd 85 0e 9c 3e 89 37 c6 bd 38 89 d8 bb
       -0.04662303 0.30479828 -0.09678561 -0.0066081546
000210 43 a6 29 bd dd 11 d2 3d 07 4c e0 bd aa d4 8e be
       -0.041418325 0.102573134 -0.10952001 -0.27896625
000220 85 b1 d2 3e 78 8b f1 3b d3 b5 42 3e 14 61 a2 3d
       0.41151062 0.0073713623 0.19014673 0.079286724
000230 b5 9b 4d 3e 23 85 67 bd e0 50 0a be 34 e5 9c be
       0.20078929 -0.056523453 -0.13507414 -0.30643618
000240 f7 6f 78 3e 29 14 0a 3e ef 6a c5 ba 30 a7 87 3c
       0.24261461 0.13484253 -0.0015061776 0.016559213
000250 81 5b 0f be 10 b3 ee bd 16 e3 49 be a4 68 bc bb
       -0.1399975 -0.11655247 -0.19715533 -0.005749779
000260 27 36 78 3e 39 0a 97 3e 7a 12 f9 bd 24 60 c8 3c
       0.24239407 0.29499987 -0.12161727 0.024459906
000270 28 53 81 3e f3 54 99 bc 3c 86 4c 3e 3c b2 42 be
       0.25258756 -0.018717265 0.19973081 -0.19013304
000280 f2 c9 a4 3d 7b c1 d1 bd d8 4f 7d 3e bb c4 7e 3c
       0.080463305 -0.102419816 0.24737489 0.015549834
000290 31 e6 0f 3e ea 91 c7 3d f3 c2 41 3e a6 b4 6f 3e
       0.14052655 0.09744628 0.18922023 0.23408756
0002a0 2a 3a 9d 3e 5d f5 61 3e 01 f9 2f 3b 44 13 de 3d
       0.30708438 0.22066255 0.0026851299 0.108435184
0002b0 1f 57 c3 bd 15 da 8c be a0 c8 0a 3e 2b 7c 7e bd
       -0.095381014 -0.27510133 0.13553095 -0.062130135
0002c0 04 71 f3 3d a8 ad 4e 3e 6d c6 46 3e 33 83 b1 bd
       0.118867904 0.20183432 0.19411631 -0.086676024
0002d0 6e 6d 17 be f6 44 c5 3e 7b 80 32 3e 26 a0 01 be
       -0.14787838 0.38529176 0.17431824 -0.12658748
0002e0 37 9d 21 be f4 01 5e 3e c5 95 7c bd 06 ed cc 3e
       -0.15782629 0.21680433 -0.06166627 0.40024585
0002f0 9e 16 1c 3e a8 29 6c bd 7a 0c 12 3c c8 9d aa be
       0.15243003 -0.057656914 0.008914107 -0.33323503
000300 aa 46 6b 3d 2f d0 68 bd 4a 51 ac be f2 3c 00 be
       0.057440437 -0.056839164 -0.3365577 -0.12523249
000310 b0 66 5b be 2e 10 3c 3e 31 3c 5b be 82 46 1c be
       -0.21425891 0.18365547 -0.2140968 -0.15261272
000320 b5 41 40 3e 03 e1 56 be 07 90 ec 3d fb e2 12 be
       0.18775065 -0.20984273 0.115509085 -0.14344399
000330 6a 20 84 3e 52 16 4a be c2 7b 84 3e f5 a3 03 be
       0.2580598 -0.19735077 0.2587567 -0.12855513
000340 30 78 52 3e 41 14 51 3e e8 ba d0 bd 50 d6 23 bd
       0.2055366 0.20417883 -0.101918995 -0.039999306
000350 e5 03 b6 bd 3d 30 80 bd 34 99 37 bd 93 94 4a 3d
       -0.088874616 -0.06259201 -0.04482384 0.049458098
000360 b3 58 5c 3e b8 71 7a 3e 35 5b 1a be be e7 89 be
       0.21518211 0.24457443 -0.15073855 -0.26934618
000370 b9 6d fe 3c 28 f6 e0 3e 34 f5 6d 3b b5 43 e4 3c
       0.03105818 0.43937802 0.0036309483 0.027864316
000380 a8 4d 94 3e 92 91 53 be f4 d0 9d bc 9d 65 e8 bd
       0.28965497 -0.20661 -0.019264676 -0.11347506
000390 7b 92 11 3e f1 a1 66 3e 46 a5 6b 3e bb 1c bb ba
       0.14216034 0.22522713 0.23012266 -0.001427553
0003a0 36 07 db 3d 63 fc 4d 3d 02 0a db bd 7a ff 18 3e
       0.10694735 0.050289523 -0.10695268 0.14941207
0003b0 77 87 5e be 5a 43 a7 bd 2a 81 0f 3d bc 8c 01 3d
       -0.21731363 -0.08167143 0.03503529 0.031628355
0003c0 6b 04 a1 bd d7 de f7 bc 2f b7 84 bd c8 8d 1d bd
       -0.07862171 -0.030257626 -0.06480252 -0.03846529
0003d0 d9 30 aa bd 65 ea 99 3d a1 28 a7 bd 56 dd e9 3b
       -0.08310098 0.0751541 -0.08162046 0.007136981
0003e0 f4 a6 65 bd f2 23 94 3d 05 c7 65 3d c4 b0 f0 3d
       -0.056067422 0.072334185 0.056098003 0.11752465
0003f0 a7 59 76 3e 7c 92 6e be 1f 00 02 3e 01 ac e7 bc
       0.24057637 -0.23298067 0.12695359 -0.02828026

lstm.weight_hh_l1 f4 [256, 64]
000000 c8 0b 1d 3e 6d d9 4d bd 9a 92 bb bc 53 55 24 3d
       0.15336525 -0.05025618 -0.022897054 0.040120434
000010 36 5f 5f 3d c1 6b 4b 3e 57 01 b5 3c c5 25 f9 3c
       0.05453416 0.19865324 0.022095365 0.030413518
000020 a5 48 bb bd c0 d9 a5 3d b4 40 ab 3e 9a 44 37 be
       -0.09144715 0.08098173 0.33447802 -0.17897263
000030 ec 8b 54 bd 45 a8 20 3e bd 68 ed 3c 90 86 71 3d
       -0.051891252 0.1568919 0.028980607 0.05896622
000040 10 93 ad 3d c9 88 2f 3e 4d 4f 30 3b 92 ab 7e bd
       0.084753156 0.17142023 0.0026902736 -0.06217534
000050 4f 75 4a 3e 2d d8 0a 3d d2 dc 12 3e 1c 9a 76 bd
       0.19771312 0.033897568 0.14342049 -0.060205564
000060 f4 17 3c 3e 91 44 68 be 4b e0 4e 3e 97 72 41 be
       0.18368512 -0.22682406 0.20202748 -0.18891369
000070 17 e9 1d 3e 4d 5b 26 bd a0 5a 90 bc 23 de 16 be
       0.15420948 -0.040614415 -0.017621338 -0.14733176
000080 ed e5 4e be 5d ce f6 bd 50 b2 57 be e8 ba 22 bd
       -0.20204897 -0.120510794 -0.21064115 -0.03972903
000090 08 59 61 3e a1 63 92 3d 8e 28 18 bd 96 3e 88 bd
       0.22006619 0.07147909 -0.03714805 -0.06652562
0000a0 a7 97 6a 3d c1 eb 1d be 6f 87 6d 3d 4d 31 39 be
       0.057273533 -0.15421964 0.057990488 -0.18085213
0000b0 a7 e5 9c 3d 3a 8a ee 3d 33 59 4f 3e b2 9e 86 39
       0.0766099 0.116474584 0.2024887 0.0002567671
0000c0 30 ef 0f 3e af dd 91 bd 5c b5 20 3d 54 a1 92 bd
       0.14056087 -0.07122361 0.039235458 -0.07159677
0000d0 34 a6 85 3d 4a bd 82 be 64 4d 45 3e a2 dd e2 bd
       0.06525841 -0.2553504 0.19267803 -0.11077429
0000e0 3d 5f d5 bd 0f 90 07 be e3 75 36 be bd 21 1b be
       -0.10418556 -0.13238548 -0.17818408 -0.15149589
0000f0 f9 08 0a be bd bd 88 be fe 64 05 3e 9e 82 25 3e
       -0.13479985 -0.2670726 0.13026807 0.16163108
000100 34 22 59 3e 44 a2 98 bd be 8f a5 bd c8 74 c7 3c
       0.21204454 -0.07452825 -0.08084057 0.024347678
000110 4a 8b 09 3a 3b 34 26 bd 1f fd 59 3e a1 cc d3 3c
       0.0005246891 -0.040577155 0.21287964 0.02585441
000120 78 55 eb bc 26 19 12 3e e2 84 91 3e f1 94 15 3d
       -0.028727278 0.14267406 0.28421694 0.036518995
000130 70 f0 51 be 76 d1 cf 3d 37 32 21 3d fe 7b f3 bd
       -0.20501876 0.101473734 0.03935453 -0.11888884
000140 58 cb 48 3e 61 ca a6 3d 28 c7 58 3e 11 eb 21 3c
       0.1960882 0.081440695 0.21169722 0.009882704
000150 76 8c 28 3d d7 bb 4b 3d 81 f2 1b bd 69 c3 b5 bd
       0.04114958 0.049739685 -0.038073067 -0.08875162
000160 b3 ae 50 3e e1 7f 8c bd b9 84 3b 3e 64 66 a3 3c
       0.20379142 -0.068603285 0.18312348 0.019946285
000170 a9 c3 0f 3e b6 a1 ce 3d 92 b2 3c be 35 d8 c2 3d
       0.14039482 0.10089438 -0.18427494 0.095138945
000180 96 a7 f7 bd f1 55 9e 3d 92 ee 13 3e 62 59 45 3c
       -0.12092511 0.07731236 0.14446476 0.012045236
000190 38 df ac 3d d7 05 25 3e b4 0c 0f 3d a9 fd 93 bc
       0.08441013 0.16115509 0.034924224 -0.01806529
0001a0 0b 1d 93 3d ba b9 52 be 4b fc 03 be 26 39 b8 bc
       0.07183274 -0.20578662 -0.12889211 -0.022488188
0001b0 94 e9 b5 3c 51 b5 f8 3d 3e 77 dc 3d 7b 66 1c be
       0.022206105 0.12143958 0.10764931 -0.15273468
0001c0 a8 65 38 3e f1 a9 28 bd 30 3c 8d bd 8d f8 89 3d
       0.18007529 -0.041177694 -0.068962455 0.067368604
0001d0 07 c1 3f 3d ba 62 98 bd 7f b0 d6 3d 27 e3 e3 bd
       0.046814945 -0.074407056 0.10482883 -0.1112731
0001e0 a9 b8 5f be be 63 17 be 40 27 5b 3d e2 8f 38 3b
       -0.21847786 -0.14784142 0.05350423 0.0028161933
0001f0 c5 3a 74 bc bd 39 93 be 72 68 b9 3d 58 6d 03 3e
       -0.01490659 -0.28754988 0.090531245 0.1283468
000200 e1 08 ec 3d fe 41 1d bd 45 75 11 bd 17 92 69 bd
       0.11525131 -0.038393013 -0.035512228 -0.057024088
000210 43 9d b6 3d 72 94 e8 3d 24 4b 3e 3e 10 9f 32 3d
       0.08916714 0.11356439 0.18583351 0.043608725
000220 89 d0 29 be 8d 70 12 3c 88 43 93 3e 91 24 cf bd
       -0.16583456 0.008937967 0.2876246 -0.10114396
000230 dd d3 a8 3d 1f bb d9 3c 1b 90 b6 3d c3 4e 21 be
       0.08243535 0.026578484 0.08914205 -0.15752701
000240 82 c5 ec 3b cb eb 80 3d 28 4b a7 3d 2d d7 cb bd
       0.007225693 0.06294974 0.08168632 -0.09953151
000250 dd ed b6 3d f7 cf df bb 91 e3 c0 3d 10 fb 9e bd
       0.089320876 -0.0068302113 0.09418405 -0.0776273
000260 3e 0c 91 3d b1 6c 66 bd dd 8d 01 3e 14 ab 33 be
       0.07082413 -0.056256 0.12651773 -0.1754573
000270 2c 0c 57 3e b8 01 c4 bd 79 7c 15 be c2 ea 89 3c
       0.21000737 -0.0957064 -0.14598264 0.016835574
000280 8c 0f 79 3d ad d3 0c be e6 4b 08 be c7 82 ab bd
       0.060805842 -0.13752623 -0.13310203 -0.08374553
000290 e7 e0 db 3d 9e 59 05 3d 2d 5c 63 3c 7b 1d fc bd
       0.10736256 0.03255617 0.013876957 -0.123103105
0002a0 54 3d 3f 3e 65 b4 04 be 39 77 8f 3d 76 c0 18 3d
       0.18675739 -0.1295944 0.07005162 0.03729292
0002b0 b3 fe 06 3d ad c2 9b 3d 26 5d 1b 3e 76 01 b4 bd
       0.032957744 0.07605491 0.15172252 -0.08789341
0002c0 2d 55 1a 3e 4b a6 bc bd 70 98 0a 3d 35 36 6d 3d
       0.15071554 -0.09211405 0.033836782 0.057913024
0002d0 6b 15 57 3d 86 01 7d bd 8c 3e 5f 3d a3 6b 2e bd
       0.05251066 -0.06176903 0.05450301 -0.04258312
0002e0 2a 3b 85 bd 45 1c a3 3d 0b 29 08 be 8b d4 c8 bd
       -0.06505425 0.07964376 -0.13296907 -0.09806164
0002f0 90 7e 3a be 6e f5 49 be 44 a2 11 3e b3 4d 6f 3a
       -0.18212342 -0.1972253 0.14222056 0.00091287046
000300 d3 7e 62 3d d9 83 e3 3c c7 a6 87 be 63 e7 48 be
       0.05529673 0.02777283 -0.2649443 -0.19619517
000310 55 a6 e2 3d 0c bc 1b bc 36 90 0c 3e 3f b4 00 3e
       0.110668816 -0.009505283 0.13726887 0.12568758
000320 89 1e 26 3e 31 e1 1e 3e db e2 35 be 2f ec f4 bc
       0.16222586 0.15515591 -0.1776232 -0.029897777
000330 6c 4b 8a be 3b db 2e bc c4 bb 57 3e fe 2c 5c bc
       -0.27010667 -0.010672386 0.2106772 -0.013438461
000340 28 2c 45 3e f2 f4 39 3d 28 53 0b be 12 cc 9e bc
       0.19255126 0.045399614 -0.1360594 -0.019384418
000350 c5 87 f9 3d 9d 51 8c 3d 5f 4c c2 3d 54 1e dd 3d
       0.12184099 0.06851504 0.09487223 0.107968
000360 4c cf 1a 3e b4 30 a5 bd 52 03 d7 bc d5 41 16 3d
       0.1511814 -0.0806593 -0.0262467 0.036683876
000370 11 3a 4b bc d3 9f b9 3d 2e a8 c7 ba 6f f3 c0 bd
       -0.012403981 0.09063687 -0.0015232617 -0.09421431
000380 d1 6c 84 be 04 1b 42 bd 76 40 77 be da b7 3d 3e
       -0.2586427 -0.047389045 -0.24145684 0.18527165
000390 25 cb 9d bd 40 b8 70 3d e0 37 ab 3d 99 70 10 3e
       -0.07704762 0.058769464 0.08360267 0.14105453
0003a0 98 c4 b6 bd e1 fb 59 be 15 7c 0d be 82 86 a2 3c
       -0.08924216 -0.2128749 -0.13816865 0.019839529
0003b0 25 5a 71 3d 01 94 1a 3e fd 5a ac 3d 12 e8 38 be
       0.05892386 0.15095522 0.08415792 -0.18057278
0003c0 c9 54 3f 3d 0a 1f 1a be ee da 51 be 71 56 d1 bd
       0.046711717 -0.15050903 -0.20493671 -0.102215655
0003d0 56 31 97 bd cb 82 9d 3d f5 06 30 bd d7 b7 b2 bd
       -0.07382457 0.076909624 -0.042975385 -0.08726471
0003e0 21 16 10 bc e1 6b 2c be 64 58 3e bb 2c 49 ca 3d
       -0.008794338 -0.16838028 -0.0029044384 0.09877238
0003f0 2b d4 55 3e ba bb 0f 3e 35 2a 83 3d 69 ab ab bd
       0.20881717 0.14036456 0.06404535 -0.08382303

lstm.bias_ih_l1 f4 [256]
000000 97 54 54 be 13 a4 f9 bd b4 bd ec bd 41 8a b1 be
       -0.20735393 -0.12189498 -0.115596205 -0.34675792
000010 d7 06 65 be d7 02 91 be 52 5a a1 3c f6 76 c6 bd
       -0.2236589 -0.2832248 0.019696388 -0.09690659
000020 0c f3 b3 bd 53 7e 36 be aa b3 2e 3f e2 b1 d1 bd
       -0.08786592 -0.17821626 0.68242896 -0.102390066
000030 37 58 dc 3d c5 98 5c be 71 31 33 bc b1 0e 66 be
       0.10759013 -0.21542652 -0.010937081 -0.22466542
000040 4e f9 c9 3b 10 39 77 be 82 6f 2f bd b5 57 42 3c
       0.0061637526 -0.24142861 -0.04283095 0.011861731
000050 b0 da 13 3e cc 30 50 be 8f 9f ae bd 0a 61 30 be
       0.14438891 -0.20331115 -0.08526527 -0.17224517
000060 c2 2f 83 bd cf bb 42 bd cb 78 ef bd 9b 4b 9e 3d
       -0.064055935 -0.04754239 -0.11692961 0.07729264
000070 b1 13 8c be bc cf f5 bd 23 37 f3 bd a6 7e 6d bd
       -0.27358773 -0.12002513 -0.11875751 -0.05798211
000080 ad 32 74 3d e4 08 4b bd 1e ed 87 bd 7a fe 2c be
       0.05961864 -0.049569026 -0.066370234 -0.1689395
000090 0b 8f 7d be 8a 87 aa bd 73 8f fa 3c a4 57 2c be
       -0.24761598 -0.08326633 0.03058598 -0.16830307
0000a0 5b ae f9 bd 39 c3 42 bd 9c e8 61 be b2 23 44 be
       -0.12191459 -0.04754946 -0.2206139 -0.19154242
0000b0 0a 0e b1 3d 61 03 6f bb 22 0f 01 bd 93 cf cd 3b
       0.08645256 -0.003647052 -0.031508572 0.0062808483
0000c0 fb 5d 3c be 81 e4 8e 3d 6e 77 17 3d 50 2a aa 3c
       -0.18395226 0.069771774 0.03697913 0.02077213
0000d0 69 b4 27 be 26 c0 a9 bd 16 fc 44 be dd f7 5b 3e
       -0.16377415 -0.082886025 -0.19236788 0.21481271
0000e0 5d f2 5c 3e 4b a9 4a be 98 1a fa bc ed f9 40 be
       0.21576829 -0.19791143 -0.030530259 -0.18845339
0000f0 6c bc 8f be 67 0c 31 be 56 80 f5 bd eb 33 b2 bd
       -0.28073442 -0.17289887 -0.11987369 -0.08701309
000100 7d 50 d5 3c 30 56 62 3d 4e 3f 8b bd 3c 19 d9 bd
       0.026039356 0.055257976 -0.06799184 -0.10600516
000110 00 2a c9 bd f4 0b 1e be dc 03 c7 bc af 34 98 bd
       -0.09822464 -0.15434247 -0.024293832 -0.074319236
000120 a1 28 24 bc 74 dc ef 3c 40 42 1c bd 21 f3 db bd
       -0.010019452 0.029279925 -0.03814912 -0.107397325
000130 48 d2 dd 3d 5d ad 13 3e f7 8c 60 3d dd e0 2f bd
       0.108311236 0.14421602 0.054821935 -0.042939056
000140 66 d1 d0 3c 45 85 0a bd 86 dd 00 be cd 86 1d 3e
       0.025490474 -0.033818502 -0.12584504 0.15383454
000150 88 fc 31 3e 32 cd fd bd 33 6f 2c 3c 89 6b 1d be
       0.1738149 -0.123926535 0.010524559 -0.15373053
000160 84 08 66 bc 48 98 bd 3c 24 1b 27 3d 2b 30 b2 be
       -0.014040116 0.023143902 0.040797368 -0.34802374
000170 03 b3 59 be 03 0a 7b bd 62 f4 e3 3d c0 35 63 3c
       -0.21259694 -0.061288845 0.11130597 0.0138677955
000180 47 80 5e 3e 84 67 92 be 7e 3a 86 bd c3 3c 84 3d
       0.21728621 -0.285946 -0.06554125 0.06456902
000190 23 75 8f bd 6b 52 0e bd a3 41 ef 3d 23 7a 7a bd
       -0.07004764 -0.03474657 0.11682441 -0.061151635
0001a0 ed 05 53 3d 77 a5 00 3e 14 d6 05 be 2c 41 80 bd
       0.051519323 0.1256312 -0.13069946 -0.062624305
0001b0 e0 ba 7d 3d 78 36 41 bd f4 b9 c6 bd 87 5a b1 3c
       0.061945796 -0.047171086 -0.097034365 0.021649612
0001c0 1c 20 6c be ff 25 08 bc fe fc 80 3d 09 26 a2 3d
       -0.23059124 -0.00830984 0.062982544 0.07917411
0001d0 64 d1 92 be 2a c4 8f be 3c dc 00 be fd 57 ba 3d
       -0.28675377 -0.2807935 -0.12584013 0.09098814
0001e0 5c 0e 3d 3d 45 3f 15 3c 12 1b d1 3c 36 52 fe bd
       0.046156272 0.009109323 0.025525603 -0.12418024
0001f0 f9 f0 f2 bd 88 a6 87 be fb c9 45 bb b6 47 0b be
       -0.11862368 -0.2649424 -0.0030180204 -0.13601574
000200 89 d0 51 be 9e ce b2 3c bb 56 12 3e a2 3b 33 bd
       -0.20489706 0.021827038 0.14290898 -0.043758042
000210 9d e0 d0 3c 1e f9 9d 3c 90 4c 4e be 20 77 e8 bd
       0.025497729 0.019283827 -0.20146394 -0.11350846
000220 eb 2d 4d 3d 24 d1 17 bd ce fe 96 be 9e f2 96 3c
       0.05009262 -0.037064686 -0.29491276 0.018426236
000230 29 5b 3b 3e 55 b6 33 be 1e c9 03 bd 31 b1 94 3c
       0.18296494 -0.17550023 -0.032174222 0.018150898
000240 7d 6b 19 be 5b 0b a0 bc 8e d2 a9 bd 2a 89 95 bb
       -0.1498241 -0.019536665 -0.08292113 -0.0045634704
000250 1b 32 89 be 5f e4 cb bc e4 81 4c be 95 f5 49 3e
       -0.2679604 -0.02488917 -0.19971424 0.19722588
000260 e6 07 34 be 95 3c d3 3c 69 be 14 be 8f ca 35 3e
       -0.17581138 0.025785724 -0.1452576 0.17753051
000270 67 42 40 be 2c ff 4e be 2c 1c 4e 3e a7 a2 c8 3c
       -0.1877533 -0.20214528 0.20127934 0.024491621
000280 98 a9 85 3e c7 f0 cb 3d c1 a9 9c 3d cb df 8f 3d
       0.26105952 0.09958034 0.076495655 0.07025107
000290 a3 8c cb bd 01 af 0b be b7 5c db bd 4f f4 b0 3d
       -0.09938934 -0.13640977 -0.10711043 0.08640348
0002a0 64 f3 fd bc 04 a6 fa 3d a8 fe f6 bd b0 7f e8 3d
       -0.030999847 0.12238696 -0.120602906 0.113524795
0002b0 b1 7c 35 be 15 81 38 be 67 e6 f3 bd 76 e0 28 3e
       -0.17723347 -0.18017991 -0.1190918 0.16491875
0002c0 6b 08 61 be ea 10 da 3d 0c 33 54 3e 8a 74 f1 3d
       -0.21975867 0.10647757 0.20722598 0.11789806
0002d0 7f 67 0e 3d 7c c4 31 3e d4 3c a2 bd cc eb 77 3e
       0.03476667 0.17360109 -0.07921758 0.24211043
0002e0 f9 04 43 3e 75 43 af 3d 4c b6 2d 3e bd ad 50 3e
       0.19044866 0.08557788 0.16964072 0.20378776
0002f0 b2 c7 1d 3e 8e e8 b4 3d 8c 10 03 be cf d2 7b be
       0.15408209 0.08833419 -0.12799281 -0.24592136
000300 b1 17 c9 bd 97 35 f6 3b 0d b9 ab 3d 12 be 7b be
       -0.09818972 0.0075137126 0.08384905 -0.24584225
000310 00 54 ce 3b ef 09 85 be c7 55 b9 3b bf e7 af bd
       0.0062966347 -0.2598414 0.0056559774 -0.08589124
000320 2a 00 b4 bc bb 6d 39 be d4 7a d4 3e c5 eb 6b bd
       -0.021972734 -0.18108265 0.4149996 -0.057597894
000330 3a 72 24 3e 13 7d e9 bd ca 6b d9 3d 1d 8a 78 bd
       0.16059199 -0.11400809 0.10616262 -0.06067859
000340 91 08 5c 3d e9 f3 7e 3b 60 4e 1e be f1 d5 de 3d
       0.053719107 0.0038902706 -0.15459585 0.1088065
000350 b7 72 a6 3d 00 80 f0 bb fc c2 e5 3c af 7a 34 be
       0.08127349 -0.0073394775 0.028047077 -0.17624925
000360 0d c8 10 be f6 90 95 3c a9 1f 9c 3d 89 48 44 3e
       -0.14138813 0.0182576 0.07623226 0.19168295
000370 84 8d 6e bd 6f b2 ef bd a7 db 0d be 66 88 47 bb
       -0.05824043 -0.117039554 -0.13853322 -0.003044629
000380 b8 0f 22 bd cb 35 e2 bd 4f 8b 6d 3e b6 e0 9b 3c
       -0.03956577 -0.110454164 0.23197673 0.019028049
000390 c8 b1 09 be c9 e8 f1 bc fe 80 33 3e b0 c4 01 be
       -0.13446724 -0.029529946 0.17529675 -0.12672687
0003a0 fc 7d 8f 3c f9 58 68 3d 16 da 94 be 0f d6 ee bd
       0.017516129 0.056725476 -0.29072636 -0.11661922
0003b0 a1 62 d9 bd 52 70 41 3d ac ff 10 be 08 04 27 be
       -0.10614515 0.047226258 -0.14160031 -0.16310132
0003c0 47 4a 91 be 30 bc d2 3b 7a b9 b6 bd cd 4b c5 bd
       -0.28376982 0.006431125 -0.089220956 -0.096335985
0003d0 23 38 9e be 69 93 f9 bc ba 30 36 be e7 02 88 3d
       -0.30902204 -0.030465798 -0.17792025 0.066411786
0003e0 43 20 e8 3c 0c 1e 0f be 31 c6 74 3b da 41 70 be
       0.028335696 -0.13976306 0.0037349577 -0.2346262
0003f0 6c 7f 5f bd 81 47 0e be 45 b2 6d bd 30 1b 94 be
       -0.05456488 -0.13894464 -0.05803134 -0.28926992
