data_storage/models/lstm_v1.0.0_20251231_110634/points_model.pt (torch, 217493 bytes, 9 tensors)

lstm.weight_ih_l0 f4 [256, 12]
000000 3a 72 f8 3e 3f 19 98 3e c5 4e 87 bc 4c 90 cd 3e
       0.48524648 0.2970676 -0.016517052 0.40149152
000010 16 5e da 3e fa dd d7 bc f7 a9 c2 3e c6 ec d7 bd
       0.42649907 -0.026350964 0.38020298 -0.10543208
000020 0b aa 1b 3d 99 36 1e bb 6d b6 77 bd 0e 5d 89 3e
       0.038003962 -0.002414143 -0.06047671 0.26828808
000030 dc d0 91 be fc 9a ba bd 24 a0 4f be ee 69 f4 bd
       -0.2847966 -0.09111592 -0.20275933 -0.11934267
000040 ac 68 fd bb ff 57 31 3e 9c d5 99 3d d3 22 a3 bd
       -0.007733425 0.17318724 0.07511446 -0.079656266
000050 90 19 4e bd a2 90 ae 3d 4c 73 f7 3e 90 fa cb 3e
       -0.050317347 0.0852368 0.48330152 0.39839602
000060 87 30 49 bc 36 ec 86 3e 4c 34 e0 bc f8 4a 56 be
       -0.012279636 0.2635209 -0.027368687 -0.20927036
000070 f1 ed 34 3d 17 6a 3b 3e 22 49 be bd dc b6 b5 be
       0.04417223 0.18302189 -0.09291293 -0.35491073
000080 61 cd 0f bd 9a ae 95 be 06 5d 8b be 28 a3 bf be
       -0.035107974 -0.29234773 -0.2721941 -0.37429166
000090 70 69 8d bd c1 9b 2a 3e 22 31 6e 3d 74 bc 8b be
       -0.06904876 0.16660978 0.058152325 -0.27292216
0000a0 e0 20 9b bc 87 1d c1 3d c5 e9 3e 3e b9 f8 df bd
       -0.018936574 0.0942946 0.18643863 -0.10936112
0000b0 d5 dc 3a be a3 9b 3a 3e 12 60 ae 3e 82 06 88 3e
       -0.18248303 0.18223433 0.3405767 0.26567465
0000c0 84 f8 30 be ea b2 04 be 7d 9d 3c 3d 9b ab 12 3e
       -0.17282301 -0.12958875 0.04604863 0.14323275
0000d0 1b 0a f3 3d bf e4 58 be bb 13 9a 3d 39 1d 09 bf
       0.11867162 -0.2118101 0.075232945 -0.53560215
0000e0 cc 2f e7 3d 7e b2 95 be 8e 61 e9 3d 91 48 9a 3e
       0.112884134 -0.2923774 0.1139556 0.3013349
0000f0 9d cc 3b 3e f6 57 e0 3d eb 46 12 be 05 6c 54 3d
       0.18339773 0.10954277 -0.14284866 0.051860828
000100 bc 85 8d 3e 6e 1b 20 be 5b 17 88 be 2b 93 05 3e
       0.27641094 -0.15635464 -0.2658032 0.13044421
000110 cd 21 42 3d 5e e6 8e 3c c9 8b 81 3e 53 1b 88 3d
       0.047395516 0.017443832 0.2530196 0.06645837
000120 78 f8 72 bd 65 91 8a 3d 2a 8d 49 bd 11 07 c4 be
       -0.05931899 0.06766013 -0.04920689 -0.3828664
000130 3e 00 2e bc 3f 39 e0 3e a5 26 ad 3e 42 f6 97 bd
       -0.010620175 0.43793675 0.33818546 -0.07420017
000140 7d e8 c0 3e 5b 4f 29 3e c3 01 9e 3c d8 fa f4 3e
       0.37677374 0.16534178 0.01928795 0.4784763
000150 f5 86 60 3d 14 9b a6 bd 25 46 e3 3d f6 d7 89 3d
       0.054816205 -0.081350476 0.110973634 0.067306444
000160 72 b2 53 3d 87 03 c9 be ea 94 67 3e 0f 67 db 3d
       0.05168385 -0.39260504 0.226154 0.10713016
000170 8d 7c 5b 3e c5 dc 4e 3e b3 67 99 bd 14 59 b4 3c
       0.21434231 0.20201404 -0.07490482 0.022015132
000180 6e ad 83 be b1 b4 31 bb 92 ea 67 be b9 37 97 bc
       -0.25718254 -0.0027115757 -0.22648075 -0.018459188
000190 f1 3f 37 be 59 08 0f 3d 2a 39 59 3e 5f 2b 8a be
       -0.17895485 0.03492007 0.21213213 -0.26986215
0001a0 0e ae 91 3e 49 53 ac 3d 1d 59 51 3e e9 bf 3b 3e
       0.28453106 0.08414323 0.2044415 0.18334927
0001b0 d9 aa 7a be b3 04 cd 3d 0a 96 32 be a4 59 e2 3d
       -0.24479236 0.10010662 -0.17440048 0.11052254
0001c0 56 59 c4 3c 76 5b 33 be 65 13 71 3e 13 08 fa bd
       0.02396838 -0.17515358 0.23542555 -0.12208571
0001d0 87 40 bb 3c 22 91 be bd 00 fb c8 3e 06 3e 7d be
       0.022857917 -0.09305026 0.39253998 -0.24730691
0001e0 c0 10 14 be cf da 4f 3d e2 f5 96 bd c0 a5 21 3e
       -0.14459515 0.05074578 -0.07371117 0.15785885
0001f0 b9 b1 10 be e0 1a dc bd a4 1a ce 3d db c0 88 3c
       -0.14130296 -0.107473135 0.10063675 0.016693523
000200 1b fb 37 3e 7f e1 17 bd 0c 7d 28 be 36 d4 c3 bb
       0.17966883 -0.037080284 -0.16453952 -0.0059762252
000210 80 d5 8a be 55 46 46 3c c3 3b dc bd 26 3a b4 bd
       -0.27116013 0.012101729 -0.10753586 -0.088001534
000220 1b 7f 44 bd 08 cb db 3d 8b 50 44 3e 68 33 4b be
       -0.04797278 0.107320845 0.1917135 -0.19843829
000230 ab d1 4f bb d7 23 45 3e d2 eb 75 bd ef 84 b7 3e
       -0.0031710665 0.19251953 -0.06003935 0.35843608
000240 f2 3a c8 bb 9e 77 d0 3d 39 26 61 be 07 86 c8 3c
       -0.0061105425 0.10179065 -0.21987237 0.024477972
000250 f9 2c 44 3e 42 e3 26 be 02 3b c1 3d 08 43 ea bd
       0.1915778 -0.1629763 0.09435083 -0.114385664
000260 c2 33 0e 3f 3c a8 15 3d 3d 01 5f 3e 58 df 37 3e
       0.55547726 0.036537394 0.21777816 0.17956293
000270 da 5d 8c be c9 dd f0 bd f4 ce a9 3d 67 ba 9e ba
       -0.27415353 -0.11761052 0.08291426 -0.0012109996
000280 45 0c 03 bd 0d a6 2f bd 53 72 c4 3c 18 b6 b3 3d
       -0.031994123 -0.042882968 0.023980295 0.08774966
000290 95 8e bb 3e 40 84 7c 3d 11 be 10 3d 7c c4 b6 3e
       0.3663222 0.06164956 0.03533751 0.3569678
0002a0 0d be 92 be 31 07 3c 3e 66 c0 13 be 10 4c 99 be
       -0.28660622 0.18362118 -0.14428863 -0.29940844
0002b0 a3 92 11 3e a4 f6 3b be b3 0d ce bc c4 3a 7f be
       0.14216094 -0.18355805 -0.025153017 -0.24924761
0002c0 c1 7f 9c 3d bc b0 4e 3e 4a 80 83 3e b6 4b a3 3d
       0.076415546 0.20184606 0.25683814 0.07973425
0002d0 33 d2 0e 3d 1c cd 53 be 9a df ff be ba 6c 1c 3c
       0.03486843 -0.20683712 -0.49975282 0.009547407
0002e0 1d 38 a5 3e 75 ef 89 bd c8 2b 00 bf 16 a9 87 bd
       0.32269374 -0.06735126 -0.50066805 -0.066240475
0002f0 dc 11 eb 3d 0d 82 85 be 63 2a 59 3d 6e 6d 80 3d
       0.11478016 -0.26075783 0.05301894 0.06270872
000300 6e 06 5d be d4 1c a8 3c 95 e9 27 3e bf 14 48 3d
       -0.21584484 0.020521559 0.16397698 0.04884791
000310 5c e0 b9 be 91 3c 8e 3e ef 85 9a be 46 22 8a be
       -0.36303985 0.27780584 -0.30180308 -0.26979274
000320 02 db 0c be 86 ae 2c bf 7c f7 a1 be e7 07 37 3e
       -0.1375542 -0.674538 -0.31634128 0.17874108
000330 9c ae c2 3d f1 6e 64 3e a4 40 c9 bd 47 df 37 be
       0.0950596 0.22307946 -0.09826782 -0.17956267
000340 d9 16 88 3e 90 4c 1f be 54 a1 89 bd b1 01 f5 3d
       0.2657993 -0.1555655 -0.06720224 0.11963213
000350 30 54 0c 3e d3 af 73 3e 4c 78 9d be 86 b4 0d bf
       0.1370399 0.2379754 -0.30755842 -0.5535358
000360 f2 fb 21 be 50 0d 41 3c 0e 3b 2e 3e d7 ec 89 be
       -0.15818766 0.011782959 0.17014715 -0.26938507
000370 4d 7d af 3d 27 9f aa be 6a 99 33 bc 8e 18 09 bc
       0.08568821 -0.3332455 -0.01096187 -0.008367671
000380 fd b2 72 be 69 bc 9f 3e a1 75 32 3e f2 ba 19 be
       -0.23701091 0.31198433 0.17427684 -0.1501272
000390 e9 4e 86 3c ce 8d 16 3e cd bc ef 3c bd f2 14 be
       0.01639505 0.14702532 0.029264832 -0.14545722
0003a0 b4 50 ec 3d 9b 98 f4 3e 0d be 61 3d f8 d9 84 be
       0.115388304 0.4777268 0.055112887 -0.25947547
0003b0 a6 4f cd be 78 89 90 be ca 08 be 3d fe 65 a3 be
       -0.4009983 -0.2822988 0.0927902 -0.3191375
0003c0 02 2d 4f 3c 26 14 25 3e 70 bf 55 be 06 4b c9 3c
       0.012645008 0.16120967 -0.20873809 0.024571907
0003d0 e4 f3 5f 3e 49 e6 79 3e 22 0e 5b 3e 5f 1f a7 3d
       0.2187038 0.24404253 0.2139211 0.081602804
0003e0 82 86 b7 be ee 11 2d be 7b fd 10 be 21 5a 93 3e
       -0.3584481 -0.16901371 -0.14159195 0.287797
0003f0 ef d9 ba bc ba 82 56 3e f4 d7 b9 3d 5a d7 07 be
       -0.022808997 0.20948306 0.09074393 -0.13265744

lstm.weight_hh_l0 f4 [256, 64]
000000 16 48 e2 3c 60 15 f2 3d 27 39 dd bd bb db fd 3d
       0.027622264 0.11820483 -0.108019166 0.12395426
000010 36 2a 08 bf 85 54 c3 3e 43 0c 04 be 86 c6 9d 3e
       -0.5318941 0.3815042 -0.12895302 0.30815524
000020 f6 59 cd 3d f6 3a f3 bb 64 fd fe 3d 77 a7 48 bc
       0.10026924 -0.0074228 0.12450674 -0.012246958
000030 94 3b b8 bc 0d 2e 3b bd 16 11 82 3d 2b b3 e7 bb
       -0.022489347 -0.045698214 0.06350915 -0.007070919
000040 53 e0 15 be c1 b0 30 3e 5c 21 08 bd 94 fc 69 3e
       -0.14636354 0.17254926 -0.03323494 0.22850257
000050 b2 7b 06 be 87 cd a0 be 1e 63 96 bd 27 65 ab be
       -0.13133124 -0.31406805 -0.07343124 -0.3347561
000060 f7 ed b2 bc b2 48 66 be e6 6d 2f 3e 2d d1 bd bd
       -0.021841986 -0.22488669 0.17131767 -0.09268413
000070 f7 15 ac 3e f7 09 73 3d 67 3e d7 bc 0a 53 36 3e
       0.33610508 0.059335675 -0.026274873 0.17805114
000080 1a 84 80 3d 46 a8 18 be df 79 12 3e 89 02 ce 3e
       0.062751964 -0.14907941 0.14304303 0.4023631
000090 6d 63 36 3e f6 3f 59 3c dc e7 58 3e d2 fe ee bb
       0.17811365 0.013259878 0.21182197 -0.0072935605
0000a0 3e 5a 90 3e 5a f7 d3 3d 66 eb 2d 3e 9e 65 5c bd
       0.2819385 0.10349913 0.16984329 -0.053807847
0000b0 87 f9 fd bc 27 60 15 bd a8 2d d1 3d c7 01 2b be
       -0.031002773 -0.03646865 0.10213786 -0.16699897
0000c0 5d 21 8b be a1 b3 08 3e 66 02 1b 3e e7 53 29 be
       -0.27173892 0.13349773 0.15137634 -0.16535912
0000d0 fc 0c 91 3e b3 f3 d2 bd be bf ef 3d 75 aa b3 3d
       0.2833022 -0.10300388 0.11706494 0.087727465
0000e0 57 26 26 3e 2b 92 16 be 0b 0b 80 bd ae cf a5 be
       0.16225563 -0.14704196 -0.06252106 -0.3238501
0000f0 f3 c5 26 3c 29 1f 80 be 76 20 73 3e 2d 0c 84 bd
       0.010179031 -0.25023773 0.23742852 -0.06447635
000100 25 91 e9 3c a0 a2 ca 3d f0 ee 5b be 76 c3 94 ba
       0.028511593 0.098942995 -0.21477866 -0.0011349756
000110 c7 8a b4 bd e0 8c 9a be fe 71 10 be 92 0f 44 be
       -0.08815532 -0.30185604 -0.14105985 -0.19146565
000120 6f 0d 61 3e 48 37 23 bd 1f 99 26 be 2a 31 2e 3e
       0.21977781 -0.039847642 -0.16269349 0.17010942
000130 9e cd c6 3e 8e 88 7f be ba 89 b6 3d 57 0b 9e be
       0.38828748 -0.24954435 0.08912988 -0.30868027
000140 67 b9 6b 3c b9 ea 98 3d ab aa 4d 3e bb 8d 01 3e
       0.014387465 0.07466645 0.20084636 0.12651722
000150 78 5c a8 be c7 cf 58 be 28 77 a1 3d d1 af f3 be
       -0.32883048 -0.21173011 0.078840554 -0.47595075
000160 cc 10 d1 bd c0 3f a4 bd 5c 39 9a bd 97 58 73 bd
       -0.10208282 -0.08019972 -0.07530472 -0.059410658
000170 61 28 fb 3d b9 f7 18 bd 93 5f de 3d e0 6a 03 3c
       0.12263561 -0.03734562 0.10858073 0.008021086
000180 71 0b d7 bd e0 30 b2 3d 55 41 75 be 0c cc dc 3d
       -0.10500229 0.087007284 -0.23950703 0.10781106
000190 8b 0e bd 3d 62 2b 5d bd 16 cc 0d 3e 34 97 8e be
       0.092312895 -0.05399645 0.13847384 -0.27849734
0001a0 00 d8 2d 3e ad d3 11 3d b5 7d 26 bc 99 ef af 3c
       0.16976929 0.03560226 -0.010161807 0.021476554
0001b0 0e 02 e6 bc d0 04 60 3e ef a4 36 be c6 20 c1 3d
       -0.028077152 0.21876836 -0.17836355 0.09430079
0001c0 fd 53 f0 3d ce 87 14 3e 17 02 eb bc e0 e8 ac 3c
       0.117347695 0.1450493 -0.02868752 0.021107137
0001d0 92 9c 4f bd b1 36 75 be 6c 94 59 be 34 a4 35 be
       -0.050686426 -0.23946644 -0.21248025 -0.1773842
0001e0 d9 06 25 bd ae 7a 46 3c 43 8e 15 3e 8c d5 a8 3d
       -0.040289734 0.01211421 0.1460505 0.08243856
0001f0 ba 47 9e bd 18 29 07 be 06 ff 13 be 75 41 24 be
       -0.077285245 -0.1319927 -0.14452752 -0.16040595
000200 48 30 5b 3e 24 68 87 3d 46 2a c9 bd c9 f7 ae bd
       0.21405137 0.0661166 -0.09822516 -0.08543355
000210 fc 0b dc bd 70 7a 0f 3e c5 a5 38 be 26 63 49 3e
       -0.10744473 0.1401155 -0.18031986 0.19666728
000220 de c9 98 3e 3a 7e a8 3e 66 6e eb bd 93 97 ed bc
       0.29841512 0.32908803 -0.11495666 -0.02900294
000230 77 78 b0 bd b6 69 73 bd 81 57 63 bd 76 4c c9 3d
       -0.08616727 -0.059426986 -0.055503372 0.09829037
000240 89 89 3f 3d 00 26 4c 3e 2e f2 c9 bc 7b 2e ea 3c
       0.046762023 0.19936371 -0.024651613 0.028586617
000250 84 8a ec be 5e 87 68 be 0c a4 c0 3d c9 7d f2 3d
       -0.4619943 -0.22707888 0.094062895 0.11840398
000260 02 a8 f8 3c 82 2d 36 3e 02 4f aa 3e de 43 17 bd
       0.03035355 0.17790797 0.33263403 -0.036929958
000270 b5 7d d1 bc fe 68 8f be 20 80 45 3c 0a 74 5b bd
       -0.025572637 -0.2800979 0.012054473 -0.05357746
000280 e5 4d 19 be 8d 9e 4e be d4 0c 4b be 27 b7 21 3e
       -0.1497112 -0.2017767 -0.19829112 0.15792523
000290 35 01 d7 bd ca cb 02 be f5 6d 87 bd 91 cf 9d 3e
       -0.10498277 -0.12773052 -0.066127695 0.30822423
0002a0 29 24 92 be 37 d3 29 be 20 f0 91 bd f1 3d 30 be
       -0.28543213 -0.16584478 -0.07125878 -0.17211129
0002b0 29 39 ab 3c 08 dc 9d bd 21 00 97 be 7f 51 30 3e
       0.02090128 -0.07707983 -0.29492286 0.17218588
0002c0 1e e2 8c be f7 8e 32 3e 31 68 7b bd 17 ba 60 3c
       -0.27516264 0.1743735 -0.06137866 0.013716242
0002d0 81 cd a6 3e 95 17 f1 bc c8 51 14 be 57 7e 6a be
       0.32578662 -0.02943019 -0.14484322 -0.22899757
0002e0 12 14 e2 3d 3e b3 a4 bd ae b9 fa bd 2a 0c 2f 3d
       0.11038984 -0.08042 -0.12242447 0.04273621
0002f0 2d 3a 83 be 1e 4b 4c be b0 f6 a0 3e e4 d0 2a 3d
       -0.25630322 -0.1995053 0.31438208 0.04170312
000300 ec e1 1b bf b1 8b ab 3d 1e a2 d3 bd 68 64 41 3e
       -0.60891604 0.083762534 -0.10333656 0.18885958
000310 8e af 68 3e 54 ef 0d be a7 91 a1 be bf 33 f4 3d
       0.22723219 -0.13860828 -0.31556436 0.11923932
000320 69 b7 3b 3d d9 38 df bd a0 46 28 3e 37 12 39 be
       0.04582921 -0.10899515 0.16433191 -0.18073355
000330 84 c5 38 3e 89 fb af 3e 5c 01 98 ba 1a 75 79 3d
       0.18044096 0.34371594 -0.0011597085 0.060902692
000340 1c f1 a1 3d 38 7d 08 3d 64 28 8a 3e 29 1a 6a 3e
       0.07907316 0.033322543 0.2698394 0.22861542
000350 2c fa 2c be 82 50 b8 3d 57 1c 27 be 7e 2a f0 bd
       -0.16892308 0.08999731 -0.16319405 -0.11726855
000360 fb 24 55 bc ec d9 c6 bd 04 0f 6f 3e 0b 8b c5 be
       -0.013009305 -0.09709534 0.23345572 -0.38582644
000370 6e d0 d6 3d 42 ce 0a bf fd ea ae 3e 21 60 33 be
       0.104889736 -0.54220974 0.34163657 -0.17517139
000380 75 fb e1 3e 1e 5e fb 3e a7 2d 98 3e 10 8d 98 be
       0.4413716 0.49095243 0.2972233 -0.29795122
000390 aa be 30 be 4f c0 ef bd 86 16 de be e0 15 a4 3d
       -0.17260233 -0.11706602 -0.4337656 0.08011985
0003a0 4f 31 90 3e 9a ef 00 3e 42 dd b9 bd 3b a0 14 3e
       0.2816262 0.125914 -0.09075405 0.14514248
0003b0 6b 6b e6 bc 10 24 9e bd 94 6e a1 3d a0 8d 10 be
       -0.028127393 -0.07721722 0.07882419 -0.14116526
0003c0 b5 85 1f 3e fa f1 90 3e 01 64 88 be 52 07 18 be
       0.15578349 0.28309613 -0.26638797 -0.14846542
0003d0 29 5e c5 3c e6 7b 90 bd 90 d7 cc 3e 5d 1b cb ba
       0.02409275 -0.07054882 0.4000821 -0.0015495826
0003e0 2b ec 9e bd b0 5b 5c bd f8 ee 81 3e c4 8b 91 bc
       -0.07759889 -0.053798378 0.2537763 -0.01776684
0003f0 4d 43 ae 3d 11 7a 25 3e a6 12 6c be a8 b4 06 3e
       0.0850893 0.16159846 -0.23053989 0.13154852

lstm.bias_ih_l0 f4 [256]
000000 59 42 31 3e 02 87 14 3d 3a f6 5e bd 6c 92 0f bd
       0.17310466 0.036261566 -0.05443404 -0.03505175
000010 9c ea 2b 3e af 37 0a 3d a7 d7 28 bd b4 ff 1e be
       0.16788715 0.03374451 -0.041221287 -0.1552723
000020 89 07 5e be f9 2e 3e 3d 99 08 22 be 1b e3 17 3d
       -0.21682562 0.046431515 -0.15823592 0.03708182
000030 4d c5 3b 3d 30 54 35 be f6 e5 3c be 81 c5 ce 3c
       0.045842458 -0.17707896 -0.18447098 0.025240662
000040 ce ff 2d bd 51 d7 82 bb cb e7 9d 3b 4f 8a 5a be
       -0.042480282 -0.003992953 0.0048188916 -0.21341823
000050 37 81 1f 3d b1 30 0f 3d aa e6 e9 bd 5f da 0f be
       0.03894159 0.034958545 -0.11420949 -0.14048146
000060 90 18 ee bd d9 1d 0a be 87 90 fa 3c 48 0b 42 3c
       -0.11625779 -0.13487948 0.030586494 0.01184351
000070 1e 16 9d 3d b6 f0 fb bc 2d 72 45 bd ae 1e cf bd
       0.07670234 -0.030754428 -0.04820459 -0.101132736
000080 7f 36 88 bd 3b cb 36 3e 1a 70 92 bd 30 6e 60 3e
       -0.06651019 0.17850964 -0.07150288 0.21917033
000090 84 e8 29 be 04 67 d3 bd 3a 6c 5b be 77 be f7 bb
       -0.16592604 -0.10322383 -0.21428004 -0.007560547
0000a0 eb 2a 65 3e e6 8f 48 be b9 5f 85 be 27 48 10 bd
       0.22379653 -0.19586143 -0.26049593 -0.03522506
0000b0 8f 41 0b bd 01 ec 8e bc d5 1f 72 3d e3 5b 06 be
       -0.03399807 -0.01744652 0.05911239 -0.1312099
0000c0 6a 4a ad 3c 9e 54 04 be 25 16 a5 bd 61 ae 26 be
       0.021153647 -0.12922904 -0.08060864 -0.16277458
0000d0 b0 99 2b bd 46 80 26 be b6 0f 1c 3e 17 04 14 3e
       -0.041894615 -0.1625987 0.15240368 0.14454685
0000e0 d8 93 14 3d 90 2a 94 bc b4 d5 0f be 74 94 3f 3d
       0.036273807 -0.018086702 -0.14046365 0.046772435
0000f0 7b 89 fe bd 78 ed 32 b8 c0 e1 0b 3c cc 20 1f be
       -0.12428566 -4.2659667e-05 0.00853771 -0.15539855
000100 c3 36 97 be 87 ea 1b 3e 9b 9d 82 bd 32 14 70 be
       -0.29533967 0.15226184 -0.06377717 -0.23445204
000110 a1 39 09 3e e2 e0 af 3d 81 51 c7 bd 9d 00 39 3d
       0.1340089 0.08587815 -0.097323425 0.0451666
000120 1e f8 0e 3e 2b 9e cd 3d 56 40 93 3d d3 40 1a 3e
       0.13961837 0.10039934 0.071900055 0.15063791
000130 1a 15 19 3d 39 6f d7 3d 25 a3 c7 3c d6 14 da bc
       0.03737364 0.10519261 0.024369786 -0.026621263
000140 02 74 8c 3d 66 a6 13 bd a6 36 cc 3d 50 ec 90 bc
       0.06858064 -0.03604736 0.09971361 -0.017690808
000150 71 d2 76 be 6f fb 8e 3e cf 29 02 bc 53 15 35 3e
       -0.24103715 0.27926204 -0.007944538 0.17683916
000160 64 92 60 bd f5 38 ae 3e 07 bf 2a 3e aa bf 2c 3d
       -0.05482711 0.3402783 0.16674434 0.042174973
000170 bb 85 11 be 94 48 8d bd ae f3 d3 bd 00 df 11 3d
       -0.1421117 -0.06898609 -0.103492126 0.03561306
000180 0b e2 b1 bb e1 e1 a4 3d 18 68 01 3e 31 13 e4 3d
       -0.0054285577 0.080508955 0.12637365 0.11136473
000190 7d d6 4d bd 6d 69 1b 3e 61 06 f3 3c 11 81 f7 bd
       -0.05025338 0.15176935 0.029666128 -0.12085164
0001a0 09 3d 08 be 31 67 79 3e e6 12 24 be 0d 71 3d be
       -0.13304533 0.2435577 -0.16022834 -0.18500157
0001b0 0c d8 42 be 5b 5e 30 3e d8 c8 fd 3c 63 d7 8a bd
       -0.19027728 0.17223494 0.030979559 -0.06779363
0001c0 04 cb 8f bd 8f 91 c7 3b 2c 07 fd 3c b4 ff 9e 3d
       -0.07021144 0.00609035 0.030887209 0.07763615
0001d0 2d 84 53 bb 8a 75 0a 3c a1 25 5d 3c bc 69 33 3d
       -0.0032274828 0.008450875 0.013497741 0.043802008
0001e0 2d b1 7d 3e 42 c4 fa 3c dc 48 86 3e 47 d1 06 3e
       0.24774618 0.030611161 0.26227462 0.1316577
0001f0 69 68 a9 bd be 45 7c 3d 43 0c a9 3d 41 41 20 be
       -0.08271868 0.06158995 0.08254292 -0.15649892
000200 4e 44 22 bd ea 70 f0 3d 40 22 56 3e db 7b b7 bd
       -0.03961592 0.11740287 0.20911503 -0.089591704
000210 b4 92 be bd 5b 34 7f bd 65 cd ed 3c 63 8d f5 bd
       -0.09305325 -0.06230579 0.029028604 -0.11989858
000220 a1 13 b9 3d e6 33 5d 3d 1a 7d 78 3d bb 07 df 3d
       0.09036947 0.054004572 0.06066618 0.10890146
000230 3b 97 9a 3c 5e 81 d9 bd c8 08 04 3e c9 84 b4 bc
       0.01887094 -0.10620378 0.12893975 -0.022035973
000240 f3 23 cb bd f2 f2 36 3a 69 b8 ba bc 0e 0c 16 3d
       -0.09918966 0.00069789507 -0.022793012 0.03663259
000250 27 fc d1 3d a1 19 08 3e a8 eb 16 3d 40 85 ad 3c
       0.10253172 0.13291027 0.036845833 0.021181703
000260 8e c4 a3 3d 2d e6 b6 3d aa de 52 bd d2 f2 a6 3d
       0.07996474 0.08930621 -0.05148188 0.08151783
000270 ba e1 e9 bc 73 fa 39 bd 1a b2 06 be 77 86 cf 3d
       -0.028550018 -0.045404863 -0.13153878 0.10133069
000280 16 2b a3 bd 47 83 cd bc 38 d5 04 3e bd 4a a7 bc
       -0.07967202 -0.025087012 0.12971961 -0.02042138
000290 01 dd 9d bd 59 4d 85 3d 1b 94 ef 3d ff 86 c6 bd
       -0.07708169 0.065088935 0.11698171 -0.09693717
0002a0 55 48 90 3d 51 90 43 3d e3 f9 ba 3d 63 d3 80 bd
       0.07045046 0.047745053 0.09129693 -0.06290319
0002b0 89 64 1d bb a0 a4 fa 3d 54 82 0e 3c 68 9b 82 3b
       -0.0024016222 0.12238431 0.008698065 0.003985811
0002c0 cf 4c 10 3b 1c 7f 3c bd 85 bf 84 3c f3 aa 47 bd
       0.0022018438 -0.04601966 0.016204605 -0.048747014
0002d0 fc 3e b7 bd 7c 8c aa 3d 96 90 16 3d 64 49 80 bd
       -0.0894756 0.083275765 0.03675898 -0.06263998
0002e0 c2 55 0c be 45 5d e2 3d 2b da dc bb 1f 96 0d bd
       -0.13704589 0.11052946 -0.006739875 -0.034566995
0002f0 01 ce a1 bd ff 2b a8 3d 4e a5 c9 bd 70 74 8e bd
       -0.0790062 0.082115166 -0.098459825 -0.069558024
000300 bf 8e ee 3d d1 7b e5 3d 5b 08 a0 3d 02 63 c8 3d
       0.116483204 0.11205257 0.07814094 0.09784509
000310 b6 c5 2c 3d 5a 8e 19 bd fd 85 ae 3e 7e 77 30 bd
       0.04218074 -0.037489273 0.340866 -0.043082707
000320 b8 a3 a9 bd f2 2d 03 3d b9 6e 8c 3d 63 6a 9e 3d
       -0.0828318 0.03202624 0.06857056 0.077351354
000330 36 49 77 bc 97 7f 81 3d 80 92 7a be e9 ec 26 bd
       -0.015093138 0.06323164 -0.24469948 -0.04075328
000340 78 ef db 3d 39 b9 58 3d 65 30 a7 3d 18 75 97 bd
       0.107390344 0.052911017 0.081635274 -0.07395381
000350 d0 0e a9 bc 80 dd 93 bd 44 41 ba 3d 8f 86 ae bd
       -0.020636946 -0.07219982 0.0909448 -0.08521759
000360 57 46 cd bd 42 77 00 be 26 00 7c 3d 58 09 84 bd
       -0.10023182 -0.12545493 0.06152358 -0.06447095
000370 dd af 56 3e 61 7f b0 bd 6f da 92 bd 0d 02 e9 bb
       0.20965524 -0.086180456 -0.07170569 -0.00711084
000380 d3 3b 89 3b 84 bb 81 3d a3 7d a9 3d e5 b6 2e bc
       0.00418804 0.06334594 0.082759164 -0.010663723
000390 ca 49 26 3c c3 35 0f 3e 38 0e ac 3d b8 1c 0e 3e
       0.010149429 0.13985352 0.084011495 0.13878143
0003a0 42 fc 9a bc 77 12 d4 bd 36 02 9c bd b3 a7 b3 3d
       -0.018919114 -0.103550844 -0.07617609 0.087722205
0003b0 b2 99 24 3e d3 34 be 3d f0 01 6d 3c 4c 8c 13 3d
       0.16074255 0.09287419 0.014465794 0.03602247
0003c0 3f 57 98 3d ed 2f 32 bd bd aa 0e 3d 28 df 57 bd
       0.07438516 -0.043502737 0.034830797 -0.052703053
0003d0 57 03 6d 3c 74 22 c0 3d 0c e8 3d bd ec c6 4e 3a
       0.014466128 0.093815714 -0.046363875 0.0007887918
0003e0 78 14 48 3d f0 c9 39 bd 69 56 3d 3e 75 09 ea bd
       0.048847646 -0.0453586 0.18489994 -0.11427585
0003f0 e3 54 32 3d 3a a4 88 bc ca 36 ad 3d 40 6d 39 3d
       0.043537986 -0.016679872 0.08457716 0.045270205

lstm.bias_hh_l0 f4 [256]
000000 fd a7 e5 bc 96 89 1c 3d 9f d7 38 3d 77 02 81 3d
       -0.028034205 0.03821715 0.045127507 0.06299298
000010 20 2b 55 3d bc 28 d4 bd dc 48 f2 bc 71 3d 04 be
       0.05204308 -0.10359332 -0.029575758 -0.12914063
000020 43 c0 7f be ec 6f 61 3d cf e8 20 be 21 2d c3 3d
       -0.24975686 0.055038378 -0.1571381 0.09530092
000030 4d b2 af 3c 44 81 0f be 4c a5 dc bd e8 23 1b be
       0.021447325 -0.14014155 -0.107737154 -0.15150416
000040 44 fe 25 b9 10 6a 98 3d d4 c1 55 3d b5 db 37 be
       -0.00015830348 0.07442105 0.052186802 -0.17954905
000050 25 c7 1e be 3a c4 81 3d ad 68 99 3d fa de 48 be
       -0.15505655 0.06336255 0.074906684 -0.19616309
000060 13 85 d7 bc 52 eb 8c bd 83 30 62 bc 57 98 00 3d
       -0.026308572 -0.06880821 -0.013805511 0.031395283
000070 23 21 ba 3d 0d 9b e7 bd 97 8e 1b be c0 10 4d 3d
       0.090883516 -0.113088705 -0.15191112 0.050064802
000080 7c 9b 7a 3d 03 0d 9b 3d 48 37 2a 3b 4f fc 56 3e
       0.061183438 0.07570841 0.0025972892 0.20994686
000090 bf a5 f3 bd 92 62 11 be 43 32 24 be 9e 94 75 bd
       -0.11896848 -0.14197758 -0.16034798 -0.059956186
0000a0 02 34 25 3e f6 a6 2c be 47 5e 80 bd aa 86 02 be
       0.1613312 -0.16860566 -0.06267982 -0.12746683
0000b0 48 61 a6 3d 4c 12 02 be 2a d6 b6 3d 03 0e dd bd
       0.08124024 -0.12702292 0.08927567 -0.10793688
0000c0 f1 ca de 3d 20 6d b2 bd cc 62 20 be fb 32 a0 bd
       0.10878552 -0.0871222 -0.15662688 -0.07822224
0000d0 34 e6 3f bc ff d9 db bd a4 23 55 3d 02 40 90 bd
       -0.0117126 -0.10734939 0.052035943 -0.070434585
0000e0 57 03 e5 3d 6a 55 10 be 18 f0 ff bd 8a 79 02 3d
       0.11182278 -0.14095083 -0.12496966 0.03185419
0000f0 4c 48 15 be ea 74 83 bd 02 06 87 bd 07 5a 1b be
       -0.1457836 -0.06418784 -0.06592943 -0.15171061
000100 24 4f e7 bd ba 49 95 3e fc 43 23 3e 42 07 54 be
       -0.11294392 0.2915781 0.15943903 -0.20705894
000110 6c cd 29 3e 67 89 2a 3e 25 fb 8d 3d 79 99 b7 bd
       0.16582268 0.16653977 0.06932668 -0.089648195
000120 ae 7d 7c 3d de d1 f4 3d 51 f6 de 3d 32 b0 af 3d
       0.061643295 0.119540915 0.10886825 0.085785285
000130 19 84 13 3e e2 8e 7e 3e 46 bb 80 3d 52 ff bc bd
       0.1440586 0.24859193 0.062857196 -0.09228386
000140 72 84 10 3e e4 87 95 3d 69 51 00 3e ff 81 3a 3e
       0.14113024 0.0730131 0.12531056 0.18213652
000150 37 e7 66 bd 03 da 80 3d f5 01 0f 3e e7 1c 80 3c
       -0.056372847 0.062915824 0.1396559 0.015638782
000160 aa 5b b0 bc f5 2f 2b 3e 1a df cb bc e9 de 89 3d
       -0.021528084 0.16717513 -0.024886657 0.0673197
000170 a1 02 5e be de db f2 bd 03 9d 9e 3c 58 69 54 3e
       -0.2168069 -0.118583426 0.019361978 0.2074331
000180 79 e6 1a 3d f4 b3 d0 bd 1b e2 19 3d d4 69 c8 3d
       0.037817452 -0.10190573 0.037569147 0.0978581
000190 ad 4f 87 bd e7 0c 87 3e 97 a6 81 bd 0b dc 2f 3d
       -0.06606994 0.2637703 -0.063306026 0.04293446
0001a0 bc 20 0c 39 82 93 2c 3e d3 26 3e be 12 86 de bd
       0.00013363635 0.16853145 -0.18569498 -0.10865416
0001b0 a6 0f 75 bd 7e c7 c0 3b f6 1b cc 3c 40 2c c3 3d
       -0.059829377 0.0058831563 0.024915677 0.095299244
0001c0 33 8d 56 be da 7b ff bc bd ff db bb cc d1 55 bd
       -0.209523 -0.031186987 -0.006713836 -0.05220203
0001d0 58 63 00 bd 6d a2 06 3e 07 9c 37 3e 18 af 3f 3e
       -0.03134474 0.13147898 0.17930613 0.18719137
0001e0 77 36 3c 3e f3 ea ad 3d f5 e4 6f 3e c9 11 12 3e
       0.18380152 0.08492079 0.23427184 0.14264597
0001f0 e1 fa 6f bc b1 8f f2 bd e2 52 4e 3e 09 d7 c0 3c
       -0.014647217 -0.11843813 0.20148805 0.023540037
000200 5a 60 c3 bd 3b 6b 5b 3d 4c 4e c1 3d d3 f7 6e 3d
       -0.09539862 0.05356906 0.09438762 0.058341812
000210 33 96 8f bd 6e c2 08 3e 69 73 b4 3d 97 82 e3 3d
       -0.0701107 0.13355419 0.08811075 0.111088924
000220 3b e9 f4 bc da 54 97 bc 62 4e 94 bc 93 31 f5 bc
       -0.02989637 -0.018473078 -0.018103782 -0.029930865
000230 da d9 0c be c7 9a 61 bd ef 5d 02 3d 84 07 0d 3e
       -0.13754979 -0.055079248 0.031827863 0.13772398
000240 74 24 cb bd 9b c9 02 bc 80 8b aa bd 61 7d 47 bd
       -0.09919062 -0.007982637 -0.08327389 -0.048703555
000250 05 52 e5 3d 20 36 7c bd 61 15 49 bd d2 17 50 bd
       0.111972846 -0.061575055 -0.049092654 -0.050803967
000260 b1 71 6f 3c 36 c0 51 3c 37 0f cb 3d 67 30 8f 3d
       0.0146145085 0.012802174 0.099150114 0.06991654
000270 71 40 8e bd 6d b6 3e bd 9b 7f 45 bd cd 86 13 3d
       -0.06945885 -0.046560694 -0.048217397 0.036017228
000280 65 0f e4 3d 9f 6e 09 3e 38 2b 4f 3d 8e 90 da 3d
       0.11135749 0.13421105 0.050578326 0.10672103
000290 d5 22 b4 bd 0f 84 ff bd 34 ec d5 bd 17 18 ca 3d
       -0.08795706 -0.1247636 -0.10445443 0.09867876
0002a0 33 c5 2c be e0 80 cd bd 50 57 95 3d 5c df 0f bc
       -0.168721 -0.100343466 0.07292044 -0.00878128
0002b0 7a f7 f8 3c 3c 26 05 bd af df 12 3d d6 1c 6b bd
       0.030391444 -0.032507166 0.035857853 -0.057400547
0002c0 a1 59 56 3d 08 7b b1 bd 89 93 b9 bc df 54 5e 3d
       0.05233157 -0.086660445 -0.022653358 0.054280158
0002d0 16 b1 a4 3d 9d e2 ac bd 90 81 cd 3c 98 84 87 bd
       0.08041589 -0.084416606 0.025086194 -0.06617087
0002e0 63 9c c0 3b fd 44 c2 bd c2 9b 2e bd 68 a9 97 3d
       0.0058780177 -0.09485815 -0.04262901 0.074053586
0002f0 bf 6a fd 3d 4e 9f 59 bd 22 75 c2 b9 a8 94 10 bc
       0.12373876 -0.05313044 -0.00037089834 -0.008824505
000300 fc df 92 3c 80 25 d0 3c 86 92 ac 3d d8 35 02 be
       0.01792907 0.025408506 0.08426385 -0.12715852
000310 57 f3 08 3e e1 32 08 be 93 f9 29 3e 82 c1 b6 bd
       0.13374077 -0.13300659 0.16599111 -0.089236274
000320 75 5a ef bd 1c 9b 7d 3d 60 9d 49 bb 79 d4 bf bd
       -0.11687175 0.061915502 -0.0030763969 -0.09366698
000330 89 76 65 3d f4 31 ba 3d f1 90 fc bd f5 87 5e bd
       0.056021247 0.09091559 -0.12332333 -0.054328877
000340 98 b6 08 3e 00 41 f3 3d 48 81 22 3e 7f 7a 2d 3d
       0.13350904 0.11877632 0.1586963 0.04235315
000350 3c ba 3d bc bb 8c 37 bd 28 ad 02 bd 30 d9 70 bd
       -0.011580046 -0.044811945 -0.031903416 -0.058800876
000360 64 07 c3 bd f0 88 81 bd 07 9b df bd 47 c0 5c be
       -0.09522894 -0.06324947 -0.10918241 -0.21557723
000370 41 92 5f 3e 92 f1 e6 bd 61 63 b3 bd e4 5b 95 3d
       0.21833135 -0.11276545 -0.087591894 0.07292917
000380 27 2e 62 bc 72 db e9 3b c7 5d cf bc 5d e5 81 3d
       -0.013804949 0.0071367556 -0.025313271 0.06342576
000390 87 94 1f 3d 71 58 10 3e ed f1 9b 3c 04 66 0f bd
       0.038960006 0.14096238 0.019036258 -0.0350094
0003a0 0c 08 95 3d c5 a2 e9 bd 7b cd 5c be 1d f5 ff bd
       0.072769254 -0.11407999 -0.2156276 -0.124979235
0003b0 24 44 2e bc be 77 df bd cb 06 e8 3d a4 f5 8d bd
       -0.010636363 -0.10911511 0.11329421 -0.06931618
0003c0 0f ba 56 3e 14 3c 1f be 04 4a 46 be d8 71 83 bd
       0.20969413 -0.15550262 -0.19364172 -0.06418198
0003d0 3f 3f b3 3d c4 d5 e1 bd ff 44 a7 bd 81 69 ce 3d
       0.087522976 -0.11027101 -0.08167457 0.10078717
0003e0 33 33 ee bc 1c 16 8f bd d7 94 28 bd 2d d3 3a bd
       -0.029077148 -0.06986639 -0.04115757 -0.04561155
0003f0 bc 20 ab 3d 4b eb 07 3e 4d e8 3c 3b 4c 5d 0d 3d
       0.08355853 0.13273351 0.0028824985 0.034512803

lstm.weight_ih_l1 f4 [256, 64]
000000 93 03 8f be eb a5 56 3d 8c 9b 21 be 08 3b d8 bd
       -0.27932414 0.052404325 -0.15781993 -0.10558134
000010 2a 42 32 be 21 01 40 3e b1 6f 4a bd 5b d2 d2 bd
       -0.17408052 0.1875043 -0.049422923 -0.10294028
000020 9f 35 b3 3d 1e 7e d3 3d ef b8 2a be 2e c1 86 3d
       0.08750462 0.10326789 -0.16672109 0.06579815
000030 7f 63 1b be 6b 84 d8 bb ad 90 42 3e 13 e0 5a be
       -0.15174673 -0.0066075823 0.19000502 -0.2137454
000040 7d a4 2d 3e 3f 9e a0 bd 9e 3b 53 bd d3 c2 40 3e
       0.16957279 -0.07842683 -0.051570527 0.1882432
000050 be a2 c7 be fa d0 8b bc 73 11 21 be 6f 2a ef bd
       -0.3899135 -0.017067421 -0.15729313 -0.116780154
000060 80 11 68 be a0 f9 0e bd f7 8c 7a 3e f5 70 ea 3d
       -0.22662926 -0.03490603 0.24467836 0.11447326
000070 6b 52 38 3e ab 04 8f 3c b7 2d 1e 3e 9b 11 8f be
       0.1800019 0.01745828 0.15447126 -0.2794312
000080 10 f5 ec 3c 49 44 b3 be b4 dc 0a be 69 bd 82 3e
       0.028925449 -0.35013035 -0.13560754 0.25535133
000090 35 59 80 3e 67 f0 a5 bd 30 87 93 3e 8f ae 2b 3e
       0.2506806 -0.08102494 0.28814077 0.16765808
0000a0 d6 1f 15 3e 52 d5 6e be 3c 55 82 3e b2 fd 14 3e
       0.14562926 -0.23323563 0.25455654 0.14549902
0000b0 94 95 93 3d de 5d e0 3d e7 a4 16 3e ab d5 e8 3d
       0.07206264 0.10955404 0.14711343 0.11368879
0000c0 3e fc b0 bb 77 8f f3 3e bb b6 f7 3d c9 18 0f 3e
       -0.0054011634 0.47570392 0.120954 0.13974299
0000d0 bb 53 77 3d 7e 82 da 3c 33 8a 8c be 23 59 af 3d
       0.060382586 0.026673552 -0.27449188 0.08561923
0000e0 a3 8e 0e 3e fc 06 8e 3c ee a7 64 be f4 56 28 3e
       0.13921599 0.017337315 -0.22329685 0.1643942
0000f0 cf ca 07 be d4 9e 88 bb 90 25 c2 3d c9 34 9b be
       -0.13260959 -0.0041693244 0.09479821 -0.3031371
000100 b5 8d 03 be f1 5c 83 bd 39 4f 99 be de e4 0d bd
       -0.12847026 -0.064142115 -0.29943255 -0.034642093
000110 e7 f6 a4 be 52 75 3a 3e 21 bb 71 be 8c 79 53 be
       -0.32219622 0.18208817 -0.2360654 -0.20651835
000120 10 f6 ac bd 1f 42 01 3d 6f 49 6a be 2b 44 6e 3d
       -0.0844537 0.0315572 -0.22879575 0.05817048
000130 c0 ea 93 bc 3e 11 33 bd f7 55 8c 3b c9 c0 31 be
       -0.018056273 -0.043717615 0.0042827087 -0.17358698
000140 ce 3c b9 3e 6d 6a 0f 3d e2 fa 15 be 9d a5 ad 3e
       0.36179203 0.035013605 -0.14646485 0.33915415
000150 7a 1c 02 bf d9 66 07 bd b5 42 8c bd 35 24 ff bd
       -0.508247 -0.033057068 -0.06848661 -0.12458078
000160 63 44 ab bd 37 e5 53 3d ef ac 9c 3e 48 08 75 3e
       -0.08362653 0.05173227 0.30600688 0.2392894
000170 03 40 67 3e 50 49 8f 3c 08 82 43 3e 9f 1b 23 be
       0.22583012 0.017491013 0.19092572 -0.15928505
000180 88 c6 e4 bc 9a 20 fa be db 36 82 be 8c d3 6c 3e
       -0.027926698 -0.48852998 -0.25432476 0.23127574
000190 8c c5 4d 3e cd b3 16 bd b1 fb d7 3e 60 4d 6a bc
       0.2009489 -0.036792565 0.42184213 -0.014300674
0001a0 9c 8f f7 3d 2f 8c b4 bc 5d 3f 56 3e 03 84 13 3e
       0.12087938 -0.022039501 0.20922609 0.14405827
0001b0 3f 92 a6 bc 47 06 12 3e 0a 24 e1 3d 4b 7f 52 3e
       -0.020333407 0.14260207 0.10993202 0.20556371
0001c0 85 28 cd bb d7 47 d9 3e 20 2b 6c 3e 1b 89 e4 bc
       -0.006260934 0.42437622 0.23063326 -0.027897408
0001d0 a8 d2 92 3d cf 39 32 3c 73 63 75 be 08 3a f0 bb
       0.07169086 0.01087804 -0.23963718 -0.0073311366
0001e0 fe df b3 bc b8 9d 12 3c 63 5f 4f be b6 03 8c 3d
       -0.021957394 0.008948736 -0.20251231 0.06836645
0001f0 db 47 2f 3c d2 13 ba 3a 5b 9c d8 3a 49 36 40 be
       0.010698284 0.0014196581 0.001652609 -0.18770708
000200 03 71 5c be 60 75 f5 3c 58 08 1d be 8c ed f2 bd
       -0.21527486 0.029963195 -0.15335214 -0.11861715
000210 6c f2 87 be c4 3b 61 be 69 69 c5 be 46 d7 77 be
       -0.2655214 -0.21995455 -0.38556984 -0.24203214
000220 9e 17 da 3c ae 2b d8 bb e8 68 07 be 41 cb 1a be
       0.02662259 -0.006597004 -0.13223612 -0.15116598
000230 ef c9 a0 3d 1f dd 05 3e 3e c0 dd bd 34 a6 59 bd
       0.07851016 0.13072632 -0.10827683 -0.05313702
000240 0d a6 83 3d 79 74 4d 3e 1b 29 66 be cc 7b 9a bb
       0.06428156 0.20063962 -0.22476618 -0.004714465
000250 d8 f9 e3 be 32 e1 f3 bc 3a f1 db bd c3 38 93 be
       -0.44526553 -0.029770467 -0.1073937 -0.28754243
000260 bb ee 81 bc ed f6 56 bb 8e 37 2e 3e a8 da 11 be
       -0.015860906 -0.0032800988 0.1701338 -0.14243567
000270 5b 17 d5 3e a1 36 0c be c1 e7 46 3e 5c ff 19 be
       0.4161938 -0.13692714 0.19424345 -0.15038818
000280 28 88 71 bd 97 90 d4 be 18 ae 34 be 59 71 65 3e
       -0.05896774 -0.41516563 -0.17644536 0.2240652
000290 b1 bb 55 3e c1 17 a2 bc 81 f6 b7 3b b4 c2 ba 3e
       0.2087238 -0.019786717 0.0056141024 0.36476672
0002a0 2f 42 49 3e ea 89 5d 3b e5 f1 79 3e e6 3b 35 3d
       0.19654153 0.0033804127 0.24408682 0.044246577
0002b0 a1 07 d9 3c 0a cb 4f be 1f 2b 30 3e 8d 90 cf 3d
       0.026492896 -0.20292297 0.1720395 0.10134993
0002c0 70 3c 05 bf dd 37 b7 3d 69 ad 57 be ab 83 45 bd
       -0.52045345 0.08946202 -0.21062244 -0.04822127
0002d0 99 72 27 3e 62 4b 05 bc 41 3d 89 3d 33 da 08 be
       0.1635231 -0.008135648 0.067011364 -0.13364486
0002e0 25 b5 c0 3e 25 0e 9c bd 85 a3 61 be 20 54 b7 3d
       0.37638202 -0.07619885 -0.22035034 0.089515924
0002f0 b4 1b 2d be 00 d7 b7 be 78 38 3b be cd 54 27 bc
       -0.16905099 -0.3590622 -0.1828326 -0.010213089
000300 e3 c3 ee 3d 1c 02 e9 3c d8 c1 80 bd 23 38 fd bd
       0.11658456 0.028443389 -0.06286973 -0.12364223
000310 07 76 b4 3d 3f a8 8c bd 70 ee f4 bd 99 6c 5d be
       0.088115744 -0.06868028 -0.11959541 -0.21623458
000320 83 40 d6 bc 28 4f a1 3d 4f d6 c3 bd 0f 1b 79 3d
       -0.026153808 0.07876426 -0.095623605 0.06081682
000330 d0 dd a5 bd 39 95 db bd 48 da fd 3d 8d 2e b3 bd
       -0.08098948 -0.10721821 0.123951495 -0.08749113
000340 69 e1 f3 3e e2 51 fc 3d 34 dd 47 bb 46 ff a4 3e
       0.47632912 0.123203054 -0.0030496838 0.32226008
000350 4e 64 37 be 6e c2 9d bd 20 e1 b6 3d d9 97 64 be
       -0.17909357 -0.077031 0.08929658 -0.2232355
000360 d4 2e f5 be 47 b8 61 3e 78 3d a5 3d 67 fa 2e 3e
       -0.4788729 0.22042952 0.08068365 0.17087708
000370 d9 77 ef 3d 30 7d 80 3d ca 13 8b 3e d6 24 8f be
       0.11692781 0.062738776 0.27163535 -0.2795779
000380 cf b9 95 be bf 76 ad bd b3 95 80 be 36 8c e8 bb
       -0.29243323 -0.08469915 -0.2511421 -0.0070967926
000390 50 99 88 3e 85 21 3d be 89 3f 4e bd 0b dd a2 bd
       0.26679468 -0.18469818 -0.05035356 -0.07952317
0003a0 0b 49 a4 3c 07 a2 27 be 45 70 75 bd de bf 0d 3c
       0.02005436 -0.16370402 -0.05992152 0.008651702
0003b0 1a 2a 7e 3d ea db 6e bc 02 b6 73 3d 3a 16 01 3e
       0.06205187 -0.014578799 0.059499748 0.12606135
0003c0 9f 68 59 be 1d ea b0 3e f7 65 81 3e 30 56 60 3d
       -0.21231316 0.34553614 0.25273106 0.054769695
0003d0 2d 83 9f bd 85 03 7b bd 65 97 87 3c 0e 21 f3 bd
       -0.07788692 -0.061282653 0.016551683 -0.11871539
0003e0 c3 ce 21 3d 3d 19 14 3e ce f2 48 be 38 ba b6 bc
       0.039503824 0.14462753 -0.19623873 -0.022305593
0003f0 8d c6 93 be d9 e6 35 3d 7c d5 8f 3e c9 f7 cc 3d
       -0.2886242 0.044409607 0.28092563 0.10008199

lstm.weight_hh_l1 f4 [256, 64]
000000 84 5f 3e bd f7 4f 9d bc 7c bf 43 be 8e 64 21 3e
       -0.04647781 -0.01920317 -0.19116014 0.15761015
000010 6b ee 11 3c 8c 62 49 3e 28 10 31 be aa 82 f3 3d
       0.008906941 0.19666499 -0.1729132 0.118901566
000020 0e 7b 33 be 09 d4 91 bd 41 be f7 3c 19 41 1f 3e
       -0.1752741 -0.071205206 0.030242087 0.15552177
000030 90 79 08 3c 65 f9 51 3e 81 bf e9 3c 43 42 df 3d
       0.008329764 0.20505293 0.028533699 0.1090131
000040 4f e6 ba bd a7 0b f9 3d eb 8b fd bc a3 c7 27 bc
       -0.09125959 0.12160426 -0.030950507 -0.010240468
000050 b1 3c fd 3d e8 7e 17 be 48 49 3a 3b 5c 0a c2 3d
       0.123650916 -0.14794505 0.0028425027 0.09474632
000060 f8 7a 13 3e 9f 42 43 bd 5b 41 5e ba f3 9a 8a 3d
       0.14402378 -0.047670957 -0.00084783667 0.067678355
000070 ae 4f 21 bd a6 5b e0 3c da bf 3c 3e be f3 26 be
       -0.03938263 0.027387451 0.1843256 -0.16303918
000080 24 bb 38 3c 22 b4 38 be 49 f0 9d 3d 83 8e 0b be
       0.011275087 -0.18037465 0.077118464 -0.13628583
000090 d6 57 c8 bc 1b a6 2f bd 41 dc b9 3d 81 00 56 3d
       -0.024455946 -0.04288302 0.09075213 0.052246574
0000a0 3a ce 1b 3e d8 ab 2e 3e ba 26 7e 3c 67 d1 aa 3d
       0.15215388 0.1705774 0.015512163 0.083407216
0000b0 92 09 46 bc b9 0e f2 bc 6b 0d 41 3e 63 48 25 3e
       -0.012087243 -0.029548036 0.18852775 0.16140895
0000c0 a9 f6 1d be 8f 1d 06 be 02 af 16 be cb 5d 3e be
       -0.15426125 -0.13097213 -0.14715198 -0.18590467
0000d0 cc 85 f7 3c c8 78 12 3e 76 44 2f 3e 6b f9 85 bc
       0.030215167 0.14303887 0.1711596 -0.016354283
0000e0 79 35 b8 3d 57 cf 9a 3a e3 dd e4 3d ec a2 e1 3d
       0.08994574 0.001181106 0.11175134 0.11017403
0000f0 c7 5e bd bd 88 78 49 be a9 bc 3b 3e 7b 8f d7 3d
       -0.09246593 -0.19674885 0.18333687 0.105254136
000100 77 8e 77 3d 9e 82 13 3e c3 32 ce bd 06 10 28 3e
       0.0604386 0.14405295 -0.10068276 0.16412362
000110 d5 f1 15 3d 42 e9 49 3d 3f 17 dc bd a8 8b bd 3c
       0.036607582 0.049294718 -0.10746621 0.023137882
000120 be 92 97 3b 23 4d 23 be 84 a0 f7 bd ba db 15 3e
       0.0046256473 -0.15947394 -0.12091163 0.146346
000130 f3 59 88 3d 22 93 d7 3d 12 71 28 bc 34 fb 7f bd
       0.066577815 0.1052611 -0.010280864 -0.062495425
000140 ba 01 30 3b 2e eb c9 3d 16 71 2f be 40 83 b7 bd
       0.0026856498 0.0985931 -0.17132983 -0.08960581
000150 c1 a9 10 3e 26 42 c0 bd 52 47 18 be e5 6c 92 3d
       0.14127256 -0.09387617 -0.14870957 0.07149676
000160 90 17 c1 3d e6 ad 53 3d 52 f9 5c 3d d7 ab 9f 3d
       0.09428322 0.051679514 0.053948708 0.07796448
000170 2f 15 6c 3d df ed 39 bc c0 e6 db 3d 5b 8b ff bd
       0.05763739 -0.011348217 0.107373714 -0.12477752
000180 25 8e 56 bc e6 f8 78 3d cd d8 1c bd 03 5a ca bc
       -0.013095413 0.060784243 -0.038292695 -0.024701124
000190 44 17 25 3d b9 e3 11 bd 47 5d c7 bb b8 28 00 3e
       0.04030539 -0.035617564 -0.0060841176 0.12515533
0001a0 5e 80 f0 3c 7a 8f 2d 3d a2 be 8f 3d b4 18 81 bd
       0.029358085 0.042373158 0.07018782 -0.0630354
0001b0 dc 99 5a be db 62 b5 3c c3 b2 4e 3e ea 89 bb 3c
       -0.21347755 0.022141865 0.2018538 0.022892911
0001c0 bc cf ac bc a5 fc 6e be 13 18 97 bd 33 00 85 be
       -0.02109515 -0.23338564 -0.07377639 -0.25976714
0001d0 a1 c8 52 3e c4 e8 0b 3e e3 66 e3 3c 9e 2a 61 bc
       0.20584346 0.13663012 0.027759021 -0.013743071
0001e0 b2 d1 9b 3d fa 66 0b 3e c2 44 63 3e 11 31 ec 3d
       0.076083556 0.13613501 0.22194198 0.11532796
0001f0 b6 b0 8b bd 25 e2 28 be 0d 1c 6e 3c 85 72 37 3e
       -0.06820814 -0.16492517 0.014533055 0.1791478
000200 a2 66 09 bd b5 30 33 bb 92 b4 35 be 07 b2 20 bd
       -0.033545144 -0.0027342264 -0.17744663 -0.03923228
000210 0a 73 56 be 09 c6 10 3d 7b 5b 24 bd 1f d1 a6 bc
       -0.20942321 0.03534511 -0.040126305 -0.020363389
000220 91 ff 35 be d6 50 f2 bd c2 60 07 be ae 0f 29 3d
       -0.17773272 -0.118318245 -0.13220504 0.04127472
000230 10 46 58 bd 0a 26 8b 3d 8b cf ad bc 9b 88 fc 3d
       -0.05280119 0.06794365 -0.021217128 0.12330743
000240 37 fb 0e be db 1d 4c bd 39 33 84 3d 99 bb 0c 3e
       -0.13963018 -0.04983316 0.064550824 0.13743438
000250 9e b9 86 3d 23 5f f1 3b 55 a1 a7 bc ae bd 04 be
       0.065783724 0.0073660775 -0.020462671 -0.12962982
000260 62 aa d3 3d 54 41 ab bd 42 78 e4 3d d4 e4 9c 3b
       0.10335232 -0.0836207 0.1115575 0.0047880206
000270 3b a9 8f 3d 08 ff 1c 3d dc 4b dd bc 58 32 e1 bd
       0.070147 0.038329154 -0.027013712 -0.109959304
000280 73 c6 3a be ae f8 97 bc b3 35 38 ba 4d 4c b7 3c
       -0.18239765 -0.018551197 -0.0007027045 0.02237525
000290 ca 6f cc 3d 93 e4 1c bd a0 4f 8b bc ce 47 23 3e
       0.099822596 -0.038303923 -0.017005742 0.1594536
0002a0 3d 51 5b 3d ae 37 95 3d ee a1 ef 3d e5 01 a3 bc
       0.05354427 0.07286011 0.117008075 -0.019898364
0002b0 2f d1 18 bd 76 d7 9f bb 72 5a 78 bc 35 31 f4 3d
       -0.037308868 -0.00487798 -0.015158283 0.11923448
0002c0 69 8d 5e bc 19 bf 60 be 7d c2 f9 bc 14 03 15 3e
       -0.0135835195 -0.21947898 -0.030488247 0.14551955
0002d0 2c 72 fe bc bf 9d 86 3d b0 bb 35 bd a3 57 5e 3d
       -0.0310603 0.065730564 -0.044368446 0.054282796
0002e0 52 56 12 3e fa 68 41 3e 2b ff 43 bd 61 d7 68 3b
       0.14290741 0.18887702 -0.04785077 0.0035528766
0002f0 d4 41 8f bd 7f 23 ea bd 9a 80 a0 3d bc fa b6 bc
       -0.069949776 -0.114325516 0.07837029 -0.022336356
000300 53 33 25 3e 65 24 0d 3e 7e 31 8f be b1 2a ae bc
       0.1613286 0.13783415 -0.27967447 -0.021260591
000310 c7 6c 32 be d7 cd 04 3d b7 e7 cb 3c 5d 43 86 bd
       -0.17424308 0.032422867 0.024890764 -0.06555817
000320 b8 d7 26 be 0f 21 00 be a6 14 1c bc ab a1 90 3d
       -0.16293228 -0.12512611 -0.009526407 0.07062086
000330 0f b8 de 3d 4d 2c 9e 3d db f7 48 3e 50 99 b7 3d
       0.1087495 0.077232935 0.196258 0.08964789
000340 d3 fb f3 bd 69 01 41 bd b6 c5 53 be 99 63 9a bd
       -0.11913266 -0.047120485 -0.2068089 -0.07538528
000350 94 90 ce 3d cb 40 8b bd 4b c8 b7 bc 89 09 be 3d
       0.1008617 -0.06799468 -0.022434374 0.092791624
000360 9b fb 13 3e 91 61 1c bd 37 29 89 bd d5 e5 f4 bc
       0.14451449 -0.038178984 -0.06697314 -0.029894749
000370 8f 76 83 3e 58 d1 fc bd 0c 04 ca 3c 86 27 a5 be
       0.2567639 -0.12344617 0.024660133 -0.32256716
000380 23 3a 12 be f4 d0 1c 3e b2 74 ba bc cd 17 5d be
       -0.1427999 0.15314084 -0.022760723 -0.2159111
000390 21 f4 80 3d 54 56 2b 3c 88 d5 a8 3d b7 17 ab 3d
       0.06296564 0.010457594 0.08243853 0.083541326
0003a0 31 d9 27 ba 9d 90 39 3e de 1d de 3d 1a 38 2e 3e
       -0.00064029085 0.18121572 0.108455405 0.17013589
0003b0 de 1a 00 be 8a 06 82 3d 77 59 eb 3a 5a 06 ec bc
       -0.12510249 0.063489035 0.001795574 -0.028811622
0003c0 fb 72 f2 bb a8 22 46 be 41 da 05 bd 04 76 06 3e
       -0.0073989606 -0.19349158 -0.032678846 0.13130957
0003d0 d4 89 05 3e f7 ce b2 bb 78 5d 07 bd 08 9a 8e bd
       0.13040859 -0.005456801 -0.033048123 -0.06962973
0003e0 e9 7c 0d 3e ab a8 85 3e 21 19 e6 3d d3 9f 1f 3e
       0.1381718 0.26105246 0.11235262 0.15588312
0003f0 f5 a7 e6 bd 16 b8 af bc 1d 79 db 3d cd 5d dc 3d
       -0.11262504 -0.021450084 0.1071646 0.107600786

lstm.bias_ih_l1 f4 [256]
000000 5c 8e 09 3c 43 3f 9b bd c7 26 c0 3d 65 44 61 bd
       0.0083957575 -0.075804256 0.09382396 -0.054996867
000010 43 bf 24 be eb e7 bf 3c 0e 19 c8 bc aa e5 f6 bd
       -0.16088586 0.023426017 -0.02442601 -0.12055524
000020 12 36 1f be c4 b4 5a 3c d2 21 49 bd fe 85 f4 3d
       -0.1554797 0.013348762 -0.04910452 0.119396195
000030 9f fc 9b 3d b0 62 3f 3d a2 79 5f 3e a6 71 31 be
       0.07616543 0.046724975 0.21823743 -0.1732851
000040 86 24 9d 3d 50 98 12 bb b4 d7 10 3e f7 4f ce 3d
       0.07672982 -0.0022368617 0.14144784 0.10073846
000050 91 fa 08 be 98 32 42 bd 84 04 91 bd df 14 01 3e
       -0.13376833 -0.04741153 -0.070809394 0.12605618
000060 c9 cd 55 be 83 76 8d be 45 92 42 be 7a 77 a3 bd
       -0.20879282 -0.2762948 -0.1900111 -0.07981773
000070 e0 94 3d be a1 53 4f be 3f d2 ee bd 92 0b 94 bd
       -0.18513823 -0.20246746 -0.11661195 -0.07228769
000080 fe a4 41 be 6b 5b 1e 3d 4f df 0b 3d 9a f9 b0 bd
       -0.18910596 0.0386614 0.03414851 -0.08641358
000090 bd c1 c2 bd 9a 76 13 bd 4a c2 19 3e 35 52 2a be
       -0.09509609 -0.03600178 0.15015522 -0.16632922
0000a0 fb de 02 3e fd 5d 86 bc c2 1d 08 3e e1 f2 2f be
       0.12780373 -0.016402239 0.13292602 -0.17182495
0000b0 0e 35 07 3e aa 9c 37 bc 2f 31 c1 bd 13 7f fd bd
       0.13203833 -0.011206785 -0.09433209 -0.12377753
0000c0 68 e5 2b bd 34 a4 83 3d b6 e6 76 3d a5 95 25 bd
       -0.041966826 0.06427804 0.060278617 -0.040425915
0000d0 37 72 0f 3d 71 dc 6f bd 55 50 18 be c1 eb 5a bd
       0.035021033 -0.05855984 -0.14874394 -0.05344749
0000e0 00 f0 72 3d 1b bd 50 be ba 09 01 3e 73 cd 01 3d
       0.059310913 -0.20384638 0.12601367 0.031690072
0000f0 f3 1e b8 3d 25 81 d3 3c a9 82 f3 3d 6a 3a 98 3d
       0.08990278 0.025818417 0.11890156 0.074330166
000100 bf 69 84 bd 7f 46 16 be 71 4d 2d be b3 39 fe bc
       -0.06465482 -0.1467533 -0.16924073 -0.031033373
000110 95 b9 69 3d 57 e2 04 3e 1e 32 97 be 23 0f 6e bc
       0.05706175 0.12976967 -0.29530424 -0.014529976
000120 80 ea 4c bc 21 a0 2e 3e 7f 44 9c 3d c1 7f 28 3e
       -0.012507081 0.17053272 0.07630252 0.16454984
000130 fb 14 01 3e cc 19 71 bd bc 0e 82 3e 80 62 92 3d
       0.1260566 -0.058862492 0.25401866 0.07147694
000140 3c f1 32 3e de 93 6e 3e 82 7a ba 3d 3d ff 02 3e
       0.17474836 0.23298594 0.09105398 0.12792678
000150 94 e9 8d 3c 92 0a 53 3d c6 72 0a bd 9e ea 50 3e
       0.017323293 0.051523753 -0.033800863 0.20402
000160 f5 37 0d be 1f 2e 6c be c1 f1 ac 3e 45 cd 81 be
       -0.13790877 -0.23064469 0.33778194 -0.2535192
000170 2b 87 79 bd f0 e2 0d 3d 4e 67 15 bd 5e 1b 7b 3e
       -0.06091992 0.034640253 -0.036475472 0.24522159
000180 b7 68 e6 bd a9 3c c7 3e 68 19 04 3d 9a 5d a3 bd
       -0.112504415 0.38913468 0.03225079 -0.079768375
000190 10 68 d1 3d 4e e6 5d 3e 96 b5 4a 3e 41 ba ab 3d
       0.102249265 0.21669886 0.19795832 0.083851345
0001a0 60 10 a6 3d c2 27 90 3b 67 33 87 3e c3 33 a0 bd
       0.08108592 0.0043992708 0.26406404 -0.07822373
0001b0 c0 b2 1f bd 26 0a 12 3e 33 a7 ed 3c eb c2 cc 3d
       -0.03898883 0.14261684 0.02901039 0.09998115
0001c0 2e 8b b7 3c 3d b0 24 3a c4 0a 0f 3e 6a 0d 5f bd
       0.022405233 0.0006282365 0.1396895 -0.054456152
0001d0 12 ca 2b 3e 40 ba f6 3c 67 bd 6d 3e a1 09 15 be
       0.16776302 0.030118108 0.23216783 -0.14554454
0001e0 83 e0 6a 3e 80 8a 1d be ec fa 19 bd 3d 51 9b bd
       0.22937207 -0.15384865 -0.037592813 -0.07583854
0001f0 75 af 61 3d aa ad 14 bd c9 46 fb 3d 90 de f4 3d
       0.05509897 -0.03629843 0.122693606 0.11956513
000200 c6 6d b5 bd 79 91 8e bd 26 cb 32 3d 9c e4 fc 3d
       -0.08858828 -0.069613405 0.04365077 0.12348291
000210 05 7a 13 3e 74 51 8a bd 3b c6 15 3d 43 62 27 be
       0.14402016 -0.06753817 0.036566 -0.16346078
000220 f5 fa b0 bc c3 3c 2b 3e 0f 24 26 3e fa 6f 4f bc
       -0.02160404 0.16722398 0.16224693 -0.012660975
000230 65 43 d4 bd 2c d2 0e be c2 b5 57 bd a9 bf 99 bc
       -0.10364417 -0.13947362 -0.052663572 -0.018768148
000240 cb 6f e6 3d cd 35 0c be 41 ec 2d 3e 90 7d 0e 3c
       0.112517916 -0.13692398 0.16984655 0.008696929
000250 5b 68 79 3d e2 7b a4 bd a9 d7 27 3a a4 3d 36 be
       0.060890537 -0.08031441 0.00064026803 -0.17796952
000260 37 ee 89 bd 94 94 90 bd 6e 2c 58 3c 95 8e 39 bc
       -0.06734889 -0.07059589 0.013194187 -0.011325498
000270 b1 e4 8c bc bc 7e 12 3e 30 4d 83 bd 6a bb 85 bb
       -0.017198892 0.14306158 -0.06411207 -0.0040811794
000280 f6 1d f8 3c 43 6f 3e bd bc 54 a1 3d 54 a1 7f 3c
       0.030287724 -0.046492826 0.0787749 0.0156024285
000290 e9 6f 28 be f0 2e 34 3e b2 2b 3a be 05 3e 03 be
       -0.1644894 0.1759603 -0.18180731 -0.12816627
0002a0 57 c2 4c be 99 53 81 bd e0 5f fe bd 9c cc 91 bd
       -0.1999601 -0.06314773 -0.124206305 -0.07119104
0002b0 19 e2 8a 3d c0 01 4b be 85 62 fb bd e7 24 02 be
       0.06781406 -0.19824886 -0.122746505 -0.1270939
0002c0 55 73 0d bd 89 cf 1c bd 40 66 09 3e d3 03 ae 3d
       -0.034533817 -0.03828386 0.13417912 0.08496823
0002d0 af 7d 39 be c7 74 2d be af 40 1a be 60 eb 6d 3d
       -0.1811435 -0.16939078 -0.15063737 0.0580858
0002e0 ce 5c 00 be c3 68 d4 bd 21 71 70 be dd 18 2d be
       -0.12535402 -0.10371544 -0.23480655 -0.16904016
0002f0 70 dc 85 3d 64 66 36 3e 54 ed 7b bd 66 1f bd bd
       0.06536186 0.17812496 -0.06150563 -0.092345044
000300 6c a1 4a 3d 1f c5 e7 bd 5b b2 f2 3d 43 9e 3f bd
       0.04947035 -0.11316895 0.11850425 -0.04678179
000310 1d f3 4b bd 6e ad 5e 3d 0d 52 3b bd 11 15 1b be
       -0.049792398 0.054364614 -0.045732547 -0.15144755
000320 df 28 12 be 5b ae 82 bb ac 18 2b bb d5 df 6f bd
       -0.14273404 -0.00398807 -0.0026107235 -0.058563072
000330 f6 c0 1b 3e 43 ca 93 bd 42 e7 52 3d 5d a8 23 be
       0.15210328 -0.07216313 0.051490076 -0.15982194
000340 49 34 50 bd 3e ab 48 3c c8 6e 2e 3e aa 55 0e 3e
       -0.050831113 0.012247859 0.17034447 0.13899866
000350 6c bd fe bc 6e 2c a8 bd 07 df 34 be cf b2 e3 3d
       -0.031096183 -0.08211599 -0.17663203 0.111180894
000360 7f 93 61 be 0b 9a f4 bd c8 f4 f7 bc e5 65 60 bd
       -0.22028922 -0.11943444 -0.030268088 -0.054784674
000370 34 80 7f 3d d2 a0 af 3d bb 87 9b 3d 10 e3 59 be
       0.062378123 0.08575596 0.07594248 -0.21278024
000380 0e 38 8f 3d f1 e3 01 bd dd 89 d4 3d ee 61 09 be
       0.069931135 -0.031711522 0.10377858 -0.13416263
000390 75 17 cc bb 09 4c 27 bd b7 e7 00 3e 06 ff c5 bd
       -0.0062283822 -0.040843997 0.12588392 -0.096677825
0003a0 c4 4a 04 3c a3 f9 17 3d 23 39 33 3e ec f5 83 bd
       0.008074466 0.037103307 0.17502265 -0.0644339
0003b0 0c ff 3e bd bb a4 dc 3d f7 2a 21 bd 4b 68 3a 3d
       -0.04662995 0.10773607 -0.039347615 0.045509618
0003c0 99 87 8a 3d fc 49 1a bd ab f3 0d be f2 d7 1a be
       0.067641445 -0.037668213 -0.13862483 -0.15121439
0003d0 a2 92 81 3d 10 a7 94 bc bb e5 04 3e d3 03 bb bc
       0.06326796 -0.018146068 0.1297826 -0.022828972
0003e0 49 23 9b bd 60 04 2d be ce 00 a1 3d aa a0 85 3d
       -0.075750895 -0.168962 0.078614816 0.06524785
0003f0 e6 80 e6 bd b3 37 04 bd af 46 ec bc 85 86 ac bc
       -0.11255054 -0.03227968 -0.028842298 -0.021060238
