data_storage/models/lstm_v1.0.0_20251231_110634/rebounds_model.pt (torch, 217525 bytes, 9 tensors)

lstm.weight_ih_l0 f4 [256, 12]
00000000: e436 80bd 5a2a a8bd 889f 6a3b 61a8 bebd
00000010: 141c 48bd 972a f23d 676c 28bc 2088 6ebd
00000020: cb1e d8bd 1b03 b83c 9c38 6f3e fb7f d83e
00000030: f7d3 333c a66b 1a3e 3ac6 b43d d02a c0bd
00000040: cee7 77bd c0f3 46be 7e31 9f3d 8c15 993d
00000050: 6952 3f3e f34d e93d a15e 5b3c f36a bebc
00000060: d6bc 1a3e a056 983c 3fbc 7abe 0469 853e
00000070: 7a10 0b3e a1d6 2bbe f3b2 8a3d f658 cc3d
00000080: 5521 9d3e 46c6 f93b 82b6 5a3e f6ca 403b
00000090: fc99 c43d 76f9 79bd 7ef7 06bd 3af9 d53e
000000a0: b881 2dbd 8436 d03d a525 ec3e 0275 373e
000000b0: 13d9 f53e a8a4 033f 796f 503e 6532 36be
000000c0: 88ec 393e 90ef 1d3d f4b5 ae3e 3bd4 193e
000000d0: de34 9cbd 010b e53d 062f 123e 5ce2 a4bd
000000e0: c3c2 a13e 7e6d 13bd 29e7 283e a597 f43e
000000f0: 0da7 9a3c cd8f 87bc 1544 003e 24c9 67be
00000100: c228 8e3e c6e1 38be bf80 91be df1e 163f
00000110: 16b2 123d 74c4 68be 47d2 f83e 545b 613d
00000120: a7c5 c53d fb9a 57be d711 c4bd 78f9 98bc
00000130: 8c8c 9a3d 5415 8d3a 79f1 98be 7fd5 4cbe
00000140: 87c1 d53d 0e32 943e 6e52 0e3e 0241 123d
00000150: 0593 68be 83a9 413e 9020 22be 304b 8cbe
00000160: d2a2 edbd 90be 8ebe ae8e a43e 4004 2bbd
00000170: f1c3 393e f2ef 413d 69a9 3abd bd6d 64be
00000180: 5769 d7be d943 c5bd b504 de3d cfa2 7d3c
00000190: 6397 f4be 9423 50bc d359 a7bd 46b9 263d
000001a0: 0985 af3e ccce 1ebd 6c15 b03d 5eb4 0d3e
000001b0: 0eab 7d39 4a17 0cbe 89bc 4b3e 14d7 973d
000001c0: 0857 033e 2f9a 783d 4a78 1a3e f368 f8bc
000001d0: 9890 9d3e 02a0 203c b3c2 c83e 0cf6 c0be
000001e0: 06d4 b13d fe00 c6bd 8132 023f db25 223e
000001f0: 42c4 483e bdd7 543e 6d43 883d c59a efbd
00000200: 5c52 e13d eb49 94be 2537 04be 6813 b13d
00000210: d467 dcbd 57ea 4abe 72a8 dfbd 111c b6bd
00000220: 2c75 2e3e abc7 413d a8c9 2abe 2231 4b3e
00000230: 538f a63d 3edb 11be 98f2 273e e9f6 093f
00000240: 6df7 35be 2221 29be 3b89 29be 2e99 213d
00000250: 6924 2bbe e8df 78be ab4a 4d3d 1e61 55be
00000260: 2aa5 3abe 2bcc b8bd 5121 8fbe 7f4d 673e
00000270: 769b b3be 0a65 0dbf 78b6 55be 25e9 76be
00000280: cedb 5a3e e650 903e 99f6 ab3e f6ac d63d
00000290: 92b5 3fbe 4c6f 01bf 127c ce3d 8565 76be
000002a0: fc08 8f3c 1307 adbc 345e f9bd e184 03bf
000002b0: bf5a 18be b4b3 06bf 5c91 61be 230b 193e
000002c0: f84a a1be 34eb 043e 3cc4 9c3e 6f17 7c3d
000002d0: 9584 4cbe 54fe 5cbe e206 873d 325f 78be
000002e0: f50a 44be 0c8e 3cbe 3d59 f93c 8211 5d3d
000002f0: b6c5 a13e 7a5a 48be 5415 443d ea54 a33e
00000300: f669 79bd 81d4 4d3d 3dc2 153e 9c6c 2c3e
00000310: 1799 493e e2c8 f2bd 33b6 93be c4be 1d3e
00000320: 9b5f 2a3e 3710 ffbd ddff 43bd f61a ef3e
00000330: f5d7 88be ed45 ebbe e81d dd3e 9633 02be
00000340: 9c33 dc3e 114d 053f cb1f 653d f84b 22be
00000350: b27f 713e 6328 7abe fba1 32bd 5e4f 30be
00000360: a2a9 a4be 57e0 a0be 920b 453e 984d 37bd
00000370: b886 08bf 88f2 9cbd 14d3 cbbe 7043 9e3d
00000380: 3f6d 99bd a5af 9cbe c48e 783e 08b3 bb3e
00000390: f8d3 a8bd f7ae 36be 103f ab3e fbdf 0abe
000003a0: 594c e43d 0996 8c3e 150b 40be 2976 2cbe
000003b0: 5552 b33e e6dc 68be 5980 9ebe 82e9 623f
000003c0: 3d95 673c bf98 86be d41d c33d e293 973c
000003d0: 976f 72be f1cb 163e 53d9 d0bd 02c7 e6bd
000003e0: a86b fdbd 10db 4dbd 2476 b6be 1224 1bbe
000003f0: d1ee 95be f7c3 10be d660 55be 0827 483e
-0.062604696 -0.08211203 0.0035800654 -0.093094595 -0.048854902 0.118245296 -0.010279751 -0.058235288
-0.10552748 0.022462418 0.23361439 0.4228514 0.010975829 0.15080127 0.08826871 -0.09383166
-0.0605238 -0.19428921 0.07773112 0.07474813 0.1868378 0.11391821 0.0133892605 -0.023244357
0.15111098 0.018595994 -0.24485873 0.26056683 0.13580504 -0.16781093 0.06772413 0.099779055
0.30689493 0.007622513 0.21358684 0.002941785 0.09599683 -0.06102892 -0.03295087 0.41791707
-0.042360038 0.10166648 0.4612247 0.17915729 0.48017177 0.5142312 0.20355023 -0.17792661
0.18156636 0.038558543 0.34123194 0.15022366 -0.07627271 0.111837395 0.1427575 -0.08050987
0.31593904 -0.03599309 0.1649443 0.47771946 0.018878484 -0.016548062 0.12525971 -0.22635323
0.2776547 -0.18054876 -0.28418538 0.58640856 0.035814367 -0.22731191 0.4859793 0.055018738
0.0965684 -0.21055214 -0.09573715 -0.018673643 0.075463384 0.0010763803 -0.2987173 -0.20003317
0.10437303 0.2894444 0.13898632 0.035706528 -0.22712334 0.1891232 -0.15832734 -0.27401114
-0.11603321 -0.27879763 0.32140106 -0.0417521 0.18141152 0.04734797 -0.04557172 -0.22307487
-0.42072555 -0.096320815 0.108407415 0.015480711 -0.4777175 -0.012703795 -0.081714295 0.040704034
0.34281185 -0.038771436 0.08597836 0.13838336 0.00024191683 -0.13680759 0.19896139 0.0741407
0.12826169 0.060693916 0.15084949 -0.030323481 0.3077438 0.009803774 0.39211044 -0.3768772
0.086830184 -0.09668158 0.5085831 0.15834753 0.19606116 0.20785423 0.066534854 -0.11699442
0.11002037 -0.28962645 -0.12911661 0.086462796 -0.10761991 -0.19815956 -0.109208 -0.08892072
0.17036885 0.04730956 -0.16678488 0.19842961 0.08132806 -0.1424379 0.16401136 0.5389238
-0.17770167 -0.16516545 -0.16556256 0.039452724 -0.16713108 -0.24304163 0.050120037 -0.20837829
-0.18227068 -0.09023317 -0.27955106 0.22588156 -0.35079545 -0.552323 -0.20870388 -0.24112375
0.21372911 0.2818672 0.33586577 0.104822084 -0.18721607 -0.5056045 0.10082258 -0.24062164
0.017460339 -0.021121537 -0.12176171 -0.5137463 -0.14878367 -0.52617955 -0.22028106 0.14945655
-0.3150251 0.12980348 0.30618465 0.061545786 -0.19972451 -0.21581393 0.0659311 -0.24255064
-0.19144805 -0.18413562 0.03043806 0.053971775 0.31596154 -0.19565764 0.047871903 0.31900722
-0.060892068 0.050251488 0.14624877 0.16838306 0.19687305 -0.118547216 -0.28849944 0.15404803
0.16638033 -0.124542646 -0.047851432 0.46700257 -0.26727262 -0.45951787 0.4318688 -0.12714991
0.43008125 0.5207072 0.055938523 -0.15849292 0.23583868 -0.24429469 -0.043611508 -0.17217776
-0.3216067 -0.31421158 0.19242695 -0.044751734 -0.53330564 -0.07663447 -0.39809477 0.077277064
-0.0749154 -0.30602756 0.24273211 0.36660028 -0.08243555 -0.17840181 0.3344655 -0.13562004
0.11147375 0.27458218 -0.18754227 -0.1684195 0.35023752 -0.22740516 -0.30957296 0.88637555
0.014134702 -0.2628841 0.09527174 0.018503133 -0.2367538 0.14726235 -0.10197701 -0.112684265
-0.123740494 -0.050257742 -0.3563701 -0.15150478 -0.29283765 -0.14137255 -0.20837721 0.19546139

lstm.weight_hh_l0 f4 [256, 64]
00000000: f237 723d 8351 ebbd d98c 2c3c 5460 7fbe
00000010: 9ed7 74bd 41aa 053f 60b3 e1bb bf60 9e3d
00000020: f9a3 2bbe 1339 e0bd a941 f7bd 6c0c 05be
00000030: 3e4c a4bd 7382 1a3e bf71 8abe 8ddf 803d
00000040: 1f0d 153e 7a50 113f cec2 8bbd e653 a4bc
00000050: df7b 22bd 85d6 36bd cbd9 003e ae08 a5bd
00000060: 52c7 243d 6e14 8bbd 7873 ca3d b6ff 96bc
00000070: a0dd 533b a5a1 e73c f5e0 003e 4640 803b
00000080: f9e7 c13d 2952 de3d ac2b 09be 2099 edbd
00000090: 63eb 2dbe 76d2 4abe 568b 63be bca7 dd3d
000000a0: 5b7c 0bbe ff57 3abd 2447 ef3e 4ba9 9a3e
000000b0: 5431 5abd 8438 533e 06f4 843e 767c a03e
000000c0: 162a 233e 7a9f c2bd 5cad 7f3e fbec f23c
000000d0: b88a a8bd daad 6e3d 52e5 80be 7d6e 00be
000000e0: bff7 bf3e 83f0 173e 1d71 22be 8d2f 85be
000000f0: 258e f23e 7079 bd3d 0d81 cf3c dc45 ac3e
00000100: 79c7 4ebe 5544 2a3d 99a2 11be 1e53 59bd
00000110: 2271 69bd 4aaf a03d 0cae a4be 5cd4 7dbc
00000120: 588d a9bd a668 13bc 45db 033d 3387 4cbe
00000130: 95d6 383d c785 2b3e fd62 233c 940e 613c
00000140: 958c 443c f648 2fbe 6d56 e4be 1792 5ebe
00000150: 1110 6fbe 9c52 33bd 63f0 44bd 7826 1fbe
00000160: b808 4c3e 49b8 efbd 74da 22be 997d 813d
00000170: 2e75 c43d 61f7 dcbe c414 513e 2f2b b2bc
00000180: 9aa0 d33d d70f dd3c 6a14 663c aaf7 6cbd
00000190: dd6f 2e3d c749 2c3c 6793 84be a628 91be
000001a0: bb56 b8bd 6ac7 bfbe 1adf 993e 3792 65bd
000001b0: ee60 69bc 894a 49be 7636 e43d 52c9 55bd
000001c0: 7b49 1fbc ec2e 313d 834e b6bd 9b9b c63d
000001d0: 7702 123e 7082 da3c cdbf ba3e 51b4 fbbc
000001e0: 664b 8a3c fc35 59bd 981c 363e ed2c 0f3e
000001f0: ccfd e03d e8ca aebd 5918 773e 7388 46be
00000200: 2f91 26be 721c 3abe c667 373d 1802 73bd
00000210: c029 6f3c 1e6b d1bd 424c 50be e08a 8a3c
00000220: 9194 82be 08d3 96be 37e4 9f3d 9c29 8abd
00000230: 8495 4bbd 20ae 50be 9e52 293e d3b9 1e3e
00000240: 74d5 3cbe 6aef 2fbd db6e acbe c63e 0cbc
00000250: d242 5fbd dd7d e93c b5bf 93bc e393 953e
00000260: 645a a13e a0ac c9bd 0e12 cc3d 29aa 51bd
00000270: 03fc a03d d0c7 9cbe 886a c03e 3f35 7cbe
00000280: 1948 9d3e 5ea6 793e 4801 883d 535d c3bd
00000290: 8308 243e 7156 803d 1ca8 2dbe 681b abbe
000002a0: c3db 3cbe a2fc 8c3d d63d 933e dd4e 133e
000002b0: 3130 c83d b995 843e 9071 58be cd7a 82bd
000002c0: 1b86 2abe a320 203d 44a6 39be b5d2 043e
000002d0: 6df7 f23d 6be4 833d ff6d 263e 869f 2abe
000002e0: 0d04 0d3d ce9d d3b9 5821 3a3e 83b1 0c3e
000002f0: ad91 16bc 9227 103d a808 9d3d 067d 323d
00000300: ba74 d6be 5a84 ebba 061f 1ebd 3ffb ca3d
00000310: eafa 8ebc 8c37 50be 7631 f5be 3924 123f
00000320: 7dff afbd f519 1bbe 1961 a3be 52d9 a2be
00000330: 634b e5bc cde5 9abd e3df 9abe a450 4dbe
00000340: 7ef0 febd f752 a63e ee2b 02be 327d 15bf
00000350: 2037 a83d 57fd 35be c800 cabd de69 df3c
00000360: 2119 8ebc d20f b2bd f824 ff3d 148e c43d
00000370: 3be4 6f3e 3d42 ed3e c960 333e 4d8c 5c3d
00000380: 62bc e83c 0e02 da3e 6125 7c3c edce b9bd
00000390: 5f67 883e edfc 263e db1c 8c3e 3a63 febd
000003a0: 3786 83be ec0c 86be 87a9 0d3e ade5 a73e
000003b0: 6827 c73d c4ac d1be 6d30 1d3d 1893 2abe
000003c0: 66c5 653e 2c5d e63d b37d d6bb 6418 0cbd
000003d0: a6be 133e 421f 1abd 4475 15be bbba 873d
000003e0: b7bd c7bd 1063 01be 3085 3f3e 0b87 05be
000003f0: 57e9 41bb e3ef f5bd 8a0b 063e e972 2bbe
0.059135385 -0.114901565 0.010531628 -0.2493909 -0.05977594 0.5221291 -0.0068878382 0.077332966
-0.1676177 -0.10948386 -0.120730706 -0.1299302 -0.080223545 0.15088825 -0.27039906 0.06292639
0.14555787 0.5676342 -0.068242654 -0.020059537 -0.039668914 -0.044638176 0.12583081 -0.08058296
0.04022915 -0.06791006 0.09885305 -0.01843248 0.0032328144 0.02827532 0.12585814 0.003913912
0.094680734 0.108555146 -0.13395566 -0.11601472 -0.16984324 -0.19806847 -0.22221121 0.108230084
-0.13621657 -0.045494076 0.46733963 0.30207285 -0.0532697 0.20627028 0.25967425 0.31344956
0.15934023 -0.09503074 0.24968475 0.029654017 -0.082295835 0.058271267 -0.25174958 -0.12542148
0.37493703 0.14837842 -0.15863462 -0.2601284 0.47374073 0.09251678 0.02533009 0.33647048
-0.2019328 0.041569073 -0.14222182 -0.053057782 -0.056992657 0.07845934 -0.32164037 -0.015492525
-0.08278912 -0.008997118 0.032191534 -0.1997345 0.045126516 0.16750251 0.009972331 0.013736386
0.011996408 -0.17117676 -0.44597188 -0.21735416 -0.23345973 -0.043779954 -0.048080813 -0.15542018
0.19925201 -0.117050715 -0.15903646 0.06322784 0.09592663 -0.43157485 0.20418078 -0.021749107
0.10333367 0.026985092 0.014042953 -0.05785338 0.04258715 0.010515637 -0.2589371 -0.28351325
-0.090009175 -0.37456828 0.30053025 -0.056047644 -0.014244301 -0.19657339 0.111432 -0.052193947
-0.009722109 0.04325764 -0.08901694 0.09697648 0.14258753 0.026673526 0.36474457 -0.03072563
0.016881656 -0.05303 0.17784345 0.13981982 0.10985908 -0.08534795 0.24130382 -0.19387989
-0.1626632 -0.18174914 0.0447767 -0.05932817 0.014597356 -0.10225509 -0.2034159 0.016911924
-0.25503972 -0.2945788 0.078072004 -0.067462176 -0.049703136 -0.20378923 0.16535422 0.15500574
-0.18440801 -0.042952932 -0.33678326 -0.008559888 -0.054507084 0.0285024 -0.018035749 0.2921439
0.31514275 -0.09847379 0.09964381 -0.051187668 0.078605674 -0.30621195 0.37581277 -0.24629687
0.3071907 0.2437987 0.066408694 -0.095392846 0.16018872 0.062664874 -0.1695866 -0.33419347
-0.18443207 0.068841234 0.28758115 0.14385553 0.09774817 0.2589548 -0.2113707 -0.06371079
-0.1665272 0.039093625 -0.18129832 0.12971003 0.11863599 0.06440052 0.16252898 -0.16662416
0.03442769 -0.0004036263 0.18176782 0.1373959 -0.009190005 0.035193987 0.07667667 0.043576263
-0.4188593 -0.0017968521 -0.038603805 0.09911203 -0.01745363 -0.2033369 -0.47889298 0.5708652
-0.085936524 -0.1514662 -0.31910017 -0.31806427 -0.027990049 -0.07563362 -0.30248937 -0.20050293
-0.12448214 0.32485172 -0.1271207 -0.5839416 0.08213639 -0.17772423 -0.0986343 0.027272161
-0.017345967 -0.08694424 0.12458223 0.09597412 0.23426907 0.46339598 0.1751739 0.05384474
0.02841014 0.42579693 0.015389771 -0.09072671 0.26641366 0.16307421 0.27365765 -0.1242127
-0.25688335 -0.26181734 0.13834201 0.32792416 0.09724313 -0.40952122 0.03837626 -0.16657674
0.22438583 0.1124824 -0.0065457462 -0.03420295 0.14428195 -0.037627466 -0.14595515 0.06627413
-0.09752982 -0.12635446 0.18703151 -0.13039796 -0.0029588544 -0.120086454 0.1309034 -0.16743053

lstm.bias_ih_l0 f4 [256]
00000000: 6a8c ba3c ebf1 f43d 5b98 febd 46f5 c3bb
00000010: 3551 e5bd c05f 68be 1526 2c3d 641c 5f3c
00000020: a5d4 d9bd 9a4e a1bd 5453 1abd 4ce0 153d
00000030: faba dd3c bdee 293e da5c 1dbc b916 aabd
00000040: 810e 30bd 9081 5f3d e0ef 05be 81cd d9bc
00000050: 36d7 e9bd 9036 e2bb d635 4abd 2483 753d
00000060: b1fb 68bd f119 d3bd 0800 e83d 75ad de3d
00000070: 5616 84bd 2c18 6fbe 6771 38be b4e8 6c3c
00000080: e2f0 2cbb a831 f63d d83c d0bd f14d 9dbc
00000090: eb96 a8bd 7215 da3d 7925 73bd 6faf 16be
000000a0: 3f32 05be 9367 313e 71b6 eebc 18e1 3c3e
000000b0: 3b85 6f3c 081c ab3e 3df5 29bd bf4b 10bd
000000c0: 133c acbd e022 6dbe 86be a8bd 296f cb3d
000000d0: 2ff9 52be b5b8 403e c461 edbd efd6 d8bd
000000e0: fb7e 45be 5f28 c63d 07fb 85be a653 4c3d
000000f0: d3c9 49be 6f14 43be c793 94bd fb42 58bd
00000100: 6c16 7d3e a3b2 6d3e 7936 0ebe 18b5 95bc
00000110: ce83 e03c 730e 133c 0efe cf3d 55be 8bbd
00000120: 8c7c 583e 0e83 bd3d ee71 cebd 73b4 f7bd
00000130: 84e2 0c3e c225 9e3d b90b 1fbe 7578 48bd
00000140: cb2e 5ebd d6ed 093d 8029 a73d 75c3 93be
00000150: ce37 353e 7dff 1a3d 934c 893d 814a c03c
00000160: 61fc dd3d 18b4 f33b d9a5 86bd eb93 b43d
00000170: 96ac 96bd e2b8 0a3e f3f1 f73d 0598 fc3d
00000180: 1110 923e 3b92 62be f22d 0c3e 025a 1b3e
00000190: 4273 a4be d371 89bb fd3b dd3c 368d abbd
000001a0: 247f 24bd c67a 42be bb7e 0f3d f41c a3b8
000001b0: b135 1a3e 193f 4e3d a044 f83d 6273 9c3d
000001c0: ca50 eb3b b696 a43d 6335 733e d3c9 fc3d
000001d0: e44b 023d 9a05 833d 7409 f3bc e6ac 373e
000001e0: fb10 ac3d 8298 17be e196 0bbe bc14 ad3d
000001f0: 4d8c b0bd 45d5 04bd 5013 82bd 34ee fd3d
00000200: 8556 9e3d 7662 813c 523c cdbb e649 063d
00000210: 57fc b83d 63d8 0bbe 3147 713d 3042 7bbc
00000220: a04d 703d 94c8 913d b282 913c 63b7 503e
00000230: b707 b43d 3afd a7bc 0fb1 bbbc 61c5 ea3d
00000240: e107 8a3d b114 693d 7fcd 0f3e c391 cdbd
00000250: e57c 93bc a84f c53d 53a9 c13a 091c e83b
00000260: 5d89 55bd 4f63 99bd db6e c13d 1524 73bd
00000270: 245e 02be 1fd9 e0bd eb76 11bc 6c7a 0a3e
00000280: 7b31 34bd 941b eebc 7707 413d 6902 9f3d
00000290: 0897 6f37 2206 a33c 28d4 173d e156 7c3c
000002a0: e91f c33d 42bf 283d 648c b9bd 3e4d db3d
000002b0: 5eb4 1bbd 2e81 c23d bde9 c6bd 1fd6 05be
000002c0: 12a8 b3bc 8c05 a83d 07a3 e0bd d61a f23d
000002d0: 28eb dc3c 8389 6b3d 8185 943d 4119 f73d
000002e0: 58c2 f2bd f77c 623d 1af1 25bd 2ad4 5dbd
000002f0: 3e2e b1bd aa74 e03d ca56 37bd 4bf2 c5bc
00000300: ac96 bdbd 0de1 7c3d fba0 46be 039b 2abd
00000310: 006b 70bd 5d36 ef3c bf46 0f3e 450e 95bc
00000320: fe78 2bbe 5164 bd3d 0175 97bd b986 03be
00000330: 5b36 7d3d ab0a 763d b37e 4a3e bcf8 1dbe
00000340: 098b e1bd 00a3 2b3c 1730 ba3b 14d1 10bd
00000350: 4866 b43d fa0c 49bd 71dd 2e3e ba0d 963e
00000360: e9d1 f9bd b9cb ecbd af42 b33b c06d c8bc
00000370: b289 bc3d 6a7c ddb9 d06f 35be 1a13 98bd
00000380: 6947 b53d 9deb 103d 2d9a ffbc b978 293d
00000390: c302 0abd 51fd 1a3e d070 113d 84a5 49be
000003a0: cc41 6fbd f651 89bc e090 b9bd 3744 513e
000003b0: 629b a53d c2d2 663e 2351 0b3d 5416 41bd
000003c0: 222e 28be 13af 24bd 5e66 2ebd cccc 77bd
000003d0: 9866 1ebd 085f ab3d 0357 17be 447b a13d
000003e0: a18e f2bc c401 943d b057 2cbe 3a67 cabd
000003f0: cb23 0ebe 9fe0 12be 8a92 7fbd 6ee7 e8bd
0.022772033 0.11960205 -0.12431403 -0.0059801666 -0.1119713 -0.22692776 0.042028505 0.013617609
-0.10636262 -0.0787632 -0.037677124 0.03659086 0.027066696 0.16594978 -0.009604657 -0.08305115
-0.042982582 0.05456692 -0.13079786 -0.02658725 -0.11418001 -0.006903477 -0.04936775 0.05993952
-0.056880657 -0.10307682 0.11328131 0.10872928 -0.06449573 -0.23349065 -0.1801201 0.014459778
-0.0026388695 0.1202119 -0.10167855 -0.019202204 -0.0823191 0.106486216 -0.05936191 -0.1471536
-0.13007449 0.17324667 -0.02913973 0.18445241 0.014619167 0.33419824 -0.041493643 -0.035228487
-0.08409896 -0.23157835 -0.082394645 0.099333115 -0.20602868 0.1882046 -0.11590913 -0.1058787
-0.1928672 0.09675669 -0.2616808 0.04988446 -0.19705896 -0.19050764 -0.07254749 -0.052798253
0.24715585 0.23212676 -0.13887967 -0.018274829 0.0274066 0.008975613 0.10155879 -0.06823412
0.21141261 0.09253512 -0.10080324 -0.12094965 0.13758284 0.077220455 -0.15531816 -0.048943
-0.054243844 0.033674084 0.08162212 -0.2886006 0.17697069 0.03784131 0.067040585 0.023473026
0.10839153 0.0074372403 -0.06574602 0.088172756 -0.07357137 0.1354709 0.12106695 0.12333683
0.28527883 -0.22126095 0.13689402 0.15171054 -0.32119185 -0.004194477 0.027006144 -0.08376543
-0.040160313 -0.18992147 0.03503297 -7.7778386e-05 0.15059544 0.050353143 0.12122464 0.07639195
0.0071812617 0.08036558 0.23750834 0.123431824 0.031810656 0.06397553 -0.029667594 0.1793705
0.08401676 -0.14804271 -0.13631774 0.084512204 -0.0862051 -0.032429952 -0.0635134 0.12398949
0.07731346 0.01579402 -0.0062632943 0.03278532 0.09032505 -0.13656764 0.058905784 -0.015335605
0.05866778 0.07118335 0.017762516 0.20382456 0.08790534 -0.02050649 -0.022911577 0.11463428
0.06739784 0.0569045 0.14043234 -0.100375675 -0.01800389 0.09634334 0.0014775194 0.00708342
-0.052132953 -0.07489645 0.09444972 -0.059360582 -0.12731224 -0.109789126 -0.00887845 0.13523263
-0.0439925 -0.029065885 0.04712626 0.077641316 1.4280675e-05 0.019900385 0.037067562 0.015401573
0.09527571 0.041198023 -0.090599805 0.10708092 -0.03801381 0.09497295 -0.09712551 -0.13069962
-0.021930728 0.08204183 -0.10968595 0.11821525 0.0269676 0.05750419 0.07252026 0.12065364
-0.118534744 0.055294957 -0.040513135 -0.054157414 -0.08651398 0.10959752 -0.044760503 -0.024163386
-0.09257254 0.061738063 -0.19397347 -0.041651737 -0.058695793 0.029200727 0.13991831 -0.01819528
-0.16745374 0.092476495 -0.073953636 -0.12844361 0.061819416 0.060068768 0.19774894 -0.15426916
-0.11012847 0.010475874 0.0056820023 -0.035355642 0.08808571 -0.04908464 0.1707666 0.29307348
-0.1219824 -0.115622945 0.005470596 -0.024466395 0.09205951 -0.000422451 -0.17718434 -0.07425518
0.08851511 0.03538095 -0.031201446 0.041374896 -0.03369404 0.15135695 0.035507977 -0.19692045
-0.05841236 -0.016762715 -0.09060836 0.20436178 0.080862775 0.22541335 0.034012925 -0.047140434
-0.16423848 -0.040206026 -0.042578094 -0.060498044 -0.03867206 0.08367735 -0.14779286 0.07884839
-0.029609026 0.07226899 -0.16830325 -0.0988297 -0.13880841 -0.14343499 -0.06239561 -0.11372267

lstm.bias_hh_l0 f4 [256]
00000000: f3ae f23d 74b6 023e 06d8 0bbe bcf9 493b
00000010: 785d 0abb a8a9 a0bd b429 0fbe 3216 35bd
00000020: 39f5 95bd bd8c 4a3c 8701 28be eaee 5bbd
00000030: ad20 28be 7339 d13d 1ba6 673d 9e7f 1d3c
00000040: 9fe5 05be 7f28 9e3d 3830 30be 991d 14be
00000050: 48f9 bb3d 86a8 813d d4df 02be b202 503e
00000060: b23e a3bd 7d92 4cbe 756a b1bd 8aa1 71bd
00000070: e3e5 573d f9d2 94bc 8a8a 45bd fa04 0e3d
00000080: 46ae d53d 7f4c c83d 1530 5abe 5ec0 08be
00000090: 69e0 c7bd 02db c53d 9406 343d 733b 65bd
000000a0: a78e eabd 76a8 a43d 4aa9 d83d 2bc8 333e
000000b0: a1b0 f5bd af12 723e 3fb2 bd3c 15be c5bd
000000c0: b17d e7bd f6cd e7bd 99df 5fbe 96bd a739
000000d0: 72de d9bc 5490 533e 358a 36bd cbd5 d13c
000000e0: c942 6dbe 3203 d93c 3150 c1bd a77e 2abd
000000f0: c323 c13c b497 2ebe 9503 da3c d688 563d
00000100: 7fe0 293e 1d9e 763e 2eab b6bd 4116 d03d
00000110: da75 bcbd e22f 0b3c b0be 223e 2f52 44be
00000120: 8d42 343d 43c8 983d 5d5a 15bd d279 6abd
00000130: 229e 3d3e a550 18bd 2403 a4bd 713b 22be
00000140: 67c5 063d 3efd 76bd 77bf 643e 9739 6dbe
00000150: 4c19 d73d 1c4c 60bc acf2 80bc 8dfd ea3c
00000160: c977 e73d 8234 3ebd b99f b43d a7ed ef3d
00000170: 089e cfbd d0ec c6bd c0f6 8a3d 7ed0 8c3e
00000180: 809e cb3e 9411 7c3c fe7e af3d c27b e73d
00000190: a003 76be ea11 393e 66c7 9f3d 1e59 cabd
000001a0: 2258 fc3d a845 fcbd 8a5e 293e f88b 91bd
000001b0: 78b5 463e 46f6 44bd 22e6 acbd defb 8a3d
000001c0: 4c1b 3a3d 931c 053e fdec 6a3e 610f 343e
000001d0: fe4f ea3d c318 1c3e b39f a63d 4a95 143e
000001e0: 7d2c 5dbd 26ee 01bb 46a2 eabc 9355 423d
000001f0: eae0 f93b 5bf3 f3bc 3e38 21bd ee46 213e
00000200: 22ed d1bd 753a 003d 14f4 17bd d2e3 b33d
00000210: f646 6b3d bdcc adbb 284e 00be 8426 813d
00000220: 28cc 8f3d d6c8 e63c dba7 3d3d c05e a43d
00000230: 9734 81bb f9f5 983c f782 963b 753f 883d
00000240: f129 b73d eaf9 153a 157e 813d 8013 bbbc
00000250: 62ac 9d3b d941 9f3d fbd3 163d 5c3d 24bc
00000260: 1415 b4bc bbf4 b2bd e5c5 51bd 8896 11be
00000270: 10c9 633d 251a 34bd dca0 713d 699d 0f3e
00000280: b0ee d63d 5c0b fc3b b773 913c a4d7 fe3d
00000290: 7b1b 843d 166f 5bbd 87fd 283c 2080 3c3c
000002a0: 9d48 893d 1d95 f43d 6f7d 75bd c32a ac3c
000002b0: 03d3 c73c 4b96 0bbe e6ac e33d 2e03 edbd
000002c0: 23af bebc e489 2b3e c1ca 7dbd 0f44 f83c
000002d0: 9125 ef3c 583d 81bd b5c7 cd3d bd15 8b3d
000002e0: d7f6 3fbe dbca d0bc 55c1 6bbd 87ff 10bd
000002f0: 14a9 34bc b321 9cbb f5f9 c1bd 1e41 1cbe
00000300: 2a15 34bb 0a9a e03d 464d 80bd f167 223e
00000310: c638 c4bc e369 ddbd 222f fc3d 1b9f 1e3d
00000320: 1038 d7bd aa7a 88bb a1b2 423b 0f70 21be
00000330: 965e 6dbc 91d9 753e 7b3b 2a3e 8a95 47bd
00000340: a539 43be 56ff 093e f77e 4a3d 3be5 9e3c
00000350: fc61 15be 66a4 1e3d 660b 1a3e 22fc 213e
00000360: 9eca 7bbd 49b0 653c 1b74 dc3d 81f6 c3bd
00000370: 44f9 963d a794 02bd 42bf 7abe 26b7 873c
00000380: 27ed 5cbd be36 673d 665c 633c 4195 383d
00000390: 8174 7c3d 2a6b 7d3d 6e0e fdbc bb35 09bd
000003a0: db74 9f3c 6bab f83c 243f 8a3d 6e72 7b3e
000003b0: acc5 dfbc dbbe eb3c f0a0 053e b358 8dbc
000003c0: 0467 bfbc 6f93 33bb 12f5 96bd 86e5 92bd
000003d0: 264c 6fbe df01 ea3d bc3a 5f3d 1e56 b93a
000003e0: bd8e dbbd 5092 303d 35c2 7abe a16c 7e3c
000003f0: 1e1b 03be a8da d8bd 8b33 87bd 8b82 2c3c
0.11849775 0.12764913 -0.13656625 0.003081902 -0.002111284 -0.07844859 -0.13980752 -0.04421062
-0.07322163 0.012362656 -0.16406833 -0.053694643 -0.16418715 0.10216036 0.056554895 0.009612946
-0.13075875 0.07722568 -0.17205894 -0.14464416 0.09178406 0.063309714 -0.12780696 0.20313528
-0.079709426 -0.19977756 -0.08662883 -0.058991946 0.05270947 -0.018167006 -0.048227824 0.034672715
0.10433631 0.097802155 -0.21307404 -0.13354632 -0.097596 0.09660913 0.043951586 -0.0559649
-0.1145299 0.08039944 0.10579164 0.17556827 -0.1199658 0.2363994 0.023156283 -0.09655396
-0.113032706 -0.11318581 -0.2186264 0.00031993975 -0.026595328 0.20660526 -0.0445654 0.02561464
-0.23170008 0.026490781 -0.094391234 -0.04162469 0.023576623 -0.17050058 0.026613036 0.05237659
0.16589545 0.24083753 -0.08919369 0.101604946 -0.09202166 0.008495303 0.15893054 -0.19171976
0.04400878 0.07460072 -0.03646313 -0.057245083 0.18517354 -0.037186284 -0.080084115 -0.15842988
0.0329031 -0.060300104 0.22338663 -0.231665 0.10502872 -0.013690021 -0.015740715 0.028685356
0.11302144 -0.046436794 0.08819527 0.117152505 -0.10137564 -0.09713137 0.06785345 0.27502817
0.39769363 0.01538505 0.08569144 0.11302902 -0.2402482 0.1807324 0.07801704 -0.09880279
0.123214975 -0.123179734 0.1653997 -0.07106775 0.19405162 -0.048086427 -0.08442332 0.06786321
0.04543619 0.12999181 0.22941966 0.17583992 0.114410385 0.15243821 0.08135929 0.14510074
-0.053997505 -0.0019825785 -0.028641831 0.04744489 0.007625689 -0.029779127 -0.039360277 0.15749714
-0.102503076 0.03130575 -0.037098005 0.08783688 0.05744072 -0.0053039477 -0.12529814 0.063061744
0.070213616 0.028171938 0.046302658 0.08025885 -0.003943037 0.018671976 0.004593249 0.066527285
0.089435466 0.0005721139 0.06322876 -0.022836447 0.0048118094 0.07776231 0.036823254 -0.010024395
-0.021982707 -0.08738085 -0.051214118 -0.1421758 0.05561167 -0.043970246 0.058991298 0.14024891
0.10494745 0.007691784 0.017755372 0.12443474 0.06450554 -0.053572737 0.010314352 0.011505157
0.06703303 0.119425036 -0.059934076 0.021016484 0.02439261 -0.13631551 0.11116962 -0.11572872
-0.023276871 0.1675182 -0.06196094 0.03030589 0.029192718 -0.063105285 0.10047857 0.067912556
-0.18746506 -0.025487354 -0.057557423 -0.03539994 -0.0110266395 -0.0047647594 -0.09471504 -0.15259215
-0.0027478435 0.109668806 -0.06264739 0.15859963 -0.023952853 -0.10811212 0.12313677 0.038725954
-0.1050874 -0.0041650133 0.0029708522 -0.15765403 -0.014487883 0.24008776 0.16624252 -0.048726596
-0.19064958 0.13476309 0.04943749 0.019396415 -0.1458816 0.038731 0.1504341 0.15818837
-0.061472528 0.01401908 0.10764333 -0.09568501 0.073717624 -0.031880047 -0.24487022 0.016566824
-0.053937104 0.05644869 0.01387701 0.045064215 0.061634544 0.061869778 -0.03089067 -0.033498507
0.0194649 0.030355176 0.06750324 0.2455537 -0.027315937 0.02877753 0.13049674 -0.01725421
-0.023364551 -0.002740111 -0.07370962 -0.07172684 -0.23368892 0.11426138 0.054499373 0.0014140045
-0.107205845 0.043108284 -0.24488147 0.015528829 -0.12803313 -0.1058858 -0.06601628 0.010529171

lstm.weight_ih_l1 f4 [256, 64]
00000000: 8c53 b23c 238a 2a3e ba00 20be dc2c a1bb
00000010: 2a44 66be 50b0 5c3d 197e 323e b28e 3bbc
00000020: 89a0 35be 2cbc ecbc 7636 3fbe bac1 1a3d
00000030: 2cef 0cbd 51f5 a0bd a80e ad3d caf5 b2bc
00000040: 53d4 5a3e 1222 303e ad63 6f3e e91c 483d
00000050: a208 543e 1512 c23d 5481 a83d 6bef c73d
00000060: 475e 89bd 7373 3b3e b577 ffbc fdc2 b43e
00000070: a0b9 08bd a8ec 0d3e e8cf f93c 41e0 e23d
00000080: 5214 adbe 6841 ea3c 648a 8f3e 1568 153e
00000090: 8528 c4bc a719 0ebd a21c 063d 30aa a53d
000000a0: 4e38 123e 88c3 a6bc 6f89 e0bd b616 423e
000000b0: aa3e 9cbd bed9 f3bd f5b9 d53d 4679 083e
000000c0: f550 0c3c 6130 81be 6d1b 4a3e 25d7 293d
000000d0: 26a6 f13c bf7d bebd 383f 99be f1a2 613e
000000e0: f3a9 243d cd87 683e c92f d7bd 31b4 01be
000000f0: 2aa4 073e 656f b33d cfb2 38be a4b0 0a3e
00000100: f534 523e 0b33 c43d b169 03be f0b1 55bd
00000110: 0d74 4ebe 3e3f 963d f603 0e3e 5f0a 2dbd
00000120: 63eb dabd 164b f3bb 1241 95be a2fb 6ebd
00000130: d822 dbbc 1540 b0bd 8ef5 8c3d 7b28 973c
00000140: 75c5 353e adab 503d 2ee4 7b3e ade4 873e
00000150: 9409 8c3d eae7 25bd 52c7 5cbb d197 8a3e
00000160: 7d60 e4bd 45c4 5b3e 2d7a 42bc b46b 373e
00000170: d68c 5abe cc1a fb3d 72ca 453d 131d e63d
00000180: 8494 43bd 4567 a93d 2189 2e3e 74a8 933d
00000190: eac1 3a3e c97d 1bbd 72f1 c2bd 3cab 4a3e
000001a0: 6c32 f73d 82f1 023e 61e1 ecbd 6778 bc3d
000001b0: 0cb2 eabd ac33 95bd e4b4 3a3d 6549 633e
000001c0: 863a 4ebe 7199 a3be 7fd7 873e 702a 8d3d
000001d0: e60d 263d 1bd1 d13d b67a 55be 3284 37bb
000001e0: 4f3d 653e db3b 7b3d 4196 1dbe b42f 4abe
000001f0: 7a92 acb9 1888 b2bc c3db 453c 8f75 2a3d
00000200: 7da2 0b3e d058 e13c 528f fdbd 1b9d 4b3d
00000210: d8bc b2be 1744 bc3d 97d8 383e 7938 40be
00000220: c7ea aabd 705a aebc 43b2 20be 855b 59bd
00000230: c509 3b3e 2190 afbd eeb4 0e3e cfbd 013b
00000240: 4acf b73d 284b 423e 55c0 b73c de67 813d
00000250: 2a4b ab3d 9ff2 84bd 2510 343e c2ce 053e
00000260: f742 fdbd 6898 f23d 40e2 d03d b9e1 5c3e
00000270: b32e dabc 3342 5c3e 9e11 ca3d 6dea b13d
00000280: 6c62 fdbd c670 273d 5e54 0b3e c60e 11bd
00000290: b6e2 0a3e 6629 08be c344 35bb 0d23 273d
000002a0: 0cda e23c ceef 94bd f124 9abd ed6a 893e
000002b0: 8d12 5ebe d723 313d 063a ae3c d5d8 723e
000002c0: cf9f cabd c44c acbd e72a b83d 4c9f 3a3e
000002d0: c282 47be 2ee3 c8bd e484 25be 3e14 643e
000002e0: ee31 8f3e abbb bcbc 7671 15be c80a 8ebc
000002f0: c80a fd3d 34cd 31bc da98 5d3c f0cd dc3d
00000300: 09a2 8a3e ae7f 773e 3e6c 55be 5515 c23d
00000310: c825 a0bd ea9a 303d 4f87 4e3d d9be 773d
00000320: 06af a6bb c37f bb3e 64a9 dabd 0bcf 90bc
00000330: 1a78 633e 1e75 ebbd afb2 003e c93e 453d
00000340: 5d2c 733e 4773 953d ce9b d03e b768 993d
00000350: 3805 8d3e e600 e73c 424c c63d b3e8 373e
00000360: 2d24 88be a635 783e 1b0a 49be 1e3f d23d
00000370: 426a babd ddf6 943e aea6 a7be f221 a03e
00000380: 8eba 62be 6ea7 443e 9eef b83d a44e 9c3e
00000390: f72b 313e f3e4 e03d 66ba 60be f3f8 233e
000003a0: ea0d 853a bafb 943d 0e50 87be da3a 94bc
000003b0: 705a a8bd 7e31 5fbe 9a39 c83d 403c 973d
000003c0: 86e0 e1bd fb29 53be d3de 643e 2291 eb3d
000003d0: 511d 5bbe 8986 27bc 6f5e fabd 5fd5 483e
000003e0: 1323 073d 45c3 503e b3cc f6bc 2fc0 eabd
000003f0: 0227 2d3d 9976 a03e c482 7abe e082 ac3d
0.021768354 0.16654257 -0.15625277 -0.0049186777 -0.2248694 0.053879082 0.17430915 -0.011447595
-0.1773702 -0.028898321 -0.18673119 0.03778241 -0.03440778 -0.078592904 0.08450061 -0.021845717
0.21370058 0.17200497 0.23377867 0.048855696 0.20706418 0.09476105 0.082277924 0.09762462
-0.06707435 0.18305759 -0.03118501 0.35305014 -0.03338015 0.13859808 0.030494645 0.11077929
-0.33804566 0.028595641 0.2803527 0.14590485 -0.023945102 -0.034692433 0.03274215 0.08089101
0.14279291 -0.020356908 -0.109637134 0.18953976 -0.0762914 -0.119067654 0.10435859 0.13327512
0.008564224 -0.25232223 0.19737025 0.041464943 0.029498171 -0.09301328 -0.29931045 0.22034813
0.04020114 0.22708054 -0.10507161 -0.12666394 0.13246217 0.08761481 -0.1803696 0.13543946
0.20528014 0.09580048 -0.12833287 -0.052171648 -0.20161457 0.07336281 0.13868698 -0.04224622
-0.10689428 -0.0074247224 -0.29151207 -0.058345445 -0.026750013 -0.08605973 0.06882773 0.01845192
0.17751105 0.050944973 0.24598762 0.26541653 0.068377644 -0.040504374 -0.003368814 0.27068952
-0.11151216 0.2146159 -0.011869949 0.17912179 -0.21342787 0.122609705 0.04828877 0.11236014
-0.047749057 0.0827165 0.17044498 0.07209864 0.18238035 -0.037961755 -0.09518708 0.19791883
0.12070164 0.1278744 -0.11566425 0.092026524 -0.11459741 -0.07285246 0.045582667 0.22195967
-0.20139512 -0.31953004 0.26531598 0.0689286 0.0405406 0.10244962 -0.20847592 -0.0028002379
0.22386669 0.06133638 -0.15389349 -0.1974476 -0.0003291553 -0.02179341 0.012076321 0.04161602
0.13636203 0.02750817 -0.12380852 0.049710374 -0.349097 0.091926746 0.18051372 -0.18771543
-0.083455615 -0.021283358 -0.15693001 -0.053065795 0.18265446 -0.08572412 0.13936207 0.0019796973
0.08975084 0.18973982 0.022430578 0.06318639 0.08363946 -0.06491589 0.17584284 0.13067153
-0.12366288 0.118454754 0.10199404 0.21570481 -0.026633596 0.21509628 0.098666415 0.08687291
-0.12372288 0.040879034 0.13606402 -0.03541448 0.13563046 -0.13297042 -0.0027659393 0.04080491
0.027691863 -0.072723016 -0.07526577 0.2683939 -0.21686764 0.04324707 0.021267902 0.23715527
-0.09893762 -0.084130794 0.08992558 0.1822483 -0.19483474 -0.09808956 -0.16163975 0.22273347
0.2796778 -0.023038706 -0.14594063 -0.017339125 0.12355572 -0.010852147 0.013525212 0.10781467
0.27076748 0.241698 -0.20842072 0.09476725 -0.07819706 0.043116488 0.05042201 0.06048474
-0.0050867824 0.36620912 -0.1067684 -0.01767685 0.22213784 -0.11496948 0.12568162 0.04815558
0.23747392 0.07297378 0.4074387 0.07490676 0.27543044 0.02819867 0.09682514 0.17959861
-0.265901 0.24239215 -0.19632761 0.10265945 -0.09102298 0.29094592 -0.32744354 0.31275898
-0.22141477 0.19204494 0.09030078 0.30528748 0.17301928 0.109811686 -0.21946105 0.16012935
0.0010151241 0.072745755 -0.26428264 -0.018094469 -0.082203746 -0.21796224 0.097766116 0.07384539
-0.110291526 -0.20621483 0.22350626 0.11502291 -0.21397902 -0.010224947 -0.12225043 0.19612645
0.032992434 0.2038699 -0.030126905 -0.11462437 0.04227353 0.31340483 -0.24463946 0.084234

lstm.weight_hh_l1 f4 [256, 64]
00000000: 15b5 d83d 7f99 84bd 231e acbd 9cce 593d
00000010: 8ee5 08bc 92ba 4dbe 22b2 0f3e 5ad3 a3bd
00000020: c8bf 953d ad04 1abd 6c13 2e3d 1482 f1bd
00000030: bfd6 413e b9cf 01be 5dcb 01be ed15 4c3d
00000040: 26d0 8cbd d336 0c3d 8301 5cbe 85fa da3d
00000050: 4f73 783e b1d3 1fbe fd7c 823d 407e 18be
00000060: 26b9 59bc 4005 be3d 4d61 cabb 86af 56bd
00000070: ceb8 783e d8a6 fc3d 35ce a63c 0627 61bd
00000080: ef25 5c3e 4706 8fbd 122f 2dbe 9a6b 413d
00000090: e591 973e eb4e 9dbe 3fd6 1fbd 1080 f03d
000000a0: 1928 203e e33d 3dbe a16c 27be 3a01 96bd
000000b0: 3e03 f43c 00c5 38be b7f8 c33d 8f3d 8fbe
000000c0: cb2c 1f3e 7056 66bd 636c 3a3e aeb3 bbbd
000000d0: 48a5 7eba 7c1e a1bd 63fa 97bd d069 4dbe
000000e0: b632 79be 734a 0ebd 14c3 09be a9eb 103d
000000f0: ba55 fcbd e3c3 8cbe 5c6e cf3d 3627 5c3d
00000100: d5dc 78bc 1438 bb3c db4e a4bd 519e c03c
00000110: 359b 0a3d 5ea7 e8bc a016 a13e a649 1fbd
00000120: 38e7 a3bd 79d1 e0bd 1324 f8bd 93d6 22be
00000130: 0222 383e 90e8 39bb d045 ddbc c5f1 0ebe
00000140: a007 f83b dbd9 413e ef73 91bd c999 f43d
00000150: fde0 583d 81cb febd 3a34 02bb 3cf5 26be
00000160: e9cd 393e 623a 8abc 7984 8a3d eced 9ebd
00000170: 29c2 0d3e 9b22 0b3e 2437 973e 3737 b33b
00000180: 2fb6 163e 23f4 80bc bdd9 45be 771b 833d
00000190: e341 8a3e 668d babd e1c9 65be bdff 4b3d
000001a0: b4f4 823d f439 8bbd f1a1 0cbe d4b9 5d3c
000001b0: bf25 55bc b3a8 88be 5d5f 3a3e 5421 a8be
000001c0: 2cb5 9a3d 3731 84bd 4edb 3d3e 2299 0f3e
000001d0: d48b 263e d075 093d 71fe 2e3c 4242 62be
000001e0: fbd9 3bbe adb4 853d 1db5 60be 8d55 5c3e
000001f0: b74b 1ebe 0a3f 86be 525b d63d e14b 02be
00000200: 865f ea3d 9320 15bd bb8d 17be d19e 413d
00000210: 1675 c9bc 544a 91bd f901 6f3d 4db8 0abe
00000220: a3b1 08be d929 e13c 01ec 9f3d ff1d c4bd
00000230: b13b ff3d e357 1fbe 8ee0 8d3c 7378 e1bd
00000240: c5a9 09bd cc26 943d 58c3 55be b0fd 6e3e
00000250: bd44 c43d 57c1 18be 5fb9 86bd 67d9 32bd
00000260: 4d0e 0b3d 9b2e 0f3e d29f c2bb 8054 3dbd
00000270: 4006 fd3d 5ca8 8d3d 6128 d23d 671f 01bd
00000280: 2e6d 5e3e f7e5 fabc 85f9 d9bc e667 45bc
00000290: 45b7 823e 64ee 30be 141e 31be 634f 173e
000002a0: 6825 243e c577 1a3d 755b 03bd 1312 233d
000002b0: b25b 243e 8839 5abc 750d 6a3d 1a1c cfbd
000002c0: 5cc7 593d ee32 1ebe c86d 273e 1281 e03d
000002d0: 7237 503d 79f1 55bd 18c9 35be b9eb b9bd
000002e0: 781b 77bc ba26 1dbe 33af f9bc 65e9 c23d
000002f0: 3b2f 55be 2209 51be 24d2 4c3e c072 6a3c
00000300: 61b4 353d d1ed d2bd c811 e0bb 1ac4 093d
00000310: 13a4 a7bc c2f0 8dbc bceb 833d 4e07 de3d
00000320: ec40 963d f219 a4bd 2522 dfbd 3d3b af3c
00000330: ee9c cd3c 3f2c abbd f491 13be afc9 a23d
00000340: 22c7 783d 9902 183e dfe7 713d 159c 08bd
00000350: 4158 b93d f4f9 5f3d 4529 41bd 976d b4bd
00000360: d1bd a43d 826c 10bd 31cf f3bc 5311 b2bd
00000370: 37f4 993d 0b61 1e3d 80fb 913d 564a b83d
00000380: 6434 d7bd 4b5d f3bc fc2b 0cbe 0287 283e
00000390: f003 aa3d cc7a 2b3d 9b48 11be 824e 043e
000003a0: 8b5c d93d 595c 1cbc 2158 ffbd fb3d 193e
000003b0: 132e 4f3e a62b 12be 4ea5 bdbc c012 72be
000003c0: 8b4c 8dbc 578a 733d 352c 413c 50d5 83bd
000003d0: c5fd 2b3d 25f9 5ebc 7b09 d9bd 7900 b83d
000003e0: 6b6c 30bd b537 b6bd 9026 bdbc 8911 e73d
000003f0: de4f 02bc 5b08 2bbe a705 68bc a7be ae3d
0.10581414 -0.064745896 -0.084041856 0.053175554 -0.008355511 -0.20090702 0.14032796 -0.079992965
0.0731197 -0.037602115 0.04249899 -0.117923886 0.18929575 -0.12676896 -0.12675233 0.049825598
-0.06875639 0.034231972 -0.21484952 0.10692314 0.24262737 -0.15608098 0.06371496 -0.1489191
-0.013288772 0.09278345 -0.00617615 -0.052413486 0.24289247 0.123365104 0.020361999 -0.054968856
0.21498846 -0.06983619 -0.16912487 0.047221757 0.29603496 -0.30724272 -0.03902268 0.11743176
0.15640296 -0.18480639 -0.16350032 -0.07324453 0.029786702 -0.180439 0.09568923 -0.27976653
0.15544431 -0.056234777 0.18205409 -0.091651306 -0.000971396 -0.078671426 -0.07420804 -0.20059896
-0.24335751 -0.03473897 -0.13453323 0.035380993 -0.123210385 -0.274932 0.10128471 0.053748332
-0.015189369 0.022853889 -0.08022853 0.023512991 0.033839423 -0.02840012 0.31462574 -0.038888596
-0.08003086 -0.10977454 -0.121162556 -0.15902166 0.17981723 -0.0028367378 -0.027010828 -0.13959415
0.0075692683 0.18930762 -0.07102191 0.11943395 0.05294894 -0.12441159 -0.0019867555 -0.16304487
0.18144955 -0.016873542 0.067635484 -0.07760224 0.13843597 0.1358742 0.29534256 0.0054692286
0.14717935 -0.015741413 -0.19321342 0.06401723 0.27003393 -0.09109001 -0.22440292 0.049804438
0.0639433 -0.06798163 -0.1373365 0.013533074 -0.013009488 -0.26691207 0.1820044 -0.32837927
0.07554087 -0.064546995 0.1854069 0.1402326 0.16264278 0.03355962 0.010680781 -0.22095588
-0.18344872 0.06528602 -0.21944089 0.2151701 -0.1545857 -0.2621997 0.10466637 -0.12724258
0.11444001 -0.03640802 -0.1480016 0.0472706 -0.024591964 -0.07094255 0.05835149 -0.13546868
-0.13349013 0.027485775 0.07808686 -0.09576034 0.12462557 -0.1556087 0.01731899 -0.11009302
-0.03360917 0.072339624 -0.20875299 0.23338962 0.09583423 -0.14917503 -0.065783255 -0.043664362
0.033949185 0.13982622 -0.005939462 -0.046223164 0.12354708 0.069168776 0.10261608 -0.03152409
0.21721336 -0.030627234 -0.026608238 -0.012048697 0.2553045 -0.17278439 -0.1729663 0.14776377
0.16029894 0.037711877 -0.032069642 0.03981216 0.16050604 -0.013319381 0.05714174 -0.10112782
0.05316864 -0.15449116 0.16350472 0.10962118 0.050834127 -0.05223224 -0.17752492 -0.09078164
-0.015082233 -0.15346804 -0.03047905 0.09517173 -0.20818798 -0.2041364 0.20002037 0.014309585
0.044361476 -0.10299266 -0.006838057 0.033634283 -0.020463979 -0.017326716 0.06441447 0.10841237
0.073366016 -0.08012761 -0.108951844 0.021390552 0.025099244 -0.08358049 -0.14411145 0.07948624
0.060736783 0.14844741 0.05905902 -0.033351976 0.09050036 0.054681733 -0.0471585 -0.08809965
0.08044017 -0.03525973 -0.029761882 -0.086947106 0.075172834 0.038666766 0.07128048 0.089985535
-0.105080396 -0.029707571 -0.13688654 0.16457751 0.08301532 0.041865155 -0.14187853 0.12920573
0.10613354 -0.009543502 -0.12467981 0.1496505 0.2023242 -0.14274463 -0.023150112 -0.23639965
-0.017248413 0.059458103 0.011790325 -0.064371705 0.04199006 -0.013609205 -0.105975114 0.08984465
-0.043072145 -0.08897344 -0.023089677 0.112826414 -0.007953612 -0.16702406 -0.014161504 0.08532458

lstm.bias_ih_l1 f4 [256]
00000000: c5f4 2cbe fe20 16be fb6a f53b f124 fbbc
00000010: 6c20 12bd 7d19 29be 01c0 2b3d f806 33be
00000020: 1e65 54bd 0983 abbc bd2f 16be a392 80bd
00000030: d7ed 823c bb4c 5c3e 3b64 503e 78f0 e23d
00000040: e2ac 753c c5c2 d6bd 2a89 00be 5948 1ebe
00000050: 75da 35be 8f7f cbbd d7fd eebd 523a 3ebb
00000060: 43e8 e7bd de40 ef3d 52eb 26be 28e3 0dbd
00000070: 7cbd 0a3d cb41 d4bd da7f 3e3c df44 123d
00000080: 35f8 f9bc 2dd4 49be aa34 5a3e c6d8 3a3d
00000090: e2d6 d6bd 077a 68be 99b5 3b3d 6ad9 a7bb
000000a0: 2886 b83b c558 a33c aa82 2a3c 7050 a9bd
000000b0: 30c2 82be b520 c4bd 0627 3fbc 34fb b03d
000000c0: 0f35 ad3d 685f d43d e63d 513e 71cd 22bd
000000d0: 0d7d d53b ca69 243d 9176 043e 36d6 563e
000000e0: f77c ffbd 7c8d 59bd fece b83d 2fa9 2abe
000000f0: 1e56 733e 40e0 1abe cdb7 ecbb 623a 08bd
00000100: 30d4 27bd 3e85 ac3d 9b53 e1bd affa 813c
00000110: cb8c 2a3e adbf ecbd 617d 7e3d 8f02 94ba
00000120: b42d 83bc 655b 9a3e 52d4 563e 9002 753e
00000130: 2389 cfba b612 8a3c 8981 163e 8a6c a93c
00000140: 3b28 ee3d b42d 1abe 7630 d8bd 2d2a 44be
00000150: 2204 283b 4a6f 3ebe bf0d adbc caa0 983d
00000160: 0db1 bf3d 3bb9 6e3e f588 a2bd 91be 803d
00000170: 6289 b8bd 7b64 2dbd d27a 223d 3930 d03b
00000180: 827c ec3c 109b 4f3d 0738 5a3e 1c92 253d
00000190: f1d7 473c 88cf 3cbe bd88 babd ef01 143e
000001a0: 0382 043e 28a5 08bd 67d1 173d 28df 26be
000001b0: 3c89 a53d c6ca 473d ca7b f33d 7b7c 9abd
000001c0: bbde d13d 6f7d 90bd 2e98 833e dba6 db3d
000001d0: f016 833d 7535 1fbd 1b5d 2a3e 4090 683e
000001e0: 7b47 6dbe c999 ba3d 0da1 2e3c 98d9 aa3c
000001f0: a7ca 1f3e 0e22 00be 0684 b9bd 6962 9d3e
00000200: e62c 2dbe bd94 ff3d 6010 193d 2b1c 1c3e
00000210: c687 66be 08f9 013e 78c6 13bb 1e82 c43c
00000220: c9ce 683d 3f12 443e 5f9e 213e b1cd ea3d
00000230: 3b2d 96bb 5603 123e ae3f 173e e28b 083c
00000240: be60 4e3e 95b9 9abd d358 d53c 3fd0 aa3c
00000250: e1f8 3ebb 835a 9dbd ec7b 1cbe 863e b43d
00000260: 2b42 3cbe 7161 c0bd 99de 28bc 97c5 953c
00000270: 94d8 1ebe bba8 9439 64fe ab3d a372 443e
00000280: e75b 9dbb ed7e 003d 80af 0a3e 1aaf 0fbe
00000290: ee5b c5bd 932d 43bd b5af d83d 75fa 06be
000002a0: 68d2 e2bd 29ec 013e 1cb4 fcbc f431 f3bb
000002b0: 03f1 dabd 0a17 bf3c 7ccb 3cbe e152 b93d
000002c0: d94b d5bd 535f 4d3e 0794 25bd ab01 25be
000002d0: 3c8f f0bd 9dfa d9ba c969 633e 4b40 243e
000002e0: c6ea 5abd f9a6 b8bd 0c27 98bb b5c4 3bbe
000002f0: 3371 6a3e b238 eabd 063a d13b 0fe2 1a3e
00000300: 3816 10be b280 c9bd c76a 19be a9f6 433d
00000310: 8462 a1bc 9580 a9bd b901 0dbe 35eb 54bd
00000320: 8156 22bd 4dd6 d43d e8d2 b83d b060 1a3e
00000330: 0755 ab3b 2785 263d 0bf3 7bbc 409c 29bd
00000340: 062a e2bd 50f8 eabd 34fc 84bd 1bdd 14bd
00000350: 33c3 1cbe 3633 8ebe 77e7 b73d e136 bebb
00000360: 4ce4 09bd c65a 1c3e 1144 1cbd 9e91 98bd
00000370: 7b3c 2a3d d62f 013d 6256 463d 9847 84bd
00000380: 4754 c9bc 2821 febd 6f0e b4b9 a344 9cbd
00000390: 509a e23c 0089 0b3c 783d e2bc 435e 6e3d
000003a0: 6894 3c3d 7c36 bbbd 633d 723c 8dab 50be
000003b0: 2346 45be 2d2f b43d 605d 46bd 1f14 7abc
000003c0: a247 153e d6ed 89bd cb43 253e 6be3 a3bd
000003d0: 750e eabd 4b0c 913d 4497 1d3d 4307 79bd
000003e0: 85cb 93be 6092 863d 1da7 9fbc 934d 1dbe
000003f0: 7afb d03d a172 d5bd 312a 9b3c 80f9 993d
-0.16890247 -0.14661023 0.0074895597 -0.030657263 -0.03567545 -0.1651363 0.041931156 -0.17483127
-0.051854245 -0.020936506 -0.14666648 -0.06277969 0.015982552 0.21513645 0.20350735 0.11081022
0.014994832 -0.10486368 -0.12552324 -0.15457286 -0.17759116 -0.09936439 -0.1166951 -0.002902646
-0.11323597 0.11682294 -0.16300705 -0.03464046 0.033872113 -0.103641115 0.011627162 0.03571021
-0.030513862 -0.19709845 0.21309152 0.045616888 -0.104902044 -0.227028 0.045827482 -0.0051223533
0.005631227 0.01993979 0.010407129 -0.08267295 -0.25538778 -0.09576551 -0.011667019 0.08641663
0.08457386 0.1036976 0.20433769 -0.039746705 0.0065151514 0.04013995 0.12935854 0.20980152
-0.12475007 -0.053113446 0.090238556 -0.16666101 0.2376332 -0.15124607 -0.007224059 -0.033258803
-0.040973842 0.084238514 -0.110022746 0.015866606 0.16655271 -0.11559997 0.06213129 -0.0011292266
-0.016013004 0.30147853 0.20979431 0.23926759 -0.0015833717 0.016854625 0.14697851 0.020681638
0.11628767 -0.15056497 -0.10556118 -0.19156714 0.002563723 -0.18597141 -0.021124719 0.07452543
0.09359942 0.23312847 -0.07936279 0.06286348 -0.09010579 -0.042332154 0.03966791 0.006353405
0.028867964 0.05068499 0.21310435 0.040422544 0.012197481 -0.18438542 -0.09108112 0.14453863
0.1294022 -0.03336063 0.037064936 -0.16296065 0.08082816 0.048777364 0.11888845 -0.07543274
0.102475606 -0.070551746 0.2570204 0.107251845 0.06400859 -0.03886934 0.1663708 0.22711277
-0.23171799 0.091113634 0.010658515 0.02085571 0.1560465 -0.12512991 -0.090583846 0.30739143
-0.16911659 0.124795415 0.037369132 0.1524512 -0.22512731 0.12692654 -0.0022548717 0.023987826
0.05683783 0.19147585 0.1578307 0.11465014 -0.0045830286 0.14259085 0.14770386 0.008334132
0.20154092 -0.07554928 0.026043331 0.020851253 -0.0029140043 -0.07683279 -0.15281647 0.08800988
-0.18384616 -0.093935855 -0.010306978 0.018282695 -0.15512305 0.00028354474 0.083981305 0.19184355
-0.0048022154 0.031371046 0.1354351 -0.1403164 -0.09636675 -0.047650885 0.105803885 -0.1318148
-0.11075288 0.12687744 -0.030847602 -0.0074217264 -0.106905006 0.023326416 -0.18436998 0.09049011
-0.104148574 0.20055895 -0.040424373 -0.16113918 -0.1174607 -0.0016630475 0.22208323 0.16040151
-0.053446554 -0.090162225 -0.0046433266 -0.18336757 0.22894745 -0.11436595 0.0063850908 0.15125297
-0.14070976 -0.09839 -0.14982139 0.047842655 -0.019700296 -0.08276478 -0.13770188 -0.051982123
-0.039633278 0.10392437 0.09024602 0.15075946 0.005228642 0.040654328 -0.01537777 -0.041408777
-0.110431716 -0.11473143 -0.064934164 -0.036343675 -0.15308838 -0.27773446 0.08979695 -0.005804882
-0.033664986 0.15269002 -0.03815085 -0.07449649 0.041561585 0.03153976 0.048422225 -0.06458968
-0.02457632 -0.12408668 -0.0003434303 -0.07630279 0.027661473 0.00851655 -0.027617201 0.058195364
0.04603997 -0.091412514 0.014785144 -0.20377941 -0.19265036 0.087980606 -0.048428893 -0.015263586
0.14578107 -0.06734817 0.16139142 -0.08002361 -0.11428539 0.07082423 0.038474336 -0.06079794
-0.2886621 0.065708876 -0.019488866 -0.15361623 0.10204215 -0.10422254 0.018941017 0.075182915

lstm.bias_hh_l1 f4 [256]
00000000: c7b2 0fbe fc5d d53c ec37 43be e132 e9bd
00000010: 726f 233e 669b 7bbe c2e3 1abe 4ec4 9cbd
00000020: 53fd d63d abc9 9b3d 0d5d 97bc c197 f93d
00000030: b6a5 aabd 3f4e c93d 81a3 503e 6212 773d
00000040: 4569 113d 7326 3bbe 92e4 d9bd 6b6a 21bd
00000050: b1b9 00be fb16 5dbe dc21 fcbd a449 823d
00000060: 33e3 abbd 4cec e03d f5d2 8fbd c440 42be
00000070: dc31 13be 311a 08be 90f1 a9bd b820 2cbd
00000080: 2a32 ffbd 4019 f6bd 44b3 4d3e 0738 30bd
00000090: 45a5 27bd d38e 51be 291e 2fbe 54e4 2fbc
000000a0: 9ea9 0c3e 322c b23d d5ca cd3d a7b4 63be
000000b0: b722 4fbe 1a80 e3bb 5485 bebc a39d 4f3d
000000c0: 162e 7d3d 3866 403c c752 e23d 2be9 06be
000000d0: 9372 3c3d 9996 0fbe 4b02 d23c afd7 783d
000000e0: fb33 c9bd 3561 a5bb 87a3 8b3d 6348 85bd
000000f0: 764d ef3d d4d0 dbbd 084e fabd 1d3a b33a
00000100: 5874 0f3c 1543 a83d 4fc9 ccbd 3816 d6bc
00000110: 886a 293e 81d2 cb3b b345 573d aa5d 8aba
00000120: d774 913a c713 183e 25ef bb3d 4848 7c3e
00000130: d705 783d 51d4 5d3c 93c4 d73d 9016 d93b
00000140: 3ffc dc3b b387 223d 02ce 21be a927 20bd
00000150: e27d 913c 5ae9 62be 469d 313e e7cb 733e
00000160: 5d09 b23d 57e1 6e3d 6690 47bd 38e5 c4bb
00000170: 2c16 4ebd 336f 9ebd 3127 6c3d d6ef ef3d
00000180: a366 97bd 6ec8 0c3e 59a6 9d3e 4b70 abbb
00000190: 8846 16bd 48a2 0dbe e6e0 c539 f444 c03d
000001a0: 8c2a 243e 7b56 d43d b44f bb3d 637c 0fbe
000001b0: b684 02bd 78b3 393d e367 5cbd cdfd 90bd
000001c0: 82b9 553e 94c0 75bc 070f 993e 1513 6ebc
000001d0: bdb0 cc3d 3fa5 e6bc c143 093e d037 0a3e
000001e0: d304 26bd 9142 163e 2b73 f8bd d9ab 1e3d
000001f0: 13ff 143e 71d1 aabd 4021 d2bd 2248 6c3e
00000200: b08a eeba 151b 433e 3108 253e 0520 373e
00000210: 1294 05be 0e83 493d d215 d9bd 1f9d 023e
00000220: 2c8d 2d3e afe4 1c3e 77f5 d23d 6a5c 103e
00000230: bedf 15be f1ab 8e3e 024c 3f3e 0bab 013e
00000240: fc64 333e 7727 07be a45f b2bc daf3 42bc
00000250: 7140 76bd edbd 4fbd 95f3 51bd d315 4e3e
00000260: e2ea d8bd 04f1 e6bd ecfe 34bd 997d b73d
00000270: 5b5d 1a3d a638 723d 4a6e acbd c096 143e
00000280: b347 4fbd 086f b7bd bc04 3f3e 5b82 0bbe
00000290: 81e5 8dbd db71 863d fa0a 453d 941f acbc
000002a0: 85b5 49be d592 343e 546e 3e3e 9c32 b5bc
000002b0: 9822 21bc abfc 92bd 128d 933b 6cf4 723e
000002c0: 022e 2abe 415a 173e a94c 75be 8d48 82bd
000002d0: 1d6f 6cbe a536 31be 8897 093d 1a5e f13d
000002e0: 6da9 fa3d 2c38 bcbc 5afb 233e 700d 113d
000002f0: 706e 3d3e 5ba1 69bd 53bf b63d 2221 483d
00000300: e46f 643c c8d6 503d c231 4cbe c45d 3b3c
00000310: 4a92 2c3c a848 eabd 1a82 0ebe 923b 2e3d
00000320: 3c55 383c 78d7 f23d 483f 9cbd f839 723d
00000330: 90fc 6fbc 495d 0d3e 4a3f 43bd 82d9 983d
00000340: 7f39 01be dd7d babd 6ae2 3bbd b711 ae3d
00000350: 0673 3abe 9954 bebd 4d6f 213d a2df 64bd
00000360: c97d 9c3d 0bbb 373d a7c1 4bbe e4c0 04bd
00000370: 11af a13c 9658 c7bd 36e5 ea3b c6f3 dc3d
00000380: 760a 3ebe 1e53 ebbc ee08 2f3e 1f59 cdbc
00000390: 3e68 ad3d 6a42 f7bd 93ec 153d 6ba6 08be
000003a0: e371 efbd 4eb7 aa3c 6f3f df3d d247 efbd
000003b0: 9018 d6bc 97a1 bc3d e16f 9d3d 5dae 44bd
000003c0: 90fd 133d 482f 58bd 57a2 293d f435 d1bd
000003d0: 65bd c33b 298f 1dbe 7f7f b6bd 765b 023d
000003e0: 3754 40be b6e9 9ebd f8b5 04be 25f6 9dbd
000003f0: 178e 933d ca1e fbbc 671c 9abd 81aa 6e3d
-0.14033042 0.026045792 -0.19064301 -0.113866575 0.15960482 -0.24570999 -0.15125945 -0.0765463
0.104975365 0.076068245 -0.018476987 0.12187148 -0.08332388 0.098293774 0.20374872 0.060320266
0.035500783 -0.18276386 -0.106392995 -0.03940813 -0.12570836 -0.21590798 -0.12311146 0.06361702
-0.08392944 0.1098257 -0.07022659 -0.18970019 -0.14374489 -0.13291241 -0.082980275 -0.04202339
-0.1246074 -0.12016535 0.20087916 -0.04302218 -0.040929098 -0.2046464 -0.17101349 -0.01073559
0.13736579 0.08699836 0.10048453 -0.22236882 -0.20228086 -0.006942761 -0.023256935 0.050687443
0.06181153 0.011743121 0.11050945 -0.13174884 0.046007704 -0.14022292 0.025635859 0.060752567
-0.098243676 -0.0050469884 0.068183 -0.06507947 0.116846964 -0.1073319 -0.122219145 0.0013673935
0.008755766 0.0821592 -0.09999334 -0.026133642 0.16544545 0.0062201624 0.052556705 -0.0010556479
0.0011097443 0.14851294 0.091764726 0.24636948 0.060552444 0.01353939 0.105355404 0.006625004
0.0067439373 0.039680194 -0.15801242 -0.039100323 0.01776022 -0.22159329 0.17345151 0.23808251
0.08693192 0.05832037 -0.048721693 -0.0060087703 -0.050314113 -0.07736053 0.057654563 0.11715667
-0.07392623 0.13748333 0.30790976 -0.005231892 -0.036688358 -0.13831437 0.0003774233 0.09388152
0.16031855 0.10368057 0.091460615 -0.14012294 -0.031864844 0.04533717 -0.05381001 -0.07079659
0.20871547 -0.0149995275 0.29894277 -0.014530917 0.09994648 -0.028154967 0.13404752 0.13497853
-0.040531944 0.1467383 -0.121313415 0.038738105 0.14550428 -0.08340729 -0.10260248 0.23074391
-0.0018199291 0.190533 0.16116406 0.17883308 -0.13044766 0.04919725 -0.10599865 0.1275525
0.16948384 0.15321611 0.10300725 0.14097753 -0.14636132 0.27865556 0.18681338 0.12662904
0.17518991 -0.13198648 -0.02177412 -0.011898959 -0.06012005 -0.050718237 -0.05125769 0.20125513
-0.10591675 -0.11276439 -0.044188425 0.08959503 0.037686687 0.059136055 -0.084194735 0.14510632
-0.050605487 -0.089567244 0.1865415 -0.13623945 -0.0692854 0.06564685 0.04810617 -0.021011151
-0.1969815 0.17634137 0.18596774 -0.022118859 -0.009834908 -0.07177099 0.004502901 0.23726052
-0.16619113 0.14780523 -0.23955025 -0.06361494 -0.23089261 -0.17306001 0.033591777 0.117855266
0.12239347 -0.022976004 0.16013852 0.035413206 0.1849916 -0.057038646 0.08923211 0.048859723
0.013942692 0.05098608 -0.19940856 0.01143593 0.010532925 -0.11439639 -0.13916817 0.04253728
0.01125079 0.11857504 -0.076292574 0.059137315 -0.014647618 0.13805117 -0.04766778 0.07463361
-0.1261959 -0.09106038 -0.045870222 0.084994726 -0.1820794 -0.092934795 0.039412785 -0.055877335
0.07641179 0.044856112 -0.19898091 -0.032410517 0.019736798 -0.09733693 0.0071684374 0.107886836
-0.18558678 -0.028726157 0.1709325 -0.02506691 0.08467148 -0.12073214 0.036602568 -0.13344733
-0.11691644 0.02083936 0.10900771 -0.116836205 -0.02613476 0.09210508 0.07687355 -0.04801785
0.036130488 -0.052779466 0.041414585 -0.10215369 0.0059735053 -0.15386643 -0.08911037 0.031825505
-0.18782125 -0.077594206 -0.1296004 -0.07712964 0.07204836 -0.03065433 -0.075249486 0.058268074
